saved_models_MLP/exp-onehot-bcc/mlp_ms_bcc_ratio0.8_seed1_epoch300.pt (torch, 87063 bytes, 5 tensors)

module_list.0.weight f4 [128, 100]
0	0x3baa13a0	0.0051903278
1	0x3d86f2b9	0.065892644
2	0x3da2d473	0.07950678
3	0xbd3eb1a0	-0.046556115
4	0xbc729570	-0.0148061365
5	0x3b8b3650	0.004248418
6	0x3da1a5d5	0.07892958
7	0xbd1e4bd7	-0.038646545
8	0x3bfc3720	0.007697001
9	0xbcd3e9a8	-0.025868252
10	0xbda2e445	-0.07953695
11	0x3d6bde16	0.057584845
12	0x3d82e789	0.06391818
13	0x39dc3800	0.00042003393
14	0x3d736bb2	0.059428878
15	0xbd99eed5	-0.07516257
16	0xbc5ffc58	-0.013671003
17	0xbceaff60	-0.028686225
18	0x3db421cf	0.08795511
19	0x3d8b85ef	0.06812655
20	0x3d163a72	0.03667683
21	0xbdb512ad	-0.08841453
22	0xbdb8cac0	-0.090230465
23	0xbec25444	-0.37954915
24	0x3e6922fe	0.22767255
25	0xbd94ed5c	-0.07271835
26	0xbda754a8	-0.08170444
27	0x3d9f4cbb	0.07778307
28	0x3c9fb8cc	0.019497298
29	0xbd70e85a	-0.058815338
30	0xbdb54fba	-0.08853097
31	0xbc233450	-0.009961203
32	0xbda370ee	-0.07980524
33	0x3d2375a2	0.039907105
34	0xbd1a41c7	-0.037660386
35	0xbdbf8ee8	-0.09353429
36	0xbd94ecab	-0.07271703
37	0xbd565267	-0.05232468
38	0xbc965934	-0.018353082
39	0xbc81bc74	-0.015836932
40	0x3b375740	0.002797559
41	0x3d310112	0.04321391
42	0xbdcc2300	-0.09967613
43	0xbd917cc8	-0.07103878
44	0x3d3d6f46	0.046248697
45	0x3d1b0646	0.03784778
46	0x3c0da640	0.008645594
47	0xbd9e007b	-0.077149354
48	0xbd32ba87	-0.043634918
49	0x3cebe9e4	0.028798051
50	0x3cd083fc	0.02545356
51	0xbda58dc3	-0.080836795
52	0x3d89898f	0.0671569
53	0xbdc86bfa	-0.0978622
54	0xbdbae3e0	-0.09125495
55	0x3dab1b0d	0.08354769
56	0x3d45c562	0.048283942
57	0xbcdf5b58	-0.027265236
58	0xbd16a5f4	-0.03677936
59	0x3ba11180	0.0049154162
60	0x3c3a14d0	0.011357501
61	0xbd755b8d	-0.059901763
62	0xbd92347b	-0.07138916
63	0x3cd21e5c	0.025649242
64	0xbd9a7162	-0.07541157
65	0x3c994d8c	0.018713735
66	0xbd699f1d	-0.057036508
67	0xbda68a30	-0.08131826
68	0xbdc92543	-0.0982156
69	0x3d90a469	0.07062609
70	0x3c48ceb0	0.012256309
71	0xbd939a26	-0.07207136
72	0x3d3821b6	0.044954024
73	0xbccf8020	-0.02532965
74	0x3db559a7	0.088549905
75	0xbd8d97c8	-0.069137156
76	0x3d92ef3b	0.07174536
77	0x3d69d40e	0.057086997
78	0x3d938d49	0.072046824
79	0xbd51a6f0	-0.051184595
80	0x3d5253f6	0.051349603
81	0xbd0cc806	-0.034370445
82	0xbda5a843	-0.08088734
83	0xbd070c70	-0.032970846
84	0xbd4726ca	-0.048620977
85	0x3b85eb30	0.0040868744
86	0x3cdfbf3c	0.027312867
87	0x3c605f00	0.013694525
88	0x3d9ce4c9	0.07660825
89	0x3db98fd9	0.0906064
90	0xbd662a5d	-0.056192745
91	0xbc405350	-0.011738613
92	0x3dc80865	0.09767226
93	0xbc7e3490	-0.015515462
94	0xbd8fff7b	-0.07031151
95	0x3d0ffbc2	0.035152204
96	0x3dbb931b	0.091589175
97	0x3dcb9293	0.09940066
98	0xbdb1940b	-0.08670815
99	0x3c9a1268	0.018807605
100	0x3c9a166c	0.01880952
101	0xbdcc0ed8	-0.09963769
102	0xbd2ed013	-0.042678904
103	0x3d599572	0.053121038
104	0x3d5f8d92	0.05457837
105	0x3d3508a2	0.044197686
106	0x3db36025	0.087585725
107	0x3d83ac0f	0.06429302
108	0x3d0e2a6e	0.034708433
109	0xbd401a2a	-0.046899952
110	0xbdc04c67	-0.093895726
111	0xbdb49267	-0.088169865
112	0xbd51dea7	-0.05123773
113	0xbcf0420c	-0.029328369
114	0x3daee993	0.085406445
115	0x3d5583c2	0.052127607
116	0x3db24321	0.0870421
117	0xbd4f9d93	-0.050687384
118	0xbd7dbe03	-0.061948787
119	0xbda9ed5a	-0.08297224
120	0xbc9f9960	-0.019482315
121	0xbcfda034	-0.03096018
122	0x3d92b305	0.071630515
123	0x3e0753ff	0.13215636
124	0x3e7cc916	0.24686083
125	0xbd29c5b0	-0.041448295
126	0xbd91fe19	-0.071285434
127	0xbe5ae2a3	-0.21375518
128	0x3d95ceb5	0.07314817
129	0x3db361f7	0.0875892
130	0x3c1400e8	0.009033419
131	0x3d42f02e	0.047592334
132	0x3c8ca9f4	0.017170884
133	0x3d56af72	0.05241341
134	0x3d24f1aa	0.04026953
135	0x3d1284ae	0.035771064
136	0xbd59ffaa	-0.053222336
137	0xbce23e00	-0.027617455
138	0xbdc641cf	-0.09680521
139	0xbd9ba168	-0.07599145
140	0xbda6d0f8	-0.081453264
141	0x3cd39024	0.025825568
142	0x3cb714c0	0.022348762
143	0x3d89f891	0.067368634
144	0x3d894723	0.067030214
145	0x3e384790	0.17996049
146	0x3d689872	0.05678601
147	0x3d8ec3f1	0.069709666
148	0xbd54bcaa	-0.051937737
149	0x3bd07f00	0.006362796
150	0x3d93613b	0.071962796
151	0xbdb839dd	-0.089954115
152	0x3d95345b	0.07285377
153	0xbdcb05df	-0.09913229
154	0xbda12688	-0.078686774
155	0x3c7886e8	0.015168883
156	0x3c638258	0.013886057
157	0xbba5d060	-0.0050602406
158	0xbd89ba76	-0.06725018
159	0xbda41f0b	-0.080137335
160	0xbdba5cb3	-0.09099712
161	0x3d9ec311	0.0775205
162	0x3cb4eeb8	0.022086486
163	0x3d93c9a9	0.07216198
164	0x3db77bbf	0.089591496
165	0xbc130400	-0.008973122
166	0x3d0472ce	0.03233605
167	0x3d6a55de	0.057210796
168	0xbc51e418	-0.012810729
169	0x3d64342e	0.055713825
170	0xbdbf89da	-0.09352465
171	0x3da38d71	0.07985962
172	0xbdb6508f	-0.08902084
173	0xbdc7b20b	-0.09750756
174	0xbd91485e	-0.07093881
175	0xbd5718fa	-0.052514054
176	0xbd46999a	-0.04848633
177	0x3cf89004	0.03034211
178	0x3d8ed06f	0.06973349
179	0xbda7794b	-0.08177432
180	0x3d9f85bf	0.07789182
181	0xbd970d3e	-0.073755726
182	0xbd2bbc5a	-0.041927673
183	0xbd5f03a0	-0.054446816
184	0xbd554e50	-0.052076638
185	0x3dc54c95	0.096337475
186	0xbcaedb38	-0.021344766
187	0x3c9f4f08	0.019446865
188	0xbc2e3a70	-0.01063405
189	0x3c65ded8	0.014030181
190	0x3d4b94f6	0.049702607
191	0xbc99588c	-0.01871898
192	0xbbe789e0	-0.0070659965
193	0x3d7c23ce	0.061557584
194	0xbd094f5c	-0.03352295
195	0x3cee9aec	0.029126607
196	0xbcf2c7e8	-0.029636338
197	0xbc55aa80	-0.013041139
198	0xbca01fb4	-0.019546367
199	0x3caff9e8	0.02148147
200	0x3cbe2c60	0.023214519
201	0xbd82dde6	-0.0638998
202	0xbd95aa35	-0.07307855
203	0xbd919cde	-0.07109998
204	0x3da8e0e7	0.08246022
205	0x3d08fc72	0.033443876
206	0xbd5372e7	-0.05162325
207	0xbdc0030f	-0.093755834
208	0x3d93f291	0.07224
209	0x3dad022b	0.08447679
210	0x3dc43d79	0.095820375
211	0xbdbeb8c0	-0.09312582
212	0x3dc85269	0.097813435
213	0x3cb080ec	0.02154585
214	0x3d90ee8f	0.070767514
215	0xbd23e00a	-0.040008582
216	0x3c3649d8	0.011126004
217	0x3dba6f37	0.09103244
218	0xbd6dbc57	-0.058040943
219	0xbd72e2ca	-0.059298314
220	0xbda1a656	-0.07893054
221	0x3d9f5359	0.07779569
222	0x3b317260	0.002707623
223	0x3d674044	0.056457773
224	0x3e2b8d05	0.16753013
225	0x3d9f8cae	0.077905044
226	0xbe40332f	-0.18769525
227	0x3e44b6c8	0.1921035
228	0xbda8e092	-0.082459584
229	0x3d9bb181	0.076022156
230	0x3d81cbb7	0.06337684
231	0xbc9115d4	-0.017710604
232	0xbd58faf7	-0.052973714
233	0x3d20e1ca	0.03927783
234	0x3dccc6e9	0.099988766
235	0x3da51761	0.080611
236	0x3ce280bc	0.027649276
237	0x3d2605ca	0.040532865
238	0x3d606792	0.054786272
239	0xbc932be0	-0.017965257
240	0x3d1a6766	0.037696265
241	0xbdaf0525	-0.08545903
242	0x3d26fc96	0.04076823
243	0xbcf37928	-0.029720858
244	0xbd70e1dd	-0.05880915
245	0xbe56fdae	-0.20995209
246	0x3d7a4822	0.061103947
247	0x3b2f92a0	0.0026790276
248	0xbd3e568d	-0.04646926
249	0x3d0bd272	0.034136243
250	0xbd959965	-0.07304648
251	0xbdb1d8f8	-0.08683962
252	0x3c5b0be8	0.013369538
253	0xbc2b5ff0	-0.010459885
254	0xbd9f6c05	-0.07784275
255	0xbd63eaf7	-0.055644

module_list.0.bias f4 [128]
0	0xbe02f1ca	-0.12787548
1	0xbda93781	-0.0826254
2	0xbe08a537	-0.13344274
3	0x3d76a1a6	0.060212754
4	0xbcca5146	-0.024696957
5	0x3e1ad435	0.15120013
6	0x3bda5dba	0.006664005
7	0xbddc4a95	-0.10756413
8	0x3e1b3f93	0.1516097
9	0xbd2e1e17	-0.042509165
10	0xbd09faa1	-0.033686284
11	0xbca5cc7e	-0.020239111
12	0x3dc0185a	0.09379645
13	0x3c04be2b	0.00810198
14	0xbd71e9ae	-0.059060745
15	0x3d82e2a1	0.06390882
16	0xbd06c8eb	-0.032906454
17	0x3d70b1da	0.058763362
18	0x3d23a93a	0.03995631
19	0xbda0fd28	-0.07860786
20	0xbdf252d2	-0.11832203
21	0xbdd1eeb8	-0.1025061
22	0xbcb42844	-0.021991856
23	0x3db1c434	0.08680001
24	0x3e124537	0.14284216
25	0xbd49c941	-0.049264196
26	0xbda4204a	-0.08013971
27	0x3da05180	0.07828045
28	0xbc8ab128	-0.016930178
29	0xbd743ee9	-0.05963031
30	0x3d407127	0.04698291
31	0x3db32b56	0.087485
32	0xbd8b94d9	-0.068155
33	0x3e091ffe	0.1339111
34	0xbd9c65cd	-0.076366045
35	0xbc1dd9af	-0.009634419
36	0xbdca81a8	-0.09888011
37	0xbd1909fe	-0.037363045
38	0xbe0240d8	-0.12720048
39	0x3cc98935	0.024601558
40	0x3d4c7aad	0.04992168
41	0xbcc61044	-0.024177678
42	0x3ccd0c18	0.02503018
43	0xbdd6c27f	-0.10486316
44	0xbe234db5	-0.15947612
45	0xbd89fe94	-0.0673801
46	0xbd168cee	-0.036755495
47	0x3d2af33c	0.041735873
48	0x3da38805	0.07984928
49	0xbe243c65	-0.16038664
50	0xbd88bd2e	-0.06676708
51	0xbd600c70	-0.05469936
52	0xbe1bd19d	-0.1521668
53	0xbd29b955	-0.041436512
54	0x3d81d31e	0.063390955
55	0x3c91193e	0.017712232
56	0x3d558071	0.052124444
57	0xbdb65509	-0.08902938
58	0x3d381fc6	0.044952177
59	0xbcc0b6fb	-0.023524752
60	0xbca5c319	-0.020234631
61	0xbcce3b9f	-0.025174914
62	0xbdc9605b	-0.098328315
63	0xbd78e46a	-0.060764708
64	0x3c934ffe	0.01798248
65	0x3e23b02c	0.15985173
66	0x3d90a6c2	0.070630565
67	0x3d68d79e	0.056846254
68	0x3ced1925	0.028942654
69	0xbe385157	-0.17999779
70	0xbe0f00cb	-0.13965146
71	0x3e09bad1	0.13450171
72	0x3ba708b0	0.005097471
73	0x3df2fede	0.11865018
74	0xbdd3f9b0	-0.103503585
75	0xbd5c5365	-0.05379047
76	0xbcb8d25c	-0.022561245
77	0x3dffe12d	0.12494121
78	0x3d4b1bc8	0.04958704
79	0x3dbd77a0	0.09251332
80	0xbe040c7d	-0.12895389
81	0x3d1f8ed8	0.038954586
82	0xbe002373	-0.12513523
83	0xbd868ffc	-0.065704316
84	0x3e08eac6	0.13370809
85	0xbdc291d2	-0.09500469
86	0x3da32716	0.079664394
87	0x3d37f8bd	0.04491495
88	0x3d4e6b3b	0.05039523
89	0xbd9f9a15	-0.07793061
90	0x3e1a5e6c	0.15075082
91	0x3dca777b	0.0988607
92	0x3deacc7f	0.11464786
93	0x3bc62ec0	0.0060480535
94	0xbca065ab	-0.019579729
95	0xbd77a8f2	-0.060463853
96	0xbd5d31c6	-0.054002546
97	0xbd9dd980	-0.077075005
98	0x3da51393	0.08060374
99	0xbda80d69	-0.08205683
100	0x3dde408f	0.10852157
101	0x3da44d0d	0.08022509
102	0x3e06f267	0.13178407
103	0xbd42cf54	-0.047561005
104	0x3dfab24b	0.12241038
105	0xbdfb63b5	-0.12274877
106	0xbda04da6	-0.0782731
107	0x3e6480a9	0.22314705
108	0xbdb4942d	-0.08817325
109	0x3ca160b0	0.019699425
110	0xbb74fbfe	-0.0037381644
111	0xbba97ab3	-0.0051720976
112	0xbd96cf17	-0.07363718
113	0x3da820e6	0.082094
114	0x3d92da50	0.07170546
115	0x3dd4bba6	0.103873536
116	0xbdba8a4e	-0.09108411
117	0x3d90f4e9	0.07077963
118	0xbcb0a57d	-0.021563286
119	0xbd58a55e	-0.05289208
120	0x3cb322aa	0.021867115
121	0xbc5cdb82	-0.013480069
122	0xbd781bc2	-0.060573347
123	0xbd8eca98	-0.069722354
124	0x3d8301f1	0.06396855
125	0xbdbc194a	-0.09184511
126	0x3d735492	0.059406824
127	0x3de9733a	0.11398931

module_list.1.0.weight f4 [64, 128]
0	0xbcf1821f	-0.029480992
1	0x3e482327	0.1954466
2	0x3cf503d6	0.029909056
3	0x3cb224d3	0.021746075
4	0x3dea0db6	0.114283964
5	0xbd1f7926	-0.038933896
6	0xbd9739d7	-0.07384079
7	0xbd2836ac	-0.041067764
8	0x3d05f9a2	0.03270877
9	0x3e48a646	0.19594678
10	0x3b416fee	0.0029516178
11	0x3e032933	0.12808685
12	0x3df16859	0.11787481
13	0xbe163237	-0.14667593
14	0xbc90e6d7	-0.017688198
15	0x3e1abda8	0.1511141
16	0x3dd06c44	0.101769
17	0xbd250394	-0.040286615
18	0xbe5e57a2	-0.21713117
19	0xbe35fe7b	-0.17772858
20	0xbda19390	-0.078894734
21	0xbcc9c273	-0.024628853
22	0xbd825713	-0.06364264
23	0x3c82ee61	0.015982809
24	0xbdba341f	-0.090919726
25	0xbcd538b1	-0.02602801
26	0xbe84a813	-0.2590948
27	0x3e093d13	0.13402204
28	0x3e6f4fd8	0.23370302
29	0x3d3e2a4e	0.046427064
30	0xbe4c552c	-0.19954365
31	0x3d11eae8	0.035624415
32	0x3ddc96e5	0.10770968
33	0xbd71a9c6	-0.0589998
34	0xbd073fe3	-0.03301991
35	0x3dc7a0a6	0.09747438
36	0x3d85f008	0.06539923
37	0x3df9b149	0.121920176
38	0xbd5c714d	-0.05381899
39	0xbdd87bc4	-0.105704814
40	0xbe6ff987	-0.23435031
41	0xbe7e61ae	-0.2484195
42	0xbe1becc1	-0.15227033
43	0x3d326704	0.043555275
44	0x3d5584c4	0.05212857
45	0x3e083410	0.1330111
46	0x3e402b6f	0.18766569
47	0xbca19225	-0.019723007
48	0xbe7fbb5e	-0.24973819
49	0x3d8e6bf6	0.06954186
50	0x3dd33b7c	0.1031408
51	0xbdeb55d6	-0.11490981
52	0x3bba5487	0.005686346
53	0xbe26ab8c	-0.16276377
54	0xbdb1c000	-0.08679199
55	0x3e33390e	0.17502233
56	0x3deb9cdf	0.1150453
57	0x3c14fec3	0.009093943
58	0x3d945636	0.07243006
59	0xbdb2d9f1	-0.08732975
60	0xbdc8bb17	-0.098013096
61	0xbe6f932d	-0.23395987
62	0x3de82148	0.11334473
63	0x3cdc1d0a	0.026869316
64	0xbdb50fdc	-0.088409156
65	0x3cfa0250	0.03051868
66	0x3d001ebc	0.03127931
67	0x3cb5ba31	0.02218351
68	0xbc2324d8	-0.009957515
69	0xbdbf23cc	-0.093329996
70	0xbd9e15df	-0.07719015
71	0xbc48a96a	-0.012247423
72	0xbdb2cbb9	-0.08730263
73	0xbc908f85	-0.01764656
74	0x3eadfa65	0.33980098
75	0x3dbc4d22	0.091943994
76	0x3da3c28e	0.07996093
77	0xbc79be92	-0.015243189
78	0xbe8afdb2	-0.2714668
79	0xbdc98ab6	-0.0984091
80	0x3c38c47e	0.011277316
81	0x3d0bee49	0.034162793
82	0xbd948a63	-0.07252958
83	0x3c3b29fc	0.011423584
84	0xbe0eb423	-0.13935904
85	0x3e547cc2	0.20750716
86	0x3d8eb4b7	0.06968062
87	0xbe329799	-0.17440642
88	0x3e24ff21	0.16112949
89	0x3be300a5	0.006927567
90	0x3d9c4b1c	0.076315135
91	0xbd4a83a1	-0.049441937
92	0xbe2be00f	-0.1678469
93	0x3c3d06e1	0.011537285
94	0xbdcac082	-0.09899999
95	0xbd8fcca2	-0.070214525
96	0x3e500307	0.20313655
97	0x3e97a645	0.2961904
98	0xbe426e19	-0.18987311
99	0xbdb8497a	-0.089983895
100	0x3c53b65f	0.012921899
101	0xbd182bab	-0.03715102
102	0xbdeae433	-0.11469307
103	0xbdf2daa2	-0.11858107
104	0xbe6bbb86	-0.23020753
105	0xbb0f5a7c	-0.0021874001
106	0xbda49c51	-0.080376275
107	0x3d6fd18e	0.058549456
108	0x3e508d74	0.2036646
109	0xbcd7237e	-0.026262041
110	0xbd933b9a	-0.071891025
111	0x3e0d5e70	0.13805556
112	0x3e8498bd	0.2589778
113	0x3c222858	0.009897314
114	0xbe0bc764	-0.1365028
115	0x3be9eba5	0.0071386867
116	0xbdd19823	-0.10234096
117	0xbd002822	-0.031288274
118	0xbd5f5c2c	-0.05453126
119	0xbe1e135c	-0.15437073
120	0xbe8b19ab	-0.2716802
121	0x3c9bdb8e	0.01902559
122	0x3e32e0b5	0.17468531
123	0x3dc7d608	0.0975762
124	0xbd974e39	-0.07387967
125	0xbe802fc8	-0.25036454
126	0xbd0ac11c	-0.03387557
127	0xbd20f8ff	-0.03929996
128	0xbc0bb013	-0.008525866
129	0xbd33d8d8	-0.04390797
130	0xbca432b3	-0.020043707
131	0xbba5ed07	-0.0050636563
132	0x3da3dae1	0.08000732
133	0xbd60d332	-0.05488891
134	0xbd54f876	-0.051994763
135	0x3d80b44c	0.06284389
136	0x3d6c277f	0.057654854
137	0xbcb5326a	-0.022118766
138	0x3d0bca41	0.03412843
139	0xbd054c09	-0.032543216
140	0xbd82b1e5	-0.06381587
141	0x3caf7412	0.021417651
142	0xbd960f30	-0.073271155
143	0xbcb5bc19	-0.022184419
144	0x3cfdc70a	0.030978698
145	0xbd92a873	-0.071610354
146	0x3d10de46	0.035368226
147	0xbd651f43	-0.055938017
148	0x3d9ba8f6	0.07600586
149	0xbd5dff6d	-0.05419867
150	0x3d89defb	0.06731983
151	0xbd47c6f2	-0.048773713
152	0xbd667c0f	-0.056270655
153	0xbd188413	-0.03723533
154	0x3d48d350	0.04902965
155	0x3cbfaee1	0.023398818
156	0xbcef7c95	-0.02923421
157	0xbd80683d	-0.06269882
158	0x3da5d12f	0.08096539
159	0xbd1a668e	-0.03769546
160	0x3ba94994	0.005166242
161	0x3c3ed1e4	0.0116467215
162	0x3da10edf	0.078641646
163	0xbc4f4a2c	-0.012651961
164	0x3cb76bfd	0.02239036
165	0xbd9be624	-0.07612255
166	0x3d31eb5d	0.04343735
167	0xbd3c191b	-0.04592238
168	0xbd050a47	-0.032480504
169	0xbd504f94	-0.05085714
170	0xbd81a5a2	-0.0633042
171	0x3c8bd1ab	0.01706775
172	0xbd849147	-0.06473022
173	0x3c03b14f	0.008037879
174	0xbd8cac5a	-0.06868811
175	0xbc6c803f	-0.014434873
176	0xbce14361	-0.02749795
177	0xbcfd8fea	-0.030952413
178	0xbc19f743	-0.009397331
179	0xbd735e54	-0.05941613
180	0x3d377c28	0.04479614
181	0xbcb5a3ce	-0.022172835
182	0x3d6c0f3d	0.05763172
183	0xbc7530bd	-0.014965233
184	0xbd793bf9	-0.06084821
185	0x3cdcc4a8	0.026949242
186	0xbd7a8822	-0.061164983
187	0x3d4d2244	0.050081506
188	0x3d71ad1e	0.059002988
189	0xbd81eab5	-0.06343595
190	0x3d958d34	0.07302323
191	0xbd8b1bfb	-0.06792446
192	0xbd81752d	-0.06321178
193	0xbd30cd51	-0.043164555
194	0xbccfc18a	-0.025360841
195	0xbbdafd7a	-0.006683049
196	0x3da9dbb3	0.082938574
197	0xbd9c854f	-0.07642614
198	0x3c4ff840	0.012693465
199	0xbd920578	-0.07129949
200	0xbd101ebf	-0.03518557
201	0x3dabc8a9	0.08387882
202	0x3d30bd19	0.043149088
203	0x3cbd893a	0.023136724
204	0x3cf9f390	0.030511647
205	0xbd856f79	-0.06515402
206	0x3b59ed81	0.0033253136
207	0x3d91af3e	0.07113503
208	0x3d1932e7	0.03740206
209	0xbd0287e8	-0.03186789
210	0x3d601662	0.054708846
211	0xbc753cdc	-0.014968123
212	0x3d4a6ab1	0.049418155
213	0x3d291287	0.041277435
214	0x3c8eb34f	0.017419485
215	0xbd97a748	-0.07404953
216	0x3db6b133	0.08920517
217	0xbd19f3a1	-0.03758586
218	0x3ca015ca	0.01954164
219	0xbd87eac0	-0.06636572
220	0xbb49f445	-0.0030815762
221	0x3ca4be13	0.020110166
222	0x3ca2b376	0.019860964
223	0xbc98269b	-0.018573096
224	0x3ca3b5de	0.019984182
225	0x3d308216	0.04309281
226	0x3d1994cc	0.03749542
227	0x3d7f4a24	0.062326565
228	0xbc01165d	-0.007878867
229	0x3d51ffa4	0.05126919
230	0xbcc46331	-0.02397308
231	0x3c2fa1d5	0.010719736
232	0xbd693ca1	-0.056942586
233	0xbda6fe83	-0.08154013
234	0x3d62698c	0.05527644
235	0xbd6214a8	-0.05519548
236	0xbdab7218	-0.08371371
237	0x3aab0c74	0.0013049976
238	0x3d555e59	0.05209193
239	0xbc998063	-0.018737977
240	0x3d1a8c5a	0.037731506
241	0xbce51d25	-0.027967999
242	0x3c716d05	0.014735465
243	0x3da61577	0.08109563
244	0xbd12a1d7	-0.035798874
245	0x3d76476a	0.0601267
246	0x3cee0399	0.02905445
247	0xbc03467d	-0.008012411
248	0x3c8f1529	0.017466145
249	0x3c86db41	0.01646197
250	0xbd4374e9	-0.047718916
251	0x3d26e837	0.0407488
252	0xbd0e5214	-0.034746245
253	0xbc9db231	-0.019250007
254	0x3c99b2d3	0.018762028
255	0xbb14ce06	-0.0022705807

module_list.1.0.bias f4 [64]
0	0x3ac3b478	0.0014931103
1	0xbd91b4e2	-0.07114579
2	0x3cc6a7f9	0.024250017
3	0x3ddcb6bc	0.10777041
4	0xbd85f1ae	-0.06540237
5	0x3cc4abb5	0.024007658
6	0x3d7d104e	0.061783127
7	0xbd8a1ad3	-0.067433976
8	0xbcde732a	-0.027154524
9	0xbda98a89	-0.082783766
10	0x3e05f5c1	0.13082029
11	0xbdafce10	-0.08584225
12	0x3dbf440f	0.09339153
13	0x3d306b6b	0.04307119
14	0xbdf97d5b	-0.12182113
15	0xbd9a1adb	-0.075246535
16	0xbd4ba3ef	-0.049716886
17	0xbb94683e	-0.004529028
18	0xbb8cdb95	-0.004298637
19	0xbc268612	-0.010163801
20	0xbd911e64	-0.07085875
21	0x3dda71f2	0.106662646
22	0x3bf730fc	0.007543681
23	0x3ce0d53a	0.027445424
24	0xbd7653ee	-0.060138635
25	0xbdb3e52e	-0.08783947
26	0x3d2ff365	0.04295673
27	0xbc90f874	-0.017696597
28	0x3d52573f	0.051352736
29	0x3e031d25	0.12804087
30	0xbd987700	-0.074445724
31	0xbdc0e8e1	-0.09419418
32	0x3c5ebe6d	0.013595206
33	0xbd8fa0a4	-0.07013062
34	0xbd856ca6	-0.06514864
35	0x3d1c91a6	0.03822484
36	0x3d3987e3	0.045295607
37	0xbde0d3f8	-0.1097793
38	0xbd7c6ff0	-0.06163019
39	0xbd6bca84	-0.05756618
40	0x3a879225	0.0010343237
41	0x3df68b58	0.120382965
42	0x3d805b1a	0.06267376
43	0xbda7b1da	-0.08188219
44	0xbccf0bc5	-0.025274167
45	0x3d0897c0	0.033347845
46	0x3d799623	0.060934197
47	0x3d1dd2d3	0.038531136
48	0x3d896180	0.0670805
49	0x3dd0d35c	0.101965636
50	0xbd456c46	-0.04819896
51	0xbbaa9344	-0.0052055437
52	0x3d7479a0	0.059686303
53	0xbcebb5e2	-0.028773252
54	0x3cc31b74	0.023816802
55	0x3c9a81cf	0.018860726
56	0xbdcb4cb7	-0.099267416
57	0x3c99d974	0.018780448
58	0xbd710183	-0.058839332
59	0xbdc7ebfd	-0.09761808
60	0xbd24ab53	-0.04020245
61	0x3d42e7f5	0.047584493
62	0x3dd30c1f	0.10305046
63	0x3db6c9f0	0.08925235

module_list.2.weight f4 [1, 64]
0	0xbea08f6e	-0.31359428
1	0xbc54ba02	-0.012983801
2	0xbe453881	-0.19259836
3	0x3e182376	0.14857277
4	0xbd23090c	-0.03980355
5	0xbb3f52f4	-0.002919373
6	0x3da57561	0.08079029
7	0x3ea1f121	0.3162928
8	0x3dcf307f	0.10116672
9	0x3d888470	0.066658854
10	0x3e1b0997	0.15140377
11	0x3f0637ec	0.5242908
12	0xbebeac30	-0.37240744
13	0xbe30d070	-0.17267013
14	0xbefa6a5b	-0.48909268
15	0x3ef40f42	0.4766789
16	0xbd9b91ea	-0.0759619
17	0xbec0ba8c	-0.37642324
18	0x3d784d57	0.060620632
19	0x3b84ac18	0.0040488355
20	0xbd7466d8	-0.059668392
21	0xbe89405b	-0.26806912
22	0xbd229505	-0.039692897
23	0x3eed2597	0.4631774
24	0xbe4e44fe	-0.20143506
25	0x3dcc6805	0.09980778
26	0xbd87bd0e	-0.06627856
27	0xbec2447e	-0.3794288
28	0x3e9486f0	0.290092
29	0x3e5546d0	0.20827794
30	0x3ddd527e	0.1080675
31	0x3d98bb3c	0.07457587
32	0x3e19872c	0.1499297
33	0x3dc881bd	0.097903706
34	0x3d79a8fc	0.06095217
35	0x3e2c41ae	0.1682193
36	0x3e3f137a	0.18659773
37	0xbeea851e	-0.45804685
38	0xbc0c46e0	-0.00856182
39	0xbea978fb	-0.33100113
40	0xba96754a	-0.0011479047
41	0x3e3256ed	0.17415972
42	0x3e1719ef	0.14755987
43	0xbeb27c02	-0.34860235
44	0x3eac0a68	0.3360169
45	0xbdbc047a	-0.09180541
46	0xbd855d13	-0.06511893
47	0xbd436ae4	-0.04770936
48	0x3e65f0de	0.22455165
49	0x3df207bf	0.11817884
50	0xbeab47f8	-0.33453345
51	0xbdd1ab54	-0.10237756
52	0xbe65c044	-0.22436625
53	0xbda31ad7	-0.07964104
54	0xbe5a1027	-0.21295224
55	0xbeb43026	-0.35192984
56	0x3f1584a0	0.58405495
57	0xbefb4d7b	-0.4908255
58	0xbee24957	-0.4419658
59	0x3dbff8be	0.09373616
60	0xba48f472	-0.000766582
61	0xbe05dab0	-0.13071704
62	0x3e68d0c0	0.22735882
63	0x3e02e96b	0.12784354
