saved_models_MLP/exp-ib3-fcc/mlp_ms_fcc_ratio0.8_seed4_epoch300.pt (torch, 38935 bytes, 5 tensors)

module_list.0.weight f4 [128, 6]
0	0x3e455847	0.19271956
1	0xbed54ad9	-0.41658667
2	0x3d32d8f9	0.043663952
3	0x3ef239e4	0.47309792
4	0xbe313b30	-0.17307734
5	0x3e486df8	0.195732
6	0x3e946986	0.28986758
7	0xbe420301	-0.18946458
8	0xbe84ea34	-0.25959933
9	0xbee98b51	-0.45614102
10	0xbdb07580	-0.08616161
11	0xbdbebdf0	-0.093135715
12	0x3e8dcc08	0.27694726
13	0x3ebd215d	0.36939517
14	0xbc7d1c32	-0.015448617
15	0xbeb0c6dd	-0.3452672
16	0x3d6f510c	0.0584269
17	0x3e222b74	0.15836889
18	0xbeca5517	-0.39518043
19	0x3ee97eaa	0.4560445
20	0xbe91fc47	-0.28512785
21	0xbd34070e	-0.04395204
22	0xbeb8cbc3	-0.36092958
23	0xbe4e3c89	-0.2014028
24	0x3e41b5aa	0.18916956
25	0xbe2516f2	-0.16122034
26	0x3e227d58	0.15868127
27	0x3e6fc691	0.23415591
28	0x3e6d3e88	0.23168385
29	0xbd0ae0e8	-0.033905894
30	0x3e3ed033	0.18634109
31	0xbec7a362	-0.3899184
32	0x3a5610ba	0.00081659446
33	0x3f1c40f7	0.6103663
34	0x3eae12c4	0.33998692
35	0x3e5ccd10	0.215626
36	0x3e4e0ce7	0.2012211
37	0x3dfb7ea1	0.12280012
38	0xbefee99e	-0.4978761
39	0x3dcf690d	0.10127459
40	0x3f0ab8d6	0.5418829
41	0x3d7de578	0.061986417
42	0x3e835859	0.2565334
43	0x3e5a2755	0.21304066
44	0x3edf3697	0.43596336
45	0x3eba5b0f	0.36397597
46	0x3e8ad99e	0.27119154
47	0xbe9250a9	-0.28577164
48	0x3da551fd	0.08072279
49	0x3cc12100	0.023575306
50	0xbe13a9d5	-0.14420255
51	0xbeaf218b	-0.3420528
52	0x3dafb79f	0.08579945
53	0x3e478194	0.19483024
54	0xbb2b2ea5	-0.0026120332
55	0x3ec64cff	0.38730618
56	0xbdca8675	-0.09888927
57	0x3dcb32d1	0.09921802
58	0xbe9b1567	-0.30289766
59	0x3ecfdee2	0.40599734
60	0x3eb2b5b7	0.34904262
61	0x3e25fdf8	0.16210163
62	0x3eb718ae	0.35761017
63	0xbe87ebf8	-0.26547217
64	0xbe9bb356	-0.3041026
65	0xbe683cd1	-0.2267945
66	0x3edb2001	0.42797855
67	0xbe75806f	-0.23974775
68	0xbe9ed915	-0.31024995
69	0xbe4fe003	-0.20300297
70	0xbe432345	-0.19056423
71	0x3e971af2	0.29512745
72	0x3cf2425c	0.029572658
73	0xbd8bc872	-0.06825341
74	0xbe1601eb	-0.14649169
75	0x3e87b407	0.26504537
76	0x3ebccb54	0.36873877
77	0xbec4dc28	-0.38449216
78	0xbe88c4c2	-0.26712614
79	0xbdbdf5e0	-0.092754126
80	0xbea6c812	-0.32574517
81	0xbf0bd35d	-0.5461939
82	0x3cf45a48	0.029828206
83	0x3eb916a6	0.36150092
84	0x3d367fea	0.044555582
85	0x3eb68e7b	0.3565558
86	0x3ed5e7b4	0.41778338
87	0x3e98997e	0.29804605
88	0x3cb90d77	0.022589428
89	0x3e1483f8	0.14503467
90	0x3c57bd1d	0.013167647
91	0xbd5b74e2	-0.053578265
92	0xbd7d8ec3	-0.061903726
93	0x3edab481	0.4271584
94	0x3e96726d	0.29384175
95	0x3d1e45f0	0.038640916
96	0xbe9ff714	-0.31243193
97	0xbe5c6a55	-0.21524937
98	0x3ea39879	0.31952265
99	0x3f162608	0.5865178
100	0xbd2c711b	-0.042100053
101	0x3c26f500	0.0101902485
102	0x3e73eccc	0.238208
103	0x3c02144c	0.007939409
104	0xbdd93202	-0.10605241
105	0xbe97257c	-0.29520786
106	0x3ee35044	0.44397175
107	0x3e9f7304	0.31142437
108	0xbecb0457	-0.3965175
109	0x3dccee0c	0.10006341
110	0xbc7281af	-0.014801427
111	0xbef8b711	-0.4857717
112	0x3ef76071	0.48315766
113	0x3e0db788	0.13839543
114	0x3ef04a27	0.46931574
115	0x3d20a10a	0.03921608
116	0xbedc8d94	-0.43076766
117	0xbe50fcc6	-0.20408925
118	0x3ecc17fd	0.39862052
119	0xbec193e4	-0.37808144
120	0xbed03653	-0.40666446
121	0x3eab1849	0.33416966
122	0xbec9f433	-0.39444122
123	0x3ec5cffe	0.38635248
124	0xbe81529a	-0.25258332
125	0xbeba3aaa	-0.36372882
126	0x3e2c5e0f	0.16832756
127	0x3d146bf2	0.036235757
128	0x3c723c84	0.014784936
129	0xbf0295bb	-0.5100972
130	0xbd76f1b6	-0.060289107
131	0xbd1d8140	-0.03845334
132	0x3e3dbce9	0.18529095
133	0x3e0dd638	0.13851249
134	0xbe98f994	-0.29877913
135	0xbb5865ea	-0.003301973
136	0x3ebd1a12	0.36933953
137	0x3e7c0a30	0.24613261
138	0x3eb745cf	0.35795447
139	0xbebfa708	-0.37432122
140	0xbeaf6f66	-0.34264678
141	0xbe37d506	-0.17952356
142	0x3eee902d	0.46594372
143	0x3e1b665c	0.15175766
144	0x3e1088ac	0.14114636
145	0xbe9b354c	-0.303141
146	0x3db3334b	0.08750018
147	0x3e949009	0.2901614
148	0xbd804fb5	-0.06265203
149	0x3e724f04	0.23662955
150	0xbea4e935	-0.32209173
151	0xbec9701b	-0.39343342
152	0x3d664a6f	0.05622333
153	0xbd974357	-0.07385891
154	0x3e8eb8b4	0.27875292
155	0x3cc85530	0.024454683
156	0x3e6e7ac5	0.2328902
157	0xbeb49fa0	-0.35278034
158	0x3e9b5f09	0.30345944
159	0xbe922536	-0.28544015
160	0xbe85a555	-0.261027
161	0x3e6de050	0.232301
162	0x3ee99478	0.45621085
163	0x3da4ef5d	0.080534674
164	0xbe6bc0fe	-0.2302284
165	0xbbd98dbb	-0.00663921
166	0x3f1826ee	0.594344
167	0x3e8306b6	0.25591058
168	0x3ebee4a9	0.3728383
169	0x3d572afa	0.05253122
170	0xbe333911	-0.17502238
171	0x3e93e4c7	0.2888548
172	0xbe2bb265	-0.16767271
173	0xbe364723	-0.17800574
174	0xbe4a8f4a	-0.19781223
175	0x3e5aae57	0.21355568
176	0xbd3acd50	-0.045605958
177	0x3ef28908	0.47370172
178	0xbea12f00	-0.3148117
179	0x3a965500	0.0011469424
180	0xbda8688f	-0.08223068
181	0xbebd5902	-0.3698197
182	0x3d34095a	0.04395423
183	0x3ef4088e	0.47662777
184	0xbb6c3508	-0.0036042351
185	0xbeb4cffa	-0.35314924
186	0xbdf5851f	-0.119882815
187	0x3eb2ab7f	0.34896466
188	0xbec0c0af	-0.37647006
189	0xbe999776	-0.29998368
190	0x3dcbf85c	0.0995948
191	0x3e31ef24	0.17376381
192	0x3edf486b	0.43609938
193	0x3e9ae04d	0.30249253
194	0xbdebbafa	-0.11510272
195	0xbdc0e85d	-0.0941932
196	0x3dd66cf7	0.10470002
197	0xbda2ef28	-0.07955772
198	0x3db283c3	0.08716538
199	0xbed55ad7	-0.41670868
200	0x3e033429	0.12812866
201	0xbd2f3766	-0.04277744
202	0x3f0bdf63	0.54637736
203	0xbe86e322	-0.26345164
204	0xbe821afe	-0.25411218
205	0xbee060e5	-0.43823925
206	0x3e8be463	0.27322683
207	0x3e0f056f	0.13966917
208	0xbcda6922	-0.02666146
209	0xbd8a7cb8	-0.067620695
210	0x3e3fe89a	0.18741074
211	0x3e2c5979	0.16831006
212	0xbf150b63	-0.582205
213	0xbe49daa3	-0.1971231
214	0x3ef224e1	0.4729376
215	0xbe63fcf0	-0.22264457
216	0x3e4b9f98	0.19885099
217	0x3ea1cbf1	0.31600907
218	0x3c6184fc	0.013764616
219	0x3f0c75ed	0.5486744
220	0xbf08dd09	-0.5346227
221	0xbe25593d	-0.16147323
222	0x3df8a7cd	0.121413805
223	0x3dcd87dd	0.100356795
224	0x3ec0381f	0.37542817
225	0x3c6ebad0	0.014570907
226	0xbf077e34	-0.52926946
227	0x3e225e38	0.15856254
228	0xbeac1e92	-0.33617073
229	0x3ebe8485	0.3721048
230	0xbe992f9e	-0.29919142
231	0x3e187102	0.14886859
232	0x3e469b35	0.19395144
233	0xbe9f2f9d	-0.31091014
234	0x3ec2da7d	0.38057318
235	0x3e57419f	0.21021126
236	0xbf03a4c3	-0.5142328
237	0xbe53ae71	-0.20672013
238	0x3e85e041	0.26147655
239	0x3c5e2b60	0.013560146
240	0xbde1f3ac	-0.11032805
241	0xbecc12d8	-0.39858127
242	0xbd740824	-0.059578076
243	0xbee10ab0	-0.43953466
244	0x3ef7bc4b	0.48385844
245	0x3e66dabc	0.22544378
246	0x3ede4562	0.4341231
247	0x3dfd17c4	0.123580486
248	0xbecc702a	-0.39929324
249	0xbe4ae24b	-0.19812886
250	0x3ead9c39	0.3390825
251	0xbb84c880	-0.004052222
252	0x3ede9589	0.4347346
253	0xbeaa8719	-0.33306196
254	0x3ef3260e	0.4748997
255	0xbe3b536e	-0.18293545

module_list.0.bias f4 [128]
0	0x3e7c7b09	0.24656309
1	0xbe96d40c	-0.29458654
2	0x3e7fecda	0.24992695
3	0x3e9b9677	0.30388233
4	0x3e3dc982	0.185339
5	0xbdc1fa16	-0.09471528
6	0x3ebb6ae2	0.36604983
7	0xbec1bd07	-0.3783953
8	0x3c126dbf	0.008937298
9	0xbe2d4b08	-0.16923153
10	0xbddd5de0	-0.10808921
11	0xbdf31cd6	-0.118707344
12	0xbece9e49	-0.40355137
13	0xbe9c1f88	-0.30492806
14	0xbe2a03ec	-0.16603059
15	0xbe61fad4	-0.2206834
16	0x3dae5de6	0.085140035
17	0x3ea82a42	0.3284474
18	0xbe37f6ba	-0.17965212
19	0x3e86de0e	0.2634129
20	0x3db36760	0.087599516
21	0xbe4ce313	-0.20008497
22	0xbde90ced	-0.113794185
23	0xbe0bfc80	-0.1367054
24	0x3e8c26d5	0.27373376
25	0xbe4c6098	-0.19958723
26	0x3d7f0358	0.06225905
27	0x3e409090	0.18805146
28	0xbe0ecd8a	-0.13945594
29	0xbe6863d4	-0.22694331
30	0x3ea9023e	0.33009523
31	0x3e883b09	0.2660754
32	0x3eada557	0.33915207
33	0xbe826014	-0.25463927
34	0xbe9025f2	-0.2815395
35	0x3e1c7ace	0.15281221
36	0x3eaa0e13	0.33213863
37	0xbe716b69	-0.2357613
38	0xbdf8a008	-0.121398985
39	0xbe505f77	-0.20348917
40	0x3e75160a	0.23934188
41	0xbe87fd49	-0.2656043
42	0x3ea12595	0.31473985
43	0x3df61ed6	0.120176
44	0xbe48baeb	-0.19602554
45	0x3cde26d4	0.027118124
46	0x3ea4d4e0	0.3219366
47	0x3eb60a19	0.3555458
48	0xbe5ba44a	-0.2144939
49	0xbd8bf906	-0.06834607
50	0x3eb8d114	0.36097014
51	0x3e24d6fd	0.16097637
52	0xbe14b23d	-0.14521118
53	0xbed461cc	-0.41480863
54	0x3e2cd03f	0.16876315
55	0xbdaa8f98	-0.083281696
56	0x3db32dc3	0.08748963
57	0xbe559877	-0.20858942
58	0xbeb70fac	-0.35754144
59	0x3cdd0168	0.02697821
60	0xbe955a64	-0.29170525
61	0xbecb56e1	-0.3971472
62	0x3ebfb774	0.3744465
63	0xbe9e3687	-0.30900976
64	0x3dd37fc1	0.103271015
65	0xbec93d8c	-0.3930477
66	0xbecab338	-0.39589858
67	0xbc56c303	-0.013108018
68	0xbec9d9cb	-0.39423975
69	0xbdbaa0de	-0.09112714
70	0x3e7d00ac	0.24707288
71	0xbe256c7f	-0.16154669
72	0x3ec3a0ec	0.3820871
73	0x3c436aa0	0.011927277
74	0xbe54a194	-0.20764762
75	0x3e9c6943	0.30549058
76	0xbec83abb	-0.39107308
77	0xbe59943a	-0.2124795
78	0xbd1a2e4b	-0.037641805
79	0x3e0e0cb2	0.1387203
80	0xbd79f7f7	-0.061027493
81	0x3e794378	0.24342144
82	0xbdfec81a	-0.1244051
83	0x3c895798	0.0167654
84	0xbc0840e3	-0.008316251
85	0xbebf74b6	-0.3739373
86	0x3e94d54f	0.29068992
87	0x3c0ae035	0.008476307
88	0xbed389e1	-0.4131613
89	0xbd2417fb	-0.040061932
90	0x3c31c075	0.010849108
91	0xbe5bd30f	-0.21467231
92	0xbed91f93	-0.42406902
93	0x3d3c6dc7	0.04600313
94	0xbea5a8b7	-0.32355282
95	0x3e02468a	0.12722221
96	0xbc357649	-0.011075565
97	0xbe58701f	-0.21136521
98	0x3ec1a1b9	0.37818697
99	0xbe8e6a7d	-0.2781562
100	0xbe936800	-0.28790283
101	0xbc56ba5d	-0.013105956
102	0xbc488ad5	-0.012240131
103	0x3d94c44a	0.07264002
104	0x3cb841ed	0.022492373
105	0xbe6b5083	-0.22979932
106	0x3eb3ce5d	0.3511838
107	0xbcca37d9	-0.024684833
108	0xbdec3818	-0.115341365
109	0xbe178bdc	-0.14799446
110	0xbebc5e15	-0.3679053
111	0x3eb8f3bc	0.36123455
112	0x3e4a2426	0.19740352
113	0x3db62b2e	0.088949546
114	0x3dae7df0	0.085201144
115	0x3d054db4	0.032544807
116	0x3e405c2b	0.1878516
117	0x3e82f687	0.2557871
118	0x3ed84471	0.42239717
119	0x3e71e5e9	0.2362286
120	0x3d1718bd	0.036888827
121	0xbd38429a	-0.04498539
122	0x3e854f16	0.260369
123	0xbdda4041	-0.10656787
124	0xbe7c0fdc	-0.24615425
125	0xbe5e3f96	-0.21703944
126	0x3e89ebfc	0.26937854
127	0xbdd8938b	-0.105750166

module_list.1.0.weight f4 [64, 128]
0	0x3d117f06	0.03552153
1	0xbe12d7ec	-0.1434018
2	0x3cbb20c1	0.022842767
3	0x3cf7a35d	0.030229265
4	0x3c0c9621	0.008580715
5	0xbd301c21	-0.042995576
6	0xbe2c9ec3	-0.16857438
7	0xbc6e95d6	-0.014562091
8	0xbd225f67	-0.039641764
9	0x3ddaf96e	0.10692106
10	0x3d8692a8	0.06570941
11	0xbd741da1	-0.05959857
12	0xbde5f352	-0.1122805
13	0x3a314955	0.00067629415
14	0x3d97ec14	0.07418075
15	0xbdbb4251	-0.09143508
16	0x3dd92735	0.10603181
17	0xbe03263c	-0.12807554
18	0xbd454845	-0.048164625
19	0xbd9d3277	-0.07675641
20	0x3d414520	0.047185063
21	0xbe089f67	-0.13342057
22	0xbe1be942	-0.152257
23	0xbe32f544	-0.17476374
24	0xbbe0fcfe	-0.0068660965
25	0xbd25e4d6	-0.040501438
26	0xbd48014c	-0.04882936
27	0xbdc72f34	-0.097258
28	0xbd32e55a	-0.043675758
29	0x3e03a18f	0.12854598
30	0x3d36e8d9	0.044655655
31	0xbd8dba73	-0.06920328
32	0xbd262306	-0.040560745
33	0xbd1e6cbe	-0.038677923
34	0xbcced486	-0.025247823
35	0xbdbddff1	-0.09271229
36	0x3d930aa9	0.07179768
37	0x3dace952	0.0844294
38	0xbd95d286	-0.07315545
39	0xbe03a0ad	-0.12854262
40	0xbdf61f5a	-0.120176986
41	0xbd50d195	-0.050981123
42	0x3d3bb425	0.045826096
43	0xbdee2c89	-0.11629588
44	0x3ad0d657	0.0015933019
45	0x3da81859	0.08207769
46	0x3c52def6	0.012870541
47	0x3e103dfb	0.14086144
48	0xbd41b277	-0.047289338
49	0x3df91879	0.12162871
50	0x3d9b0895	0.07569996
51	0x3dddc80a	0.1082917
52	0x3e1ebba1	0.15501262
53	0xbde1358b	-0.10996541
54	0xbd4bbb23	-0.049739014
55	0xbc28b81a	-0.0102977995
56	0xbca3ca12	-0.019993816
57	0xbe25c633	-0.16188888
58	0xbd993d27	-0.07482367
59	0xbdfc8133	-0.1232933
60	0xbdd9e9f8	-0.10640329
61	0xbbdf2442	-0.006809742
62	0x3e1e8aad	0.15482588
63	0xbe38ffcc	-0.18066329
64	0xbdc17933	-0.09446945
65	0x3c6f4c9a	0.014605666
66	0x3d19c23c	0.037538752
67	0xbd4907c6	-0.04907968
68	0xbe25500b	-0.16143815
69	0xbc94d303	-0.018167024
70	0x3ce228e1	0.027607383
71	0x3d9dfca0	0.077142
72	0xbd74083f	-0.059578177
73	0xbd7ff6bd	-0.062491167
74	0xbd92eed1	-0.07174457
75	0xbd19ec6b	-0.03757898
76	0xbe0cd009	-0.13751234
77	0x3d83f5e7	0.064433865
78	0xbddaf4a7	-0.10691195
79	0x3dee7804	0.11643985
80	0x3cb93c5c	0.02261179
81	0x3dfa3440	0.12216997
82	0x3c8ab450	0.016931683
83	0xbd1ba650	-0.038000405
84	0xbe18b2dc	-0.1491198
85	0x3d0beb9e	0.03416025
86	0xbdb5bfce	-0.088744745
87	0xbc947b76	-0.018125277
88	0xbc29c956	-0.010362944
89	0xbde1570b	-0.1100293
90	0x3c7cb0f0	0.015423045
91	0xbbe0a0e4	-0.006855117
92	0xbd7378dd	-0.059441436
93	0xbc2e18a9	-0.010625997
94	0xbcb8e461	-0.022569837
95	0xbe40f4d5	-0.18843396
96	0x3de56c76	0.11202328
97	0xbd80c80b	-0.06288155
98	0xbd2e7431	-0.042591278
99	0xbe13aa5b	-0.14420454
100	0xbd8a5dbb	-0.06756159
101	0xbc5af6f5	-0.013364543
102	0xbdd41e4d	-0.10357342
103	0xbd0e3440	-0.0347178
104	0xbd22b76e	-0.039725713
105	0xbdcb1d3c	-0.099176854
106	0xbd9fffba	-0.07812448
107	0xbcb1cd56	-0.021704357
108	0xbc157324	-0.00912169
109	0xbd9d5ffd	-0.07684324
110	0xbc7e07f8	-0.01550483
111	0x3dcb8d9e	0.09939121
112	0x3e0ecd74	0.13945562
113	0x3e122994	0.14273673
114	0x3e0956a0	0.13411951
115	0xbac46b33	-0.0014985561
116	0x3d311c6f	0.043240007
117	0x3d83f8df	0.06443953
118	0xbcf22f9b	-0.029563716
119	0x3d55f1e4	0.052232638
120	0x3d96e5a6	0.07368021
121	0x3e22dec7	0.15905295
122	0x3d92c98f	0.071673505
123	0x3c8f4a3d	0.017491454
124	0x3c284002	0.010269167
125	0x3ca1d17b	0.019753208
126	0x3cdb461a	0.026766825
127	0xbdcaaba4	-0.09896019
128	0x3c36aa4a	0.0111489985
129	0xbde96802	-0.11396791
130	0x3c2c5503	0.010518315
131	0xbd4ef679	-0.050528023
132	0x3d73a10f	0.05947977
133	0xbd4b8b64	-0.04969348
134	0xbdde1687	-0.108441405
135	0x3d2f24ad	0.042759586
136	0xbd93b8d7	-0.0721299
137	0xbdb4f2db	-0.088353835
138	0x3d815796	0.06315534
139	0xbdb31163	-0.08743551
140	0xbd5ba94d	-0.053628255
141	0xbdac3630	-0.08408773
142	0x3db9c055	0.090698875
143	0xbc2db5ef	-0.010602458
144	0xbced4b35	-0.028966526
145	0x3c8a0cd9	0.01685183
146	0xbdd1fa95	-0.10252873
147	0x3c596b15	0.013270159
148	0xbddf4ac5	-0.10902933
149	0x3d562cae	0.052288704
150	0xbdb56802	-0.088577285
151	0xbd9e191c	-0.07719633
152	0x3d9ad31a	0.07559796
153	0xbd0197da	-0.031638958
154	0x3ded681c	0.11592123
155	0x3b512709	0.0031914136
156	0x3d0c5e9b	0.03426991
157	0xbd73bcc8	-0.059506208
158	0xbd98ca11	-0.07460416
159	0xbdd7316c	-0.10507473
160	0x3dc12d57	0.09432476
161	0x3b1a9abe	0.0023590769
162	0x3d95d56b	0.07316097
163	0xbcfdb158	-0.030968353
164	0xbcb78027	-0.022399975
165	0x3e12e83e	0.14346406
166	0xbd177468	-0.036976248
167	0xbd8485fd	-0.06470869
168	0xbdc85e25	-0.09783582
169	0xbddc8967	-0.10768395
170	0x3d8768bb	0.066117726
171	0xbd907b22	-0.07054736
172	0xbd3a526d	-0.045488764
173	0xbd8f5ad5	-0.06999747
174	0xbd53ea1a	-0.05173693
175	0xbd6a6bfd	-0.057231892
176	0xbd8b0d68	-0.067896664
177	0x3dfa91d3	0.12234845
178	0x3d97acbf	0.074059956
179	0x3ce0b590	0.027430326
180	0x3b0a49e5	0.0021101173
181	0xbd5d6e05	-0.05406
182	0xbd9e4634	-0.07728234
183	0x3da8333a	0.08212896
184	0x3d16d9ed	0.036828924
185	0xbca4a60b	-0.020098707
186	0xbdcfffe8	-0.10156232
187	0xbb75f0f3	-0.003752765
188	0xbe233192	-0.15936878
189	0xbdae173d	-0.08500526
190	0x3dbe7feb	0.09301742
191	0xbdef4e83	-0.11684897
192	0x3cf0685f	0.029346643
193	0xbd4499dc	-0.047998294
194	0xbd13178e	-0.035911135
195	0xbd2c2edb	-0.042036872
196	0xbc5fd033	-0.013660478
197	0x3e1a25b4	0.15053445
198	0xbda63341	-0.08115245
199	0xbd716b1c	-0.058940038
200	0x3a0b2a16	0.00053087005
201	0x3df6eec7	0.12057262
202	0xbb82a868	-0.0039873607
203	0xbd85afb5	-0.06527654
204	0xbd9a96c7	-0.0754829
205	0xbe06b5f3	-0.13155346
206	0xbdabb63c	-0.08384368
207	0x3dd01700	0.10160637
208	0xbdaa0f37	-0.08303683
209	0x3d416e5c	0.047224388
210	0xbe0ffe76	-0.14061913
211	0xbdb1bdd4	-0.08678785
212	0xbdba542d	-0.090980865
213	0x3d1aabec	0.037761614
214	0xbd7cf86c	-0.06176035
215	0x3dc6723c	0.09689757
216	0x3c271035	0.010196735
217	0xbd6434ad	-0.055714298
218	0xbcc1eb4b	-0.023671767
219	0xbd691137	-0.056901183
220	0x3d187a0c	0.037225768
221	0x3d344ef6	0.044020616
222	0x3d1388a4	0.036018983
223	0x3ca1cfe0	0.019752443
224	0x3dd417dc	0.10356113
225	0xbcf38bf9	-0.02972983
226	0x38a08238	7.65365e-05
227	0xbd5d598c	-0.054040477
228	0xbd13a6a4	-0.036047593
229	0xbd2c10c7	-0.042008188
230	0x3c6421b9	0.013924056
231	0xbd9ecfac	-0.07754454
232	0x3d0d057f	0.03442907
233	0x3d8ba817	0.0681917
234	0x3cd1438a	0.0255449
235	0xbd5ad18f	-0.053422507
236	0xbdcd81bf	-0.10034513
237	0xbd0d3231	-0.034471694
238	0x3d009506	0.03139212
239	0x3d9638cf	0.07335054
240	0x3df2742d	0.11838565
241	0xbd449aa1	-0.047999028
242	0x3dbd2862	0.09236218
243	0x3d87e5bd	0.06635616
244	0x3d3a467f	0.045477387
245	0x3d2faa8a	0.042887248
246	0x3b3b715c	0.0028601503
247	0x3d35a1bf	0.044343706
248	0x3de6fdd0	0.1127888
249	0x3e26da2b	0.16294162
250	0xbc82fea2	-0.015990559
251	0x3d4f427d	0.050600518
252	0xbd6cebf0	-0.057842195
253	0x3df9b3fb	0.12192532
254	0xbca0befb	-0.019622317
255	0xbcea85f6	-0.02862833

module_list.1.0.bias f4 [64]
0	0xbd815629	-0.06315262
1	0x3d34258c	0.04398112
2	0x3bcaa474	0.006184155
3	0xb9fe007b	-0.00048447013
4	0x3d892f53	0.066984795
5	0x3c7b9187	0.015354521
6	0x3c65e033	0.014030504
7	0x3d97cb8a	0.07411869
8	0xbbc54b8e	-0.0060209697
9	0xbddb825e	-0.10718225
10	0x3a92d0c1	0.001120113
11	0x3d80d228	0.06290084
12	0x37509a14	1.243364e-05
13	0x3dae6dc5	0.085170306
14	0x3dfec8c1	0.124406345
15	0x3d384171	0.044984285
16	0xbd1fd38e	-0.039020114
17	0xbd75f328	-0.060046345
18	0x3ce8f9b1	0.028439375
19	0xbb8c0e05	-0.004274132
20	0x3dc4efa8	0.09616023
21	0x3d9f4bcf	0.07778131
22	0xbd913486	-0.07090096
23	0x3c8ceac5	0.01720179
24	0x3c96b35e	0.018396076
25	0x3c9d92da	0.019235063
26	0x3d26be89	0.040709052
27	0x3e068711	0.13137461
28	0xbd4172fc	-0.0472288
29	0xbc9df465	-0.019281575
30	0xbcbf6349	-0.023362773
31	0xbd8bf187	-0.06833177
32	0xbd22233d	-0.039584387
33	0x3d12ccdf	0.03583991
34	0xbd94c2f4	-0.07263747
35	0x3cf84223	0.030304974
36	0xbd9dc88c	-0.07704267
37	0xbda6f824	-0.08152798
38	0x3ca9fd80	0.020750761
39	0x3c83c365	0.016084382
40	0x3d3535f7	0.044240918
41	0xbd07ec9a	-0.033184625
42	0xbdb871eb	-0.09006103
43	0xbe11d32d	-0.14240713
44	0x3dda2205	0.1065102
45	0xbdb96b0e	-0.09053622
46	0xbd0660bb	-0.032807093
47	0x3b994950	0.004677929
48	0xbd31e15b	-0.043427806
49	0xbdb0d70c	-0.08634767
50	0x3db8079a	0.08985825
51	0xbc967b15	-0.018369237
52	0x3c8042ae	0.015656795
53	0xbd325db7	-0.043546405
54	0xbd80067f	-0.06251239
55	0x3c02de95	0.007987638
56	0x3cbeca13	0.023289716
57	0x3c1425a1	0.009042175
58	0x3d56fa0a	0.05248455
59	0xbcf3cc50	-0.02976051
60	0xbd513052	-0.051071472
61	0xbd0f3f63	-0.03497256
62	0xbc94735f	-0.01812142
63	0xbd56250a	-0.052281417

module_list.2.weight f4 [1, 64]
0	0xbe54d2e7	-0.20783578
1	0xbe1c7296	-0.15278086
2	0x3d996272	0.0748948
3	0x3dbcdf80	0.09222317
4	0xbe375e45	-0.17907055
5	0xbe0fe1b4	-0.14050943
6	0x3dc93e5a	0.09826346
7	0xbe0d28ec	-0.13785142
8	0x3dbc4859	0.09193487
9	0xbdedbcc0	-0.11608267
10	0xbd8f97e4	-0.07011393
11	0x3e17197d	0.14755817
12	0x3e129ed4	0.143184
13	0xbd97acd3	-0.074060105
14	0x3d9a50d0	0.07534945
15	0x3c970322	0.018434111
16	0xbdea6eeb	-0.11446937
17	0x3de6a585	0.11262039
18	0x3e0198b2	0.12655905
19	0x3e286ae6	0.16447029
20	0xbe047e73	-0.12938862
21	0xbdf22579	-0.118235536
22	0x3d9acc87	0.07558542
23	0x3c65f7b1	0.014036105
24	0xbdfc9d43	-0.12334683
25	0x3e4aaefb	0.19793312
26	0xbe20db60	-0.15708685
27	0x3e0d82e3	0.1381946
28	0x3e243c02	0.16038516
29	0x3aa985a9	0.0012933511
30	0x3da22d89	0.079188414
31	0x3dd3481c	0.10316488
32	0xbe069621	-0.13143207
33	0x3d2f1565	0.042745013
34	0x3da8d659	0.082440086
35	0xbd402099	-0.046906088
36	0xbdbeb52d	-0.093119
37	0xbe65966e	-0.22420666
38	0x3e055f05	0.13024528
39	0x3d9258ba	0.071458295
40	0x3e0c3465	0.13691862
41	0xbdefe6ff	-0.11713981
42	0xbe1c5f02	-0.15270618
43	0xbe66c243	-0.22535042
44	0x3d6736e0	0.056448817
45	0xbe226b91	-0.15861346
46	0x3d9b6a9b	0.07588693
47	0x3e0b2ca4	0.13591248
48	0xbe0ea0ba	-0.139285
49	0xbde7533c	-0.112951726
50	0x3e022e7b	0.12713043
51	0xbdfa7b4b	-0.122305475
52	0xbe294bd7	-0.16532837
53	0x3de3d2ca	0.11124189
54	0x3e055ffe	0.130249
55	0x3e14ef1b	0.14544336
56	0xbd8d2dd8	-0.068935096
57	0x3d15ffab	0.036620777
58	0x3de95765	0.11393622
59	0x3db3d1a6	0.08780222
60	0xbe0ff02a	-0.14056459
61	0x3e2a1b89	0.16612066
62	0x3d43a6ef	0.047766622
63	0x3e16fe34	0.14745408
