saved_models_MLP/exp-ib3-fcc/mlp_ms_fcc_ratio0.4_seed5_epoch300.pt (torch, 38935 bytes, 5 tensors)

module_list.0.weight f4 [128, 6]
000000 45 c7 5d 3e 55 27 dd be bb 80 1d 3d 08 6c eb 3e
       0.21658047 -0.4319407 0.038452845 0.4598086
000010 04 a2 11 be f8 6d 48 3e be 6a 8f 3e 39 e2 39 be
       -0.1422196 0.195732 0.28011125 -0.18152703
000020 97 b9 89 be da ee ea be 52 38 b6 bd f0 bd be bd
       -0.26899406 -0.45885354 -0.08897461 -0.093135715
000030 34 48 8e 3e a2 a4 c0 3e b8 17 3c bc e6 09 b2 be
       0.27789462 0.37625605 -0.011480264 -0.34773177
000040 73 66 b8 3d 74 2b 22 3e 33 06 cb be 9a 2f ed 3e
       0.09003916 0.15836889 -0.39653167 0.4632538
000050 aa 88 8d be 7f af 99 3d 07 46 c1 be 89 3c 4e be
       -0.2764333 0.07504176 -0.3774874 -0.2014028
000060 ed 2e 53 3e d2 d4 25 be f2 42 1b 3e 77 cd 62 3e
       0.2062337 -0.16194466 0.15162256 0.22148691
000070 97 3e 80 3e e8 e0 0a bd e4 4c 37 3e 08 b4 c4 be
       0.25047752 -0.033905894 0.17900425 -0.38418603
000080 10 18 6d bc 9e ca 0b 3f 05 16 8b 3e 10 cd 5c 3e
       -0.014471069 0.54606044 0.27165237 0.215626
000090 e1 9a 48 3e a2 e4 06 3e ab f5 fc be d8 a2 dc 3d
       0.19590332 0.13173154 -0.4940618 0.107732475
0000a0 82 d0 fb 3e 78 e5 7d 3d 99 ae 80 3e 56 a3 40 3e
       0.49182516 0.061986417 0.25133207 0.18812308
0000b0 9b e9 d4 3e 42 96 93 3e e5 61 48 3e a9 50 92 be
       0.41584477 0.28825575 0.19568594 -0.28577164
0000c0 fb 76 a4 3d 90 e6 eb 3c 74 52 fd bd c1 3d b5 be
       0.08030506 0.028796464 -0.12369242 -0.35398677
0000d0 7f 8a 87 3d 94 81 47 3e cf f6 e4 bb 4c 7b c7 3e
       0.06618213 0.19483024 -0.0069874297 0.38961256
0000e0 7f 9c c5 bd 46 f4 02 3e c4 6f 99 be e2 de cf 3e
       -0.0964899 0.12788495 -0.29968083 0.40599734
0000f0 81 f1 b5 3e 94 5f 1a 3e 79 e3 b1 3e b4 20 8b be
       0.35535815 0.15075523 0.3474386 -0.27173388
000100 46 f4 9e be d1 3c 68 be 80 80 d9 3e c7 c0 5a be
       -0.3104574 -0.2267945 0.4248085 -0.21362601
000110 29 24 9e be 47 98 70 be d7 b1 75 be f2 1a 97 3e
       -0.30886963 -0.23495589 -0.23993622 0.29512745
000120 b8 2a ce 3c b1 a8 7a bd ae e5 1c be 7f 11 81 3e
       0.025166854 -0.061196033 -0.15321991 0.2520866
000130 af 84 b6 3e 28 dc c4 be 60 52 a1 be 94 3a 99 bd
       0.35648105 -0.38449216 -0.3150816 -0.07481876
000140 b0 55 a1 be 8f 7a ec be 8b 7c be bc a6 16 b9 3e
       -0.31510687 -0.46187255 -0.023252746 0.36150092
000150 78 3d 80 3d 59 f5 ae 3e fb 22 c5 3e 3a 89 a2 3e
       0.06261724 0.3417156 0.3850325 0.3174532
000160 1b 20 76 bc f8 83 14 3e da 10 db 3b 4a 1c 3b bd
       -0.015022303 0.14503467 0.0066853585 -0.045681275
000170 c4 99 b1 bd 82 44 e3 3e 55 50 84 3e f0 45 1e 3d
       -0.086719066 0.44388205 0.25842538 0.038640916
000180 33 fd a0 be 11 8c 5f be 2d 3c a7 3e a7 1f 10 3f
       -0.31443176 -0.21830775 0.32663098 0.562983
000190 96 c3 5d bc 00 f5 26 3c 3e fe 70 3e 23 fe cb 3b
       -0.013535401 0.0101902485 0.23534486 0.006225364
0001a0 74 c5 e3 bd ab 81 9a be 7e d0 d1 3e 04 73 9f 3e
       -0.111216456 -0.30177054 0.4097938 0.31142437
0001b0 e0 c1 da be e3 39 be 3d 00 b6 0c bd ba 5d d6 be
       -0.4272604 0.09288385 -0.034353256 -0.41868383
0001c0 ac 5f e8 3e 88 b7 0d 3e ea 43 ec 3e 97 4f 5d 3d
       0.45385492 0.13839543 0.46145564 0.05403098
0001d0 29 47 dd be d3 14 7c be 7b 0e b5 3e e4 93 c1 be
       -0.43218353 -0.24617319 0.3536261 -0.37808144
0001e0 d5 ad d6 be aa 26 aa 3e 3d 12 c6 be 1d 8d df 3e
       -0.41929498 0.33232623 -0.3868579 0.43662348
0001f0 6d 72 9d be aa 3a ba be 3f bc 28 3e 03 78 f4 3c
       -0.30751362 -0.36372882 0.1647806 0.029842382
000200 ce 1d 62 ba d1 db 00 bf 68 32 a8 bd 40 81 1d bd
       -0.0008625657 -0.50335413 -0.08212739 -0.03845334
000210 68 43 21 3e e0 cc 21 3e c7 2c 96 be 6c bb 68 3c
       0.1574837 0.1580081 -0.29331037 0.014204841
000220 8b 09 99 3e 30 0a 7c 3e a3 30 b7 3e 40 84 b4 be
       0.29890093 0.24613261 0.35779294 -0.3525715
000230 0f a7 af be 2d 1f 51 be 3b 68 d9 3e 5c 66 1b 3e
       -0.34307143 -0.20422049 0.42462334 0.15175766
000240 59 b8 31 3e 67 34 8b be f1 22 c0 3d 55 88 97 3e
       0.1735548 -0.27188417 0.093816645 0.295962
000250 28 c3 46 bc 04 4f 72 3e d9 ee a7 be 4e 35 ca be
       -0.01213149 0.23662955 -0.32799414 -0.39493793
000260 d8 f0 a1 3d 53 1f 5c bd 95 64 97 3e 30 55 c8 3c
       0.079072654 -0.05374081 0.29568925 0.024454683
000270 85 7b 89 3e f4 40 b1 be e6 2c a2 3e e1 5f 8f be
       0.2685205 -0.34619868 0.3167488 -0.28002837
000280 ab 9c 19 be 50 e0 6d 3e 37 5a e6 3e 96 82 b1 3d
       -0.1500117 0.232301 0.44990703 0.086674854
000290 55 04 76 be 49 f9 cc bb 43 00 0d 3f b6 06 83 3e
       -0.2402509 -0.006255303 0.55078524 0.25591058
0002a0 70 8c bf 3e 9b 29 7a 3d 80 71 38 be 7c f8 91 3e
       0.37411833 0.061074834 -0.18012047 0.2850989
0002b0 0a e5 36 be 23 47 36 be 2d 0a 49 be b7 09 58 3e
       -0.17860809 -0.17800574 -0.19632788 0.21097456
0002c0 e4 4f 78 bd b4 96 fa 3e 26 b6 a9 be 00 55 96 3a
       -0.060623065 0.48943102 -0.3314678 0.0011469424
0002d0 90 a4 a6 bd 88 1f be be a5 44 97 3d 8c 8c d2 3e
       -0.081368566 -0.3713343 0.0738614 0.41122854
0002e0 ae 2c ad 3d fa cf b4 be aa fb 0b be a1 22 c1 3e
       0.084557876 -0.35314924 -0.13670221 0.37721732
0002f0 92 e7 b6 be 49 eb 4e be e2 fb ca 3d 24 ef 31 3e
       -0.3572355 -0.20206942 0.09911324 0.17376381
000300 a7 78 df 3e c5 25 a4 3e e8 4b 17 be 5c 76 93 bd
       0.43646738 0.32060066 -0.1477505 -0.0720031
000310 b5 7e 9c 3d 28 ef a2 bd ad 25 b8 3d 3b 09 d4 be
       0.07641355 -0.07955772 0.08991561 -0.41413292
000320 2d 8a ed 3d c9 2c 9c bd 9b b6 fa 3e 22 e3 86 be
       0.115986206 -0.076257296 0.48967442 -0.26345164
000330 a8 bb 79 be fa aa e0 be 13 7d 93 3e c1 b0 db 3d
       -0.24387991 -0.43880445 0.28806362 0.107270725
000340 5d 13 58 3a b8 7c 8a bd 8c ee 1d 3e 2f 7c 3f 3e
       0.00082426314 -0.067620695 0.1542303 0.18699716
000350 31 95 18 bf 2b 28 2e be c0 fe e2 3e f0 fc 63 be
       -0.5960265 -0.1700751 0.44334984 -0.22264457
000360 61 83 52 3e b4 e1 a3 3e 23 79 40 3b 19 d8 0c 3f
       0.2055793 0.32008135 0.0029369078 0.5501724
000370 24 32 04 bf 3d 59 25 be b7 17 07 3e 09 de c8 3d
       -0.5163901 -0.16147323 0.1319264 0.09807975
000380 9f 5b bd 3e 4f 64 a1 3c 84 29 08 bf 38 5e 22 3e
       0.36983964 0.019701151 -0.5318835 0.15856254
000390 09 9c ae be 96 9c bf 3e 5e fa 95 be 09 5d 2c 3e
       -0.3410342 0.37424153 -0.29292578 0.16832365
0003a0 d2 d1 39 3e 9d 2f 9f be 48 c3 bf 3e ee 3a 6b 3e
       0.18146446 -0.31091014 0.37453675 0.22971699
0003b0 c6 5e 05 bf 13 fe 4d be 31 ac 4a 3e 60 2b 5e 3c
       -0.5209774 -0.20116453 0.19792248 0.013560146
0003c0 5d 70 eb bd 2e 40 cc be c0 a9 4b bd 7b 72 e2 be
       -0.11496041 -0.39892715 -0.049722433 -0.44227967
0003d0 a9 ff f5 3e bc da 66 3e ed 3b d7 3e af 47 0e 3e
       0.48046616 0.22544378 0.42037907 0.13894533
0003e0 08 8e d3 be f6 06 3f be bc 80 86 3e 80 c8 84 bb
       -0.413193 -0.18654999 0.26270092 -0.004052222
0003f0 14 db eb 3e 7b 37 ad be 92 23 f3 3e 21 04 99 be
       0.4606558 -0.3383139 0.47488075 -0.29885963

module_list.0.bias f4 [128]
000000 2f 9b 87 3e 5f 0f 95 be 89 29 7b 3e fe 78 9d 3e
       0.26485583 -0.2911329 0.24527563 0.30756372
000010 01 89 3b 3e 45 b1 eb bd d0 1c b8 3e f4 32 c7 be
       0.18313982 -0.11508421 0.35959482 -0.38906062
000020 5f 59 d6 3c e3 c7 38 be 22 9e c0 bd 47 62 f3 bd
       0.026165662 -0.18045 -0.094051614 -0.11883979
000030 19 c3 c8 be 29 c7 9e be 77 81 25 be 15 e7 70 be
       -0.39211348 -0.31011322 -0.16162668 -0.23525651
000040 f6 14 7c 3d a7 87 a9 3e 1b d6 2b be 1a 2d 84 3e
       0.061543427 0.33111307 -0.16780894 0.2581566
000050 08 e7 ba 3d 9b 4a 43 be 1e 2b 0b be 86 d7 10 be
       0.09126097 -0.19071428 -0.13590667 -0.14144716
000060 fb e1 85 3e 6e 6d 52 be c4 51 81 3d e2 10 39 3e
       0.26148972 -0.20549557 0.06314424 0.18072847
000070 5c 1d 0d be c9 14 66 be 54 e7 97 3e d2 f9 84 3e
       -0.13780731 -0.22468866 0.29668677 0.25971848
000080 e5 cc af 3e ca b8 76 be 4d f4 91 be d2 4b 1b 3e
       0.3433601 -0.24093929 -0.285067 0.15165642
000090 0f 23 a8 3e b7 af 68 be ca 45 eb bd 62 37 56 be
       0.32839248 -0.2272328 -0.114879206 -0.20919564
0000a0 71 29 76 3e 39 93 88 be 42 17 9e 3e 0e 39 e6 3d
       0.24039246 -0.26674822 0.3087712 0.11241351
0000b0 58 5e 39 be dc c6 2f 3d ab fd 9c 3e e8 82 b6 3e
       -0.18102396 0.042914256 0.30662283 0.3564675
0000c0 a2 38 57 be 24 a5 83 bd af cd bf 3e 5b 25 2b 3e
       -0.21017697 -0.064279824 0.37461612 0.16713469
0000d0 96 7c 0d be 16 de d0 be e4 6b 37 3e 06 b7 cc bd
       -0.13817057 -0.40794438 0.17912251 -0.099958465
0000e0 63 02 91 3d 5b c0 52 be e4 d4 ac be d4 ce 00 3d
       0.07080533 -0.2058119 -0.33756173 0.031447247
0000f0 6c 42 91 be c9 1d d1 be 57 3a c3 3e d5 b2 a1 be
       -0.28370988 -0.40843037 0.38130447 -0.3158175
000100 69 c7 a0 3d 6f 94 c9 be 70 a5 c8 be 69 3b 80 bc
       0.078505345 -0.39371058 -0.3918872 -0.015653329
000110 3b 0d d1 be 84 d5 b0 bd fb aa 75 3e 31 a5 2b be
       -0.40830407 -0.08634475 0.23991005 -0.16762234
000120 e9 61 c3 3e 2a b0 c6 3c b7 0c 50 be c4 53 9f 3e
       0.38160637 0.024253923 -0.2031735 0.31118596
000130 1e c0 d8 be 37 91 4e be 44 5b f9 bc be 9e 0e 3e
       -0.42334074 -0.20172583 -0.030439027 0.13927743
000140 a0 a7 65 bd d9 b5 7e 3e ee 4d fa bd 44 aa 88 3c
       -0.056068063 0.24874057 -0.12221895 0.016682751
000150 64 a6 01 bc 39 a7 c7 be 5d 84 8d 3e b8 8d 34 3c
       -0.007913206 -0.38994768 0.27640048 0.0110201165
000160 7f 17 d2 be 30 53 67 bd a0 a6 98 3c 60 90 61 be
       -0.4103355 -0.05647582 0.01863414 -0.22027731
000170 c4 fe d2 be 04 cd 50 3d bd 70 9f be 37 03 f4 3d
       -0.41209996 0.050976768 -0.311407 0.11914676
000180 19 b0 e7 3a 1d a0 5b be 4a e3 be 3e 31 4d 8c be
       0.0017676383 -0.21447797 0.37282783 -0.27402642
000190 75 00 a6 be 63 bc 3a bc 35 a1 75 bb 0b d7 a3 3d
       -0.32422224 -0.011397454 -0.003748012 0.080000006
0001a0 a0 91 9e 3c e9 21 7a be 7b f1 b2 3e 3d 05 33 bd
       0.019356549 -0.24426998 0.3494986 -0.043706167
0001b0 71 6c d8 bd e8 c0 14 be 04 cd b8 be 1c f4 c1 3e
       -0.105675586 -0.14526713 -0.36093915 0.37881553
0001c0 6e 10 4f 3e 12 0c ae 3d dd 78 bb 3d ab 05 3e 3d
       0.20221111 0.08498396 0.09153912 0.046392124
0001d0 4a ca 25 3e 88 01 88 3e e9 3e da 3e c5 d9 77 3e
       0.16190448 0.26563668 0.42626122 0.24204166
0001e0 38 cb 1c 3d 98 ff 24 bd 9a 9f 85 3e 1c 00 d0 bd
       0.038279742 -0.040282816 0.2609833 -0.10156271
0001f0 a5 d4 7c be d4 f0 51 be cf fc 81 3e 70 aa f8 bd
       -0.24690492 -0.20502025 0.2538819 -0.121418834

module_list.1.0.weight f4 [64, 128]
000000 a4 f1 5b 3d 94 8d 11 be c2 6d 0e 3d 80 e8 bc 3c
       0.053697243 -0.14214164 0.034772642 0.023060083
000010 2d f6 f1 3c cf f9 05 bd 7b c7 06 be ac 9f af bc
       0.029536331 -0.03270894 -0.13162033 -0.021438442
000020 ca ef a1 bc 26 09 bc 3d 31 85 99 3d da 76 47 bd
       -0.01976766 0.091814324 0.07496107 -0.04869733
000030 c7 80 fc bd 70 04 96 bc 6f 15 69 3d bb 56 cc bd
       -0.1232925 -0.018312663 0.056905206 -0.0997748
000040 b6 40 c8 3d 04 52 c9 bd 9a 9e 80 bd 41 20 5b bd
       0.09777968 -0.09830096 -0.06280251 -0.053497557
000050 76 e3 08 3d de d8 06 be 13 e0 1b be 02 7e 29 be
       0.03342005 -0.13168666 -0.15222196 -0.16551974
000060 96 cc 79 3c b7 86 4d bd 5d 1e 0f bd 51 19 99 bd
       0.015246531 -0.050177302 -0.034941066 -0.07475532
000070 47 35 0e bd 3e b1 db 3d 0c 42 66 3d 8d bd 92 bd
       -0.034718778 0.10727166 0.05621533 -0.0716506
000080 76 84 b8 bc 19 52 1d bd d9 0e 20 bd 76 20 9c bd
       -0.0225241 -0.038408373 -0.03907666 -0.07623379
000090 1b 09 b1 3d 6d 6b 9c 3d 83 53 b5 bd e5 e0 01 be
       0.08644315 0.07637677 -0.08853819 -0.12683447
0000a0 24 7c de bd d6 ae 45 bd a5 bd 86 3d 70 e0 c4 bd
       -0.10863522 -0.04826244 0.065791406 -0.096131206
0000b0 d5 de 05 bc 11 9e 97 3d 96 a0 88 3c ac c9 15 3e
       -0.008170803 0.07403196 0.016678136 0.14627713
0000c0 84 99 86 bd 42 63 d1 3d c3 30 9b 3d ce 42 eb 3d
       -0.065722495 0.1022401 0.0757766 0.11487351
0000d0 5a bc 04 3e 4f 01 e8 bd 60 d7 02 bd 04 7e 28 bc
       0.12962475 -0.113283746 -0.03194368 -0.010283951
0000e0 2e aa 00 bd 95 f3 32 be eb ca 96 bd f2 61 dc bd
       -0.031412296 -0.17475732 -0.07362922 -0.10760869
0000f0 23 79 ff bd f5 64 34 bc d6 97 23 3e 9a 11 3d be
       -0.12474277 -0.011010398 0.1597589 -0.18463746
000100 16 2f 9d bd d2 0e 4c 3c 2d 09 b9 3c 44 64 14 bd
       -0.076749966 0.012454705 0.022587383 -0.036228433
000110 67 94 24 be c2 62 06 bc 82 29 ed 3c 7c 36 82 3d
       -0.16072236 -0.008202257 0.028950457 0.06358048
000120 cc 22 2c bd 76 d6 45 bd dc 75 8a bd 25 4b c2 bc
       -0.042025372 -0.04830023 -0.06760761 -0.023717472
000130 66 41 10 be 7e d1 44 3d ac 1f c5 bd 22 10 de 3d
       -0.14087448 0.04805135 -0.096251816 0.10842921
000140 ae dc b1 3c dd 22 ef 3d 1d 1d 33 3b b0 d3 55 bd
       0.021711674 0.116765715 0.0027330585 -0.052203834
000150 cd 52 08 be 7a b1 53 3c 09 ee 92 bd ad 84 ac bb
       -0.13312836 0.012920732 -0.07174308 -0.0052648396
000160 79 d9 40 bc 58 7f de bd 95 47 fa 3c 2f da f1 38
       -0.0117705995 -0.10864133 0.030551711 0.000115324154
000170 48 33 7f bd a4 5e 92 3b f6 18 f9 bc e8 b4 25 be
       -0.062304765 0.0044668484 -0.03040741 -0.16182292
000180 d7 f3 f9 3d 7e 99 8a bd d7 34 22 bd 1b d6 17 be
       0.12204712 -0.067675576 -0.039601173 -0.14827769
000190 1c bf 91 bd 20 e8 89 3a 3e 2e cd bd b8 2e ee bc
       -0.07116529 0.0010521449 -0.100185856 -0.029075012
0001a0 ac 80 de bc 73 4b ca bd 50 d5 6b bd ff 39 03 bd
       -0.027160965 -0.09877672 -0.057576478 -0.03203773
0001b0 0b 83 ae bc 9a d0 ad bd 12 d8 27 bd 6c 7b e3 3d
       -0.02130272 -0.08487053 -0.040977545 0.11107525
0001c0 8c 43 07 3e c6 65 06 3e 9a cc 15 3e ac 54 25 bc
       0.13209361 0.13124761 0.1462883 -0.010090988
0001d0 6d 18 80 3d 03 5b 7e 3d f5 22 35 bc cc b6 45 3d
       0.06254659 0.062098514 -0.011055698 0.04827003
0001e0 67 66 aa 3d ce 68 2b 3e 86 9e c1 3d de e5 b5 3c
       0.08320313 0.16739199 0.09454064 0.022204336
0001f0 ad c6 22 3c d1 04 9f 3c 18 74 d9 3c 96 c9 bb bd
       0.009935063 0.019411476 0.026544616 -0.09169309
000200 d7 3f 95 3c ad 08 e2 bd 79 37 a6 3c 42 1c 77 bd
       0.018218918 -0.11036811 0.020290123 -0.060329683
000210 ca 2e 8d 3d a7 7f 25 bd 19 6c c1 bd a1 65 39 3d
       0.0689369 -0.040404942 -0.09444446 0.045262937
000220 99 98 64 bd ed 18 bc bd 9b 6d 9a 3d ac b6 9c bd
       -0.05580959 -0.09184442 0.07540437 -0.076520294
000230 f7 10 6c bd 9f 7a bf bd 9f 90 a0 3d ee aa 74 bc
       -0.057633366 -0.0934956 0.07840084 -0.014933331
000240 60 bc 2c bd 97 24 0a 3d b0 d0 ea bd dc 16 02 3d
       -0.042171836 0.0337263 -0.11465585 0.03176008
000250 25 51 02 be ad 9d 6f 3d 83 19 a2 bd 51 02 82 bd
       -0.12726267 0.05849998 -0.07915022 -0.06348098
000260 39 05 a7 3d bc 7b 1d bd 67 89 00 3e 6a d0 b5 3c
       0.08155293 -0.03844808 0.12552415 0.022194106
000270 01 e2 3e 3d ff bf 94 bd 37 15 96 bd 7f 8c c7 bd
       0.046602253 -0.07263183 -0.07328265 -0.097435944
000280 5c 70 d5 3d b3 e1 c5 ba e0 0d 82 3d 44 3a 5b bc
       0.104218215 -0.0015097171 0.06350303 -0.013380591
000290 6a 81 83 bc 46 27 08 3e 7e ad 43 bd d1 4e 49 bd
       -0.01605292 0.13296232 -0.047772877 -0.04914743
0002a0 23 5d c0 bd b4 ad c3 bd 04 88 a1 3d 26 12 73 bd
       -0.093927644 -0.095546156 0.07887271 -0.05934348
0002b0 6f 53 59 bd 84 e7 9b bd 02 6a 69 bd 87 fd 6b bd
       -0.053058084 -0.076125175 -0.056985863 -0.05761483
0002c0 5b c8 a7 bd 26 31 d7 3d c9 7c 95 3d 3e 91 ba 3c
       -0.08192512 0.10507421 0.072991915 0.022774335
0002d0 8b 80 56 bc 0b 34 3c bd bf 42 84 bd 71 80 bf 3d
       -0.0130921705 -0.04594807 -0.06458043 0.0935067
0002e0 7e 80 e4 3c 43 90 e0 bc 67 fa c4 bd cb 98 29 3c
       0.027893301 -0.02741254 -0.09618073 0.01035137
0002f0 79 72 2b be 40 15 b1 bd 22 89 be 3d c2 d7 f3 bd
       -0.16742887 -0.08646631 0.093035 -0.11906387
000300 83 71 45 3d d2 b3 52 bd 16 84 40 bd cf ca ea bc
       0.048203956 -0.05144102 -0.047000967 -0.02866116
000310 83 f1 cd bb 8c bf 24 3e ac 79 a9 bd 9c 54 91 bd
       -0.006284894 0.16088694 -0.0827516 -0.07096216
000320 b9 f3 61 3c 64 f3 0c 3e e9 2c 7e ba e4 f3 55 bd
       0.013791018 0.13764721 -0.0009696023 -0.052234545
000330 f6 0d 9c bd 96 80 13 be 87 a7 8c bd fe 3f b9 3d
       -0.0761985 -0.1440452 -0.06867891 0.09045409
000340 47 fd 97 bd e0 46 24 3d 17 45 1d be 5f d6 d9 bd
       -0.07421356 0.040106654 -0.15358387 -0.10636591
000350 43 4a 9f bd 2d 38 e5 3c 80 9f 3c bd 58 10 da 3d
       -0.07777836 0.027980888 -0.04605055 0.106476486
000360 fe e7 03 3c 71 55 85 bd f0 2e d7 bb f1 b8 43 bd
       0.008050917 -0.06510437 -0.0065668747 -0.047783796
000370 af c9 16 3d 37 ba 70 3d da 99 3c 3d e0 cd 07 3d
       0.036813434 0.05877134 0.04604516 0.033155322
000380 df ac e4 3d 5a c8 fc bc 11 1f 1e bc e1 9e 33 bd
       0.11165785 -0.030857254 -0.0096509615 -0.04385269
000390 99 84 07 bd b7 a2 06 bd ae 59 0a 3c cb 5c 99 bd
       -0.03308544 -0.03287002 0.008444233 -0.07488402
0003a0 96 dd 0d 3d cb e0 93 3d 59 c2 10 3d ac 95 7b bd
       0.03463515 0.0722061 0.035341594 -0.061422035
0003b0 ef f2 e6 bd d3 90 30 bd 0a c6 a6 3c 58 d2 a8 3d
       -0.11276805 -0.043106865 0.020358104 0.08243245
0003c0 92 9f dc 3d ff 93 7c bd 57 aa d7 3d 71 68 72 3d
       0.10772623 -0.061664578 0.105305366 0.059181634
0003d0 26 69 6d 3d 52 4e 10 3d 68 96 43 3c 99 cd 21 3d
       0.057961605 0.035230942 0.011937715 0.039502714
0003e0 bc 81 f2 3d ba 48 33 3e 1a 0a c8 bb 23 7f 7a 3d
       0.11841151 0.17508212 -0.00610472 0.061156403
0003f0 23 f1 66 bd 1c 56 02 3e aa a8 e2 bc 15 b3 9c bc
       -0.05638231 0.1272816 -0.027668316 -0.019128362

module_list.1.0.bias f4 [64]
000000 4a bb 37 bd 48 00 56 3d 6c aa 58 ba b0 a1 a2 bb
       -0.044856347 0.052246362 -0.0008265141 -0.0049631223
000010 e9 86 a4 3d 91 14 00 3d 71 5e 12 3c 58 30 85 3d
       0.080335446 0.031269614 0.008933649 0.065033615
000020 1d 53 41 bc 25 12 dc bd c1 d0 92 3a c0 36 a4 3d
       -0.011799601 -0.10745648 0.001120113 0.08018255
000030 ce ba e2 bb ae e1 9d 3d 5c 76 f2 3d 9d af 4d 3d
       -0.0069192415 0.077090606 0.118389815 0.050216306
000040 f4 da 26 bd 6d 8a 62 bd e0 95 18 3d 32 ef 84 bb
       -0.040736154 -0.055307794 0.037252307 -0.0040568346
000050 89 79 c7 3d cb 04 a2 3d 3d 45 88 bd 8b 3d 88 3c
       0.09739978 0.079110704 -0.06653831 0.016630908
000060 db f7 9b 3b 1d ca b3 3c 32 86 22 3d fe f8 01 3e
       0.0047597713 0.021946961 0.03967876 0.12692639
000070 1d 4f 64 bd 65 f4 9d bc a3 be 1d bd b6 21 8b bd
       -0.05573951 -0.019281575 -0.038511883 -0.06793539
000080 da b5 35 bd 6e 65 1b 3d f4 c2 94 bd a6 59 de 3c
       -0.04436288 0.037938528 -0.07263747 0.027142357
000090 4a ab aa bd 86 ff 84 bd 66 52 e2 3c 89 07 cc 3b
       -0.08333452 -0.0649405 0.027627181 0.006226484
0000a0 e4 ac 37 3d 9a ec 07 bd 0d 12 b3 bd 23 41 09 be
       0.044842616 -0.033184625 -0.08743677 -0.13403754
0000b0 6d 1f e5 3d 2a 9d b8 bd fb 81 0a bd 1c 8e b5 3b
       0.111876346 -0.09014352 -0.033815365 0.0055406224
0000c0 94 5c 46 bd 87 1b aa bd 91 84 be 3d 72 a7 d4 bb
       -0.048428133 -0.08306032 0.09302629 -0.0064896876
0000d0 d2 bb a9 3c b7 5d 32 bd 05 06 4f bd be 31 93 3c
       0.020719443 -0.043546405 -0.05054285 0.017968055
0000e0 13 ca be 3c a1 25 14 3c 9b 16 26 3d 5f 4f 26 bd
       0.023289716 0.009042175 0.040548902 -0.040603038
0000f0 92 62 10 bd 5b 6c c5 bc a7 54 15 ba 40 26 2e bd
       -0.035250254 -0.02409952 -0.0005696513 -0.042516947

module_list.2.weight f4 [1, 64]
000000 86 cb 50 be 7b 76 23 be ed 63 98 3d 35 14 bb 3d
       -0.20390138 -0.15963165 0.07440934 0.091347136
000010 ea ae 39 be f5 2c 0a be ba 4f ce 3d cb b0 00 be
       -0.1813313 -0.13493712 0.100738004 -0.12567441
000020 43 f5 a7 3d a3 29 fe bd e4 97 8f bd dc cb 0c 3e
       0.08201077 -0.12410285 -0.07011393 0.13749641
000030 4f 3b 15 3e 73 7a a8 bd 44 bf 98 3d d9 92 9c 3c
       0.14573406 -0.0822648 0.07458356 0.019112991
000040 83 30 db bd 12 f0 e5 3d 41 88 09 3e f6 64 1d 3e
       -0.10702612 0.112274304 0.13430883 0.15370545
000050 1f f5 06 be 38 ce df bd c7 96 a9 3d 67 44 89 3c
       -0.13179444 -0.10928005 0.082807116 0.01675625
000060 e4 32 fa bd 71 e3 3e 3e 72 b7 32 be 34 62 0b 3e
       -0.12216738 0.1864145 -0.17452791 0.1361168
000070 62 19 25 3e a9 85 a9 3a 81 7a a1 3d 1c d0 ba 3d
       0.16122964 0.0012933511 0.07884694 0.09121725
000080 54 c8 0b be e6 5e 07 3d 59 d6 a8 3d e3 0e 53 bd
       -0.13650638 0.033049487 0.082440086 -0.05152787
000090 b9 86 b4 bd 35 b6 4a be 37 57 0d 3e ec db 90 3d
       -0.08814759 -0.19796069 0.13802801 0.07073197
0000a0 83 b8 ff 3d ff e6 ef bd 94 17 1b be 83 f8 35 be
       0.12486365 -0.11713981 -0.15145713 -0.17770581
0000b0 5c 77 62 3d 2d b1 21 be 8f cb a0 3d f7 30 05 3e
       0.05528961 -0.15790243 0.07851326 0.1300696
0000c0 85 20 0f be af e4 f0 bd fb fc 02 3e 6e 80 fa bd
       -0.13977249 -0.11762368 0.12791817 -0.12231527
0000d0 4a 07 25 be ca d2 e3 3d aa 56 0b 3e 58 b1 1a 3e
       -0.16116062 0.11124189 0.13607278 0.15106714
0000e0 d8 2d 8d bd ab ff 15 3d be 74 d2 3d 96 7e bf 3d
       -0.068935096 0.036620777 0.10276173 0.09350316
0000f0 62 35 1c be 33 99 28 3e 0d d1 33 3d df 35 0e 3e
       -0.15254739 0.16464691 0.04390054 0.13887738
