saved_models_MLP/exp-ib1-fcc/mlp_ms_fcc_ratio1_seed2_epoch300.pt (torch, 38935 bytes, 5 tensors)

module_list.0.weight f4 [128, 6]
0.14644808 0.37752166 0.08947195 0.23996432 -0.35837972 -0.12961566 -0.13260037 -0.27395838
-0.42628828 -0.17340948 0.13665715 0.30084056 0.29255372 -0.08367995 -0.08557389 -0.22584647
-0.33824387 0.15368897 0.074339844 0.098095395 -0.20078133 0.06855956 0.023213603 0.0029456317
-0.24964345 -0.12708874 0.25593346 0.6011394 -0.22245654 0.33840477 -0.013287389 -0.07677781
-0.223536 -0.56827205 0.50651914 0.1045956 -0.10533614 -0.36718804 -0.14837493 0.08850787
-0.6125618 0.03177896 0.019262765 0.1337989 -0.15365721 0.18269038 0.54472595 -0.24227513
0.26503935 -0.0586742 -0.003077469 0.10412007 0.19142762 0.18802059 0.2987128 0.12366033
-0.07202277 0.26979962 -0.1197838 0.23623508 0.18485329 -0.18745133 0.01948044 -0.25701737
0.23864587 0.12612295 -0.016869817 -0.31404367 -0.23631209 0.4130335 0.3602715 0.36973274
-0.20196001 -0.3375031 -0.19025855 -0.29227382 -0.34376004 -0.2921913 -0.08539583 -0.39613146
0.50118077 -0.093676895 0.45760214 -0.24388951 -0.06249618 -0.053692553 -0.3303073 -0.578289
0.30351806 0.21887904 0.2102214 -0.25824022 0.41597173 0.14930806 -0.22212686 0.338525
-0.045005213 -0.030024981 0.3555532 0.6266044 0.059023675 0.18795228 0.16682145 0.042903498
-0.030956475 0.07930052 0.21113771 -0.07400566 -0.20294712 0.2721807 0.24663842 0.11089381
0.43868697 -0.08855826 0.10378705 0.014379041 -0.14987421 0.18972932 -0.2229657 0.100990295
-0.21505876 0.089365296 -0.09611021 0.36181456 0.34925646 0.14669096 -0.115675054 0.06762487
0.10984534 -0.22245613 -0.35639185 -0.2727815 -0.31774205 0.38954562 0.35825455 0.014502327
0.07433212 -0.21832465 -0.16391483 0.41584125 -0.12714061 -0.64248693 0.2928825 0.0044561923
0.24571256 0.3584949 0.35412556 0.08810525 -0.17117706 0.1909635 0.3838436 -0.11889865
0.086526506 0.27856573 -0.3945027 0.38926178 0.12909232 0.13717394 -0.0066077285 0.19249101
0.027831808 0.077658206 -0.38162482 -0.2703013 -0.013504882 -0.4533298 0.096518956 0.31878597
0.28264534 0.037565365 0.4308489 -0.26753256 -0.018601269 0.12677556 -0.32992798 0.1672045
0.4410732 -0.32397628 0.19781442 -0.2761257 0.3317874 -0.22242145 0.06551922 -0.0012252256
0.34579766 -0.1493093 -0.317059 0.2173153 0.095556445 -0.434937 0.41565254 -0.3351333
-0.12368468 -0.042662483 -0.41173247 -0.51738656 0.3023783 0.3640598 0.27600458 0.053113446
-0.09725316 0.2551628 -0.19992213 0.13907403 -0.18248229 -0.25337198 -0.102022685 -0.055944294
-0.3691969 0.35936332 0.1101246 0.30901155 0.117594965 0.26928434 0.20484903 0.3288604
0.23944044 0.033004034 -0.063260585 0.5660094 -0.18493597 0.33275092 0.28725517 0.17265128
-0.07305545 -0.32149798 0.05464736 -0.10768837 -0.11019706 0.1530177 -0.329274 -0.5532766
0.32704547 0.072291315 -0.3556601 0.011814674 0.23401643 0.2421971 -0.41776776 0.05766946
-0.025043547 0.024910906 0.32196513 0.15875416 0.53030765 0.20106876 -0.062006254 -0.38765973
0.3079685 0.19650598 -0.48058477 -0.36885828 0.15918702 -0.04230699 -0.44248083 0.4289746
00000000: 7cf6 153e 854a c13e 123d b73d 35b9 753e
00000010: 8c7d b7be f8b9 04be 64c8 07be 4644 8cbe
00000020: 7542 dabe 4192 31be daef 0b3e c607 9a3e
00000030: 9ac9 953e 6560 abbd 5d41 afbd 4c44 67be
00000040: 4d2e adbe a460 1d3e 7d3f 983d 3de6 c83d
00000050: 9f99 4dbe f468 8c3d 742a be3c 800b 413b
00000060: 88a2 7fbe 8d23 02be b609 833e 46e4 193f
00000070: a6cb 63be 6443 ad3e 59b3 59bc af3d 9dbd
00000080: 9fe6 64be 477a 11bf 3dab 013f 3836 d63d
00000090: 79ba d7bd 1200 bcbe 99ef 17be 9d43 b53d
000000a0: dad0 1cbf a82a 023d f2cc 9d3c 9402 093e
000000b0: 5158 1dbe 3013 3b3e 2973 0b3f f916 78be
000000c0: 3db3 873e 5c54 70bd 5daf 49bb e73c d53d
000000d0: 9a05 443e 7888 403e e2f0 983e a141 fd3d
000000e0: ad80 93bd 2d23 8a3e 3551 f5bd 9ce7 713e
000000f0: 2e4a 3d3e 3ef3 3fbe 7295 9f3c c897 83be
00000100: 955f 743e 6026 013e 9232 8abc 55ca a0be
00000110: ccfb 71be 2079 d33e 8275 b83e 9c4d bd3e
00000120: 9bce 4ebe 35cd acbe 23d3 42be eaa4 95be
00000130: 5101 b0be 199a 95be 02e4 aebd bed1 cabe
00000140: 624d 003f acd9 bfbd d44a ea3e 2cbe 79be
00000150: fffb 7fbd b9ec 5bbd 0a1e a9be bf0a 14bf
00000160: b866 9b3e d421 603e 4744 573e 1038 84be
00000170: 3ffa d43e 36e4 183e 3975 63be 2653 ad3e
00000180: 6357 38bd f3f6 f5bc 120b b63e 2569 203f
00000190: cfc2 713d 9076 403e 3ed3 2a3e 94bb 2f3d
000001a0: 6f98 fdbc 5068 a23d 7c34 583e 4890 97bd
000001b0: 5fd1 4fbe 455b 8b3e c88e 7c3e 4b1c e33d
000001c0: 949b e03e 085e b5bd 4e8e d43d 1296 6b3c
000001d0: a078 19be 6748 423e 1f51 64be 00d4 ce3d
000001e0: 5d38 5cbe 2705 b73d 6ed5 c4bd c23f b93e
000001f0: bed1 b23e 2836 163e 0be7 ecbd e87e 8a3d
00000200: 98f6 e03d 8acb 63be fe78 b6be 04aa 8bbe
00000210: 16af a2be 8672 c73e 246d b73e 2b9b 6d3c
00000220: 703b 983d 7f90 5fbe 4ad9 27be 25e9 d43e
00000230: 2631 02be 067a 24bf b2f4 953e 4005 923b
00000240: 139c 7b3e a58c b73e f24f b53e 8670 b43d
00000250: 0a49 2fbe f08b 433e 2687 c43e 2381 f3bd
00000260: cf34 b13d 2ba0 8e3e 42fc c9be 524d c73e
00000270: c730 043e 5377 0c3e a585 d8bb 5d1c 453e
00000280: 88ff e33c 440b 9f3d 5464 c3be ef64 8abe
00000290: 9543 5dbc d81a e8be bbab c53d ea37 a33e
000002a0: e4b6 903e 24de 193d 3a98 dc3e 07fa 88be
000002b0: b061 98bc 74d1 013e 52ec a8be a837 2b3e
000002c0: 59d4 e13e 38e0 a5be dd8f 4a3e 5960 8dbe
000002d0: 0ae0 a93e 73c2 63be f12e 863d c097 a0ba
000002e0: 640c b13e 8ae4 18be 8f55 a2be e787 5e3e
000002f0: 19b3 c33d 10b0 debe 69d0 d43e 9896 abbe
00000300: 654e fdbd dbbe 2ebd 99ce d2be 7273 04bf
00000310: 54d1 9a3e 0c66 ba3e 7950 8d3e 7c8d 593d
00000320: aa2c c7bd b3a4 823e 63b8 4cbe 6c69 0e3e
00000330: a3dc 3abe f9b9 81be 45f1 d0bd d825 65bd
00000340: 6007 bdbe 78fe b73e 0289 e13d c336 9e3e
00000350: a1d5 f03d a3df 893e f2c3 513e 6460 a83e
00000360: e02f 753e 3d2f 073d c48e 81bd fee5 103f
00000370: db5f 3dbe 545e aa3e 1c13 933e 7fcb 303e
00000380: 199e 95bd 629b a4be e9d5 5f3d b88b dcbd
00000390: ffae e1bd acb0 1c3e 9a96 a8be 89a3 0dbf
000003a0: 8172 a73e 780d 943d 1519 b6be 5692 413c
000003b0: 01a2 6f3e 8402 783e a8e5 d5be d036 6c3d
000003c0: 2028 cdbc f511 cc3c 9dd8 a43e 7390 223e
000003d0: 3ec2 073f f8e4 4d3e 45fa 7dbd 567b c6be
000003e0: 0cae 9d3e dd38 493e 350f f6be feda bcbe
000003f0: ec01 233e 184a 2dbd d98c e2be 8fa2 db3e

module_list.0.bias f4 [128]
0.08623132 0.40235344 -0.3768832 -0.21761386 -0.0198579 0.20832746 0.35217437 0.29107195
0.20337409 -0.027193805 0.027802372 -0.2015388 -0.19280303 0.25484726 0.15282498 0.08618485
0.31135654 0.21736541 0.13134587 0.4578878 -0.008836951 -0.40284294 -0.30925107 -0.03508761
-0.33031902 -0.042818677 -0.4312203 0.3268191 0.0010117647 -0.30350325 0.014541911 -0.098752335
0.29232928 0.32359925 0.019066714 0.4060518 -0.24888714 0.11725113 -0.20472947 0.15056196
0.0031820496 0.15611598 0.046232935 -0.14618935 0.16816717 -0.23716086 -0.10297607 0.11992833
-0.33988863 -0.25857958 -0.06131696 -0.019610478 0.24553709 0.15545328 -0.42918223 -0.3076022
0.40470883 0.055434573 0.0967431 -0.025036227 -0.4329065 0.3293501 -0.3921785 0.012470671
0.37063628 0.028347753 -0.15398142 -0.23369254 0.20181678 -0.23779887 -0.4626508 0.18359496
0.08457248 0.061249595 0.48807406 -0.24918409 0.13928218 -0.3709951 0.41325417 0.2761874
-0.057013907 -0.43947002 -0.39509663 0.3149255 0.34548834 -0.2400761 0.16831112 -0.24493767
-0.2044515 0.12149378 -0.10616305 0.257957 -0.06190639 -0.32902953 0.20926337 0.2035136
-0.008443849 0.20773922 -0.24273449 0.22877128 0.032355636 0.09314122 0.10033818 0.4374821
0.4689003 -0.41383314 0.10672398 -0.39825025 0.0864591 0.25654563 -0.13680027 0.103258654
-0.31856787 0.16731659 0.035536256 0.2405751 0.15368035 -0.19845426 -0.34732565 0.27887174
0.03746701 -0.060288038 0.40353045 -0.09458055 -0.35920295 -0.12991084 0.3444832 0.29585424
00000000: 0c9a b03d 4501 ce3e d6f6 c0be 2bd6 5ebe
00000010: 09ad a2bc cb53 553e 3350 b43e 6207 953e
00000020: 4c41 503e 8bc5 debc cdc1 e33c 3060 4ebe
00000030: 286e 45be 577b 823e 277e 1c3e af81 b03d
00000040: 206a 9f3e 0a95 5e3e 887f 063e 4570 ea3e
00000050: dcc8 10bc 6e41 cebe 2856 9ebe 07b8 0fbd
00000060: 931f a9be a362 2fbd e8c8 dcbe d554 a73e
00000070: 319d 843a c764 9bbe 3241 6e3c aa3e cabd
00000080: 2fac 953e cdae a53e cc31 9c3c 06e6 cf3e
00000090: 45dc 7ebe 5c21 f03d 9aa4 51be ea2c 1a3e
000000a0: ef89 503b dedc 1f3e bf5e 3d3d a9b2 15be
000000b0: 0434 2c3e 4cda 72be 1ee5 d2bd fc9c f53d
000000c0: e205 aebe 8b64 84be 7e27 7bbd 27a6 a0bc
000000d0: 136e 7b3e 252f 1f3e c6bd dbbe 097e 9dbe
000000e0: ff35 cf3e 5d0f 633d 3f21 c63d c618 cdbc
000000f0: eca5 ddbe 94a0 a83e 9fcb c8be c951 4c3c
00000100: 0ac4 bd3e 8c39 e83c 4ead 1dbe 194d 6fbe
00000110: 0fa9 4e3e 8c81 73be 91e0 ecbe 5100 3c3e
00000120: 5634 ad3d dbe0 7a3d d8e4 f93e 1d2a 7fbe
00000130: fd9f 0e3e 12f3 bdbe 0d96 d33e 6f68 8d3e
00000140: 6a87 69bd 3702 e1be 1b4a cabe ea3d a13e
00000150: d9e3 b03e 82d6 75be c059 2c3e f1d0 7abe
00000160: bc5b 51be bbd1 f83d 036c d9bd f112 843e
00000170: 8e91 7dbd 8f76 a8be 2349 563e df65 503e
00000180: 1258 0abc 97b9 543e 648f 78be 0543 6a3e
00000190: 5887 043d d3c0 be3d 1b7e cd3d a7fd df3e
000001a0: b313 f03e f0e1 d3be 1a92 da3d 75e7 cbbe
000001b0: 7811 b13d f359 833e 5f15 0cbe 4679 d33d
000001c0: 541b a3be 0a55 2b3e 778e 113d 5259 763e
000001d0: 625e 1d3e 9837 4bbe abd4 b1be 47c8 8e3e
000001e0: 0277 193d 97f0 76bd 8b9b ce3e 73b3 c1bd
000001f0: 73e9 b7be 5907 05be 1a60 b03e 357a 973e

module_list.1.0.weight f4 [64, 128]
0.15527622 -0.08921725 0.23938392 0.2628291 0.1083881 -0.1782916 -0.07563889 -0.06384766
-0.07791254 0.09811903 -0.072682716 0.13602462 0.0381439 -0.13848962 -0.23340262 -0.06347694
-0.036444504 0.014910611 -0.14455679 -0.014786371 -0.016595233 0.019342862 -0.031719062 -0.09188951
0.22286294 0.09876741 0.27566707 -0.16484246 0.013594119 -0.014294811 -0.020987915 -0.11696911
-0.15366666 0.020587971 -0.08846935 -0.0817534 0.23029034 0.067232475 -0.025527388 -0.17146209
-0.12159034 0.011916163 0.16857658 0.06838867 0.011316883 0.09759955 0.008380046 -0.083539486
0.05364178 0.08279513 -0.0023446241 -0.024226194 -0.09437727 -0.037518565 0.19618312 0.016241292
-0.03863346 -0.025734974 -0.0281265 -0.11707765 0.18300457 -0.20964076 0.08670942 0.04596579
0.008938131 -0.13704367 0.05416637 -0.017311173 0.00032823233 -0.0314118 0.10220307 0.1148815
-0.20119818 -0.04843404 -0.41029087 0.12020274 -0.16553769 0.055843484 -0.14625788 -0.03780145
-0.16528307 -0.032909237 0.029482644 -0.02885953 -0.019479284 0.19280545 -0.19660142 0.1744287
0.0757248 -0.07018051 -0.023893362 -0.0097518535 0.019242873 0.15995114 -0.18773878 0.013278248
0.17528363 -0.15046386 0.050177887 0.07091687 -0.12791792 -0.2590017 -0.13758557 -0.1853433
-0.053273328 0.10792797 -0.11895854 0.07053979 0.04201464 -0.21567957 -0.034495488 -0.15617514
-0.12460277 -0.22903696 0.09139808 0.14610185 -0.029789366 0.043158665 0.2267315 -0.09626957
-0.103387274 0.054557264 -0.027162565 -0.01700952 0.07614761 -0.012287053 -0.101315916 -0.08151609
-0.032705728 -0.24983746 0.17502664 0.0670766 -0.08092785 -0.08555202 -0.24742988 -0.13774972
-0.01987937 0.030345716 0.13424599 0.041489135 0.036217507 0.091700904 -0.014934214 0.034351874
-0.18963414 -0.054893065 -0.06956051 -0.1387896 -0.13926421 0.06678962 0.017071065 -0.021145456
0.21912405 0.026529929 0.06544382 -0.14019744 0.07639573 0.08499524 0.06703813 -0.03245136
-0.13279861 0.0188467 -0.033017762 -0.045207787 0.08391998 0.017989924 0.11990212 -0.04607035
0.1006708 -0.11343135 -0.008754971 0.14202651 -0.055707037 0.021932552 -0.021519056 -0.102486804
0.090624556 -0.018045839 0.13697273 -0.028928567 -0.09515482 0.057853892 0.008849553 0.044242173
-0.069316715 0.09328158 0.016913954 -0.04333224 0.14905205 -0.22298807 0.110378385 0.19829802
-0.03714269 0.18422367 0.26211062 0.15460746 -0.20302415 -0.0018140933 -0.0349943 0.02544407
-0.08310052 0.2135971 -0.019115673 0.08208906 -0.13817297 -0.04323191 -0.24736066 -0.011269443
-0.00545764 0.16069843 0.103902556 -0.053646162 -0.058017503 0.04355086 0.07395929 0.17486845
0.18443407 0.08297034 -0.048270114 -0.09323106 0.09895178 0.027108282 -0.021239959 0.08998105
0.025345132 -0.11246616 -0.024822412 -0.02125791 -0.037425097 0.17984177 -0.11945325 -0.16329953
-0.15364198 0.19233653 -0.031969972 0.19286598 -0.030652193 -0.15678786 0.009032001 0.091627076
0.04948246 -0.07626313 -0.031354446 -0.05947883 -0.18802953 0.087050416 0.15177661 0.009735091
-0.0018507784 -0.14776097 0.009002476 0.007735716 0.011430776 0.10317202 -0.16115627 -0.31215882
00000000: bb00 1f3e 89b7 b6bd 0f21 753e 8991 863e
00000010: 95fa dd3d 1392 36be 90e8 9abd 90c2 82bd
00000020: 9c90 9fbd a1f2 c83d adda 94bd 0a4a 0b3e
00000030: c73c 1c3d 39d0 0dbe 1901 6fbe 3300 82bd
00000040: d546 15bd a34b 743c b206 14be 8942 72bc
00000050: baf2 87bc ec74 9e3c d9eb 01bd 9130 bcbd
00000060: 2f36 643e 9146 ca3d 3c24 8d3e 76cc 28be
00000070: deb9 5e3c c834 6abc d9ee abbc 808d efbd
00000080: cb5a 1dbe 1ba8 a83c 6b2f b5bd 546e a7bd
00000090: 3bd1 6b3e 2eb1 893d d01e d1bc c293 2fbe
000000a0: 5b04 f9bd 033c 433c 579f 2c3e 5c0f 8c3d
000000b0: 736a 393c 46e2 c73d 764c 093c c016 abbd
000000c0: 7cb7 5b3d 7e90 a93d 44a8 19bb 0376 c6bc
000000d0: df48 c1bd 11ad 19bd 3ae4 483e 750c 853c
000000e0: 1e3e 1ebd 27d2 d2bc 8c69 e6bc 68c6 efbd
000000f0: 8d65 3b3e 11ac 56be b594 b13d a046 3c3d
00000100: 3d71 123c 2d55 0cbe 8edd 5d3d 29d0 8dbc
00000110: 9916 ac39 a9a9 00bd d84f d13d fe46 eb3d
00000120: e506 4ebe c662 46bd a511 d2be db2c f63d
00000130: b682 29be 23bc 643d a0c4 15be b1d5 1abd
00000140: f73f 29be d6cb 06bd 9685 f13c d26a ecbc
00000150: 0593 9fbc cb6e 453e e251 49be 709d 323e
00000160: 9b15 9b3d cdba 8fbd 03bc c3bc 3dc6 1fbc
00000170: 3ba3 9d3c 3bca 233e 983e 40be 028d 593c
00000180: 8d7d 333e 3313 1abe 5487 4d3d dd3c 913d
00000190: eafc 02be df9b 84be 3be3 0cbe a2ca 3dbe
000001a0: 2235 5abd 5709 dd3d 89a0 f3bd 2a77 903d
000001b0: 8b17 2c3d 1bdb 5cbe 244b 0dbd 60ec 1fbe
000001c0: bd2f ffbd aa88 6abe eb2e bb3d b99b 153e
000001d0: d408 f4bc 24c7 303d 4d2c 683e fb28 c5bd
000001e0: b5bc d3bd 7077 5f3d 0784 debc 8d57 8bbc
000001f0: 47f3 9b3d a34f 49bc b87e cfbd e8f1 a6bd
00000200: 71f6 05bd 64d5 7fbe 2f3a 333e 755f 893d
00000210: 80bd a5bd e635 afbd 425e 7dbe 430e 0dbe
00000220: 10da a2bc 9497 f83c c877 093e 83f0 293d
00000230: cf58 143d afcd bb3d a2ae 74bc 8db4 0c3d
00000240: 742f 42be 8dd7 60bd be75 8ebd dc1e 0ebe
00000250: 479b 0ebe ffc8 883d 9ed8 8b3c 3c39 adbc
00000260: 0e62 603e 4b55 d93c 6907 863d eb8f 0fbe
00000270: 5d75 9c3d fc11 ae3d 494b 893d b8eb 04bd
00000280: 5cfc 07be 6564 9a3c a23d 07bd cd2b 39bd
00000290: 3dde ab3d 9b5f 933c 3e8f f53d 43b4 3cbd
000002a0: 7e2c ce3d b24e e8bd 0371 0fbc 666f 113e
000002b0: 102d 64bd e5ab b33c bb48 b0bc 9ae4 d1bd
000002c0: 5e99 b93d ded4 93bc 9442 0c3e 9afb ecbc
000002d0: 88e0 c2bd 34f8 6c3d b7fd 103c 4837 353d
000002e0: ecf5 8dbd 6a0a bf3d 228f 8a3c 267d 31bd
000002f0: 1aa1 183e fc56 64be 100e e23d a30e 4b3e
00000300: ef22 18bd 21a5 3c3e 5d33 863e 6b51 1e3e
00000310: 90e5 4fbe dfc6 edba 2f56 0fbd 1570 d03c
00000320: 9b30 aabd 33b9 5a3e 7998 9cbc 4f1e a83d
00000330: 377d 0dbe f113 31bd 1d4c 7dbe 78a3 38bc
00000340: 01d6 b2bb 218e 243e ddca d43d 14bc 5bbd
00000350: c3a3 6dbd 6362 323d f877 973d b710 333e
00000360: 49dc 3c3e 5bec a93d e2b6 45bd edef bebd
00000370: 3ba7 ca3d 3012 de3c 6cff adbc fc47 b83d
00000380: 98a0 cf3c a854 e6bd 5f58 cbbc 1225 aebc
00000390: 0f4b 19bd 7128 383e e8a3 f4bd fe37 27be
000003a0: 5354 1dbe def3 443e f2f2 02bd a97e 453e
000003b0: 4f1a fbbc ff8c 20be f5fa 133c faa6 bb3d
000003c0: 1fae 4a3d d82f 9cbd 856d 00bd 13a0 73bd
000003d0: d08a 40be 7d47 b23d 546b 1b3e ee7f 1f3c
000003e0: d195 f2ba a74e 17be 1f7f 133c e47b fd3b
000003f0: 2648 3b3c da4b d33d 2606 25be 48d3 9fbe

module_list.1.0.bias f4 [64]
-0.17442906 -0.18785772 0.054576095 -0.12717608 -0.03151639 -0.10361652 0.02968304 -0.028806109
-0.0073849754 -0.04943209 -0.024458623 0.08650698 0.0012644875 -0.030126676 0.059886128 0.08695381
-0.027994957 0.05786679 -0.030418932 -0.060894735 0.012887676 -0.07862372 -0.050119292 0.01371217
0.03889343 -0.020931628 0.022368597 -0.03242173 -0.021653127 -0.14022699 -0.013041357 -0.08405368
0.006042503 0.043363634 -0.032103486 0.12418602 -0.055925623 -0.091728166 0.054626852 0.016700502
-0.0056567127 -0.059396114 -0.0983883 0.08321474 0.039018147 0.060191218 -0.040753584 -0.10289665
0.047269303 0.06392211 -0.015288332 -0.0701057 0.034883704 0.0299089 -0.025153743 -0.054973077
0.09275414 -0.01039599 -0.014968489 0.062309783 0.04596247 -0.037373543 -0.017940173 0.04228635
00000000: 889d 32be c65d 40be 2f8b 5f3d 723a 02be
00000010: 5517 01bd e634 d4bd d929 f33c cafa ebbc
00000020: aafd f1bb 4e79 4abd 735d c8bc 922a b13d
00000030: 29bd a53a 38cc f6bc 284b 753d d714 b23d
00000040: ae55 e5bc ba05 6d3d 2031 f9bc c26c 79bd
00000050: d526 533c 7905 a1bd e349 4dbd 02a9 603c
00000060: b84e 1f3d ce78 abbc 593e b73c a6cc 04bd
00000070: e661 b1bc aa97 0fbe 6aab 55bc 5624 acbd
00000080: 3000 c63b 119e 313d f27e 03bd 3d55 fe3d
00000090: 4412 65bd fadb bbbd 68c0 5f3d 7ecf 883c
000000a0: f25b b9bb 5749 73bd ce7f c9bd 7d6c aa3d
000000b0: 7ed1 1f3d 118b 763d 3bed 26bd 7bbb d2bd
000000c0: 759d 413d 98e9 823d e97b 7abc 9493 8fbd
000000d0: 37e2 0e3d 8203 f53c 390f cebc 732b 61bd
000000e0: e2f5 bd3d f153 2abc 653e 75bc 8b38 7f3d
000000f0: 2543 3c3d 0015 19bd 45f7 92bc 7434 2d3d

module_list.2.weight f4 [1, 64]
0.16606696 0.21028787 0.07686682 0.12605383 0.10850487 0.13814771 -0.121103264 0.13350996
0.14200743 0.16213125 -0.1891566 -0.12899375 -0.14653586 -0.046542224 -0.1720558 0.12508708
0.120647654 0.00078749086 0.012298202 -0.08568758 -0.19871694 -0.18382102 0.14644867 -0.15519594
0.068271264 0.037554946 -0.07828553 -0.009707539 -0.10395426 -0.3335381 0.098577745 0.13233182
-0.06520903 0.15317939 -0.10522248 0.015574588 -0.10006516 -0.21881907 0.10123918 0.10055227
-0.097842366 0.12901917 0.055572413 0.12608725 0.046730485 0.034969967 0.06941231 -0.19676293
0.13575453 0.11238981 -0.16552792 -0.35029414 0.042303856 -0.05023424 0.1940018 -0.07496569
0.06848746 -0.1010181 -0.09540947 -0.105668865 0.06932815 -0.19510886 0.12568213 0.10321341
00000000: 750d 2a3e b455 573e 5a6c 9d3d 4114 013e
00000010: cd37 de3d 9876 0d3e fd04 f8bd d6b6 083e
00000020: 656a 113e bc05 263e 45b2 41be f016 04be
00000030: 7f0d 16be 0fa3 3ebd 652f 30be d416 003e
00000040: 1e16 f73d 9e6f 4e3a 667e 493c f87c afbd
00000050: 747c 4bbe 943b 3cbe a4f6 153e afeb 1ebe
00000060: ced1 8b3d 37d3 193d 2a54 a0bd 5f0c 1fbc
00000070: f9e5 d4bd 81c5 aabe 21e3 c93d fe81 073e
00000080: 508c 85bd 0fdb 1c3e e27e d7bd 8f2c 7f3c
00000090: f6ee ccbd 1b12 60be 7d56 cf3d 59ee cd3d
000000a0: 9461 c8bd 9a1d 043e e69f 633d 041d 013e
000000b0: 7768 3f3d ab3c 0f3d 0b28 8e3d 397c 49be
000000c0: 3c03 0b3e a12c e63d 2780 29be c159 b3be
000000d0: cf46 2d3d 6bc2 4dbd 68a8 463e 9d87 99bd
000000e0: 2743 8c3d 94e2 cebd 0a66 c3bd eb68 d8bd
000000f0: ebfb 8d3d 9eca 47be d1b2 003e 8d61 d33d
