saved_models_MLP/exp-ib1-fcc/mlp_ms_fcc_ratio0.6_seed4_epoch300.pt (torch, 38935 bytes, 5 tensors)

module_list.0.weight f4 [128, 6]
000000 5b 98 16 3e 62 48 a6 3e 44 4f 56 3e b2 f6 56 3e
       0.14706556 0.324771 0.20928675 0.20992544
000010 32 c9 46 be f8 b9 04 be 2e 43 0a be e2 4c 73 be
       -0.19412687 -0.12961566 -0.1350219 -0.23759797
000020 06 56 d7 be 73 e5 2f be ac 1d cc bc c6 07 9a 3e
       -0.42057818 -0.17177372 -0.024916492 0.30084056
000030 49 d8 91 3e 76 af b3 bd c5 d0 eb 3b d1 f2 3a be
       0.28485325 -0.08773701 0.007196518 -0.1825669
000040 f7 d8 81 be a4 60 1d 3e cd fa 94 3d e1 ce a3 3d
       -0.25360844 0.15368897 0.07274399 0.079984434
000050 a9 b0 32 be b1 3b 9f 3d 98 44 5a 3c 80 0b 41 3b
       -0.17450203 0.07775057 0.013322018 0.0029456317
000060 e4 4b 76 be 88 b2 f6 bd b5 70 28 3e 6f 90 02 3f
       -0.24052387 -0.12045771 0.16449244 0.5100164
000070 64 bb 4e be 64 43 ad 3e 4b 2e f3 bc 90 c2 6f bd
       -0.20188671 0.33840477 -0.02968516 -0.05853516
000080 ca 40 4d be 74 d6 d8 be f3 65 c9 3e 38 36 d6 3d
       -0.20044246 -0.42351115 0.39335594 0.1045956
000090 b4 92 d3 bd df 83 ae be a1 3e 1d be f1 16 91 3d
       -0.10330716 -0.34084985 -0.15355922 0.07084454
0000a0 76 e5 d7 be a8 2a 02 3d a4 65 89 3c 65 dc 04 3e
       -0.42167252 0.03177896 0.016772099 0.12974699
0000b0 65 d0 33 be c9 66 21 3e 1a 36 f8 3e f9 16 78 be
       -0.17559965 0.15761866 0.48478776 -0.24227513
0000c0 4f 66 83 3e 5f 8f 7b bd 65 61 b4 3c 75 06 d1 3d
       0.25663993 -0.061416026 0.022019098 0.1020631
0000d0 4d b3 1f 3e 78 88 40 3e 62 5d 9b 3e bf aa f8 3d
       0.15595742 0.18802059 0.30344683 0.12141942
0000e0 dc c7 63 bc 49 20 52 3e 71 41 0f bd 9c e7 71 3e
       -0.013902631 0.20520128 -0.03497452 0.23623508
0000f0 00 03 44 3e d9 11 3a be 07 b4 e9 bb f6 f8 30 be
       0.1914177 -0.18170871 -0.0071320566 -0.17282471
000100 f1 43 22 3e 60 26 01 3e a7 1f 81 3b a2 18 a5 be
       0.1584623 0.12612295 0.003940541 -0.32245356
000110 83 69 88 be 00 14 a5 3e 1c 0b ba 3e 9c 4d bd 3e
       -0.26643 0.3224182 0.363366 0.36973274
000120 2a bc 5b be 0c 44 b1 be 1d c6 3b be f6 1e 6d be
       -0.21458498 -0.34622228 -0.18337293 -0.23156342
000130 85 43 66 be 19 9a 95 be 7c 20 b3 bd ba ed c0 be
       -0.22486694 -0.2921913 -0.0874643 -0.3768137
000140 88 85 d0 3e 0c a7 5c bd 34 54 b3 3e 2c be 79 be
       0.40726876 -0.053870246 0.3502518 -0.24388951
000150 79 4c a5 bd a3 e6 2d bd ba f5 9c be 13 ab e7 be
       -0.080712266 -0.04245628 -0.30656224 -0.45247707
000160 97 6f 82 3e d4 21 60 3e ee 2b 5e 3e 84 01 70 be
       0.2547576 0.21887904 0.21696445 -0.23438078
000170 57 c1 c5 3e 2b 30 a7 3d 01 24 8a be 26 53 ad 3e
       0.3862407 0.08163484 -0.26980594 0.338525
000180 bc 4f 0d bd 3b 34 07 bb bf a4 86 3e 15 e2 03 3f
       -0.03449987 -0.0020630497 0.26297566 0.5151685
000190 95 a9 68 3d 90 76 40 3e 1a 75 2c 3e 02 ea 8a 3d
       0.05680235 0.18795228 0.16841546 0.06782915
0001a0 47 f2 c7 3c b3 11 e7 3c 2c 31 5d 3e 48 90 97 bd
       0.024407519 0.028206682 0.21600789 -0.07400566
0001b0 72 d9 4c be 5e 03 8a 3e 4c d3 58 3e 7e 7c d2 3d
       -0.20004824 0.26955694 0.21174353 0.10277651
0001c0 8f a6 cf 3e 08 5e b5 bd 7b 6d ba 3d 90 75 5e 3b
       0.40556762 -0.08855826 0.09102913 0.0033944584
0001d0 12 db 03 be 75 a3 fa 3d 33 92 3f be 00 d4 ce 3d
       -0.12876537 0.12238208 -0.18708114 0.100990295
0001e0 29 09 56 be 4b 5e bc 3d 84 89 10 be da 50 a1 3e
       -0.20901932 0.091976725 -0.14114958 0.31506997
0001f0 8f 2a a7 3e 28 36 16 3e 72 b4 f0 bd 08 2a 6b 3d
       0.32649657 0.14669096 -0.11753167 0.05741313
000200 b9 e4 8b 3d 74 50 51 be 4b 94 bf be 04 aa 8b be
       0.06830735 -0.20440847 -0.37417826 -0.2727815
000210 54 88 8f be 34 b7 be 3e cb 96 8d 3e ed 87 75 3c
       -0.28033698 0.37249148 0.27654108 0.0149860205
000220 45 f9 2f 3d 7f 90 5f be 97 83 34 be 25 39 d7 3e
       0.04296233 -0.21832465 -0.17628323 0.42035785
000230 73 67 5a bd bc f8 0c bf 99 bd 59 3e 40 05 92 3b
       -0.053321313 -0.5506704 0.21263732 0.0044561923
000240 95 96 7c 3e fa 5a ae 3e 95 6d b8 3e 25 c7 c9 3d
       0.24666817 0.34053785 0.36021104 0.09852437
000250 16 3e 42 be f0 8b 43 3e cb 28 c6 3e 42 80 01 be
       -0.18968996 0.1909635 0.38702998 -0.12646583
000260 01 8b ea 3d da e2 64 3e 00 58 a4 be 52 4d c7 3e
       0.11452294 0.22352162 -0.3209839 0.38926178
000270 69 18 05 3e 96 fa db 3d b0 c2 ad 3c 43 23 29 3e
       0.12997593 0.10741155 0.021210998 0.16517358
000280 29 34 1e 3d 44 0b 9f 3d 54 2d ca be 2a b5 88 be
       0.038623963 0.077658206 -0.39487708 -0.26700717
000290 c7 4c 81 bd ee d3 c4 be 06 ad 38 3d ea 37 a3 3e
       -0.06313472 -0.3844294 0.045086883 0.31878597
0002a0 6c e2 98 3e 4c d2 20 3d 78 29 cc 3e c0 4d 8d be
       0.29860246 0.039263055 0.39875388 -0.2759838
0002b0 87 8c a5 bd 74 d1 01 3e 00 39 9f be d8 42 25 3e
       -0.08083444 0.12677556 -0.31098175 0.1613878
0002c0 22 13 c6 3e c0 9a 8a be 26 a4 cb 3d 59 60 8d be
       0.38686472 -0.2707119 0.09943418 -0.2761257
0002d0 73 20 af 3e b8 16 5d be 0e af 87 3d e2 60 0b 3d
       0.34204444 -0.21590698 0.06625186 0.03402794
0002e0 20 1f a2 3e 8a e4 18 be 84 fb a1 be df 81 5b 3e
       0.31664371 -0.1493093 -0.31637204 0.2143626
0002f0 b9 4b 5c 3d e8 66 a1 be b9 15 b3 3e 98 96 ab be
       0.053783152 -0.31523824 0.3497751 -0.3351333
000300 0b b7 00 be eb 25 2f bd 64 99 d1 be 8c a7 fb be
       -0.12569825 -0.04276077 -0.4093734 -0.49151266
000310 62 f2 8a 3e 0c 66 ba 3e 8e 19 a7 3e 89 75 7d 3d
       0.27138048 0.3640598 0.32636684 0.06187967
000320 9b 81 fc bd f6 d3 41 3e de 45 8f be 6c 69 0e 3e
       -0.12329408 0.18928513 -0.27982992 0.13907403
000330 23 9a 46 be 66 07 73 be cb 7a a9 bd cd 2b 89 bd
       -0.19394736 -0.23733291 -0.08275374 -0.066978075
000340 c4 af 9a be 78 fe b7 3e 83 50 df 3d 5c 5d 9a 3e
       -0.30212224 0.35936332 0.10904028 0.30149353
000350 91 e2 e8 3d 78 20 82 3e f0 be 3a 3e 64 60 a8 3e
       0.11371339 0.25415397 0.182369 0.3288604
000360 b9 8a 6b 3e 05 e0 2c 3c 22 6a 3b bd 4f c0 f6 3e
       0.23002137 0.010551457 -0.045755513 0.48193595
000370 2b 3e 04 be 54 5e aa 3e 19 b4 8f 3e da 64 32 3e
       -0.1291434 0.33275092 0.2806709 0.17421284
000380 eb e0 08 bd 1e 76 87 be 42 2b b1 3d b8 8b dc bd
       -0.033417623 -0.26457304 0.08650829 -0.10768837
000390 94 1f f5 bd 5f 53 13 3e 6b 28 94 be 33 e4 fe be
       -0.11968914 0.14387272 -0.28937086 -0.49783477
0003a0 09 98 9b 3e 78 0d 94 3d 53 f7 b4 be b5 3c 0e 3c
       0.3038943 0.072291315 -0.35344943 0.008681466
0003b0 87 05 10 3e b9 b5 20 3e 94 65 bf be d0 36 6c 3d
       0.14064609 0.15694322 -0.37382185 0.05766946
0003c0 c8 0e 8d bc be f5 ea 3c 3b 1d 92 3e d9 c8 0c 3e
       -0.017218962 0.028681632 0.28537926 0.13748492
0003d0 7a 85 d7 3e f8 e4 4d 3e 39 5c 66 bd c9 8e bd be
       0.42094022 0.20106876 -0.056240294 -0.37023
0003e0 1f 71 92 3e 1a a8 27 3e 69 bf c2 be fe da bc be
       0.2860193 0.1637272 -0.3803666 -0.36885828
0003f0 43 1d 28 3e 9e 5b 9c bd 8f 7a cf be 3b 6f d0 3e
       0.16417412 -0.07634662 -0.40523192 0.40709862

module_list.0.bias f4 [128]
000000 a3 ef c0 3d 00 9a c0 3e e2 41 b9 be da 99 57 be
       0.09420707 0.37617493 -0.36183077 -0.21054783
000010 1c eb df bc ba e4 57 3e 3a 2c a8 3e 00 33 90 3e
       -0.027333789 0.21083346 0.32846242 0.2816391
000020 52 8c 41 3e 1e ff c8 bc 0c f4 cd 3c 6c 7e 4e be
       0.18901184 -0.024535712 0.025140785 -0.20165414
000030 e8 27 46 be 97 ae 89 3e 3e 7f 1f 3e 18 53 a9 3d
       -0.1935116 0.26891014 0.15575883 0.08267802
000040 e5 eb 9b 3e 5e 7e 5f 3e 5c d6 01 3e 02 b6 e0 3e
       0.3045341 0.21825549 0.12679428 0.4388886
000050 7a 79 95 bc ab 67 cf be 76 1d 9e be 3f b9 91 bc
       -0.018246401 -0.4050878 -0.30881852 -0.017788528
000060 cd b9 9d be 2d 7c fe bc 40 a1 db be e0 86 a0 3e
       -0.30805817 -0.031065071 -0.4289646 0.313529
000070 df 9b 16 3c 96 f2 95 be 50 d4 bf 3b 51 e2 dc bd
       0.009192436 -0.2928664 0.005854167 -0.10785354
000080 fd 68 92 3e 95 5f 98 3e 92 34 96 3c 6c 67 cf 3e
       0.28595725 0.29760423 0.018335614 0.40508592
000090 12 19 75 be 20 2a 0a 3e ec be 49 be 6f 55 1e 3e
       -0.23935345 0.13492632 -0.19701737 0.15462278
0000a0 d4 ad ff b8 c4 32 0a 3e 3b 38 52 3d eb f8 03 be
       -0.000121917255 0.13495928 0.051323157 -0.12887923
0000b0 7b 5a 22 3e 03 5d 74 be 03 15 04 be 7e 19 de 3d
       0.15854828 -0.23863606 -0.1289864 0.10844706
0000c0 b2 15 ac be f4 72 82 be 8f ac 20 bd 01 bc b3 bc
       -0.33610302 -0.25478327 -0.039227065 -0.021940233
0000d0 ad 67 81 3e 01 97 37 3e 5e 49 d9 be 0c ea 8d be
       0.2527441 0.17928697 -0.42438787 -0.27717626
0000e0 2e 80 ca 3e 5c b1 5e 3d f3 d2 e0 3d 63 88 1a bd
       0.39550918 0.05436836 0.10977735 -0.037727725
0000f0 39 ca db be dc 9d 9f 3e 28 8b bf be 40 25 25 3c
       -0.4292772 0.31175125 -0.37410855 0.010079682
000100 ce 1a bd 3e 7a 7e e5 3c 29 20 21 be 5f a4 5f be
       0.36934513 0.02801441 -0.15734924 -0.21840046
000110 83 a4 3c 3e b4 48 7a be ae 0b ea be 94 7b 37 3e
       0.18422131 -0.24441797 -0.45712036 0.17918235
000120 c4 14 97 3d 51 4f 8e 3d 86 cf ef 3e 52 0c 7d be
       0.073770076 0.06948722 0.46838015 -0.24711731
000130 ec 37 0b 3e bd a0 bc be da 06 ca 3e 16 4e 92 3e
       0.13595551 -0.36841384 0.39458352 0.285752
000140 23 c5 69 bd ab d9 da be 79 c4 c5 be b4 e0 a0 3e
       -0.05707277 -0.42744192 -0.3862646 0.31421435
000150 2b ae ad 3e 63 53 60 be 27 ef 2e 3e 35 f3 6c be
       0.33921942 -0.2190681 0.17083417 -0.23139651
000160 3a 16 4e be 15 c2 0b 3e 48 92 ed bd 35 33 81 3e
       -0.20125666 0.13648255 -0.116001666 0.2523438
000170 8b e8 82 bd d5 a6 a9 be 08 3b 56 3e 1f 2a 4f 3e
       -0.0639201 -0.33135095 0.20920956 0.20230912
000180 d8 44 b6 bb fd 48 50 3e e5 e4 84 be 90 dd 62 3e
       -0.005562406 0.20340343 -0.25955883 0.22154832
000190 81 fe d5 3c 4a dd bf 3d cb 04 a3 3d 4b a8 dd 3e
       0.026122333 0.093683794 0.079598986 0.4329246
0001a0 2f c5 da 3e 54 0c ce be c9 41 b4 3d ff 9a c6 be
       0.42728564 -0.4024378 0.0880161 -0.38790128
0001b0 7a 9a ac 3d 46 94 81 3e 66 10 10 be c1 66 d3 3d
       0.084279016 0.25308436 -0.14068756 0.10322333
0001c0 00 6f a1 be 94 df 27 3e cd de 31 3d a3 4d 72 3e
       -0.3153 0.16393882 0.04342537 0.23662429
0001d0 eb cb 04 3e 6f 65 3b be af 13 ad be fb 48 98 3e
       0.12968414 -0.18300413 -0.3380408 0.2974318
0001e0 37 45 0b 3d e1 97 4f bd 46 2e cc 3e 10 d0 aa bd
       0.034001555 -0.050681952 0.39879054 -0.08340466
0001f0 a3 01 b9 be 6c c4 f5 bd 06 ad a4 3e cc 0a 94 3e
       -0.3613406 -0.12000355 0.32163256 0.28914487

module_list.1.0.weight f4 [64, 128]
000000 98 41 ce 3d c9 8e d7 bd 01 49 40 3e 90 af dd 3d
       0.10071105 -0.10525281 0.18777849 0.108245015
000010 cf 32 07 3e 3d 31 cb bd 26 55 c7 bd 05 5d 28 bd
       0.13202976 -0.09921501 -0.09733038 -0.041104335
000020 f5 04 8c bd bd e2 86 3d 8b 85 1d bd 72 46 1f 3e
       -0.06836883 0.06586216 -0.038457435 0.15554217
000030 28 70 01 3d b9 49 ac 3d a1 87 68 be e1 83 db bc
       0.0316011 0.08412499 -0.22707988 -0.026796283
000040 72 03 03 3d 2a ef ac 3c f7 9e c0 bd 75 9d 00 bd
       0.031985708 0.021110136 -0.0940532 -0.031400163
000050 23 0a 87 bc 7d 48 0f bc e5 65 ef bc 63 f8 c9 bd
       -0.016484326 -0.00874531 -0.029223392 -0.09861829
000060 70 14 3c 3e 52 b2 b6 3d ab 9d 4d 3e 98 a4 d7 bd
       0.18367171 0.08920731 0.20079677 -0.10529441
000070 aa 06 2d 3d 62 ba 46 3c 10 9c d9 3b 0f 64 d1 bd
       0.042242683 0.012129398 0.0066409186 -0.10224163
000080 64 02 2f be fb 74 6b bb be b8 ad bd ca 8d 94 bd
       -0.17090756 -0.003592788 -0.084825024 -0.072536066
000090 52 f2 27 3e 1c d7 4f 3d 13 16 2e bd 3c 20 26 be
       0.16401032 0.050742254 -0.04250152 -0.16223234
0000a0 fd 87 12 3e 86 9a 88 3d 6e a5 c3 3d 14 fd 1a 3e
       0.14309688 0.06670098 0.095530376 0.15135604
0000b0 9c 2a a9 3c f2 c2 d2 3d 29 df d5 3c c6 04 bc bd
       0.0206502 0.10291089 0.026107388 -0.09180598
0000c0 46 19 ab bd ea 54 87 3d 0a c9 7a bb d7 c7 89 bc
       -0.0835443 0.06607993 -0.0038266801 -0.016818924
0000d0 d4 dd 00 be e2 a1 5e bd 39 04 4e 3d db f7 a8 3c
       -0.1258462 -0.054353602 0.050296996 0.020626
0000e0 f1 b6 96 bb 40 b3 9b bc 06 cb a0 bd a9 ba 7f bd
       -0.004599445 -0.019006371 -0.07851224 -0.062433872
0000f0 f9 5d e9 3d e8 18 56 be 1e 00 9d 3d c3 57 4c 3e
       0.11394877 -0.20907938 0.07666038 0.19955353
000100 c5 95 05 3d 14 c7 10 3d e3 7c 04 3e da 1f ce bc
       0.032613534 0.035346106 0.12938266 -0.025161672
000110 33 d4 9e 3d ce 14 a4 3c fc 69 f3 3d ac 79 e7 3d
       0.077553175 0.020029452 0.11885449 0.11302504
000120 0e 30 3d be 00 d3 17 3d b9 bb 18 be 94 76 f8 3d
       -0.18475363 0.03706646 -0.1491536 0.12131992
000130 9f 40 75 be 77 b1 c3 3c c7 9e 87 be 54 8c 07 be
       -0.23950432 0.023888333 -0.26488325 -0.13237125
000140 97 d4 27 be 58 66 05 3c d8 d5 6b 3d be 90 21 ba
       -0.1638969 0.008142076 0.057576984 -0.0006163231
000150 db cf da 3c af 93 70 3d 5c 28 8d bd 1c 37 31 3e
       0.026710441 0.058734592 -0.068924636 0.17306179
000160 9f 24 e2 3d 6f 6b 5d bd e6 bc b7 3b 29 75 6b bc
       0.11042141 -0.054057535 0.0056072352 -0.014371195
000170 53 c5 41 3c 10 e7 e8 3d 6d dd ac bd ad 41 bb 3d
       0.011826831 0.11372197 -0.08440671 0.09143386
000180 16 05 37 3e 50 36 fa bd d7 8f a5 3d 30 0e 94 3d
       0.17873034 -0.122173905 0.08084076 0.072292686
000190 9e dc 20 be 52 69 2e bd 22 b2 fd bd 6d 99 cf bd
       -0.15709159 -0.04258091 -0.12387492 -0.101366855
0001a0 cd e6 01 be d5 7e 04 3e b3 2e a8 bd 17 74 f1 3c
       -0.126857 0.12939008 -0.08212032 0.029474301
0001b0 61 54 cd 3c 68 25 3c be b3 fa 97 ba 71 d5 f4 bc
       0.025064649 -0.18373644 -0.00115951 -0.029886933
0001c0 33 b4 f8 bd ed 34 7a be 2b 94 cc 3d 38 07 b6 3d
       -0.12143745 -0.24434252 0.09989198 0.088880956
0001d0 2c ca 0c 3d eb 0c 12 3d 2f 12 58 3e 80 a9 ba bd
       0.034372494 0.03565685 0.21100686 -0.09114361
0001e0 a9 03 2d bd 1f f4 55 bd 44 1b 0f bd 2c 6c 25 bc
       -0.04223982 -0.052234765 -0.034938112 -0.010096591
0001f0 ec fe 6c 3d 50 a8 23 3d c7 f3 9b bd cb ab 23 be
       0.0578603 0.039955437 -0.07614856 -0.15983503
000200 04 c0 20 bc cf b6 00 be 08 da fb 3d b2 44 6c 3b
       -0.009811405 -0.12569736 0.122974455 0.0036051688
000210 e3 97 1e bd 3c 18 18 be 21 6c a8 bd a1 85 c8 bd
       -0.03871907 -0.14852995 -0.08223749 -0.09791113
000220 bd 64 d9 bb b8 c6 13 3d 18 34 fa 3d fd b3 8e 3d
       -0.0066343234 0.036078185 0.12216967 0.06967924
000230 2d 51 ca 3c 4d 76 fd 3d 44 69 f8 bd f7 36 6e 3d
       0.02469691 0.1237608 -0.12129453 0.058157887
000240 0c 25 3b bd 8e 3e 30 bd 0e cd 85 bd f6 57 c0 bd
       -0.045689628 -0.043028407 -0.06533252 -0.09391777
000250 a1 87 04 be 92 25 02 3d 6e c1 e6 ba 71 21 b4 bd
       -0.12942363 0.03177411 -0.0017605254 -0.08795441
000260 e5 a4 28 3e 09 b5 27 3d 57 b5 a5 bc fd c9 02 be
       0.16469152 0.040944133 -0.020228071 -0.12772365
000270 a4 18 85 3d 67 eb 70 3d bf 27 8a 3d 83 1b 84 bd
       0.064988405 0.058818247 0.06745862 -0.0645056
000280 ce 3d 4d be 99 89 28 3d 45 20 3c bc 67 2f 2b bc
       -0.20043108 0.04114685 -0.011482303 -0.010448313
000290 7d 05 e3 3d eb 63 79 3b e3 5f 4b 3d 4c 2d 75 bc
       0.11085031 0.003805394 0.04965199 -0.014964413
0002a0 7a dd 03 3e a4 a9 8a bc 02 a2 19 3d 8f 68 06 3e
       0.12877455 -0.016926594 0.03750802 0.13125823
0002b0 d1 a8 25 bc 29 a2 26 3d ba 5e 0f bc 25 48 a4 bd
       -0.01011105 0.04068199 -0.008750612 -0.08021573
0002c0 73 50 1a bd 0d 73 48 bd 76 c6 9d 3d f6 97 e4 bc
       -0.03767438 -0.048937846 0.07703869 -0.027904492
0002d0 c2 05 cb bd 30 9e 32 3d 03 95 28 bd 41 d0 e7 3c
       -0.099132076 0.04360789 -0.041157734 0.028297545
0002e0 ec e2 19 bd 83 ae d2 3d 16 b2 95 3c e6 99 45 bd
       -0.037569925 0.10287192 0.018273395 -0.048242472
0002f0 b1 5a e4 3d 35 de 57 be e9 88 53 3d 65 c8 55 3e
       0.111501105 -0.21080859 0.05164424 0.20877226
000300 b1 f1 dc bc 51 23 33 3e 39 54 3e 3e e8 0f 9f 3d
       -0.026970716 0.17493941 0.18586816 0.07766706
000310 50 81 88 bd e5 f4 c4 bb b7 50 0f bd 4a 4f 76 3d
       -0.066652894 -0.006010639 -0.034989085 0.06013421
000320 25 eb 16 be 80 ed 73 3e 2c d0 bb 3a af 19 dc 3d
       -0.14738138 0.23821068 0.0014329008 0.10747086
000330 c6 91 1a be 0a eb 5a bd 24 3d 5c be ec 40 0e bd
       -0.1509467 -0.053446807 -0.21507698 -0.034729883
000340 9d 1a 29 bd 47 76 0d 3e 90 4a 44 3d 69 11 7e 3b
       -0.041285146 0.1381465 0.04792267 0.0038767701
000350 fb 2a 60 3d d5 9e 4a bc ea 5e 0c 3d 32 f7 36 3e
       0.05472849 -0.01236697 0.034270205 0.17867735
000360 3f f2 39 3e ae ff a9 3d 19 41 76 bd bc c4 9a bd
       0.18158816 0.0830072 -0.060120676 -0.07557055
000370 0c 8c ca 3d f2 4f d9 3c 13 86 08 3d b2 3a 04 3e
       0.09889993 0.026527379 0.03333099 0.12913015
000380 6e b5 17 3d 43 c5 ca bd da 09 20 bc 54 c7 13 b8
       0.03703826 -0.09900906 -0.009767974 -3.523317e-05
000390 0f d5 7e bd ce c9 e3 3d 61 df e8 bd 77 38 9f bd
       -0.062214907 0.111224756 -0.11370731 -0.07774442
0003a0 7f 37 d7 bd 91 17 3d 3e 7f c4 5d bc 16 07 b7 3d
       -0.10508632 0.18466021 -0.013535618 0.089368984
0003b0 ac 0e 76 3b 83 dc 0d be a8 05 2f bb 59 ee 06 3e
       0.0037545366 -0.1385365 -0.0026706252 0.1317686
0003c0 8f 2d 0a 3d 4d f1 f9 bd 91 d3 46 bc 63 f7 c2 bc
       0.033734854 -0.122042276 -0.012135402 -0.023799604
0003d0 74 43 b3 bd b0 d2 39 3d 2a 20 14 3e 37 5d 89 3c
       -0.087531 0.045366943 0.14465395 0.016768081
0003e0 f9 e0 96 bb d7 45 1d be 41 e4 9a 3c a3 b1 75 bc
       -0.0046044555 -0.15358673 0.018907668 -0.014995965
0003f0 8d 8c 84 3b b8 d5 89 3d 62 ae ee bd 9a 0c 1a be
       0.0040450753 0.06730217 -0.11654355 -0.1504387

module_list.1.0.bias f4 [64]
000000 20 c2 1c be c2 50 10 be eb fc 54 3d a1 a4 ee bd
       -0.15308428 -0.14093307 0.051999014 -0.11652494
000010 c6 8f e0 bc 70 0d da bd f6 e4 2d 3c 35 72 16 bd
       -0.027412307 -0.10647094 0.010613671 -0.03673001
000020 36 f0 be bc ff c5 1c bd e7 a8 11 bd f9 33 a6 3d
       -0.0233079 -0.03827476 -0.03556147 0.08115382
000030 82 a3 70 bb 1a 9c c0 bc 75 c8 52 3d 95 54 a3 3d
       -0.0036718552 -0.023511935 0.051460702 0.07975117
000040 fc 6e fb bc ba 05 6d 3d 70 80 7d bb c2 6c 79 bd
       -0.03069257 0.05786679 -0.003868129 -0.060894735
000050 64 41 28 3c 1d 28 93 bd f9 67 15 bd 12 5d 00 3c
       0.010269497 -0.071853854 -0.03647611 0.00783469
000060 cd e1 02 3d a2 17 6f bc 59 3e b7 3c a6 cc 04 bd
       0.03195362 -0.014593037 0.022368597 -0.03242173
000070 f6 13 d4 bc 9a 66 e6 bd 67 9a 5b bc fe 0b a3 bd
       -0.025888424 -0.112500384 -0.013403512 -0.07961272
000080 30 00 c6 3b fe e0 fe 3c f2 7e 03 bd d2 5c 06 3e
       0.006042503 0.031113144 -0.032103486 0.13121346
000090 44 12 65 bd 65 a1 9a bd 26 6f 42 3d 4d 47 fb 3b
       -0.055925623 -0.07550315 0.04746928 0.007668412
0000a0 0e 10 64 3c fa 52 36 bd b3 df ac bd 7f ca a0 3d
       0.013919843 -0.044512726 -0.08441105 0.07851123
0000b0 96 e5 0d 3d 5a 25 81 3d 23 c8 0a bd b8 4c 9c bd
       0.03464278 0.06305952 -0.03388227 -0.076318204
0000c0 e4 26 21 3d b6 4b 83 3d 34 23 1f bc c0 45 43 bd
       0.03934373 0.06410925 -0.009712983 -0.04767394
0000d0 8a e8 f1 3c 82 03 f5 3c 54 bf 0f bd 73 2b 61 bd
       0.029529829 0.0299089 -0.035094574 -0.054973077
0000e0 2b fe 9f 3d f1 53 2a bc 2a 86 0d bd 79 63 63 3d
       0.078121506 -0.01039599 -0.034551777 0.055514786
0000f0 1b 26 47 3d 2e d0 d4 bc 3f c5 a4 bc c1 2b 3f 3d
       0.048620325 -0.025978174 -0.020113586 0.046672586

module_list.2.weight f4 [1, 64]
000000 52 19 05 3e 3d ed 02 3e 4b bd 95 3d 07 87 e0 3d
       0.1299794 0.12785812 0.073114954 0.109632544
000010 88 68 f5 3d e8 77 fb 3d 99 24 a3 bd 29 b4 02 3e
       0.119828284 0.1227873 -0.07965965 0.12764038
000020 92 5e 09 3e af ec 0d 3e 89 3a 0c be 0e c2 00 be
       0.13414982 0.13859819 -0.13694204 -0.12574026
000030 c0 23 f2 bd 2a ca 62 bd 44 08 2e be e6 39 dd 3d
       -0.11823225 -0.05536858 -0.1699534 0.10802059
000040 b8 96 c9 3d 9e 6f 4e 3a e7 9f 19 3c f8 7c af bd
       0.098432004 0.00078749086 0.009376503 -0.08568758
000050 e1 52 53 be 4f b3 34 be 18 c5 0a 3e 22 51 28 be
       -0.20637085 -0.17646526 0.13551748 -0.164372
000060 b3 38 5b 3d d4 92 d4 3c 2a 54 a0 bd 5f 0c 1f bc
       0.05352087 0.02594892 -0.07828553 -0.009707539
000070 ef d6 d1 bd 87 da 54 be 42 c8 d3 3d 50 35 cb 3d
       -0.102460735 -0.20786487 0.103409305 0.09922278
000080 50 8c 85 bd 09 da 1f 3e e2 7e d7 bd e4 77 16 3d
       -0.06520903 0.15610518 -0.10522248 0.03673543
000090 f6 ee cc bd 6b 18 48 be 80 a1 d4 3d 33 d1 b4 3d
       -0.10006516 -0.19540565 0.10382366 0.08828964
0000a0 16 38 7d bd 75 54 0f 3e 2f 42 60 3c 02 f7 d1 3d
       -0.061821066 0.13997062 0.013687654 0.10252191
0000b0 e0 50 1e 3d 4f 4b 0c 3d 0f 6c 81 3d 73 ed fd bd
       0.038651347 0.034251507 0.06319439 -0.123988055
0000c0 a4 b1 a2 3d 0a 6a d3 3d 3f c0 19 be 04 9f 94 be
       0.079440385 0.1032296 -0.15014742 -0.2902757
0000d0 04 af da 3c 6b c2 4d bd 48 08 18 3e 9d 87 99 bd
       0.026694782 -0.05023424 0.14846909 -0.07496569
0000e0 e9 21 8b 3d 94 e2 ce bd b0 49 55 bd e6 32 d5 bd
       0.06793577 -0.1010181 -0.052072227 -0.10410099
0000f0 76 f8 8d 3d d5 25 4d be 24 81 f0 3d ea ed fa 3d
       0.06932156 -0.20033963 0.117433816 0.1225241
