saved_models_MLP/exp-ib1-fcc/mlp_ms_fcc_ratio1_seed4_epoch300.pt (torch, 38935 bytes, 5 tensors)

module_list.0.weight f4 [128, 6]
00000000: c7de 163e d26e c13e 6672 af3d 979c 773e
00000010: d2a7 cebe f8b9 04be bdc1 0bbe f356 8bbe
00000020: 30cd d8be 87b7 26be a758 203e c607 9a3e
00000030: 15b0 943e 2e7a aebd 31f3 d3bd 4dd0 69be
00000040: e994 b2be a460 1d3e 474f 9a3d 8380 d23d
00000050: b0e0 56be 0864 963d 16d9 af3c 800b 413b
00000060: 66fb 7bbe 8349 00be 3718 8e3e c1e1 183f
00000070: b9ac 7fbe 6443 ad3e 07b3 5cbc d772 91bd
00000080: 7cd9 72be f298 11bf f6d4 0c3f 3836 d63d
00000090: b22d dcbd b38e babe 9107 0cbe 8f7d dc3d
000000a0: 206c 17bf a82a 023d d1a7 863c a2e9 073e
000000b0: 4332 1dbe 0872 3c3e 5c71 093f f916 78be
000000c0: ce7c 883e dd91 73bd 3d92 8ebc 66eb ea3d
000000d0: 31d4 653e 7888 403e a6a3 943e 0f2e fb3d
000000e0: 6d59 9abd f072 863e 38fd 28be 9ce7 713e
000000f0: 5b27 393e 7116 3bbe 9b8e 3c3c 708c 83be
00000100: baa3 8b3e 6026 013e 6579 94bc 3d05 a0be
00000110: 2917 6fbe d2ba d53e 3881 b13e 9c4d bd3e
00000120: a658 50be 1e79 aebe 7693 41be a685 9abe
00000130: 283e b1be 199a 95be 535c afbd ce1c c7be
00000140: 3f31 033f b63a d2bd 5f78 f03e 2cbe 79be
00000150: 53ec 81bd 7db8 61bd 34a5 aebe de37 14bf
00000160: 81c4 a73e d421 603e e8d0 583e 6ff9 81be
00000170: 5fe9 d83e 6433 1a3e 5c71 58be 2653 ad3e
00000180: 699d 38bd 5bb7 0abd ca3a bf3e e5fd 1d3f
00000190: 91e0 273d 9076 403e f754 293e 5ed6 2b3d
000001a0: e430 cbbc f4b8 9e3d 4d1d 553e 4890 97bd
000001b0: 10de 49be 9811 8d3e f6ce 843e 74a2 d93d
000001c0: e4f9 dd3e 085e b5bd 7996 cf3d e2ea 813c
000001d0: a214 19be cddf 513e 473c 5bbe 00d4 ce3d
000001e0: 3b80 55be 7a3c ba3d 4565 bcbd 8dcb bc3e
000001f0: f7c3 b43e 2836 163e c077 eabd 5d12 8e3d
00000200: 14c1 e13d 10d5 65be 496d bdbe 04aa 8bbe
00000210: 0eb5 a0be 9a7d c63e 1d3a bc3e 2016 fb3b
00000220: e1fc 963d 7f90 5fbe 61f7 27be d3fa d43e
00000230: 7949 03be 3240 25bf d3b8 a33e 4005 923b
00000240: 308c 7c3e 5b3f b63e 80fe b83e 91a4 a43d
00000250: 19cf 51be f08b 433e cec5 c13e cbed f6bd
00000260: 9048 b63d bb43 913e 50f8 ccbe 524d c73e
00000270: 161f 073e 9ccf 0d3e 4c40 95bc ca65 4a3e
00000280: 5a1a f53c 440b 9f3d 7f72 c0be 90d4 87be
00000290: bf98 a6bb c116 e5be 7608 ef3d ea37 a33e
000002a0: f66f 913e 4acf 323d ec8d e03e 4949 88be
000002b0: aa4c 68bc 74d1 013e f6fc a9be 3f88 2c3e
000002c0: a1d3 e63e 7fc4 abbe 1e6d 433e 5960 8dbe
000002d0: 90da a73e 288c 62be f0ea 733d aac2 ddbb
000002e0: 9b44 b53e 8ae4 18be 884f 9fbe 0fa2 5d3e
000002f0: abc1 cc3d 66af e7be 5eff e13e 9896 abbe
00000300: aa70 febd 5d0f 31bd a9d1 d3be a354 04bf
00000310: f7d6 9f3e 0c66 ba3e f2e8 8c3e de68 543d
00000320: eee9 c1bd 3518 863e 10db 51be 6c69 0e3e
00000330: 440a 36be cb5a 7dbe 6f0d c0bd dd86 49bd
00000340: b916 b6be 78fe b73e bcdd df3d 0978 9d3e
00000350: 469a f53d 020d 8b3e 6937 503e 6460 a83e
00000360: 5ab2 733e f647 013d b042 8cbd 44dd 133f
00000370: 3f0b 59be 545e aa3e f5d9 913e 7f48 2c3e
00000380: c4c9 b1bd 6984 a7be 0889 403d b88b dcbd
00000390: c4d1 dfbd 4a7b 193e 4e29 b0be e8d3 0dbf
000003a0: 14d7 b33e 780d 943d 03e6 b3be f578 983c
000003b0: 8e56 803e ead1 813e 45ea d1be d036 6c3d
000003c0: 39c6 d2bc 1bc3 f63c 2c6c ae3e 3bb0 1e3e
000003d0: bb83 023f f8e4 4d3e f263 7fbd a35c c7be
000003e0: a617 a23e d771 453e fc97 ffbe feda bcbe
000003f0: 7c4d 233e aba7 33bd 73e1 ecbe b9d2 e03e
0.1473342 0.37779862 0.08566742 0.24180828 -0.40362412 -0.12961566 -0.13648124 -0.27214774
-0.42344046 -0.16280948 0.15658818 0.30084056 0.2904059 -0.08519398 -0.103491195 -0.22833367
-0.34879234 0.15368897 0.07534652 0.10278418 -0.20984149 0.07343298 0.02146582 0.0029456317
-0.2460762 -0.12528042 0.2775285 0.59719473 -0.24968232 0.33840477 -0.013470418 -0.07101982
-0.23715776 -0.56874 0.5501245 0.1045956 -0.10750903 -0.36436996 -0.13674761 0.10766136
-0.5914936 0.03177896 0.016437443 0.13272718 -0.15351205 0.18402874 0.536886 -0.24227513
0.26657718 -0.059465278 -0.017403716 0.1147068 0.22444226 0.18802059 0.29031104 0.12264644
-0.07536588 0.26259565 -0.16502845 0.23623508 0.18081419 -0.1827028 0.011508609 -0.25693083
0.2727335 0.12612295 -0.018124292 -0.31253996 -0.23348679 0.41744095 0.346689 0.36973274
-0.20346317 -0.3407678 -0.18903908 -0.3018009 -0.34617734 -0.2921913 -0.08562531 -0.38889164
0.5124702 -0.102651045 0.46966836 -0.24388951 -0.063439034 -0.055107582 -0.34110415 -0.57897747
0.32767108 0.21887904 0.21173441 -0.25385615 0.42365548 0.15058666 -0.21136993 0.338525
-0.045071993 -0.033866268 0.3734954 0.6171554 0.040985648 0.18795228 0.16536318 0.041952483
-0.024803586 0.07750121 0.20811959 -0.07400566 -0.19713616 0.27552485 0.2593915 0.106266886
0.43354714 -0.08855826 0.10136122 0.015859071 -0.14949277 0.2049553 -0.21409713 0.100990295
-0.20849697 0.09093566 -0.09199003 0.36874047 0.3530576 0.14669096 -0.11448622 0.06937096
0.11023155 -0.22444558 -0.3699744 -0.2727815 -0.31388134 0.387677 0.36763087 0.0076625496
0.073724516 -0.21832465 -0.16402961 0.41597614 -0.12820996 -0.6455108 0.31976947 0.0044561923
0.24662852 0.3559521 0.36131668 0.08039201 -0.20489158 0.1909635 0.37846226 -0.12057074
0.08900559 0.28371987 -0.40033197 0.38926178 0.13195452 0.13848728 -0.018219136 0.19765392
0.029919792 0.077658206 -0.37587354 -0.2652936 -0.0050841267 -0.44743922 0.11671536 0.31878597
0.28405732 0.043654718 0.43858278 -0.26618412 -0.014178434 0.12677556 -0.33200806 0.16848849
0.45083335 -0.33548352 0.19084594 -0.2761257 0.32783937 -0.22123778 0.059550226 -0.0067675905
0.35403904 -0.1493093 -0.31115365 0.21643852 0.09997877 -0.45251006 0.44140142 -0.3351333
-0.12423833 -0.043227542 -0.41370896 -0.51691645 0.31218693 0.3640598 0.27521473 0.05185782
-0.09468447 0.26190343 -0.20493722 0.13907403 -0.17777354 -0.24741666 -0.09377562 -0.04920088
-0.3556421 0.35936332 0.10930964 0.30755642 0.11992316 0.27158362 0.20333637 0.3288604
0.23798504 0.031562768 -0.06848657 0.577595 -0.21195696 0.33275092 0.284866 0.1682453
-0.08681062 -0.32718208 0.047005683 -0.10768837 -0.109286815 0.14988437 -0.34406513 -0.5540147
0.3512503 0.072291315 -0.35136423 0.018612364 0.25066036 0.25355464 -0.40999046 0.05766946
-0.025729286 0.03012233 0.34066904 0.15496914 0.50982255 0.20106876 -0.062351175 -0.38937864
0.31658667 0.19281708 -0.49920642 -0.36885828 0.15947527 -0.043861073 -0.46265754 0.4391077

module_list.0.bias f4 [128]
00000000: b26f a83d 04cc ce3e 2dfa c0be 2f56 5cbe
00000010: cf3b a6bc 12a8 583e 5757 b03e b9a1 953e
00000020: bea8 4e3e 9add d7bc 43b4 d53c dbb1 4fbe
00000030: dbf2 44be 32bc 7f3e 75ba 1e3e a47f af3d
00000040: e2c7 9e3e 4060 5e3e 7a1c 093e 21c4 e73e
00000050: bf41 41bb 00d4 cdbe 4cdf 9dbe 04f6 02bd
00000060: 52dc a8be aa92 34bd 30c9 dbbe 2f94 a93e
00000070: 4345 17ba 94b9 99be e9e9 783c 37da c6bd
00000080: 4373 953e e119 a43e 2771 863c 1e26 d03e
00000090: c431 7ebe 2004 ef3d 0951 4fbe 5241 133e
000000a0: c022 993b 9f0c 1c3e 0291 2b3d 8ee6 1abe
000000b0: 7ac7 283e efdb 70be d708 c6bd 2a06 f93d
000000c0: 9d8b adbe 673a 81be 5e20 6ebd ce1b abbc
000000d0: dd99 7b3e 3451 213e f45c dabe 2063 9dbe
000000e0: 576a cf3e fa0c 5e3d 30df bb3d ae08 cebc
000000f0: d589 ddbe 6e5b a93e 852c c9be 66e2 7b3c
00000100: be76 bb3e 093d c43c df70 19be 9f57 70be
00000110: 01a0 4e3e cd72 73be 4779 ecbe 8e5e 3b3e
00000120: 5a11 ad3d c79d 673d 8694 fb3e b4a3 7dbe
00000130: 9a52 0e3e 2a4c bebe 9de0 d33e 0909 8c3e
00000140: 63ba 71bd 2a12 e0be d641 c9be 9aa6 9f3e
00000150: 8a51 ad3e 6298 75be fce6 2d3e 7da9 7ebe
00000160: dcbc 52be 6a64 f23d 4b28 d7bd feed 7d3e
00000170: 77a1 80bd f3dd a4be 5460 513e 4cbc 513e
00000180: 5159 e6bb 099e 533e e407 78be 3b81 6f3e
00000190: b8a8 263d c47c bb3d 3979 ce3d d3d3 de3e
000001a0: 5f5a f03e b308 d4be 480b d53d 7831 c9be
000001b0: e963 af3d 7b3f 833e 25cd 08be f147 d13d
000001c0: 486b a1be 98ea 2a3e db54 0b3d 6d21 753e
000001d0: 4155 1c3e 00c4 49be 3b19 b2be 0a0b 8e3e
000001e0: 000c 103d 1176 6ebd c4b4 ce3e 3cdb c2bd
000001f0: 35b5 b8be 94aa 0dbe 082c b13e 5f69 963e
0.08224429 0.40390027 -0.3769087 -0.21517251 -0.02029219 0.21157864 0.34441635 0.29224947
0.20181558 -0.026350785 0.026086932 -0.2028269 -0.19233267 0.24974135 0.15500815 0.085692674
0.31011873 0.21716404 0.13389769 0.45266822 -0.002948865 -0.40200806 -0.30834424 -0.0319729
-0.3298059 -0.044085182 -0.4292693 0.33120868 -0.00057705137 -0.30024397 0.015192487 -0.0970959
0.291895 0.32050994 0.016411377 0.4065408 -0.24823672 0.11670709 -0.20245756 0.14380386
0.004673332 0.1523919 0.041886337 -0.15127012 0.16482344 -0.23521398 -0.09669655 0.12159379
-0.3389558 -0.2523987 -0.058136337 -0.020887282 0.24570413 0.15753633 -0.42649043 -0.3073969
0.40510818 0.054211594 0.09173429 -0.025150623 -0.4326922 0.33077568 -0.39291778 0.015373802
0.3661403 0.023954885 -0.14984463 -0.23470925 0.20178224 -0.23774262 -0.46186277 0.18297789
0.08450575 0.056546953 0.49136752 -0.24769479 0.13898697 -0.37167484 0.41382304 0.27350643
-0.059015643 -0.43763858 -0.3930804 0.31181794 0.33851272 -0.2398391 0.16982645 -0.24869342
-0.20579857 0.11835559 -0.10505732 0.24797818 -0.06280797 -0.32200584 0.20446903 0.20481986
-0.0070296903 0.20665754 -0.2422176 0.23389141 0.040688246 0.091546565 0.10081715 0.43520984
0.46943948 -0.41412887 0.10402542 -0.39295554 0.08563978 0.2563437 -0.13359506 0.102188
-0.31527162 0.16691053 0.03401647 0.23938532 0.15266897 -0.19703674 -0.34784874 0.27742797
0.035167694 -0.058218066 0.40372288 -0.09514472 -0.3607575 -0.13834602 0.34603906 0.29377267

module_list.1.0.weight f4 [64, 128]
00000000: 58a5 223e 8ff0 90bd 50c3 7c3e 87f9 843e
00000010: 2819 db3d 6b68 3ebe 4b16 3abd 189e a3bd
00000020: 3893 a2bd 9b2d cb3d ad2c 9cbd 6984 033e
00000030: a781 413d 2e1f 25be ceed 6cbe ec54 83bd
00000040: 7034 47bd 3313 473c 34e9 21be 63d9 29bc
00000050: d37d c3bc 95a1 bc3c 08e5 12bd 01d3 c4bd
00000060: e793 5b3e 2236 d13d 642a 853e 4a88 26be
00000070: e4bb 233c 7e79 95bc b775 c2bc 13a2 f9bd
00000080: 6752 17be 2128 bb3c 20c6 99bd 9234 b3bd
00000090: 00d2 6c3e 8194 8b3d 06c2 e0bc 0382 2dbe
000000a0: 8c48 29be 7426 f53c 80fc 333e 9fc5 7b3d
000000b0: 74f3 723c 3166 b63d 729b 4ebb 100d b4bd
000000c0: 30f4 893d c9a7 a33d e28f d7bb 4ee4 9cbc
000000d0: 7ec3 b0bd 8558 1bbd f21e 5a3e cf59 613c
000000e0: cc2d 1dbd ad27 d1bc 765d 5dbc 4c7a e5bd
000000f0: e0fa 3a3e 9adb 58be e624 a83d c513 4bbb
00000100: 1b5d 423c 5d8d 08be 14a1 043d 8d76 1cbc
00000110: 672c d8bb b8d7 1abd a59f ce3d 348e ec3d
00000120: 51f4 53be 9a25 73bd 2fd7 e3be e7a4 003e
00000130: ace1 1abe 99e1 753d 84ae 09be 2a84 f9bc
00000140: b1c1 29be 7112 14bd 1164 ab3c e7f2 c2bc
00000150: 278a 88bc 9e54 4e3e 960c 5ebe ef3f 353e
00000160: 5227 943d 84e9 91bd 8059 dfbc 5c89 bcbb
00000170: fbba c23c 5b6a 223e 44b7 47be 0f9f 82bc
00000180: 9c61 333e e7cb 1bbe 5dd7 4b3d 53dd 8d3d
00000190: 2641 03be 9934 84be 13e3 0abe e3e7 35be
000001a0: 2581 3cbd b6d4 ca3d 75a4 eabd f096 783d
000001b0: 9613 433d 303d 63be c7b8 28bd 3fab 1bbe
000001c0: 60b7 fdbd 085b 67be 0a5d a83d 031b 193e
000001d0: 63f1 98bc 2dba 2e3d d78a 6b3e 8883 e8bd
000001e0: 9fad d7bd f89d 743d cfd6 ebbc 7b0b a4bc
000001f0: 9336 a23d 7c83 4ebc 7e2d cfbd 4271 7fbd
00000200: 51c2 19bd 2382 71be 8f7a 353e b242 893d
00000210: e0c8 a5bd 28b5 aabd e8bf 71be 3324 11be
00000220: d23a a8bc 8ec4 eb3c 06c6 0a3e c07c 373d
00000230: 5248 253d e10f c23d dd4b 24bc 4192 0f3d
00000240: f631 48be 969c 67bd 01a1 95bd aee6 0dbe
00000250: e486 0fbe 0e3f 883d 4ce8 683c 7eac cfbc
00000260: ae70 5c3e 9c5a d83c 29b7 733d ff3d 0dbe
00000270: 6e6e 9b3d 15a0 aa3d 5a48 8a3d 7694 0dbd
00000280: 516d 06be ef36 8e3c a74d f4bc 7873 4cbd
00000290: ca9c ac3d a2a3 8b3c 1999 f53d fef7 3dbd
000002a0: cf2e bf3d 0c7a dabd 0e03 f5bb 1547 1c3e
000002b0: 49fe 56bd a94f cb3c 2afe dabc 832e d6bd
000002c0: a8c9 bd3d ee14 93bc d75b 0c3e 78d3 ddbc
000002d0: 92ae c3bd 12ec 663d f507 273b 0bd8 343d
000002e0: 7edc 85bd 620d c03d de56 913c 010f 22bd
000002f0: 71a0 173e b91a 65be 9a9c db3d c2e1 463e
00000300: f69c 16bd 038b 493e 61e5 873e 38a8 213e
00000310: 937a 52be 6e7f 83ba c275 0bbd a34c dd3c
00000320: 3f07 a8bd 6458 5a3e 0e6e c7bc b512 b13d
00000330: 196c 0dbe 8439 2ebd 08aa 80be 4069 58bc
00000340: 90c9 febb fded 233e 1f2e d33d 9890 58bd
00000350: db2c 6dbd 2e99 db3c eb50 8d3d fc13 373e
00000360: 4d58 3e3e 92f8 a93d db94 3ebd cec7 bebd
00000370: 8c26 ce3d 7bee e73c 7500 aabc ff4b a93d
00000380: 3495 c53c 1594 eebd 979f bfbc 9c07 a1bc
00000390: 3f79 1bbd a58c 4a3e 41e4 f1bd 8819 22be
000003a0: 976b 1ebe abb6 433e 08a2 ebbc 427f 413e
000003b0: 77fb e6bc a6f3 22be 6e05 103c 1db7 c33d
000003c0: 0d26 533d 7669 9cbd 0e5e 12bd a546 82bd
000003d0: a673 3cbe 06db af3d e510 1e3e 771c 253b
000003e0: 3b24 39bb 3afe 1abe 94ff d73b c052 8c3b
000003f0: ec59 513c 52dc de3d f8c4 24be 2ace 9fbe
0.15883386 -0.07077133 0.24683881 0.25971624 0.106981575 -0.1859452 -0.045431416 -0.07989138
-0.07938236 0.09920808 -0.07625709 0.12843479 0.047242787 -0.16125175 -0.2313759 -0.06412682
-0.048633993 0.012150574 -0.15811616 -0.01036677 -0.023863709 0.023026267 -0.035862952 -0.09610558
0.21443139 0.10215403 0.26008904 -0.16262928 0.009993527 -0.018246409 -0.023737771 -0.12189116
-0.14777528 0.022846283 -0.075084925 -0.08750261 0.23126984 0.06815434 -0.027436268 -0.16944127
-0.1653158 0.029925562 0.1757679 0.061467763 0.014828552 0.0890621 -0.0031525758 -0.08791554
0.06736028 0.07990987 -0.0065784315 -0.019151833 -0.08631037 -0.037926216 0.21300867 0.013754322
-0.038373753 -0.025531614 -0.013511052 -0.11204967 0.18259764 -0.21177521 0.08210163 -0.0030987125
0.011863018 -0.13335176 0.03238018 -0.009549749 -0.00659709 -0.03780338 0.100890435 0.115505606
-0.20698668 -0.05936203 -0.4450011 0.12562905 -0.1512515 0.0600296 -0.13445479 -0.030458529
-0.16577794 -0.0361504 0.020921739 -0.023797465 -0.016667439 0.20149466 -0.21684489 0.1770017
0.07234062 -0.07124618 -0.027264357 -0.005753679 0.0237708 0.15860884 -0.19503504 -0.015944986
0.17517704 -0.15214501 0.049765933 0.0692698 -0.12817821 -0.2582138 -0.13563184 -0.17764239
-0.0460216 0.09903853 -0.11457149 0.06069082 0.0476261 -0.2219131 -0.041191842 -0.15202044
-0.12388492 -0.2259332 0.08220871 0.1495171 -0.01866979 0.04265802 0.23002182 -0.113532126
-0.105311625 0.059720963 -0.028788952 -0.020025006 0.079205655 -0.0126045905 -0.10116099 -0.06236387
-0.03753883 -0.235848 0.17722534 0.06702174 -0.080949545 -0.08335334 -0.23608363 -0.14173965
-0.02053586 0.028780248 0.13552102 0.044796705 0.040352173 0.09475685 -0.010027853 0.035051588
-0.19550309 -0.056545816 -0.073061 -0.13857529 -0.140163 0.06652652 0.01421554 -0.025350805
0.21527359 0.026410393 0.059500847 -0.13793181 0.07589422 0.083313145 0.06752081 -0.03456541
-0.13127638 0.017360179 -0.029822184 -0.049914807 0.08428343 0.0170458 0.11992092 -0.046379082
0.093351 -0.1066781 -0.007477171 0.1526149 -0.0524886 0.024818258 -0.026732523 -0.1045809
0.092669785 -0.017954316 0.13706909 -0.027078375 -0.09554781 0.056377478 0.002548692 0.044151347
-0.06536196 0.093775526 0.017741617 -0.03956509 0.14807297 -0.22373475 0.10723229 0.19422057
-0.036770783 0.19681935 0.2654219 0.15786827 -0.20554571 -0.0010032484 -0.03404785 0.027014082
-0.08204507 0.21322781 -0.02434447 0.08646146 -0.13810767 -0.04253532 -0.25129724 -0.013208687
-0.007775493 0.16008754 0.10311531 -0.05287227 -0.057904106 0.02680644 0.069001995 0.17878717
0.18588372 0.08299364 -0.04652868 -0.093154535 0.10065946 0.028311959 -0.020752171 0.08266448
0.024118997 -0.11649338 -0.023391528 -0.019656949 -0.037957426 0.19780214 -0.11811114 -0.15830052
-0.1547073 0.19112651 -0.028763786 0.18896201 -0.02819608 -0.15913257 0.008790357 0.095564105
0.05154996 -0.076373026 -0.03573423 -0.063611306 -0.18403491 0.08586697 0.15436132 0.0025193968
-0.0028250355 -0.15136042 0.0065917466 0.0042823255 0.012777787 0.108818665 -0.16090763 -0.31211978

module_list.1.0.bias f4 [64]
00000000: bb98 30be f3ad 42be 8b13 653d dd84 03be
00000010: 141f 04bd d892 d5bd e533 ee3c ef81 e8bc
00000020: e8b3 64bb a005 44bd 7326 d0bc 9ad4 ad3d
00000030: 8fae dc39 38cc f6bc 00fb 7d3d 8a9d b33d
00000040: 1b4f d3bc ba05 6d3d 4740 16bd c26c 79bd
00000050: c3a6 6e3c f68e a4bd 49a2 5abd 0fda 443c
00000060: 80e4 203d 8fc4 d0bc 593e b73c a6cc 04bd
00000070: 1a37 b3bc 42ae 12be 9d7b 4dbc 661f aebd
00000080: 3000 c63b dc47 2f3d f27e 03bd 0581 f73d
00000090: 4412 65bd b09e bbbd 0ccf 643d a018 c33c
000000a0: aec5 cdbb 6aa3 74bd 2022 d7bd 3618 a63d
000000b0: 4a2e 203d 2043 7d3d 0f46 29bd c306 d3bd
000000c0: dbee 563d 5d8a 863d 49fb 95bc 035f 92bd
000000d0: 6c3a 0d3d 8203 f53c 8297 c6bc 732b 61bd
000000e0: 8c61 be3d f153 2abc 3d9d 31bc e6ab 833d
000000f0: 1ef4 3a3d bf75 14bd 1643 8ebc 6ed5 293d
-0.17245762 -0.19011669 0.05592684 -0.12843652 -0.0322562 -0.10428399 0.02907748 -0.02838227
-0.0034897272 -0.047856927 -0.025408959 0.08487816 0.00042091726 -0.030126676 0.06200695 0.087702826
-0.025794556 0.05786679 -0.036682393 -0.060894735 0.014566126 -0.0803508 -0.053377423 0.01201488
0.039280415 -0.025484351 0.022368597 -0.03242173 -0.02187686 -0.14324287 -0.012541679 -0.085020825
0.006042503 0.04279314 -0.032103486 0.120851554 -0.055925623 -0.091611266 0.055861518 0.023815453
-0.006279669 -0.059726156 -0.10504556 0.081100866 0.039106645 0.061831594 -0.04132658 -0.10304024
0.052473884 0.065693595 -0.018308299 -0.07147028 0.034479544 0.0299089 -0.024242166 -0.054973077
0.09295949 -0.01039599 -0.010840711 0.064292714 0.045642965 -0.036245104 -0.017365973 0.041463308

module_list.2.weight f4 [1, 64]
00000000: f3be 2d3e b325 593e 91c7 9b3d fbb2 fe3d
00000010: 3289 d73d 92bb 163e 2322 e5bd 8b88 073e
00000020: 881c 123e f6b8 293e 7ee6 43be 971d 04be
00000030: 836d 14be 0fa3 3ebd f43c 31be 54a5 003e
00000040: 20de f13d 9e6f 4e3a 0816 733c f87c afbd
00000050: 28ea 4dbe e7bb 3ebe 236e 133e ee0d 20be
00000060: 795d 8c3d 3dcc 2f3d 2a54 a0bd 5f0c 1fbc
00000070: b81b d4bd 3da3 a8be 0c03 c63d 89ef 143e
00000080: 508c 85bd acb0 183e e27e d7bd 8148 293c
00000090: f6ee ccbd 7415 60be a6e3 cb3d f4f9 ce3d
000000a0: 84e6 d8bd 05a2 083e 9e09 733d 69de 013e
000000b0: e679 3b3d 27a7 103d 6d3b 8a3d 89d0 4bbe
000000c0: 3b51 063e 8f5f ed3d 39a7 22be 4492 b4be
000000d0: 2852 2d3d 6bc2 4dbd a776 483e 9d87 99bd
000000e0: b285 873d 94e2 cebd 0cf0 c3bd 6951 dabd
000000f0: 3481 8b3d d1a2 47be b92f fd3d 19b9 c93d
0.16967373 0.21205787 0.07606424 0.124364816 0.10524215 0.1471999 -0.11188152 0.13235681
0.14268696 0.16574463 -0.19130895 -0.12901913 -0.144949 -0.046542224 -0.17308408 0.12563068
0.11809945 0.00078749086 0.014836796 -0.08568758 -0.20108855 -0.18626367 0.14397483 -0.15630314
0.06853766 0.042919386 -0.07828553 -0.009707539 -0.103568494 -0.3293704 0.0966855 0.145445
-0.06520903 0.14911145 -0.10522248 0.010332228 -0.10006516 -0.21883184 0.0995553 0.101062685
-0.10590842 0.13343056 0.059335344 0.12682499 0.04577055 0.03531566 0.06749616 -0.19903769
0.13116924 0.11590492 -0.15884103 -0.35267842 0.04231468 -0.05023424 0.19576512 -0.07496569
0.06617297 -0.1010181 -0.0956727 -0.10660059 0.06811753 -0.19495703 0.12362618 0.09849758
