saved_models_mtl_HEA_transfer/mtl_1_HEA_500_b0_best_tl2.pt (torch, 686509 bytes, 54 tensors)

atomic_mass f8 [119]
0	0x3ff0000000000000	1.0
1	0x3ff020c49ba5e354	1.008
2	0x401002aa19439de5	4.002602
3	0x401bc28f5c28f5c3	6.94
4	0x4022063cdd0020b7	9.0121831
5	0x40259eb851eb851f	10.81
6	0x402805a1cac08312	12.011
7	0x402c0395810624dd	14.007
8	0x402fff7ced916873	15.999
9	0x4032ff9759854ed6	18.998403163
10	0x40342e00d1b71759	20.1797
11	0x4036fd6185002f7b	22.98976928
12	0x40384e147ae147ae	24.305
13	0x403afb461b6d43d0	26.9815385
14	0x403c15c28f5c28f6	28.085
15	0x403ef948775f7f64	30.973761998
16	0x404007ae147ae148	32.06
17	0x4041b9999999999a	35.45
18	0x4043f95810624dd3	39.948
19	0x40438c95182a9931	39.0983
20	0x404409fbe76c8b44	40.078
21	0x40467a5b317efe0d	44.955908
22	0x4047eef9db22d0e5	47.867
23	0x40497883126e978d	50.9415
24	0x4049ff80346dc5d6	51.9961
25	0x404b7811d3671ac1	54.938044
26	0x404bec28f5c28f5c	55.845
27	0x404d7772e6a76966	58.933194
28	0x404d58c154c985f0	58.6934
29	0x404fc5e353f7ced9	63.546
30	0x40505851eb851eb8	65.38
31	0x40516e45a1cac083	69.723
32	0x40522851eb851eb8	72.63
33	0x4052bafb69984a0e	74.921595
34	0x4053be24dd2f1aa0	78.971
35	0x4053f9db22d0e560	79.904
36	0x4054f3126e978d50	83.798
37	0x40555df06f694467	85.4678
38	0x4055e7ae147ae148	87.62
39	0x405639f94855da27	88.90584
40	0x4056ce5604189375	91.224
41	0x40573a01f75104d5	92.90637
42	0x4057fccccccccccd	95.95
43	0x40587a0fba8826ab	97.90721
44	0x4059447ae147ae14	101.07
45	0x4059b9f3b645a1cb	102.9055
46	0x405a9ae147ae147b	106.42
47	0x405af79096bb98c8	107.8682
48	0x405c1a7ef9db22d1	112.414
49	0x405cb45a1cac0831	114.818
50	0x405dad70a3d70a3d	118.71
51	0x405e70a3d70a3d71	121.76
52	0x405fe66666666666	127.6
53	0x405fb9e2d6238da4	126.90447
54	0x406069604189374c	131.293
55	0x40609cf976638992	132.90545196
56	0x40612a76c8b43958	137.327
57	0x40615cf99c38b04b	138.90547
58	0x406183b645a1cac1	140.116
59	0x40619d0b8cfbfc65	140.90766
60	0x406207be76c8b439	144.242
61	0x40621d355475a31a	144.91276
62	0x4062cb851eb851ec	150.36
63	0x4062fed916872b02	151.964
64	0x4063a80000000000	157.25
65	0x4063dd9c779a6b51	158.92535
66	0x4064500000000000	162.5
67	0x40649dc5436b8f9b	164.93033
68	0x4064e849ba5e353f	167.259
69	0x40651de52157689d	168.93422
70	0x4065a1ba5e353f7d	173.054
71	0x4065def0068db8bb	174.9668
72	0x40664fae147ae148	178.49
73	0x40669e550870110a	180.94788
74	0x4066fae147ae147b	183.84
75	0x4067469fbe76c8b4	186.207
76	0x4067c75c28f5c28f	190.23
77	0x406806f1a9fbe76d	192.217
78	0x406862b020c49ba6	195.084
79	0x40689eee221c8a7a	196.966569
80	0x406912f1a9fbe76d	200.592
81	0x40698c28f5c28f5c	204.38
82	0x4069e66666666666	207.2
83	0x406a1f5f6fd21ff3	208.9804
84	0x406a1f70110a137f	208.98243
85	0x406a3f96bb98c7e3	209.98715
86	0x406bc09003eea20a	222.01758
87	0x406be0a1b5c7cd8a	223.01974
88	0x406c40d028a1dfb9	226.02541
89	0x406c60e353f7ced9	227.02775
90	0x406d0134d6a161e5	232.0377
91	0x406ce125edd05293	231.03588
92	0x406dc0ecd4aa10e0	238.02891
93	0x406da18a9bcfd4bf	237.04817
94	0x406e820e02214270	244.06421
95	0x406e61f6d330941d	243.06138
96	0x406ee2404ea4a8c1	247.07035
97	0x406ee23ffac1d29e	247.07031
98	0x406f628c0053e2d6	251.07959
99	0x406f82a7ef9db22d	252.083
100	0x407011859210385c	257.09511
101	0x407021932b55ef20	258.09843
102	0x4070319db22d0e56	259.101
103	0x407061c28f5c28f6	262.11
104	0x4070b1f3b645a1cb	267.122
105	0x4070c204189374bc	268.126
106	0x4070f224dd2f1aa0	271.134
107	0x4070e220c49ba5e3	270.133
108	0x4070d2240b780347	269.1338
109	0x4071627ef9db22d1	278.156
110	0x407192a3d70a3d71	281.165
111	0x407192a7ef9db22d	281.166
112	0x4071d2d4fdf3b646	285.177
113	0x4071e2e978d4fdf4	286.182
114	0x4072130a3d70a3d7	289.19
115	0x4072131a9fbe76c9	289.194
116	0x4072534395810625	293.204
117	0x40725353f7ced917	293.208
118	0x4072636c8b439581	294.214

tower_layers.0.0.weight f4 [128, 128]
0	0xbbce9d2b	-0.006305357
1	0x3d848437	0.064705305
2	0x3c9fd558	0.01951091
3	0x3d619774	0.055076078
4	0x3d5238b6	0.051323615
5	0x3c487f5d	0.012237397
6	0x3daf8718	0.08570689
7	0x3cc0c2d5	0.023530403
8	0x3c9b265c	0.01893919
9	0x3d1b940d	0.03798299
10	0xbd80248c	-0.06256971
11	0x3d0a24b5	0.033726413
12	0xbd9373b1	-0.07199801
13	0x3cb82363	0.022477811
14	0x3c7f3613	0.015576857
15	0xbcc88d7b	-0.024481526
16	0x3d0645fd	0.03278159
17	0xbd315b9b	-0.043300252
18	0xbd823cfe	-0.063592896
19	0xbd874bbd	-0.06606243
20	0xbd3b367e	-0.045706265
21	0x3d3133e8	0.043262392
22	0xbcb26e1f	-0.021781025
23	0x3cb6d154	0.022316612
24	0x3da6f765	0.081526555
25	0xbda86f18	-0.082243145
26	0xbc02e65b	-0.007989491
27	0x3d9a64d2	0.07538761
28	0x3da70fdc	0.08157322
29	0x3d4e9763	0.050437342
30	0x3d97ef21	0.07418657
31	0x3bb5fd24	0.0055538584
32	0x3d9bc6f2	0.07606305
33	0xbd1a534d	-0.037677098
34	0x3cdf6411	0.027269395
35	0x3b538ff3	0.0032281845
36	0x3d025778	0.031821698
37	0x3c4a423b	0.012344892
38	0xbbb4cd4e	-0.0055176383
39	0x3c81616e	0.015793528
40	0x3d997eba	0.07494874
41	0x3c12f321	0.008969099
42	0xbd6c2455	-0.057651836
43	0xbca56a69	-0.020192342
44	0x3c8663c2	0.01640499
45	0x3d21856a	0.039433874
46	0xbd1d5899	-0.03841457
47	0xbc54bd4f	-0.012984588
48	0xbd863584	-0.06553176
49	0xbd960d25	-0.07326726
50	0x3bf130cc	0.0073605534
51	0xbd87c94e	-0.06630193
52	0xbd98c266	-0.074589536
53	0xbcfb7c65	-0.030698964
54	0x3b5adb7e	0.0033394988
55	0xbd6124e6	-0.05496683
56	0x3d6cda1a	0.057825185
57	0x3beca372	0.0072216326
58	0x3d3f8ca3	0.04676498
59	0x3d09a242	0.033602007
60	0x3d9f5494	0.07779804
61	0xbb78382f	-0.0037875285
62	0x3d7ed186	0.062211536
63	0xb9fe5c85	-0.00048515588
64	0xbdad7dd8	-0.084712684
65	0x3c8714ff	0.016489504
66	0x3d099e68	0.033598334
67	0x3af25fd2	0.0018491691
68	0x3ce940d6	0.028473299
69	0x3d3411db	0.04396234
70	0x3d13c1ed	0.036073614
71	0x3dbc2119	0.091860004
72	0xbd843a45	-0.064564265
73	0xbd5e214b	-0.05423097
74	0x3d040953	0.032235455
75	0xbd8e5131	-0.0694908
76	0x3d8345f9	0.064098306
77	0xbd3744cc	-0.044743344
78	0xbc96d55f	-0.01841229
79	0xbdb255a4	-0.08707741
80	0x3cf20508	0.029543415
81	0x3d54e05a	0.05197177
82	0xbd73f363	-0.059558284
83	0x3d855d18	0.06511897
84	0xbd050587	-0.032475974
85	0xbce6ce1e	-0.028174456
86	0xbd3baa50	-0.04581672
87	0x3cf5820c	0.029969238
88	0x3d1a3a8a	0.037653483
89	0x3d179f25	0.037017006
90	0xbd671903	-0.056420337
91	0xbd9acf72	-0.07559098
92	0x3d2b6674	0.041845754
93	0x3b519fb1	0.0031986053
94	0x3c6c0d1e	0.014407424
95	0xbd6601ea	-0.05615417
96	0xbc8e78b7	-0.017391546
97	0xbda9a47b	-0.08283325
98	0x3d8bb7aa	0.068221405
99	0x3c7391ee	0.014866335
100	0x3d62a19a	0.055329897
101	0xbcd57e3e	-0.026061174
102	0xbd687281	-0.056749824
103	0x3c3c2a3d	0.01148468
104	0x3d378845	0.04480769
105	0x3d210ff8	0.03932187
106	0x3c753b92	0.014967816
107	0x3da59032	0.08084144
108	0xbd1cb45f	-0.038257953
109	0x3be83477	0.0070863324
110	0xbd1f715a	-0.03892646
111	0x3bf713d2	0.0075402046
112	0x3cbfbb92	0.02340487
113	0x3d54a466	0.051914595
114	0xbd8d0d3e	-0.06887291
115	0x3c1ee59b	0.009698297
116	0x3d040cd6	0.032238804
117	0xbc883efd	-0.016631598
118	0x3d9547a4	0.07289055
119	0x3c09125c	0.008366194
120	0xbdb5e610	-0.088817716
121	0xbb293f18	-0.002582496
122	0x3d68f781	0.056876663
123	0xbc4e4b20	-0.012591153
124	0x3d0781f5	0.03308292
125	0x3c94e79d	0.018176848
126	0xbd0c78fb	-0.034295063
127	0x3d2f2ad1	0.042765442
128	0x3d5c2e10	0.053754866
129	0xbb9d13a6	-0.004793602
130	0x3caac0c6	0.020843875
131	0x3cc7ad8d	0.024374748
132	0xbbd9e3bf	-0.006649464
133	0x3dbdaaaf	0.09261071
134	0x3d934a36	0.07191889
135	0xbbdcd1e8	-0.00673889
136	0xbd1a846f	-0.037723955
137	0x3dc0cadb	0.094136916
138	0x3c2355de	0.009969203
139	0x3d79785f	0.06090581
140	0x3c9144d2	0.017733011
141	0xbc6f32fd	-0.014599559
142	0x3d54618b	0.051850837
143	0x3d533d01	0.05157185
144	0x3d394409	0.0452309
145	0xbd85d0b0	-0.065339446
146	0x3d080b1f	0.03321373
147	0x3db2c85e	0.08729623
148	0xbc9f2491	-0.019426616
149	0xbd350f5c	-0.0442041
150	0x3d7ec350	0.062197983
151	0xbd35d461	-0.044391993
152	0xbb56b024	-0.0032758797
153	0xbd08bb7f	-0.033381935
154	0x3d6cb7e3	0.057792556
155	0x3cc0d595	0.023539344
156	0x3d696c54	0.056988075
157	0x3cf9f92f	0.030514328
158	0xbd40b492	-0.047047205
159	0x3d5f1f3c	0.054473147
160	0xbd6eb572	-0.05827851
161	0xbd8cf3cb	-0.06882437
162	0xbdac7d62	-0.084223524
163	0x3d81ff04	0.063474685
164	0xbd68ae94	-0.056807116
165	0xbd0bd5fc	-0.03413962
166	0xbc84489e	-0.016147908
167	0x3d0b3112	0.033982344
168	0xbd0e5ed3	-0.0347584
169	0xbd755804	-0.05989839
170	0x3d0db0df	0.034592506
171	0xbd1d0c4a	-0.038341798
172	0xbd9f9e1e	-0.0779383
173	0x3bfc0b8d	0.0076918066
174	0xbc379b1a	-0.011206413
175	0xbd6bd6be	-0.05757784
176	0xbc69e2ec	-0.014275294
177	0x3d9271e5	0.0715063
178	0x3d055f52	0.032561608
179	0x3c7b71d7	0.015346966
180	0xbc683e11	-0.014174954
181	0xbd812777	-0.063063554
182	0x3d454a9d	0.04816686
183	0x3d1efa1b	0.038812738
184	0x3d9908f4	0.07472411
185	0xbdc18645	-0.09449438
186	0x3d924968	0.071429074
187	0xbdc26625	-0.09492139
188	0xbc52f78d	-0.0128764035
189	0x3d2f0a63	0.042734515
190	0xbd4ad659	-0.049520824
191	0xbda242c7	-0.07922893
192	0xbdd9194d	-0.10600529
193	0xbd4b9a10	-0.049707472
194	0xbd48f3b3	-0.049060535
195	0x3c9462da	0.018113542
196	0x3acc7003	0.0015597347
197	0x3d3c3f65	0.045958895
198	0xbc7da7c1	-0.01548189
199	0xbd041616	-0.032247625
200	0x3d79162a	0.060812153
201	0x3d143ae3	0.03618897
202	0x3c509329	0.012730398
203	0xbd6a6b12	-0.057231016
204	0x3d6fd82e	0.058555774
205	0x3d88f842	0.066879764
206	0xbdb8a4c7	-0.09015804
207	0xbc3bd5b1	-0.011464522
208	0xbad058df	-0.0015895626
209	0xbde73bea	-0.112907246
210	0x3c452315	0.01203229
211	0xbd385317	-0.045001116
212	0x3d69974c	0.057029054
213	0xbc15b29a	-0.00913682
214	0x3d4cf10e	0.050034575
215	0xbdb30978	-0.087420404
216	0xbd4ee5c7	-0.0505121
217	0x3d363c60	0.04449117
218	0xbcc8e078	-0.024521098
219	0x3d446c9f	0.04795515
220	0x3ca59c23	0.020216053
221	0xbd9fb0ef	-0.07797419
222	0xbbf5d7c5	-0.0075025284
223	0x3d7396ce	0.05946999
224	0x3d7657cf	0.060142335
225	0xbdae6603	-0.08515551
226	0xbd7e51c2	-0.06208969
227	0xbc2aed67	-0.010432578
228	0x3dc7b81b	0.09751912
229	0x3d8bbd87	0.06823259
230	0x3d9fb9aa	0.077990845
231	0x3dcd5192	0.10025324
232	0x3c5ab6cc	0.013349246
233	0x3d946005	0.07244877
234	0xbd8355e1	-0.064128645
235	0x3d321421	0.043476228
236	0x3c7fb12d	0.015606207
237	0xbd85943d	-0.06522415
238	0x3c9c80dd	0.019104416
239	0x3b1f1390	0.0024273135
240	0xbd807958	-0.062731445
241	0xbc0241e4	-0.00795028
242	0xbcadba23	-0.021206921
243	0xbd2cb70d	-0.04216676
244	0x3d06eb0a	0.032938994
245	0x3d951454	0.07279268
246	0xbc562727	-0.013070858
247	0x3db4e30a	0.08832367
248	0x3d891c89	0.06694896
249	0x3c32fda3	0.0109247295
250	0xbd961e43	-0.07329991
251	0x3ca6cac5	0.02036036
252	0xbc82ac01	-0.015951158
253	0x3d95894c	0.07301578
254	0x3d2b2695	0.04178484
255	0xbd72e431	-0.05929965

tower_layers.0.0.bias f4 [128]
0	0xbc7937a1	-0.015211017
1	0xbd92c7ef	-0.071670406
2	0x3d1b0ddd	0.037855018
3	0xbb4bb06b	-0.0031080495
4	0xbda178b2	-0.07884349
5	0xbd15121c	-0.036394224
6	0xbd42a864	-0.04752387
7	0x3cc7e53e	0.024401303
8	0x3d1f659e	0.03891527
9	0xbd89181a	-0.0669405
10	0xbd95b279	-0.073094316
11	0xbd5fff4a	-0.054686822
12	0x3cddbe3b	0.027068248
13	0x3d93708b	0.071992
14	0x3d813075	0.063080706
15	0x3cea6a7e	0.028615233
16	0xbd050263	-0.03247298
17	0xbd3efde2	-0.04662884
18	0x3cb2f79a	0.021846581
19	0xbd7c8015	-0.061645586
20	0x3c1106a3	0.00885168
21	0x3bc79c4b	0.0060916296
22	0xbc7d0589	-0.015443214
23	0x3c7eca9b	0.015551235
24	0xbd397c99	-0.04528484
25	0xbd869a9e	-0.0657246
26	0x3cf6e6a2	0.030139271
27	0x3bb960ba	0.0056572827
28	0xbd75fbcf	-0.060054597
29	0x3b9baeae	0.004751048
30	0x3d84ead9	0.06490106
31	0x3d616dcc	0.05503635
32	0xbd90b440	-0.0706563
33	0xbd079453	-0.033100437
34	0xbd30cb4a	-0.04316262
35	0x3c8d4459	0.017244505
36	0x3bf15b91	0.007365652
37	0xbd967eaf	-0.07348382
38	0x3b132959	0.0022455065
39	0x3d43d3ad	0.04780929
40	0x3d88c1c1	0.066775806
41	0x3da75d41	0.08172084
42	0x396e4635	0.00022723603
43	0x3d8d9e82	0.069149986
44	0x3db6db5b	0.089285575
45	0x3d8c5809	0.06852729
46	0x3cfdfee0	0.031005323
47	0xbb7cfec9	-0.0038604012
48	0xbc87b6a2	-0.016566578
49	0xbd8424bc	-0.06452319
50	0xbca7a772	-0.020465586
51	0xbbd595b0	-0.0065180883
52	0x3c7e9a3d	0.015539703
53	0xbc85e561	-0.016344728
54	0xbd93cbf9	-0.07216639
55	0xbcbed049	-0.023292677
56	0x3d973c58	0.073845565
57	0xbd1114d2	-0.035420246
58	0x3cf845b9	0.030306684
59	0x3c866c1a	0.016408969
60	0xbd8ccef5	-0.068754114
61	0x3d2833ab	0.0410649
62	0x3d0099e5	0.031396765
63	0x3c90bddd	0.017668659
64	0x3d93c8a8	0.072160065
65	0xbd541a0b	-0.05178265
66	0xbd3a1ff6	-0.045440637
67	0xbcb1e5fe	-0.021716114
68	0xbc86488c	-0.016392015
69	0xbd3fb7c3	-0.04680611
70	0x3d6570e2	0.056015857
71	0x3d90a195	0.07062069
72	0xbd29bdf6	-0.041440926
73	0xbdb671fc	-0.089084595
74	0xbdb31d73	-0.08745851
75	0x3d42215d	0.0473951
76	0xbd84078d	-0.06446753
77	0xbbecd86f	-0.0072279493
78	0xbd98ca61	-0.07460476
79	0xbd9b7b0b	-0.07591828
80	0xbdadcb18	-0.08486003
81	0x3d84c356	0.0648257
82	0x3d91462d	0.07093463
83	0x3d41d010	0.047317564
84	0x3b57085a	0.0032811374
85	0xbc3ccdb9	-0.0115236575
86	0xbc97f6ea	-0.018550355
87	0x3d37f943	0.04491545
88	0x3da342b7	0.07971709
89	0xbb1567a8	-0.002279738
90	0xbaed76e9	-0.0018117103
91	0x3cb62a1a	0.022236872
92	0x3d47bf9a	0.04876671
93	0x3d0e828b	0.034792464
94	0xbd98556a	-0.074381664
95	0x3d7a542e	0.061115436
96	0x3d91bdf7	0.07116311
97	0x3d9b619e	0.075869784
98	0xbd0297a2	-0.03188289
99	0xbcc00b4a	-0.023442883
100	0xbd8960ae	-0.06707893
101	0x3d35776e	0.04430335
102	0x3d6d81c7	0.057985093
103	0x3d82d884	0.06388953
104	0xbd9295af	-0.07157456
105	0xbdadb49e	-0.084817156
106	0xbd76bd63	-0.060239207
107	0x3daf9574	0.08573428
108	0xbd2cf15f	-0.042222377
109	0xbd895a57	-0.06706684
110	0xbd2905d2	-0.041265316
111	0xbcec7b52	-0.028867397
112	0xbd636ca4	-0.05552353
113	0xbd01205b	-0.031524997
114	0xbd97efa0	-0.07418752
115	0x3d3ffb3b	0.04687045
116	0xbbbd67cd	-0.0057801963
117	0x3d1e14fb	0.038594227
118	0xbd22f1b4	-0.039781287
119	0xbca6049c	-0.02026587
120	0x3ca48ef3	0.020087695
121	0x3cca460b	0.024691602
122	0x3ce1ec99	0.027578639
123	0xbc941778	-0.018077597
124	0xbc92afe2	-0.017906133
125	0x3bbfee6d	0.00585728
126	0x3d75d77d	0.06001996
127	0x3d2258fd	0.039635647

tower_layers.0.2.weight f4 [64, 128]
0	0xbd6004c0	-0.05469203
1	0xbcddb59e	-0.02706414
2	0xbc60333d	-0.013684091
3	0x3d820644	0.06348851
4	0x3d895f66	0.06707649
5	0x3bb1d80d	0.0054273666
6	0x3cbfd822	0.02341849
7	0xbb97a4d1	-0.004627802
8	0x3d877170	0.06613433
9	0x3d7547ad	0.05988281
10	0x3c5f810d	0.013641608
11	0x3bc39c06	0.005969527
12	0x3d012584	0.03152992
13	0xbd8e0180	-0.0693388
14	0xbc49f448	-0.012326308
15	0x3d8d99b7	0.069140844
16	0x3d956107	0.07293897
17	0xbd79bf63	-0.060973536
18	0xbd89f962	-0.06737019
19	0xbda27d04	-0.07934001
20	0x3d55e37d	0.052218903
21	0xbc51e027	-0.01280979
22	0xbdacf3a2	-0.08444907
23	0x3daad5ff	0.08341598
24	0x3d6ed804	0.058311477
25	0xbd1d58e2	-0.038414843
26	0x3dc2df31	0.09515227
27	0x3d4264e1	0.047459487
28	0xbcc2a199	-0.023758696
29	0x3d5f532d	0.054522682
30	0xbca35a82	-0.019940618
31	0xbc300498	-0.010743283
32	0x3d806734	0.062696844
33	0x3d7db897	0.061943617
34	0x3dadc03f	0.08483934
35	0xbd45f0e3	-0.04832543
36	0xbc579564	-0.013158176
37	0xbd54c957	-0.051949825
38	0xbd92f8fd	-0.07176397
39	0xbd3e00f3	-0.046387624
40	0xbd8f43d5	-0.0699536
41	0x3c250ad1	0.01007338
42	0x3ce4d230	0.027932256
43	0x3d722ba7	0.05912366
44	0x3db2dae5	0.08733157
45	0xbb1cd3d9	-0.0023929982
46	0xbda2036d	-0.0791081
47	0x3d0464e5	0.032322783
48	0x3cb7ae0e	0.022421863
49	0x3c6989ca	0.014254043
50	0xbc9459e7	-0.018109275
51	0x3c84e97c	0.016224615
52	0xbd1d3f7a	-0.038390614
53	0x3bf627be	0.007512062
54	0xbd86b742	-0.065779224
55	0xbd392f1e	-0.04521095
56	0x3d29fd75	0.04150148
57	0xbdbd2bb6	-0.09236853
58	0x3c0a86e5	0.008455013
59	0x3d4b4d3e	0.04963421
60	0x3d5ae881	0.05344439
61	0xbc9f91aa	-0.019478638
62	0x3d459d2b	0.04824559
63	0x3d99f141	0.07516719
64	0xbd7b30b8	-0.06132576
65	0xbd86312c	-0.065523475
66	0x3db95381	0.0904913
67	0xbd9adda8	-0.07561809
68	0xbd2294db	-0.03969274
69	0x3d5573b7	0.052112307
70	0x3d47c59c	0.04877244
71	0xbcfb4eba	-0.030677188
72	0xbd1f5d80	-0.038907528
73	0x3cec7e02	0.028868679
74	0x3d721d3a	0.059109904
75	0xbca9f32d	-0.020745838
76	0x3d38710c	0.045029685
77	0x3d627052	0.0552829
78	0x3d8babb1	0.06819857
79	0xbdab249a	-0.083565906
80	0xbca40d5d	-0.020025903
81	0x3db3e642	0.087841526
82	0xbccd7f04	-0.02508498
83	0x3d4e8fbb	0.05043004
84	0xbdaaf04f	-0.083466165
85	0xbd3cee49	-0.046125684
86	0xbacbb1dc	-0.0015540677
87	0x3d07b45d	0.033130992
88	0x3d7e096d	0.062020708
89	0x3dc1c86c	0.094620556
90	0x3d1d965e	0.03847348
91	0xbd9707ca	-0.073745325
92	0xbd67e4db	-0.056614738
93	0x3d1707b1	0.03687257
94	0xbd032550	-0.032018006
95	0xbd3979eb	-0.045282286
96	0xbc56b6b0	-0.0131050795
97	0xbd6acfd8	-0.05732712
98	0xbda86768	-0.08222848
99	0x3d94b4b1	0.07261027
100	0xbca193ce	-0.0197238
101	0xbc25557c	-0.010091182
102	0x3d8e7eb0	0.069577575
103	0xbcf633b0	-0.030053943
104	0xbd82bfd1	-0.06384242
105	0xbd931b87	-0.07182985
106	0x3d0cdbe9	0.03438941
107	0xbd5eb750	-0.05437404
108	0x3c01520a	0.007893095
109	0xbddac9c5	-0.10683016
110	0x3d762158	0.060090393
111	0x3db866e4	0.09004
112	0x3d13c7d6	0.03607925
113	0x3cdab9ee	0.026699986
114	0x3d874c3c	0.066063374
115	0xbd2a1f46	-0.04153373
116	0xbdc53899	-0.09629936
117	0x3da56cdd	0.08077405
118	0xbd9cede7	-0.07662564
119	0x3bfb5cf9	0.0076709953
120	0x3c8f4164	0.017487235
121	0x3ceee786	0.029163133
122	0xbd2adbc1	-0.04171348
123	0xbd96da7a	-0.0736589
124	0xbd533765	-0.0515665
125	0x3d16134d	0.0366395
126	0x3d42beb7	0.04754516
127	0xbd50ed54	-0.051007584
128	0x3dd11711	0.10209478
129	0xbd471856	-0.048607193
130	0x3d2714dc	0.040791377
131	0xbc6cd8c4	-0.014455978
132	0xbd99cc6f	-0.07509696
133	0x3c7f181d	0.015569714
134	0x3dbc4317	0.09192484
135	0xbcb90bb9	-0.022588598
136	0xbd886635	-0.066601194
137	0x3d3ebb02	0.046565063
138	0x3d764eed	0.060133863
139	0xbd33c1f0	-0.043886125
140	0x3b845b7e	0.004039227
141	0xbd08a769	-0.03336278
142	0x3a39f653	0.0007093895
143	0x3d80137f	0.062537186
144	0xbb99df4a	-0.0046958076
145	0x3da18ef1	0.07888592
146	0xbdb9f62b	-0.09080156
147	0x3b94b63e	0.0045383265
148	0xbdbe9dd1	-0.09307445
149	0x3d8b9024	0.06814602
150	0x3c09b426	0.008404767
151	0x3db15665	0.086590566
152	0x3dc43d74	0.09582034
153	0x3d8dfe2d	0.06933246
154	0xbd292f62	-0.041304953
155	0x3d8d410e	0.06897174
156	0x3da06d09	0.07833297
157	0xbc90f05e	-0.017692741
158	0x3d82c939	0.063860364
159	0x3d5ccc0f	0.053905543
160	0x3d1161f0	0.03549379
161	0x3be9bb57	0.0071329284
162	0x3da39cba	0.079888776
163	0xbc8e79bf	-0.017392037
164	0x3d60bda3	0.05486835
165	0x3d9b14ee	0.075723514
166	0xbd34e929	-0.04416767
167	0xbcb3023c	-0.021851651
168	0x3dac3e2d	0.084102966
169	0xbd97d9f1	-0.07414616
170	0x3c99f154	0.018791832
171	0xbd8177c6	-0.06321673
172	0xbd57ecbb	-0.052716
173	0x3d166264	0.036714926
174	0x3b2924b0	0.002580922
175	0x3b781013	0.0037851378
176	0xbdb53c63	-0.088494085
177	0x3d8f1c79	0.069878526
178	0x3d846e84	0.06466392
179	0xbd4b434d	-0.04962473
180	0x3d83e165	0.06439475
181	0x3d5ea99c	0.05436097
182	0x3d07d066	0.03315773
183	0xbdae6522	-0.08515383
184	0xbdb95f21	-0.090513475
185	0x3d079b67	0.033107188
186	0xbc09e12b	-0.008415501
187	0x3be05cc6	0.006846997
188	0x3bd42edc	0.0064753126
189	0x3d06acb5	0.03287955
190	0x3b54dc40	0.0032479912
191	0xbb14da1b	-0.0022713009
192	0xbd9581f5	-0.07300178
193	0xbd3cce56	-0.046095215
194	0xbd4531b9	-0.048143122
195	0xbd570a95	-0.052500326
196	0xbd5ea921	-0.054360513
197	0x3d36bd96	0.044614397
198	0x3d998d46	0.07497649
199	0xbd9e3294	-0.07724491
200	0x3cacf310	0.021111995
201	0x3d61b27b	0.055101853
202	0x3d9fad9f	0.077967875
203	0xbd2188bd	-0.039437044
204	0xbd4a09c1	-0.04932571
205	0x3cd79f27	0.026321007
206	0xbbad69cf	-0.0052921544
207	0xba879f45	-0.0010347149
208	0x3d42d8d2	0.047570057
209	0xbd8be3fa	-0.068305925
210	0x3d8940d3	0.06701817
211	0xbd7f29ea	-0.06229583
212	0xbd92aad6	-0.071614906
213	0xbcfbc1bd	-0.03073203
214	0x3d115bab	0.035487812
215	0x3c175fdc	0.009239163
216	0x3d870b76	0.06593983
217	0x3b2eb093	0.002665554
218	0xbd8249af	-0.0636171
219	0x3c8df128	0.017326906
220	0xbce39302	-0.02778006
221	0xbb28f7e6	-0.0025782525
222	0x3d5fbf29	0.054625664
223	0xbc1d68f6	-0.009607544
224	0xbca28977	-0.019840939
225	0x3cc7a4af	0.02437052
226	0xbda4686d	-0.0802773
227	0xbd8d8421	-0.06909967
228	0xbd888c6c	-0.06667408
229	0x3c41a364	0.0118187405
230	0xbc9e44db	-0.019319942
231	0x3cb6dbd4	0.02232162
232	0xbd9b4a6a	-0.07582553
233	0xbcf3e460	-0.029771984
234	0x3d1050e2	0.035233386
235	0xbda53cb8	-0.08068222
236	0x3d9b9d98	0.07598418
237	0x3d69f04e	0.057113938
238	0xbc568124	-0.013092313
239	0xbb9780ae	-0.004623494
240	0x3d3b43c6	0.04571893
241	0x3d909b05	0.07060818
242	0xbda14b49	-0.07875688
243	0x3d5fd60f	0.0546475
244	0xbd90d7ae	-0.07072388
245	0xbdb86a2a	-0.09004624
246	0x3d8c1eee	0.06841837
247	0xbc8e23a5	-0.017350981
248	0x3d676e36	0.05650159
249	0x3d844790	0.06458962
250	0x3d1419b6	0.036157332
251	0x3d483ca0	0.04888594
252	0x3d20a33d	0.039218176
253	0xbd0da86e	-0.034584455
254	0x3d38ae65	0.04508819
255	0xbc805207	-0.015664114

tower_layers.0.2.bias f4 [64]
0	0xbb42964d	-0.0029691637
1	0x3d315996	0.043298326
2	0xbd318c5a	-0.04334674
3	0xbd9be474	-0.07611933
4	0x3c9a5110	0.018837482
5	0xbda046b7	-0.07825988
6	0x3d1ca20e	0.038240485
7	0xbc3c046b	-0.011475663
8	0xbda6cd88	-0.08144671
9	0xbdb05e15	-0.08611695
10	0x3ab06907	0.0013459035
11	0xbd73e3d6	-0.059543453
12	0xbd9b81f0	-0.07593143
13	0x3d2ca4cd	0.042149354
14	0x3c1e4bab	0.009661595
15	0xbb57b8e3	-0.0032916598
16	0xbd861332	-0.0654663
17	0xbd93919c	-0.07205507
18	0x3daf8f3f	0.08572244
19	0xbb7ab38f	-0.0038253998
20	0xbd7b64b7	-0.061375346
21	0x3a93c2a5	0.0011273219
22	0xbd81ff4a	-0.06347521
23	0xbdb49ea3	-0.0881932
24	0x3d849eac	0.06475577
25	0x3d01f75d	0.031730045
26	0x3d8526c1	0.06501532
27	0x3d79f8b8	0.061028212
28	0xbd861d56	-0.06548564
29	0x3dad7597	0.08469694
30	0xbd95e077	-0.07318204
31	0xbd835df8	-0.064144075
32	0x3c66abd1	0.01407905
33	0xbd185e82	-0.037199505
34	0xbd393b7b	-0.04522274
35	0x3c6c5a3d	0.014425811
36	0xbd670f90	-0.056411326
37	0xbd5dacf9	-0.054120038
38	0x3d526291	0.05136353
39	0xbd635d87	-0.055509117
40	0xbd8a6b93	-0.067587994
41	0x3d96e371	0.073676
42	0xbd4cdcd4	-0.050015286
43	0xbda9db89	-0.08293826
44	0x3d8b9861	0.06816173
45	0x3c4718a9	0.0121518755
46	0x3d36ee1c	0.044660673
47	0xbd94ee84	-0.07272056
48	0xbda90266	-0.082524106
49	0xbdb13ae8	-0.086538136
50	0xbc96a558	-0.018389389
51	0x3d0d5bcf	0.034511384
52	0xbb73ca8e	-0.003719959
53	0x3dafba65	0.08580474
54	0xbd98c39f	-0.07459187
55	0xbc86805f	-0.016418634
56	0xb8095e29	-3.275104e-05
57	0xbb15a173	-0.0022831827
58	0xbdb58bf7	-0.08864587
59	0x3d550234	0.052004054
60	0x3da057f7	0.07829278
61	0x3d5dd492	0.0541578
62	0xbd4be2ef	-0.049776968
63	0xbd990204	-0.074710876

tower_layers.0.4.weight f4 [1, 64]
0	0xbc024ae5	-0.007952427
1	0xbcbb9536	-0.022898298
2	0xbd7a54c8	-0.06111601
3	0xbdac3813	-0.08409133
4	0x3ce4c54c	0.02792611
5	0xbdb4e452	-0.08832611
6	0xbd1d15af	-0.038350757
7	0xbb4f30ca	-0.0031614774
8	0x3c2e133a	0.010624701
9	0x3c82a425	0.01594741
10	0xbcc7adf0	-0.024374932
11	0x3d915af4	0.07097426
12	0xbd3ab394	-0.045581415
13	0xbd736192	-0.059419222
14	0xbccc7dd5	-0.024962345
15	0xbd8d7370	-0.069067836
16	0xbac55941	-0.0015056507
17	0x3cb9a8f4	0.022663571
18	0xbc188415	-0.009308835
19	0xbdb26554	-0.08710733
20	0x3d11088d	0.035408545
21	0x3dd6ce11	0.10488523
22	0xbccf5a7d	-0.025311703
23	0x3cadfe51	0.021239432
24	0xbcdb13f0	-0.026742905
25	0x3d86960f	0.0657159
26	0xbd92ed57	-0.07174175
27	0xbddd5fbd	-0.10809276
28	0xbdceb2aa	-0.10092671
29	0x3dd57aa7	0.10423785
30	0xbc306e64	-0.010768507
31	0xbdd8f8f4	-0.10594359
32	0xbd3b1dad	-0.045682598
33	0xbda7c8d3	-0.08192601
34	0xbd5d2a6c	-0.053995535
35	0x3b287262	0.0025702943
36	0xbd2556c2	-0.04036594
37	0x3d95f331	0.07321776
38	0x3da66f7c	0.08126733
39	0x3b4f2a8f	0.003161106
40	0x3d7432b5	0.05961867
41	0xbc9e7630	-0.019343466
42	0x3c864a33	0.016392803
43	0x3d95bd6d	0.07311521
44	0x3de3d35d	0.11124299
45	0xbd07aeaf	-0.033125576
46	0xbd90e24c	-0.07074413
47	0x3de42f9e	0.11141895
48	0xbce93061	-0.028465452
49	0xbdccfa16	-0.100086376
50	0xbd3b44ee	-0.045720033
51	0x3a5cbe64	0.00084207044
52	0xbc8238d6	-0.015896242
53	0x3c24eace	0.010065747
54	0xbd9f5231	-0.07779349
55	0xbd2da8ae	-0.042397194
56	0x3dda7865	0.10667495
57	0xbdc04895	-0.09388844
58	0xbda2e8a0	-0.07954526
59	0x3cc1229a	0.02357607
60	0xbd40ceeb	-0.047072332
61	0x3d2534b4	0.040333465
62	0xbd2c97f0	-0.042137086
63	0x3dc47487	0.09592538

tower_lin1.weight f4 [128, 128]
0	0xbbce9d2b	-0.006305357
1	0x3d848437	0.064705305
2	0x3c9fd558	0.01951091
3	0x3d619774	0.055076078
4	0x3d5238b6	0.051323615
5	0x3c487f5d	0.012237397
6	0x3daf8718	0.08570689
7	0x3cc0c2d5	0.023530403
8	0x3c9b265c	0.01893919
9	0x3d1b940d	0.03798299
10	0xbd80248c	-0.06256971
11	0x3d0a24b5	0.033726413
12	0xbd9373b1	-0.07199801
13	0x3cb82363	0.022477811
14	0x3c7f3613	0.015576857
15	0xbcc88d7b	-0.024481526
16	0x3d0645fd	0.03278159
17	0xbd315b9b	-0.043300252
18	0xbd823cfe	-0.063592896
19	0xbd874bbd	-0.06606243
20	0xbd3b367e	-0.045706265
21	0x3d3133e8	0.043262392
22	0xbcb26e1f	-0.021781025
23	0x3cb6d154	0.022316612
24	0x3da6f765	0.081526555
25	0xbda86f18	-0.082243145
26	0xbc02e65b	-0.007989491
27	0x3d9a64d2	0.07538761
28	0x3da70fdc	0.08157322
29	0x3d4e9763	0.050437342
30	0x3d97ef21	0.07418657
31	0x3bb5fd24	0.0055538584
32	0x3d9bc6f2	0.07606305
33	0xbd1a534d	-0.037677098
34	0x3cdf6411	0.027269395
35	0x3b538ff3	0.0032281845
36	0x3d025778	0.031821698
37	0x3c4a423b	0.012344892
38	0xbbb4cd4e	-0.0055176383
39	0x3c81616e	0.015793528
40	0x3d997eba	0.07494874
41	0x3c12f321	0.008969099
42	0xbd6c2455	-0.057651836
43	0xbca56a69	-0.020192342
44	0x3c8663c2	0.01640499
45	0x3d21856a	0.039433874
46	0xbd1d5899	-0.03841457
47	0xbc54bd4f	-0.012984588
48	0xbd863584	-0.06553176
49	0xbd960d25	-0.07326726
50	0x3bf130cc	0.0073605534
51	0xbd87c94e	-0.06630193
52	0xbd98c266	-0.074589536
53	0xbcfb7c65	-0.030698964
54	0x3b5adb7e	0.0033394988
55	0xbd6124e6	-0.05496683
56	0x3d6cda1a	0.057825185
57	0x3beca372	0.0072216326
58	0x3d3f8ca3	0.04676498
59	0x3d09a242	0.033602007
60	0x3d9f5494	0.07779804
61	0xbb78382f	-0.0037875285
62	0x3d7ed186	0.062211536
63	0xb9fe5c85	-0.00048515588
64	0xbdad7dd8	-0.084712684
65	0x3c8714ff	0.016489504
66	0x3d099e68	0.033598334
67	0x3af25fd2	0.0018491691
68	0x3ce940d6	0.028473299
69	0x3d3411db	0.04396234
70	0x3d13c1ed	0.036073614
71	0x3dbc2119	0.091860004
72	0xbd843a45	-0.064564265
73	0xbd5e214b	-0.05423097
74	0x3d040953	0.032235455
75	0xbd8e5131	-0.0694908
76	0x3d8345f9	0.064098306
77	0xbd3744cc	-0.044743344
78	0xbc96d55f	-0.01841229
79	0xbdb255a4	-0.08707741
80	0x3cf20508	0.029543415
81	0x3d54e05a	0.05197177
82	0xbd73f363	-0.059558284
83	0x3d855d18	0.06511897
84	0xbd050587	-0.032475974
85	0xbce6ce1e	-0.028174456
86	0xbd3baa50	-0.04581672
87	0x3cf5820c	0.029969238
88	0x3d1a3a8a	0.037653483
89	0x3d179f25	0.037017006
90	0xbd671903	-0.056420337
91	0xbd9acf72	-0.07559098
92	0x3d2b6674	0.041845754
93	0x3b519fb1	0.0031986053
94	0x3c6c0d1e	0.014407424
95	0xbd6601ea	-0.05615417
96	0xbc8e78b7	-0.017391546
97	0xbda9a47b	-0.08283325
98	0x3d8bb7aa	0.068221405
99	0x3c7391ee	0.014866335
100	0x3d62a19a	0.055329897
101	0xbcd57e3e	-0.026061174
102	0xbd687281	-0.056749824
103	0x3c3c2a3d	0.01148468
104	0x3d378845	0.04480769
105	0x3d210ff8	0.03932187
106	0x3c753b92	0.014967816
107	0x3da59032	0.08084144
108	0xbd1cb45f	-0.038257953
109	0x3be83477	0.0070863324
110	0xbd1f715a	-0.03892646
111	0x3bf713d2	0.0075402046
112	0x3cbfbb92	0.02340487
113	0x3d54a466	0.051914595
114	0xbd8d0d3e	-0.06887291
115	0x3c1ee59b	0.009698297
116	0x3d040cd6	0.032238804
117	0xbc883efd	-0.016631598
118	0x3d9547a4	0.07289055
119	0x3c09125c	0.008366194
120	0xbdb5e610	-0.088817716
121	0xbb293f18	-0.002582496
122	0x3d68f781	0.056876663
123	0xbc4e4b20	-0.012591153
124	0x3d0781f5	0.03308292
125	0x3c94e79d	0.018176848
126	0xbd0c78fb	-0.034295063
127	0x3d2f2ad1	0.042765442
128	0x3d5c2e10	0.053754866
129	0xbb9d13a6	-0.004793602
130	0x3caac0c6	0.020843875
131	0x3cc7ad8d	0.024374748
132	0xbbd9e3bf	-0.006649464
133	0x3dbdaaaf	0.09261071
134	0x3d934a36	0.07191889
135	0xbbdcd1e8	-0.00673889
136	0xbd1a846f	-0.037723955
137	0x3dc0cadb	0.094136916
138	0x3c2355de	0.009969203
139	0x3d79785f	0.06090581
140	0x3c9144d2	0.017733011
141	0xbc6f32fd	-0.014599559
142	0x3d54618b	0.051850837
143	0x3d533d01	0.05157185
144	0x3d394409	0.0452309
145	0xbd85d0b0	-0.065339446
146	0x3d080b1f	0.03321373
147	0x3db2c85e	0.08729623
148	0xbc9f2491	-0.019426616
149	0xbd350f5c	-0.0442041
150	0x3d7ec350	0.062197983
151	0xbd35d461	-0.044391993
152	0xbb56b024	-0.0032758797
153	0xbd08bb7f	-0.033381935
154	0x3d6cb7e3	0.057792556
155	0x3cc0d595	0.023539344
156	0x3d696c54	0.056988075
157	0x3cf9f92f	0.030514328
158	0xbd40b492	-0.047047205
159	0x3d5f1f3c	0.054473147
160	0xbd6eb572	-0.05827851
161	0xbd8cf3cb	-0.06882437
162	0xbdac7d62	-0.084223524
163	0x3d81ff04	0.063474685
164	0xbd68ae94	-0.056807116
165	0xbd0bd5fc	-0.03413962
166	0xbc84489e	-0.016147908
167	0x3d0b3112	0.033982344
168	0xbd0e5ed3	-0.0347584
169	0xbd755804	-0.05989839
170	0x3d0db0df	0.034592506
171	0xbd1d0c4a	-0.038341798
172	0xbd9f9e1e	-0.0779383
173	0x3bfc0b8d	0.0076918066
174	0xbc379b1a	-0.011206413
175	0xbd6bd6be	-0.05757784
176	0xbc69e2ec	-0.014275294
177	0x3d9271e5	0.0715063
178	0x3d055f52	0.032561608
179	0x3c7b71d7	0.015346966
180	0xbc683e11	-0.014174954
181	0xbd812777	-0.063063554
182	0x3d454a9d	0.04816686
183	0x3d1efa1b	0.038812738
184	0x3d9908f4	0.07472411
185	0xbdc18645	-0.09449438
186	0x3d924968	0.071429074
187	0xbdc26625	-0.09492139
188	0xbc52f78d	-0.0128764035
189	0x3d2f0a63	0.042734515
190	0xbd4ad659	-0.049520824
191	0xbda242c7	-0.07922893
192	0xbdd9194d	-0.10600529
193	0xbd4b9a10	-0.049707472
194	0xbd48f3b3	-0.049060535
195	0x3c9462da	0.018113542
196	0x3acc7003	0.0015597347
197	0x3d3c3f65	0.045958895
198	0xbc7da7c1	-0.01548189
199	0xbd041616	-0.032247625
200	0x3d79162a	0.060812153
201	0x3d143ae3	0.03618897
202	0x3c509329	0.012730398
203	0xbd6a6b12	-0.057231016
204	0x3d6fd82e	0.058555774
205	0x3d88f842	0.066879764
206	0xbdb8a4c7	-0.09015804
207	0xbc3bd5b1	-0.011464522
208	0xbad058df	-0.0015895626
209	0xbde73bea	-0.112907246
210	0x3c452315	0.01203229
211	0xbd385317	-0.045001116
212	0x3d69974c	0.057029054
213	0xbc15b29a	-0.00913682
214	0x3d4cf10e	0.050034575
215	0xbdb30978	-0.087420404
216	0xbd4ee5c7	-0.0505121
217	0x3d363c60	0.04449117
218	0xbcc8e078	-0.024521098
219	0x3d446c9f	0.04795515
220	0x3ca59c23	0.020216053
221	0xbd9fb0ef	-0.07797419
222	0xbbf5d7c5	-0.0075025284
223	0x3d7396ce	0.05946999
224	0x3d7657cf	0.060142335
225	0xbdae6603	-0.08515551
226	0xbd7e51c2	-0.06208969
227	0xbc2aed67	-0.010432578
228	0x3dc7b81b	0.09751912
229	0x3d8bbd87	0.06823259
230	0x3d9fb9aa	0.077990845
231	0x3dcd5192	0.10025324
232	0x3c5ab6cc	0.013349246
233	0x3d946005	0.07244877
234	0xbd8355e1	-0.064128645
235	0x3d321421	0.043476228
236	0x3c7fb12d	0.015606207
237	0xbd85943d	-0.06522415
238	0x3c9c80dd	0.019104416
239	0x3b1f1390	0.0024273135
240	0xbd807958	-0.062731445
241	0xbc0241e4	-0.00795028
242	0xbcadba23	-0.021206921
243	0xbd2cb70d	-0.04216676
244	0x3d06eb0a	0.032938994
245	0x3d951454	0.07279268
246	0xbc562727	-0.013070858
247	0x3db4e30a	0.08832367
248	0x3d891c89	0.06694896
249	0x3c32fda3	0.0109247295
250	0xbd961e43	-0.07329991
251	0x3ca6cac5	0.02036036
252	0xbc82ac01	-0.015951158
253	0x3d95894c	0.07301578
254	0x3d2b2695	0.04178484
255	0xbd72e431	-0.05929965

tower_lin1.bias f4 [128]
0	0xbc7937a1	-0.015211017
1	0xbd92c7ef	-0.071670406
2	0x3d1b0ddd	0.037855018
3	0xbb4bb06b	-0.0031080495
4	0xbda178b2	-0.07884349
5	0xbd15121c	-0.036394224
6	0xbd42a864	-0.04752387
7	0x3cc7e53e	0.024401303
8	0x3d1f659e	0.03891527
9	0xbd89181a	-0.0669405
10	0xbd95b279	-0.073094316
11	0xbd5fff4a	-0.054686822
12	0x3cddbe3b	0.027068248
13	0x3d93708b	0.071992
14	0x3d813075	0.063080706
15	0x3cea6a7e	0.028615233
16	0xbd050263	-0.03247298
17	0xbd3efde2	-0.04662884
18	0x3cb2f79a	0.021846581
19	0xbd7c8015	-0.061645586
20	0x3c1106a3	0.00885168
21	0x3bc79c4b	0.0060916296
22	0xbc7d0589	-0.015443214
23	0x3c7eca9b	0.015551235
24	0xbd397c99	-0.04528484
25	0xbd869a9e	-0.0657246
26	0x3cf6e6a2	0.030139271
27	0x3bb960ba	0.0056572827
28	0xbd75fbcf	-0.060054597
29	0x3b9baeae	0.004751048
30	0x3d84ead9	0.06490106
31	0x3d616dcc	0.05503635
32	0xbd90b440	-0.0706563
33	0xbd079453	-0.033100437
34	0xbd30cb4a	-0.04316262
35	0x3c8d4459	0.017244505
36	0x3bf15b91	0.007365652
37	0xbd967eaf	-0.07348382
38	0x3b132959	0.0022455065
39	0x3d43d3ad	0.04780929
40	0x3d88c1c1	0.066775806
41	0x3da75d41	0.08172084
42	0x396e4635	0.00022723603
43	0x3d8d9e82	0.069149986
44	0x3db6db5b	0.089285575
45	0x3d8c5809	0.06852729
46	0x3cfdfee0	0.031005323
47	0xbb7cfec9	-0.0038604012
48	0xbc87b6a2	-0.016566578
49	0xbd8424bc	-0.06452319
50	0xbca7a772	-0.020465586
51	0xbbd595b0	-0.0065180883
52	0x3c7e9a3d	0.015539703
53	0xbc85e561	-0.016344728
54	0xbd93cbf9	-0.07216639
55	0xbcbed049	-0.023292677
56	0x3d973c58	0.073845565
57	0xbd1114d2	-0.035420246
58	0x3cf845b9	0.030306684
59	0x3c866c1a	0.016408969
60	0xbd8ccef5	-0.068754114
61	0x3d2833ab	0.0410649
62	0x3d0099e5	0.031396765
63	0x3c90bddd	0.017668659
64	0x3d93c8a8	0.072160065
65	0xbd541a0b	-0.05178265
66	0xbd3a1ff6	-0.045440637
67	0xbcb1e5fe	-0.021716114
68	0xbc86488c	-0.016392015
69	0xbd3fb7c3	-0.04680611
70	0x3d6570e2	0.056015857
71	0x3d90a195	0.07062069
72	0xbd29bdf6	-0.041440926
73	0xbdb671fc	-0.089084595
74	0xbdb31d73	-0.08745851
75	0x3d42215d	0.0473951
76	0xbd84078d	-0.06446753
77	0xbbecd86f	-0.0072279493
78	0xbd98ca61	-0.07460476
79	0xbd9b7b0b	-0.07591828
80	0xbdadcb18	-0.08486003
81	0x3d84c356	0.0648257
82	0x3d91462d	0.07093463
83	0x3d41d010	0.047317564
84	0x3b57085a	0.0032811374
85	0xbc3ccdb9	-0.0115236575
86	0xbc97f6ea	-0.018550355
87	0x3d37f943	0.04491545
88	0x3da342b7	0.07971709
89	0xbb1567a8	-0.002279738
90	0xbaed76e9	-0.0018117103
91	0x3cb62a1a	0.022236872
92	0x3d47bf9a	0.04876671
93	0x3d0e828b	0.034792464
94	0xbd98556a	-0.074381664
95	0x3d7a542e	0.061115436
96	0x3d91bdf7	0.07116311
97	0x3d9b619e	0.075869784
98	0xbd0297a2	-0.03188289
99	0xbcc00b4a	-0.023442883
100	0xbd8960ae	-0.06707893
101	0x3d35776e	0.04430335
102	0x3d6d81c7	0.057985093
103	0x3d82d884	0.06388953
104	0xbd9295af	-0.07157456
105	0xbdadb49e	-0.084817156
106	0xbd76bd63	-0.060239207
107	0x3daf9574	0.08573428
108	0xbd2cf15f	-0.042222377
109	0xbd895a57	-0.06706684
110	0xbd2905d2	-0.041265316
111	0xbcec7b52	-0.028867397
112	0xbd636ca4	-0.05552353
113	0xbd01205b	-0.031524997
114	0xbd97efa0	-0.07418752
115	0x3d3ffb3b	0.04687045
116	0xbbbd67cd	-0.0057801963
117	0x3d1e14fb	0.038594227
118	0xbd22f1b4	-0.039781287
119	0xbca6049c	-0.02026587
120	0x3ca48ef3	0.020087695
121	0x3cca460b	0.024691602
122	0x3ce1ec99	0.027578639
123	0xbc941778	-0.018077597
124	0xbc92afe2	-0.017906133
125	0x3bbfee6d	0.00585728
126	0x3d75d77d	0.06001996
127	0x3d2258fd	0.039635647

tower_lin2.weight f4 [64, 128]
0	0xbd6004c0	-0.05469203
1	0xbcddb59e	-0.02706414
2	0xbc60333d	-0.013684091
3	0x3d820644	0.06348851
4	0x3d895f66	0.06707649
5	0x3bb1d80d	0.0054273666
6	0x3cbfd822	0.02341849
7	0xbb97a4d1	-0.004627802
8	0x3d877170	0.06613433
9	0x3d7547ad	0.05988281
10	0x3c5f810d	0.013641608
11	0x3bc39c06	0.005969527
12	0x3d012584	0.03152992
13	0xbd8e0180	-0.0693388
14	0xbc49f448	-0.012326308
15	0x3d8d99b7	0.069140844
16	0x3d956107	0.07293897
17	0xbd79bf63	-0.060973536
18	0xbd89f962	-0.06737019
19	0xbda27d04	-0.07934001
20	0x3d55e37d	0.052218903
21	0xbc51e027	-0.01280979
22	0xbdacf3a2	-0.08444907
23	0x3daad5ff	0.08341598
24	0x3d6ed804	0.058311477
25	0xbd1d58e2	-0.038414843
26	0x3dc2df31	0.09515227
27	0x3d4264e1	0.047459487
28	0xbcc2a199	-0.023758696
29	0x3d5f532d	0.054522682
30	0xbca35a82	-0.019940618
31	0xbc300498	-0.010743283
32	0x3d806734	0.062696844
33	0x3d7db897	0.061943617
34	0x3dadc03f	0.08483934
35	0xbd45f0e3	-0.04832543
36	0xbc579564	-0.013158176
37	0xbd54c957	-0.051949825
38	0xbd92f8fd	-0.07176397
39	0xbd3e00f3	-0.046387624
40	0xbd8f43d5	-0.0699536
41	0x3c250ad1	0.01007338
42	0x3ce4d230	0.027932256
43	0x3d722ba7	0.05912366
44	0x3db2dae5	0.08733157
45	0xbb1cd3d9	-0.0023929982
46	0xbda2036d	-0.0791081
47	0x3d0464e5	0.032322783
48	0x3cb7ae0e	0.022421863
49	0x3c6989ca	0.014254043
50	0xbc9459e7	-0.018109275
51	0x3c84e97c	0.016224615
52	0xbd1d3f7a	-0.038390614
53	0x3bf627be	0.007512062
54	0xbd86b742	-0.065779224
55	0xbd392f1e	-0.04521095
56	0x3d29fd75	0.04150148
57	0xbdbd2bb6	-0.09236853
58	0x3c0a86e5	0.008455013
59	0x3d4b4d3e	0.04963421
60	0x3d5ae881	0.05344439
61	0xbc9f91aa	-0.019478638
62	0x3d459d2b	0.04824559
63	0x3d99f141	0.07516719
64	0xbd7b30b8	-0.06132576
65	0xbd86312c	-0.065523475
66	0x3db95381	0.0904913
67	0xbd9adda8	-0.07561809
68	0xbd2294db	-0.03969274
69	0x3d5573b7	0.052112307
70	0x3d47c59c	0.04877244
71	0xbcfb4eba	-0.030677188
72	0xbd1f5d80	-0.038907528
73	0x3cec7e02	0.028868679
74	0x3d721d3a	0.059109904
75	0xbca9f32d	-0.020745838
76	0x3d38710c	0.045029685
77	0x3d627052	0.0552829
78	0x3d8babb1	0.06819857
79	0xbdab249a	-0.083565906
80	0xbca40d5d	-0.020025903
81	0x3db3e642	0.087841526
82	0xbccd7f04	-0.02508498
83	0x3d4e8fbb	0.05043004
84	0xbdaaf04f	-0.083466165
85	0xbd3cee49	-0.046125684
86	0xbacbb1dc	-0.0015540677
87	0x3d07b45d	0.033130992
88	0x3d7e096d	0.062020708
89	0x3dc1c86c	0.094620556
90	0x3d1d965e	0.03847348
91	0xbd9707ca	-0.073745325
92	0xbd67e4db	-0.056614738
93	0x3d1707b1	0.03687257
94	0xbd032550	-0.032018006
95	0xbd3979eb	-0.045282286
96	0xbc56b6b0	-0.0131050795
97	0xbd6acfd8	-0.05732712
98	0xbda86768	-0.08222848
99	0x3d94b4b1	0.07261027
100	0xbca193ce	-0.0197238
101	0xbc25557c	-0.010091182
102	0x3d8e7eb0	0.069577575
103	0xbcf633b0	-0.030053943
104	0xbd82bfd1	-0.06384242
105	0xbd931b87	-0.07182985
106	0x3d0cdbe9	0.03438941
107	0xbd5eb750	-0.05437404
108	0x3c01520a	0.007893095
109	0xbddac9c5	-0.10683016
110	0x3d762158	0.060090393
111	0x3db866e4	0.09004
112	0x3d13c7d6	0.03607925
113	0x3cdab9ee	0.026699986
114	0x3d874c3c	0.066063374
115	0xbd2a1f46	-0.04153373
116	0xbdc53899	-0.09629936
117	0x3da56cdd	0.08077405
118	0xbd9cede7	-0.07662564
119	0x3bfb5cf9	0.0076709953
120	0x3c8f4164	0.017487235
121	0x3ceee786	0.029163133
122	0xbd2adbc1	-0.04171348
123	0xbd96da7a	-0.0736589
124	0xbd533765	-0.0515665
125	0x3d16134d	0.0366395
126	0x3d42beb7	0.04754516
127	0xbd50ed54	-0.051007584
128	0x3dd11711	0.10209478
129	0xbd471856	-0.048607193
130	0x3d2714dc	0.040791377
131	0xbc6cd8c4	-0.014455978
132	0xbd99cc6f	-0.07509696
133	0x3c7f181d	0.015569714
134	0x3dbc4317	0.09192484
135	0xbcb90bb9	-0.022588598
136	0xbd886635	-0.066601194
137	0x3d3ebb02	0.046565063
138	0x3d764eed	0.060133863
139	0xbd33c1f0	-0.043886125
140	0x3b845b7e	0.004039227
141	0xbd08a769	-0.03336278
142	0x3a39f653	0.0007093895
143	0x3d80137f	0.062537186
144	0xbb99df4a	-0.0046958076
145	0x3da18ef1	0.07888592
146	0xbdb9f62b	-0.09080156
147	0x3b94b63e	0.0045383265
148	0xbdbe9dd1	-0.09307445
149	0x3d8b9024	0.06814602
150	0x3c09b426	0.008404767
151	0x3db15665	0.086590566
152	0x3dc43d74	0.09582034
153	0x3d8dfe2d	0.06933246
154	0xbd292f62	-0.041304953
155	0x3d8d410e	0.06897174
156	0x3da06d09	0.07833297
157	0xbc90f05e	-0.017692741
158	0x3d82c939	0.063860364
159	0x3d5ccc0f	0.053905543
160	0x3d1161f0	0.03549379
161	0x3be9bb57	0.0071329284
162	0x3da39cba	0.079888776
163	0xbc8e79bf	-0.017392037
164	0x3d60bda3	0.05486835
165	0x3d9b14ee	0.075723514
166	0xbd34e929	-0.04416767
167	0xbcb3023c	-0.021851651
168	0x3dac3e2d	0.084102966
169	0xbd97d9f1	-0.07414616
170	0x3c99f154	0.018791832
171	0xbd8177c6	-0.06321673
172	0xbd57ecbb	-0.052716
173	0x3d166264	0.036714926
174	0x3b2924b0	0.002580922
175	0x3b781013	0.0037851378
176	0xbdb53c63	-0.088494085
177	0x3d8f1c79	0.069878526
178	0x3d846e84	0.06466392
179	0xbd4b434d	-0.04962473
180	0x3d83e165	0.06439475
181	0x3d5ea99c	0.05436097
182	0x3d07d066	0.03315773
183	0xbdae6522	-0.08515383
184	0xbdb95f21	-0.090513475
185	0x3d079b67	0.033107188
186	0xbc09e12b	-0.008415501
187	0x3be05cc6	0.006846997
188	0x3bd42edc	0.0064753126
189	0x3d06acb5	0.03287955
190	0x3b54dc40	0.0032479912
191	0xbb14da1b	-0.0022713009
192	0xbd9581f5	-0.07300178
193	0xbd3cce56	-0.046095215
194	0xbd4531b9	-0.048143122
195	0xbd570a95	-0.052500326
196	0xbd5ea921	-0.054360513
197	0x3d36bd96	0.044614397
198	0x3d998d46	0.07497649
199	0xbd9e3294	-0.07724491
200	0x3cacf310	0.021111995
201	0x3d61b27b	0.055101853
202	0x3d9fad9f	0.077967875
203	0xbd2188bd	-0.039437044
204	0xbd4a09c1	-0.04932571
205	0x3cd79f27	0.026321007
206	0xbbad69cf	-0.0052921544
207	0xba879f45	-0.0010347149
208	0x3d42d8d2	0.047570057
209	0xbd8be3fa	-0.068305925
210	0x3d8940d3	0.06701817
211	0xbd7f29ea	-0.06229583
212	0xbd92aad6	-0.071614906
213	0xbcfbc1bd	-0.03073203
214	0x3d115bab	0.035487812
215	0x3c175fdc	0.009239163
216	0x3d870b76	0.06593983
217	0x3b2eb093	0.002665554
218	0xbd8249af	-0.0636171
219	0x3c8df128	0.017326906
220	0xbce39302	-0.02778006
221	0xbb28f7e6	-0.0025782525
222	0x3d5fbf29	0.054625664
223	0xbc1d68f6	-0.009607544
224	0xbca28977	-0.019840939
225	0x3cc7a4af	0.02437052
226	0xbda4686d	-0.0802773
227	0xbd8d8421	-0.06909967
228	0xbd888c6c	-0.06667408
229	0x3c41a364	0.0118187405
230	0xbc9e44db	-0.019319942
231	0x3cb6dbd4	0.02232162
232	0xbd9b4a6a	-0.07582553
233	0xbcf3e460	-0.029771984
234	0x3d1050e2	0.035233386
235	0xbda53cb8	-0.08068222
236	0x3d9b9d98	0.07598418
237	0x3d69f04e	0.057113938
238	0xbc568124	-0.013092313
239	0xbb9780ae	-0.004623494
240	0x3d3b43c6	0.04571893
241	0x3d909b05	0.07060818
242	0xbda14b49	-0.07875688
243	0x3d5fd60f	0.0546475
244	0xbd90d7ae	-0.07072388
245	0xbdb86a2a	-0.09004624
246	0x3d8c1eee	0.06841837
247	0xbc8e23a5	-0.017350981
248	0x3d676e36	0.05650159
249	0x3d844790	0.06458962
250	0x3d1419b6	0.036157332
251	0x3d483ca0	0.04888594
252	0x3d20a33d	0.039218176
253	0xbd0da86e	-0.034584455
254	0x3d38ae65	0.04508819
255	0xbc805207	-0.015664114

tower_lin2.bias f4 [64]
0	0xbb42964d	-0.0029691637
1	0x3d315996	0.043298326
2	0xbd318c5a	-0.04334674
3	0xbd9be474	-0.07611933
4	0x3c9a5110	0.018837482
5	0xbda046b7	-0.07825988
6	0x3d1ca20e	0.038240485
7	0xbc3c046b	-0.011475663
8	0xbda6cd88	-0.08144671
9	0xbdb05e15	-0.08611695
10	0x3ab06907	0.0013459035
11	0xbd73e3d6	-0.059543453
12	0xbd9b81f0	-0.07593143
13	0x3d2ca4cd	0.042149354
14	0x3c1e4bab	0.009661595
15	0xbb57b8e3	-0.0032916598
16	0xbd861332	-0.0654663
17	0xbd93919c	-0.07205507
18	0x3daf8f3f	0.08572244
19	0xbb7ab38f	-0.0038253998
20	0xbd7b64b7	-0.061375346
21	0x3a93c2a5	0.0011273219
22	0xbd81ff4a	-0.06347521
23	0xbdb49ea3	-0.0881932
24	0x3d849eac	0.06475577
25	0x3d01f75d	0.031730045
26	0x3d8526c1	0.06501532
27	0x3d79f8b8	0.061028212
28	0xbd861d56	-0.06548564
29	0x3dad7597	0.08469694
30	0xbd95e077	-0.07318204
31	0xbd835df8	-0.064144075
32	0x3c66abd1	0.01407905
33	0xbd185e82	-0.037199505
34	0xbd393b7b	-0.04522274
35	0x3c6c5a3d	0.014425811
36	0xbd670f90	-0.056411326
37	0xbd5dacf9	-0.054120038
38	0x3d526291	0.05136353
39	0xbd635d87	-0.055509117
40	0xbd8a6b93	-0.067587994
41	0x3d96e371	0.073676
42	0xbd4cdcd4	-0.050015286
43	0xbda9db89	-0.08293826
44	0x3d8b9861	0.06816173
45	0x3c4718a9	0.0121518755
46	0x3d36ee1c	0.044660673
47	0xbd94ee84	-0.07272056
48	0xbda90266	-0.082524106
49	0xbdb13ae8	-0.086538136
50	0xbc96a558	-0.018389389
51	0x3d0d5bcf	0.034511384
52	0xbb73ca8e	-0.003719959
53	0x3dafba65	0.08580474
54	0xbd98c39f	-0.07459187
55	0xbc86805f	-0.016418634
56	0xb8095e29	-3.275104e-05
57	0xbb15a173	-0.0022831827
58	0xbdb58bf7	-0.08864587
59	0x3d550234	0.052004054
60	0x3da057f7	0.07829278
61	0x3d5dd492	0.0541578
62	0xbd4be2ef	-0.049776968
63	0xbd990204	-0.074710876

embedding.weight f4 [100, 128]
0	0x3fbeca72	1.4905531
1	0x3fce2386	1.6104591
2	0xbee9a91d	-0.45636836
3	0x3f654dbb	0.8957173
4	0xbc593864	-0.0132580735
5	0x3fa8956e	1.3170602
6	0xbfa701a3	-1.3047374
7	0x3ecbab12	0.39778954
8	0xbef158e0	-0.4713812
9	0xbe1b6cf7	-0.15178286
10	0x3ff9d552	1.9518225
11	0x3ec7ee69	0.3904908
12	0xbfaf7c19	-1.3709747
13	0x3f4da7d1	0.8033419
14	0x3c83174a	0.016002316
15	0xbe19b2b9	-0.15009584
16	0x3f0a16d6	0.53941095
17	0xbfd51fc2	-1.6650317
18	0xbf84ce55	-1.0375468
19	0x3f8afcf7	1.0858449
20	0x3f71015e	0.9414271
21	0x3f5f7b88	0.8729787
22	0xbfd98c73	-1.6995987
23	0xbe669ed0	-0.2252152
24	0x3f5e7d7c	0.86910224
25	0x3e9c1278	0.3048284
26	0x3fa111fd	1.2583615
27	0xbe2d03d6	-0.16895995
28	0xbec12de1	-0.37730315
29	0xbf47a041	-0.77978903
30	0x3fe4b252	1.7866919
31	0x3eb66253	0.3562189
32	0x3d5107e6	0.051032923
33	0x3fa06d47	1.2533349
34	0xbf65622d	-0.8960293
35	0x3da2d147	0.07950073
36	0xbe43aa7b	-0.19108002
37	0xbf5b53aa	-0.85674536
38	0x3e9a14f2	0.30094105
39	0xbda9443a	-0.08264966
40	0xbe600780	-0.21877861
41	0x3fcdf198	1.6089354
42	0xbd0e01c3	-0.03466965
43	0xbe92847c	-0.28616703
44	0x3f4ae607	0.79257244
45	0xbf0f2250	-0.5591173
46	0xbf47cfbf	-0.7805137
47	0x3e6b7e29	0.22997345
48	0x3ec613b8	0.3868692
49	0xbe218e1f	-0.15776871
50	0xbfd654ac	-1.674459
51	0x3f822316	1.0166957
52	0xbdc5727d	-0.096409775
53	0xbf2067c6	-0.62658346
54	0x3f16b173	0.58864516
55	0x3ec453d7	0.38345215
56	0xbf880a54	-1.0628152
57	0x3f57d900	0.8431549
58	0xbf7d18b3	-0.98865813
59	0x3c26951b	0.010167385
60	0xbc36afe9	-0.011150339
61	0xbe95a3ab	-0.2922643
62	0x3eaa55c9	0.33268574
63	0xbf031a31	-0.5121184
64	0xbf72fe64	-0.9491942
65	0xbf32c78f	-0.6983575
66	0x3f08c1d1	0.5342074
67	0x3f38fe64	0.7226317
68	0x3f235cfe	0.6381377
69	0xbf1afcbd	-0.605419
70	0x3fd1714c	1.63627
71	0xbf7ac188	-0.97951555
72	0x3f3aeecd	0.7302063
73	0x3f22bc71	0.6356879
74	0x3f94a9ee	1.1614358
75	0x3eab4d5e	0.33457464
76	0xbf2c0823	-0.67199916
77	0x3e3f70f1	0.18695427
78	0xbef4c94d	-0.4780983
79	0x3c477e4b	0.012176107
80	0xbf8f43aa	-1.1192524
81	0x3f8c9ff9	1.098632
82	0xbf4cd918	-0.8001876
83	0x3ecafda9	0.39646652
84	0x3dd7bd5d	0.10534165
85	0x3d177394	0.03697546
86	0xbf5e359d	-0.8680056
87	0x3f0bd618	0.54623556
88	0x3f800ea9	1.0004474
89	0xbf84adaf	-1.0365504
90	0x3ca51316	0.020150702
91	0x3fe6aa7b	1.8020777
92	0x3f2746b1	0.6534224
93	0x3dc74e20	0.09731698
94	0xbf6cd4f0	-0.92512417
95	0x3fc5102b	1.5395559
96	0xbd2c9b5c	-0.04214035
97	0x3face664	1.350781
98	0x3f863dc3	1.0487598
99	0xbf24af06	-0.64329565
100	0xbddedc4f	-0.10881864
101	0x3f94ea9f	1.1634101
102	0xbf41e7b2	-0.75744164
103	0x3f097bf7	0.5370478
104	0xbed7d573	-0.42155036
105	0xbfece9d4	-1.8508859
106	0x3f27f155	0.6560262
107	0xbeba0dae	-0.36338562
108	0x3faabbc8	1.3338556
109	0x3f05f374	0.52324605
110	0xbe1cff3e	-0.15331742
111	0x3e2a7979	0.166479
112	0xbf9d5500	-1.2291565
113	0xbf3b5a57	-0.7318472
114	0xbe8f4ecb	-0.27989802
115	0xbf7af8c0	-0.9803581
116	0x3eddfc52	0.43356568
117	0x3eb837ad	0.35979977
118	0xbecdbd4d	-0.40183488
119	0x3f5bddac	0.8588512
120	0xbc8914f8	-0.016733631
121	0x3fd99b92	1.7000601
122	0x3f870a6e	1.0550058
123	0xc00d89e0	-2.2115402
124	0xbeb42319	-0.35183027
125	0xbed4ec25	-0.41586414
126	0xbe9a6d1f	-0.30161378
127	0xbf28eb59	-0.6598411
128	0xbf9019dc	-1.1257892
129	0x3f662c43	0.8991129
130	0xbe6c8248	-0.23096573
131	0x3f0cd81d	0.5501726
132	0xc02b743b	-2.6789691
133	0x3f2e6a21	0.6813069
134	0x3f167258	0.58768225
135	0x3c3b780c	0.011442196
136	0x3ed5abfd	0.4173278
137	0x3ef5379a	0.47893983
138	0x3f69b66b	0.9129397
139	0xbf0d6335	-0.552295
140	0x3faefb4e	1.3670442
141	0x3f85c6b7	1.0451268
142	0xbed9026d	-0.42384663
143	0x3ecdb1e8	0.40174794
144	0x3f284f45	0.65745956
145	0x3f281578	0.6565776
146	0x3f8e7382	1.1129
147	0x3f1be6c2	0.60898983
148	0xbf18c8f0	-0.59681606
149	0xbeac5574	-0.33658946
150	0x3f69b760	0.91295433
151	0xbf9875af	-1.1910914
152	0xbe20cdec	-0.15703553
153	0xbfd1c45b	-1.6388048
154	0xbf7d2f03	-0.9889986
155	0x3e000a39	0.125039
156	0xbf915b6d	-1.1356026
157	0x3f71cb09	0.9445043
158	0x3f270e41	0.65256125
159	0x3f9ca676	1.22383
160	0x3ea0765f	0.3134031
161	0x3e521b4f	0.2051823
162	0xbe9d5689	-0.30730084
163	0x3f39b285	0.72538024
164	0xbf4a69b8	-0.79067564
165	0x3f316e1d	0.69308645
166	0x3f3c8dd0	0.7365389
167	0xbf7eef4d	-0.99583894
168	0xbf82dc4a	-1.0223477
169	0x3fc31097	1.5239438
170	0xbf2ec0c4	-0.68262887
171	0xc014456a	-2.3167367
172	0xbf844ded	-1.0336281
173	0xbecc61f9	-0.39918497
174	0x402146ee	2.5199542
175	0xbeb68aeb	-0.3565286
176	0x3fcb77c8	1.5895929
177	0x3f7c335c	0.9851587
178	0xbdd9dcef	-0.10637843
179	0xbeb23586	-0.3480646
180	0xbfd69ae4	-1.6766019
181	0xbf4ac024	-0.79199433
182	0x3f3b9291	0.7327052
183	0x3f3da392	0.74077713
184	0x3f560cfb	0.83613557
185	0x3dfb6f24	0.12277058
186	0x3b090708	0.0020908732
187	0xbfbd85b9	-1.4806434
188	0xbece34d6	-0.40274686
189	0xbf4856f0	-0.78257656
190	0xbfd520e7	-1.6650666
191	0x4018da0b	2.3883083
192	0x3fb19b53	1.3875526
193	0xbea46242	-0.32106215
194	0xbe98c7e3	-0.2984
195	0x3ef3e7d7	0.47637817
196	0xbe997d27	-0.29978296
197	0x3f3aad46	0.72920644
198	0x3fec0340	1.8438492
199	0x3ec0f986	0.3769037
200	0xbea3fc6f	-0.3202853
201	0xc00f6a64	-2.2408686
202	0x3f0b1032	0.5432159
203	0x3fb29d58	1.3954268
204	0xbf081187	-0.53151745
205	0xbeedeca1	-0.46469596
206	0xbf1e142f	-0.6174955
207	0xbf6f5cc5	-0.9350093
208	0x3f590936	0.8477968
209	0xbef0f4dc	-0.47061813
210	0x3f98e764	1.1945615
211	0xbf41a28b	-0.75638646
212	0xbed56719	-0.4168022
213	0x3f9fe785	1.2492529
214	0x3f723ccd	0.94624025
215	0xbf65bcb7	-0.8974108
216	0xbeba0ecc	-0.36339414
217	0x3f4b31e2	0.7937299
218	0x3f11a3ff	0.56890863
219	0xbe52d7eb	-0.20590179
220	0x3f825d3e	1.0184705
221	0x3f1ab192	0.604272
222	0x3e7641ac	0.2404849
223	0xbea51702	-0.32244116
224	0xc045766a	-3.0853524
225	0xbff27f51	-1.8945104
226	0x3f931892	1.1491873
227	0xbd8d0981	-0.06886578
228	0xbf506b3f	-0.81413645
229	0x3ef8487b	0.48492798
230	0x3f580623	0.84384364
231	0x3e58eae6	0.21183357
232	0x3f99ff6a	1.2031071
233	0x3eed62c0	0.46364403
234	0x3f9b1f9d	1.2119023
235	0x3e175339	0.1477784
236	0xbf41943a	-0.756168
237	0x3e33af6c	0.17547387
238	0xbfcb8028	-1.5898485
239	0x3fb1f405	1.3902594
240	0x3f0dee8c	0.5544212
241	0xbf8c1e5f	-1.0946769
242	0xbf1915af	-0.5979871
243	0x3f2e573f	0.68101877
244	0xbea123b3	-0.3147255
245	0xbf108ad5	-0.5646184
246	0x3f2dfda7	0.6796517
247	0xbfc96b35	-1.5735842
248	0xbdbfc626	-0.09363966
249	0xbf070913	-0.5274822
250	0x3d0f91e0	0.035051227
251	0xbf1021ed	-0.56301767
252	0x3eaf68d6	0.3425967
253	0x3df4a6ce	0.11945878
254	0xbf2ad114	-0.6672528
255	0xbeba7788	-0.3641932
