saved_models_MLP/exp-ib3-bcc-rmsd/mlp_rmsd_bcc_ratio1_seed2_epoch300.pt (torch, 38935 bytes, 5 tensors)

module_list.0.weight f4 [128, 6]
000000 36 24 81 3e e0 25 12 3e 9f 85 d0 3e 33 d9 b0 be
       0.2522294 0.1427226 0.40726945 -0.3454071
000010 61 26 82 be 10 95 cc 3d 17 05 21 bc b1 5b 86 be
       -0.25419906 0.09989369 -0.009827874 -0.2624183
000020 94 c9 d5 be 98 6a b6 be 35 9a 1d be c6 4f ca 3e
       -0.41755354 -0.356282 -0.15390857 0.39513987
000030 36 83 03 be 26 dc 47 3e 73 8e 67 3e 7f 0a 2a be
       -0.12843022 0.19517574 0.22612934 -0.16605566
000040 33 e4 a9 be d5 15 cc be 53 6e 2d 3d be cd 9a 3d
       -0.33181915 -0.39860407 0.04234154 0.075587735
000050 13 80 2c bd 82 79 ee be 25 d4 5c bd 40 57 a2 be
       -0.04211433 -0.46577078 -0.053913254 -0.3170719
000060 00 55 18 3e e9 5a d8 be 0f 1f e1 3e e3 32 03 be
       0.14876175 -0.4225686 0.43969008 -0.1281238
000070 1c b6 38 3f f0 07 90 3d 34 d7 19 3b 56 ce a5 bd
       0.72152877 0.07032764 0.0023474218 -0.08095996
000080 c6 14 11 3f 75 cf 1d 3e ac 58 01 be c0 9b fc bd
       0.5667232 0.1541117 -0.12631482 -0.123343945
000090 cb 14 a9 3e 70 0e 85 3e a0 37 cb 3d 23 52 70 be
       0.33023676 0.25987577 0.09922719 -0.23468833
0000a0 c1 32 86 3e 32 9c 8b be 3f 14 e5 bc d2 1c b7 3e
       0.26210597 -0.27267605 -0.027963756 0.35764176
0000b0 bf c0 dc be 4f 25 e4 be e4 09 d3 3e a7 76 6b be
       -0.43115804 -0.44559714 0.41218483 -0.22994481
0000c0 04 47 e6 bc a3 c1 13 be 46 94 24 be b5 da 02 3d
       -0.028110035 -0.14429335 -0.16072187 0.031946857
0000d0 49 28 a4 be 00 40 2d bd 76 5a a6 bc 4d 97 51 3e
       -0.32061985 -0.042297363 -0.020306807 0.20467873
0000e0 88 6a f2 3e 17 ca af 3d d9 1c 48 be 90 5e 19 bd
       0.47346902 0.085834675 -0.19542255 -0.037443697
0000f0 90 4e 8f 3e e1 1d 0b be 64 92 90 3e 1d 0a 9f 3e
       0.27989626 -0.13585617 0.28236687 0.31062403
000100 f0 3d 77 be 52 e8 9b 3e 7b 95 4e 3e bb 43 88 bd
       -0.24144721 0.30450684 0.2017421 -0.066535436
000110 3f 5b 0a 3f f2 36 20 be a7 ea 9b 3e a8 d3 3e 3e
       0.5404548 -0.1564596 0.30452463 0.18635428
000120 b7 a5 08 be 65 f6 c8 be 44 ac e2 3e c7 02 98 be
       -0.13344465 -0.39250484 0.44272053 -0.2968962
000130 6b a7 f7 be fc ec 45 be 1e df 1b be 78 c2 c0 3e
       -0.48369917 -0.19328684 -0.15221831 0.37648368
000140 7a 81 0a 3e 95 ab 80 3e c6 68 d1 bd 33 3c 7c be
       0.13525954 0.25130907 -0.10225062 -0.24632339
000150 64 16 6f 3e cd 60 b8 3e c2 a2 ce 3e c2 bd a0 be
       0.23348385 0.36011353 0.4035855 -0.31394774
000160 9a 79 17 3f 5c b1 b8 be 87 69 1c be 72 52 0f 3e
       0.59169924 -0.36072814 -0.1527463 0.13996294
000170 97 b2 77 bd c3 90 f2 bd 9c 26 4b 3d 64 d7 76 be
       -0.06047305 -0.11844017 0.049597368 -0.24105603
000180 1c 1e c7 3e 95 72 a5 be d0 08 b6 3c d9 7b bd 3e
       0.3889016 -0.32313982 0.022220999 0.3700855
000190 a3 64 f9 3c d4 2b 64 3e 17 af 85 bd 97 a0 6e 3e
       0.030443495 0.22282344 -0.06527536 0.23303448
0001a0 c8 eb 17 bf c8 53 2b 3c 9d 12 b3 be 1a d0 c0 be
       -0.5934415 0.010456987 -0.34975138 -0.3765877
0001b0 ab 99 c6 3e 57 ef 78 3e d8 dd a3 be 4f ed 60 be
       0.38789114 0.24310051 -0.3200519 -0.21965526
0001c0 b9 8b 73 be ab 5c 91 be 84 33 cc 3e 20 67 9d be
       -0.23783769 -0.28391013 0.39883053 -0.3074274
0001d0 0a e1 05 bf ae c0 03 bf c5 06 44 3e 68 d6 59 3e
       -0.5229651 -0.5146588 0.19143207 0.21273196
0001e0 5b 68 c3 3b 39 68 95 bd 5d 7f d2 3e 23 7a f5 3e
       0.005963368 -0.072952695 0.41112795 0.47944745
0001f0 f1 9e ea 3e b2 6e 92 3e 33 3c 78 3c 3e d4 7b be
       0.45824388 0.2860008 0.015151071 -0.24592683
000200 3a 3b c9 be 57 5f c3 3e a2 f3 33 3f f0 13 5d 3e
       -0.39303 0.38158676 0.7029363 0.21589637
000210 ca 5a cc 3e 5c 57 40 3d c0 96 9e 3c ae 7a be 3d
       0.39913017 0.046958312 0.019358993 0.09300743
000220 12 3a 81 3e ee cb bb 3e 2b 11 b8 3e 27 8c ae be
       0.25239617 0.36679024 0.35950598 -0.34091303
000230 ac d2 5a 3d cf c6 01 bf 07 8d 01 3f 42 41 9c be
       0.05342357 -0.5069398 0.50605816 -0.30518538
000240 0c 1a 6e 3d f5 79 00 be 11 79 b4 3e 21 9d d6 be
       0.05813031 -0.12546523 0.35248616 -0.41916755
000250 4e b7 bf 3d 38 0f 06 be 09 4f d5 be cf 15 1b be
       0.093611345 -0.13091743 -0.41661862 -0.15145038
000260 2b 5c b1 3e 49 6c a5 3d 66 d1 35 3e 14 4d 89 3d
       0.3464063 0.080772944 0.1775566 0.067041546
000270 01 cd 95 3e 12 70 8e 3e a6 de 0d bf 6e 22 08 bd
       0.29257968 0.27819878 -0.5541786 -0.03323596
000280 7b b0 c2 bd b0 7e f1 3c f8 9b 81 3e 28 2f f4 3d
       -0.09506317 0.029479355 0.25314307 0.11923057
000290 30 b8 09 be 86 7d 05 3f 05 c2 f9 3e f8 f6 a8 be
       -0.13449168 0.5214466 0.48780838 -0.33000922
0002a0 c7 8b 06 3e 30 0a ef 3c c0 1f 8d 3e 7b b5 54 3e
       0.13139258 0.029179662 0.27563286 0.20772354
0002b0 1c a3 b8 3d 08 12 bc be 71 aa 31 be 91 be 57 3e
       0.09015486 -0.36732507 -0.17350174 0.21068789
0002c0 17 98 94 3d 6f 21 97 be cc 4f 56 3f 94 4b 82 bd
       0.07255571 -0.29517695 0.8371551 -0.06362072
0002d0 86 19 a9 be 80 42 ed 3d d5 8c ab be 66 3f 9f 3e
       -0.33027285 0.115849495 -0.33505884 0.31103057
0002e0 68 03 27 be fa 1c 0c be 9c 43 bc 3e 27 86 99 3d
       -0.16309893 -0.13682929 0.36770332 0.07496291
0002f0 ad ae 13 3f ef c7 32 be d1 92 a2 3d 88 f7 85 be
       0.5768841 -0.17459081 0.07938159 -0.26165414
000300 5c 5b d7 bd 97 9b b2 3e 33 08 08 3e 78 49 19 3e
       -0.10515472 0.3488433 0.13284378 0.14969432
000310 18 3c d5 bd 6a 66 7d be 9b aa a6 be 84 e4 a6 be
       -0.104118526 -0.24746099 -0.32552037 -0.3259622
000320 88 7c 3e bd 3b 1a 18 3e d7 ba aa 3e 28 c7 1d be
       -0.04650548 0.14853756 0.33345672 -0.15408003
000330 c9 38 d9 be b4 ab bd be 33 28 64 3e ef 45 b9 be
       -0.42426136 -0.37045062 0.2228096 -0.36186168
000340 fe e8 26 bc d8 bc c4 3d e9 6f c9 be d9 7d 39 3e
       -0.010187386 0.096063316 -0.39343193 0.18114413
000350 b4 15 9f 3e f2 a5 3c 3d 5e f5 e3 be 3e 5e b0 3e
       0.31071246 0.046056695 -0.44523138 0.344469
000360 f4 c3 74 be cd b6 ca 3e 41 24 5c 3e e7 8c ad 3e
       -0.23902875 0.3959259 0.21498205 0.33896562
000370 cb ee c2 3e 98 31 b9 be a0 01 50 be 29 4f d3 3e
       0.3807281 -0.3617065 -0.2031312 0.41271332
000380 12 c6 cc be 40 68 e2 3e 45 22 d5 be a1 9b c3 be
       -0.39994866 0.4422016 -0.41627708 -0.38204673
000390 ef f4 f4 bd 96 d8 16 be 60 58 13 be a1 c2 27 3e
       -0.1196078 -0.14731058 -0.14389181 0.16382839
0003a0 05 a4 47 be f0 e9 60 3e 51 21 e9 3d 32 4b b4 3e
       -0.19496162 0.2196424 0.11383308 0.3521362
0003b0 3b ca d6 be da 63 90 be 72 71 8f 3e 40 25 20 be
       -0.41951165 -0.2820118 0.2801624 -0.1563921
0003c0 1a 87 cc be 49 15 a9 be 8a 1d e0 3e 3f 69 db 3e
       -0.39946824 -0.33024052 0.43772537 0.42853734
0003d0 53 33 a2 3e b0 47 43 bd a9 8f 01 be 7a 0f 24 3d
       0.31679782 -0.04767579 -0.12652458 0.040053822
0003e0 4a a6 2e 3e 7e f1 22 be 9f 4b ab be 80 3d cf bb
       0.17055622 -0.15912434 -0.33456132 -0.00632447
0003f0 ce 3f a8 3e 96 c5 dc 3c 47 70 e3 3e e8 fb 8c 3e
       0.3286118 0.026949685 0.44421598 0.2753594

module_list.0.bias f4 [128]
000000 c1 64 9c be 37 cd 89 3e ad ae a4 be 79 2b 50 be
       -0.3054562 0.2691438 -0.32164517 -0.20329084
000010 a8 61 37 be f3 c8 87 be 8a 5a c4 3e d0 50 b7 bd
       -0.17908347 -0.265205 0.38350326 -0.08950961
000020 11 b6 df 3d ad 69 9c 3d 08 fa a9 3c cb cd aa 3d
       0.10923398 0.076373436 0.020749107 0.08340033
000030 e6 a9 ab 3d ca 4a 8a be bf 98 ae be ca 27 0d 3d
       0.08382015 -0.27010185 -0.3410091 0.034461774
000040 bf 4d 96 3e 17 c9 8a 3d 3b 5f d2 3e 6a 40 02 3e
       0.2935619 0.06776636 0.4108828 0.12719885
000050 0c 3f d3 3d b8 ca 13 be db 69 40 be 24 a7 69 3e
       0.103147596 -0.144328 -0.1879038 0.22817665
000060 2b cc 19 3e 28 be bd 3c 63 98 5d be d2 4f 71 3d
       0.1501929 0.023161963 -0.21640162 0.058914013
000070 df 80 6b 3e 5d 53 9b be 47 fc 82 bd 50 24 b8 3e
       0.22998379 -0.3033704 -0.06395774 0.35965204
000080 04 00 4f be 86 0a 07 be 82 d1 c5 be 2b 5b b9 3e
       -0.2021485 -0.13187608 -0.38636404 0.36202368
000090 e3 ee 80 be bf 40 5d be 60 de be bd 5f cc bf be
       -0.25182256 -0.2160673 -0.093197584 -0.3746061
0000a0 14 72 b2 3e 6d ee 6e be d0 ac 37 be 3b 7f dd 3d
       0.3485266 -0.2333314 -0.17937016 0.10815283
0000b0 03 73 af 3e e6 4f ca 3d f7 d1 a7 bd 87 0a 30 3e
       0.34267434 0.09878521 -0.081943445 0.17191516
0000c0 15 26 f0 bc ce 85 be 3e 59 04 93 3e 2d 76 e5 3d
       -0.029315034 0.3721146 0.28714254 0.11204181
0000d0 ee b1 a8 3e 52 79 27 be b9 bc c3 3e bc 1b ea 3d
       0.3294825 -0.16354874 0.3822992 0.11431071
0000e0 dc 52 30 bd 4d a4 ab 3e 4c ce 9f be 86 89 83 bc
       -0.04304777 0.3352379 -0.3121208 -0.016056787
0000f0 3d 04 81 be 97 48 3f be 7f 41 7b be 4c 71 64 be
       -0.25198546 -0.18680035 -0.24536704 -0.22308844
000100 ba fa 19 3e 25 df 1b be c9 40 85 be 9c 8d 4f 3d
       0.15037051 -0.15221842 -0.2602599 0.05067216
000110 76 ad 9b bd b3 01 b7 be b9 fb d7 3d 9d e5 8b 3d
       -0.076014444 -0.35743484 0.10546059 0.06830905
000120 84 10 3c 3e 3a 42 bf 3d 9c 89 a2 bd 69 01 09 be
       0.18365675 0.093388036 -0.07936403 -0.13379444
000130 5a eb 9a 3e 64 6f 74 be c2 8e ac bd 80 8e a6 be
       0.30257684 -0.23870617 -0.084256664 -0.32530594
000140 7f 3f dd ba 92 4c cc 3e 73 14 04 be ea d8 02 3e
       -0.0016879885 0.3990217 -0.12898426 0.12778059
000150 66 5b 97 3e e6 10 9b 3e 3e 4b b3 3e 54 14 a8 bd
       0.2956192 0.3028633 0.35018343 -0.08207002
000160 19 08 be 3e 38 66 48 be 4c c3 68 3e 81 01 8b be
       0.37115553 -0.19570243 0.2273075 -0.27149585
000170 97 c7 92 be 68 6e aa 3e f5 bb b1 3d 59 e9 c5 be
       -0.286679 0.33287358 0.08678428 -0.38654593
000180 cf 46 b7 bc 70 a6 81 bd 57 a2 36 bd b2 63 af 3d
       -0.022372631 -0.063305736 -0.044588413 0.08563937
000190 f3 5d c9 3e 0c c2 62 be 64 d5 a1 3d 2b 62 8c 3e
       0.3932949 -0.22144336 0.07902029 0.27418646
0001a0 05 0b 8e be 4b c9 94 be 7d 38 34 be 12 ba bd be
       -0.27742782 -0.29059824 -0.17599674 -0.37056023
0001b0 02 f8 00 be df 62 f4 3d b1 db b0 3e 9a ef 19 be
       -0.12594607 0.11932921 0.3454261 -0.15032807
0001c0 ad d1 e1 3d 11 c0 c7 bc 55 6b c8 3e a6 8a 70 be
       0.110263206 -0.024383577 0.39144388 -0.2349039
0001d0 b6 e4 54 bd 65 5a 5b 3e cc 1c c3 3e 99 d4 b1 be
       -0.05197593 0.21421202 0.38107908 -0.34732512
0001e0 87 52 89 be 52 69 b6 be ee 0a d6 3c 5a 6a 82 be
       -0.26820776 -0.35627228 0.026128259 -0.25471765
0001f0 fb 86 b2 3e aa 05 32 bd 05 0b b1 be 0d 8e 57 be
       0.34868607 -0.043462433 -0.3457872 -0.21050282

module_list.1.0.weight f4 [64, 128]
000000 37 93 3b bc 86 03 ab 3d ef fb 82 bd 53 9f 7b bd
       -0.011448673 0.083502814 -0.06395709 -0.06143124
000010 da 4f f0 3c b4 64 05 bd 3c 2d 9e 3d 58 be a5 3d
       0.029334951 -0.03256674 0.077234715 0.08092946
000020 64 15 f6 3c b3 c9 46 3d 63 8d 5a 3d e0 7e 75 3d
       0.030039497 0.0485322 0.053357493 0.05993545
000030 6d 43 35 bd 6d b6 39 bd 0a ae 86 bd 25 ed 15 bc
       -0.044253755 -0.04533999 -0.06576164 -0.009150778
000040 21 5b 83 bd 0b 2a 0e 3d 89 fe 2e 3d 1a 5a 7d 3c
       -0.06413866 0.034708064 0.042723212 0.015463376
000050 e5 07 92 bd 5c a8 44 bc 37 47 b2 bd 63 9f 62 bc
       -0.07130412 -0.012003031 -0.087049894 -0.013831946
000060 ce 4b 9f 3d 14 a5 82 bd c4 20 ce 3d dc 2b 64 bd
       0.077781305 -0.063791424 0.10064843 -0.05570589
000070 4a ad 69 bd 57 a9 0f bc 1a fc 84 3d 42 a6 d9 bc
       -0.057050027 -0.008768401 0.06493397 -0.026568536
000080 c4 95 8a bd 55 8f bf bd ca 94 3a 3d 45 ab a6 3d
       -0.06766847 -0.0935351 0.045552053 0.08138136
000090 46 e3 e3 3c 2b 55 2a bc 6a 8d db bc 55 30 9d 3b
       0.027818333 -0.010396282 -0.02680083 0.0047970214
0000a0 91 80 6f 3d 35 42 68 bb 99 3a b4 bd 5b 33 2e bd
       0.05847222 -0.0035439853 -0.08800239 -0.042529445
0000b0 85 59 9e 3d 38 01 82 bd 4c e5 ac bd 72 7c 57 3d
       0.07731918 -0.06347889 -0.084421724 0.052608915
0000c0 ae bd 4d 3c 56 f9 39 bd 38 d9 d7 bc 0f eb 0a bd
       0.01255743 -0.0454038 -0.026348695 -0.033915576
0000d0 c1 83 77 3d a3 41 9c bd b6 27 0b 3d 90 6e 7f bc
       0.060428385 -0.07629707 0.03397342 -0.015590325
0000e0 e9 aa 1f 3d 46 6d 76 3d e9 69 5b 3b a8 c9 8e bd
       0.038981352 0.060162805 0.0033479875 -0.069720566
0000f0 33 09 d0 bc 11 53 ce 3c a9 99 5e 3d 24 35 9a bd
       -0.025395012 0.025186094 0.05434576 -0.07529667
000100 dd 60 96 bc 77 cd 89 3d 9e ec b9 bc 26 03 49 bc
       -0.018356735 0.067286424 -0.022695836 -0.012268817
000110 65 37 74 bc 28 3b 25 3d b9 fd c4 bc c8 fb 74 bd
       -0.014905785 0.04033962 -0.024046766 -0.05981043
000120 f7 71 b0 3c 1c 18 ec 3d 1f c5 30 bd 91 56 99 bd
       0.021538718 0.11528036 -0.04315674 -0.07487214
000130 25 94 9d bd ad 23 9c 3c 3e 48 04 bd 24 c3 3b bc
       -0.07694272 0.01905998 -0.032295458 -0.011460099
000140 5d 79 5a bd 21 9e bd 3d 2d 4d 3b bd d6 46 72 3d
       -0.053338397 0.09258676 -0.045727897 0.059149586
000150 c8 ea 80 3d f0 65 20 bd 47 4c b0 bd af 6f 26 bd
       0.06294781 -0.039159715 -0.08608299 -0.040633854
000160 dc 26 92 3d d1 65 97 bd f5 5b 5e 3d 3e 6e 79 3b
       0.07136318 -0.07392467 0.054286916 0.0038060094
000170 0e 6e c2 3d a1 03 cc 3c f1 f3 87 bd 1a 36 1b bd
       0.094936475 0.024904074 -0.06638325 -0.037893392
000180 3b ab 79 3b e1 64 42 3d 34 30 85 bb 55 12 8e bd
       0.0038096446 0.047459487 -0.004064584 -0.0693709
000190 c8 e5 0b bc 5e c3 58 bd d7 17 10 bd e3 ad 80 3d
       -0.008538671 -0.05292069 -0.035178985 0.06283166
0001a0 51 cc 3b bd 80 bc 44 3d e5 08 47 3d 44 b3 af 3c
       -0.04584915 0.04803133 0.048592467 0.021447785
0001b0 bb ab 05 bd d2 16 c4 3d bb a4 01 3d d7 8d 35 3d
       -0.032634478 0.09574665 0.03165124 0.044324722
0001c0 58 3e b7 bc da 08 a0 bc e6 0d 86 bc ea d2 f2 3c
       -0.022368595 -0.01953547 -0.01636405 0.029641587
0001d0 b8 5a 1c bb 6b 1d 29 3d b6 67 74 bc 39 9b 4f 3d
       -0.0023857784 0.04128782 -0.014917305 0.05068514
0001e0 9d 36 ac bd 10 22 1c 3d 38 7e 35 bd 9c 54 55 3c
       -0.08408854 0.038118422 -0.044309825 0.013020661
0001f0 a2 17 ca bc dd b9 06 bd 4e bc f2 3c 56 3b 20 3d
       -0.024669472 -0.032892097 0.029630806 0.039119087
000200 b5 5a a7 3c 72 2a 01 3d 95 80 13 3d bd a7 21 3d
       0.020428995 0.03153462 0.036011297 0.03946661
000210 f7 31 5c bd a3 27 fa bd ed da 71 bd fc 13 14 bd
       -0.053758588 -0.12214591 -0.059046675 -0.03615187
000220 0e 8d 1c 3c 45 02 9f bd f4 c3 71 bd 6e e3 23 be
       0.009555114 -0.07764105 -0.059024766 -0.16004726
000230 59 fe 04 be 0b b8 81 3d 88 ab d3 bd 29 24 2d 3d
       -0.12987651 0.063339315 -0.10335451 0.042270813
000240 4f 94 34 3d e8 5c ed 3d 4d 23 f6 bc f9 6b 81 bd
       0.04408675 0.11589986 -0.03004613 -0.06319422
000250 f9 27 93 3d a7 a6 2c 3d 20 23 09 bd d3 85 28 3c
       0.071853586 0.04215112 -0.033480763 0.010285812
000260 9f 35 2c bd eb 53 87 3d 61 be 71 3d dd 91 94 39
       -0.042043325 0.06607803 0.05901945 0.00028337436
000270 07 e8 24 bd ec fa 19 3d 9e 24 89 3d 0c 33 af bd
       -0.04026034 0.037592813 0.06696437 -0.08554658
000280 0f 28 2f 3d 83 03 3f 3c 14 e9 5e bb 4b 09 18 bc
       0.042762812 0.011658552 -0.0034013437 -0.009279559
000290 53 10 1a 3d 5d 94 d9 3d 5b c3 7f bd d9 04 89 bd
       0.037613224 0.10624001 -0.062442165 -0.06690378
0002a0 13 e9 41 3d 56 b5 a4 bd 49 59 86 3c d2 d0 6c bb
       0.047341418 -0.080423996 0.016399996 -0.0036135209
0002b0 05 19 17 bd 01 ca 35 3c 90 55 24 bc 07 73 09 bb
       -0.036889095 0.011095525 -0.010030165 -0.0020973103
0002c0 a4 8c e7 bb d9 e2 e1 3b 08 42 b0 3d 1d bc b7 bc
       -0.007066326 0.0068934974 0.086063445 -0.022428567
0002d0 9e 5d 8f 3d 17 b3 51 bd 6e 02 bc bc 38 b8 b9 bc
       0.07000278 -0.051196184 -0.022950377 -0.02267085
0002e0 34 d9 b5 3d 3f c4 26 3d df d2 d4 bc 92 57 e1 bd
       0.08879319 0.0407145 -0.025979457 -0.11003031
0002f0 d8 98 d7 bd 34 da 9a 3d b5 af e9 bc 1a 81 5c 3d
       -0.105271995 0.0756115 -0.028526166 0.05383406
000300 30 2c 87 bc 64 46 94 3d 6f 6c c0 bd c3 db 90 3d
       -0.016500562 0.072399884 -0.09395682 0.07073166
000310 de cd fb 3c 13 6f fc bd 27 67 23 bd c0 bc 83 bc
       0.030737814 -0.12325873 -0.039893296 -0.016081214
000320 a5 bc ee bd 9c 24 c3 bc bd 8a 7f bd 8e 83 cc bd
       -0.11657075 -0.023821168 -0.06238817 -0.099860296
000330 88 75 d9 3c 2c ef 58 3d 08 b8 20 3d d2 25 2c 3c
       0.026545301 0.052962467 0.039238006 0.010507064
000340 a7 b4 1c be 80 e8 07 3e 22 5c e5 bd cc 32 e9 3d
       -0.15303288 0.13272285 -0.111992136 0.11386642
000350 20 8f 80 bd ea 5f 74 bd 18 19 8c bd 21 65 32 bb
       -0.06277299 -0.059661783 -0.06840724 -0.0027220922
000360 00 c2 5e 3d 6b 80 99 bd f8 b3 91 bc ab c3 44 bd
       0.05438423 -0.07495197 -0.017786011 -0.048038166
000370 16 44 24 3d 42 c8 80 3d 93 74 e5 bc ff 91 11 3d
       0.040103994 0.06288196 -0.028009688 0.035539623
000380 7b e5 ce 3d 60 3d 78 bd ba c4 47 bd a8 d3 72 3d
       0.10102364 -0.060605407 -0.048771597 0.059283882
000390 d7 8b 6b 3d 64 1e 2e bd 8b f5 c2 3d 66 72 b4 bc
       0.05750641 -0.04250945 0.0951949 -0.022027206
0003a0 e7 0f 84 bd ae fb b1 bd 26 de aa bd a3 e9 47 bd
       -0.06448346 -0.08690582 -0.08343153 -0.048806798
0003b0 63 89 bc 3d 99 7e c0 3c 44 53 a4 3b 48 fe 70 bd
       0.09205892 0.023497866 0.005014809 -0.05883625
0003c0 88 e5 b2 3c 4f 98 bf 3d bb 02 de 3d 05 96 26 bc
       0.021837965 0.093552224 0.108403645 -0.010167603
0003d0 32 5a 07 3d da e0 69 3d ac 5f 1c 3d 90 8f 21 3d
       0.033045 0.0570992 0.038177177 0.039443552
0003e0 89 d2 15 be 94 74 d3 ba cb cd b1 3d 8c 11 9e bd
       -0.14631094 -0.0016132765 0.0868183 -0.077181906
0003f0 c6 de a5 bc 63 15 a1 bd 72 26 53 bd a7 3c f8 bb
       -0.020247828 -0.07865407 -0.051550336 -0.0075755897

module_list.1.0.bias f4 [64]
000000 46 64 41 3d 62 fb 38 bc 46 35 9e 3d 67 71 d3 bc
       0.04721477 -0.011290403 0.07725005 -0.02581091
000010 18 a4 8d bd 86 ed 28 bd 43 1f 8a bd 08 00 64 3d
       -0.06916064 -0.041242145 -0.06744244 0.055664092
000020 b1 cf f9 3b 57 3e 20 bc 21 fc b3 bd 9a c1 1a bd
       0.0076236357 -0.009780488 -0.08788324 -0.03778229
000030 87 04 e4 3a 1f 84 88 bc 69 70 d3 bc 59 16 0a bd
       0.0017396369 -0.016664563 -0.025810437 -0.03371272
000040 12 59 91 bd 4b f8 cc 3d 47 82 24 bd b0 26 62 bd
       -0.07097067 0.100082956 -0.040163305 -0.055212677
000050 b8 cd 11 bd 6f fc 7e 3d e6 43 56 bc b2 11 4f 3d
       -0.03559658 0.06225246 -0.013077712 0.050553985
000060 1b 00 ad ba bc d1 a5 bc 28 ee 18 3c e7 57 e4 bd
       -0.0013198884 -0.02024161 0.009334125 -0.111495785
000070 a4 c6 21 bd 2b 0e 24 3d 41 68 0c 3d d7 0e 7a 3d
       -0.03949608 0.040052574 0.03427911 0.06104931
000080 ab 7a e5 bb 73 73 41 bd 43 3d 3f bc 8e ea bd 3c
       -0.0070031486 -0.04722924 -0.011672321 0.023183133
000090 d3 9d 58 bd ff ae 1c 3d 9e 8e 3c 3d 5e 89 a2 3d
       -0.052884888 0.038252827 0.046034448 0.07936357
0000a0 1f 4b 44 3c e7 29 6c 3c 5d 44 59 3d ae 6d c0 3d
       0.011980801 0.014414287 0.053043712 0.0939592
0000b0 b9 5d 28 3d 46 32 73 bd 81 27 5d 3d 3c fa 1b 3b
       0.041105006 -0.059374116 0.053992752 0.0023800274
0000c0 f1 e2 ea 3d 72 1b 28 3d c2 fc d7 3c 46 ac 41 bd
       0.11469067 0.0410418 0.026365642 -0.047283433
0000d0 f6 3f a0 bb b3 0f 15 3d d4 c7 2b bb 3f 6f fc bc
       -0.0048904372 0.036391925 -0.0026211636 -0.030814765
0000e0 39 6e 35 bd 54 39 25 bd 35 af 7b 3c d5 ca 86 bc
       -0.04429457 -0.040337875 0.015361597 -0.01645414
0000f0 d8 e0 03 3c 2c b2 10 bd 0f 2f cd 3d 04 2b 32 bd
       0.008049212 -0.035326168 0.10018741 -0.043498054

module_list.2.weight f4 [1, 64]
000000 f3 15 4e 3d 98 0d f8 3d f5 dc e4 bd a0 a9 f8 3d
       0.0503139 0.12111968 -0.11174957 0.121417284
000010 65 19 c5 3d a9 2c b7 bc cd 16 8f be 08 51 c7 bd
       0.09623984 -0.022360163 -0.27947083 -0.09732252
000020 2c 84 81 3a 26 e7 61 3d 5a 04 c5 bd 64 fa 49 be
       0.0009881309 0.05515208 -0.096199706 -0.19724423
000030 07 03 d4 bd a4 c8 ba bd 96 7b 4d bd 60 f7 4e 3d
       -0.1035214 -0.091203004 -0.05016669 0.050528884
000040 fd 0c 2a 3e 6a 7d f3 3d eb 0d 29 3d 79 e5 a2 bd
       0.16606517 0.11889155 0.04127304 -0.07953925
000050 38 67 ed bd 7e 5b 7e bd 88 a8 dd bc 00 ff 7f 3b
       -0.11591953 -0.062098972 -0.027057901 0.0039061904
000060 21 e2 4e bd 22 12 c9 bd 53 38 fe 3d 11 5b 8b be
       -0.050508622 -0.09817912 0.12413087 -0.27217916
000070 ad 99 05 be 64 2e 0d be 15 80 f4 3c 8a e5 9d ba
       -0.13046904 -0.13787228 0.02984623 -0.0012046557
000080 7a 1e 5d bc ce ff c0 3d 0b 04 6c 3e 23 62 77 3d
       -0.013496036 0.09423791 0.23048417 0.060396325
000090 3d d2 2a 3d 04 50 9f 3d 95 9f 23 be 4e 5f 15 be
       0.041704405 0.07778934 -0.15978844 -0.14587137
0000a0 43 37 79 3d fb 9a ea bd d3 f5 ce 3d 93 aa 3f 3d
       0.060843717 -0.114553414 0.10105481 0.04679353
0000b0 c3 67 07 3e bb 30 13 be 85 34 76 3d df 77 e6 bd
       0.13223176 -0.14374058 0.06010868 -0.11253332
0000c0 be a7 d7 bd 90 cc 29 be f2 b1 39 3e fd 3a eb bd
       -0.10530041 -0.1658194 0.18134287 -0.114858605
0000d0 5b 64 02 3e d2 84 05 bd 51 6f 8d bd a1 83 d5 bd
       0.12733595 -0.03259737 -0.069059975 -0.10425497
0000e0 c3 07 0e be c8 50 4e 3d 25 6c 6f 3d 72 f4 a5 be
       -0.13870148 0.050370008 0.058452744 -0.3241306
0000f0 00 be 83 3a 5b 59 e8 3d 5f 4a 0b 3e 5b 68 cd bd
       0.0010051131 0.11345168 0.13602589 -0.1002967
