saved_models_MLP/exp-ib3-fcc-eform/mlp_eform_fcc_ratio1_seed4_epoch300.pt (torch, 38935 bytes, 5 tensors)

module_list.0.weight f4 [128, 6]
0.2505609 0.3380642 0.05803256 -0.55947024 0.333707 -0.26256016 0.008608459 -0.028129578
0.20095912 -0.0863986 0.23438641 0.20621538 -0.16335478 0.30741575 -0.44483337 -0.46219137
0.20663318 0.0023472607 -0.11151897 -0.15483734 0.08820316 -0.3894099 0.09697511 -0.39424446
0.17514092 -0.04870729 0.2223362 0.0003690084 -0.04785265 -0.11640707 -0.26031557 0.33220628
0.3558817 -0.36803013 0.19604297 0.14624184 0.29331875 -0.1467726 -0.4414606 0.044845644
-0.3213781 0.20624632 -0.26224247 0.06268139 0.3671314 0.38749108 0.37803003 0.32238913
-0.27767512 -0.012302618 0.08882502 -0.10680099 0.14828856 -0.16113499 0.002021428 -0.10793237
0.28205755 0.41158065 0.21884923 -0.0107369125 0.015696723 0.0030888726 -0.39766246 -0.25152227
0.07889664 0.08403042 -0.21775582 0.106061734 0.25630477 -0.16334842 0.45929798 0.047815353
0.13367644 0.36332533 -0.18422264 0.061239764 0.07187202 -0.40759957 -0.24821906 0.2514361
-0.50125617 0.33781332 -0.12580173 0.004277736 -0.17184831 -0.26338014 0.273349 0.37520874
0.16527027 0.39758408 -0.24632163 0.30222848 0.32946137 0.44671422 -0.21123797 -0.35738608
-0.35231337 -0.0298488 0.45691448 -0.42821774 0.040227033 0.39515454 0.30522048 0.33087444
-0.38478673 -0.007874468 0.20686775 0.15545666 -0.34988916 0.32223156 -0.30201447 -0.029277725
-0.13915804 -0.104031295 -0.14908631 0.36654466 -0.1332101 0.11621456 -0.3148329 -0.38838118
-0.21438092 0.1444343 -0.2644282 0.20502283 0.32977393 -0.40573612 -0.29595533 0.2811148
0.32947776 -0.038922228 -0.20580031 0.029263765 -0.18276902 -0.29148784 -0.15985762 -0.22545722
0.059036154 0.055705845 -0.108362764 0.35031283 -0.3041698 0.010142521 0.13121079 0.36334997
-0.042875886 0.22075461 0.20361978 -0.22382599 -0.079442084 0.16470426 -0.011647443 -0.32871318
-0.013618105 -0.16883525 -0.3390219 0.10741228 0.18540443 -0.19283971 0.2762169 -0.4452122
-0.6426385 0.23654836 -0.3735031 -0.12157147 0.07403082 -0.13655025 -0.23715994 0.16982013
-0.18674651 0.3196694 -0.38060662 -0.4154841 0.17531481 0.060912102 -0.15725233 -0.13021356
-0.038257565 0.008771509 0.25201792 0.39601684 -0.34690434 -0.38199615 0.40034896 0.07684784
-0.029230688 0.33491868 0.2668712 0.01853642 0.096879974 0.400995 -0.19727688 0.27075332
-0.086856425 -0.3130881 -0.044353444 0.3068885 0.14825316 -0.16933192 -0.38865525 -0.3509584
0.29428387 0.41805676 0.467335 0.34762228 -0.34983152 -0.30168092 -0.3360628 -0.28223678
0.34706914 -0.20399801 0.30374703 0.35353112 0.14627573 0.21363847 -0.11590056 -0.27889943
0.16108704 0.25044516 0.3565394 0.34544986 -0.26062343 0.09976989 -0.39061666 0.27089852
-0.037822172 0.3868182 -0.31124035 -0.31842777 0.052177902 -0.24936 -0.23414157 0.11938694
-0.51094323 -0.24114513 0.12518618 0.20328364 0.23190568 0.21370408 -0.06811355 -0.2045423
0.12241058 -0.23635134 0.31832638 -0.33883324 0.4124424 -0.21454161 -0.3361791 0.30353382
0.14885822 0.044069804 0.16318457 0.14331353 -0.05102079 -0.15839095 -0.15477756 0.43463078
00000000: 8549 803e c016 ad3e 8db3 6d3d 7139 0fbf
00000010: a5db aa3e 496e 86be 7e0a 0d3c 0070 e6bc
00000020: 3ac8 4d3e c0f1 b0bd fe02 703e 202a 533e
00000030: 7a46 27be 9965 9d3e 33c1 e3be 59a4 ecbe
00000040: a697 533e 80d4 193b 0f64 e4bd ae8d 1ebe
00000050: dca3 b43d bc60 c7be e39a c63d 69da c9be
00000060: 2458 333e 4c81 47bd 1aac 633e 7877 c139
00000070: 2401 44bd d466 eebd 1548 85be f116 aa3e
00000080: 2036 b63e 726e bcbe 7dbf 483e 6cc0 153e
00000090: e02d 963e 8e4b 16be 2007 e2be 11b0 373d
000000a0: ac8b a4be 3c32 533e a544 86be 1a5f 803d
000000b0: a6f8 bb3e 3b65 c63e 278d c13e 3010 a53e
000000c0: 6f2b 8ebe eb90 49bc e4e9 b53d 7aba dabd
000000d0: f5d8 173e 9200 25be ef79 043b a50b ddbd
000000e0: d969 903e b3ba d23e 031a 603e e0e9 2fbc
000000f0: 6a96 803c af6e 4a3b 6a9a cbbe 87c7 80be
00000100: 9094 a13d 2418 ac3d 62fb 5ebe e536 d93d
00000110: 613a 833e cf44 27be 1b29 eb3e 08da 433d
00000120: 7ae2 083e c705 ba3e dca4 3cbe 8cd6 7a3d
00000130: a331 933d e4b0 d0be 232d 7ebe 3cbc 803e
00000140: 5352 00bf def5 ac3e 2bd2 00be 402c 8c3b
00000150: 01f9 2fbe c3d9 86be 66f4 8b3e 5c1b c03e
00000160: 9c3c 293e 2490 cb3e bd3b 7cbe b1bd 9a3e
00000170: 29af a83e bab7 e43e c44e 58be 4ffb b6be
00000180: 6b62 b4be 7885 f4bc b2f0 e93e 5b3f dbbe
00000190: 1ac5 243d b251 ca3e dc45 9c3e 6068 a93e
000001a0: c402 c5be ea03 01bc 24d5 533e 0830 1f3e
000001b0: ac24 b3be 89fb a43e a4a1 9abe d7d7 efbc
000001c0: 727f 0ebe 5c0e d5bd 15aa 18be beab bb3e
000001d0: 3a68 08be e601 ee3d c731 a1be e6d9 c6be
000001e0: ac86 5bbe 96e6 133e 2263 87be 81f1 513e
000001f0: 21d8 a83e a5bc cfbe 7587 97be 47ee 8f3e
00000200: 4fb1 a83e ea6c 1fbd 51bd 52be 90ba ef3c
00000210: cd27 3bbe e53d 95be b7b1 23be 42de 66be
00000220: e5cf 713d d02b 643d 4ced ddbd 345c b33e
00000230: 25bc 9bbe d12c 263c 1f5c 063e 0209 ba3e
00000240: a09e 2fbd 7f0d 623e b481 503e a432 65be
00000250: 88b2 a2bd 3ca8 283e ebd4 3ebc 184d a8be
00000260: 791e 5fbc 26e3 2cbe 4794 adbe f8fa db3d
00000270: a9da 3d3e c677 45be 4d6c 8d3e daf2 e3be
00000280: f583 24bf bc39 723e cc3b bfbe 76fa f8bd
00000290: 789d 973d d4d3 0bbe 0eda 72be 54e5 2d3e
000002a0: 7a3a 3fbe b5ab a33e dfde c2be 55ba d4be
000002b0: ba85 333e f87e 793d c106 21be b456 05be
000002c0: f7b3 1cbd 60b6 0f3c 7e08 813e b8c2 ca3e
000002d0: 729d b1be 0095 c3be 8afa cc3e 6662 9d3d
000002e0: 3275 efbc 767a ab3e 58a3 883e b1d9 973c
000002f0: 0269 c63d 374f cd3e f302 4abe 2ea0 8a3e
00000300: c8e1 b1bd 154d a0be f5ab 35bd 7d20 9d3e
00000310: adcf 173e 5965 2dbe d2fd c6be d2b0 b3be
00000320: 60ac 963e 890b d63e 8846 ef3e 8cfb b13e
00000330: 1e1d b3be ec75 9abe 6c10 acbe 5781 90be
00000340: 0cb3 b13e dbe4 50be bb84 9b3e 0802 b53e
00000350: 4ec9 153e 0bc4 5a3e 465d edbd e8cb 8ebe
00000360: 00f4 243e 593a 803e 558c b63e cede b03e
00000370: 6f70 85be 2854 cc3d e8fe c7be 36b3 8a3e
00000380: 6ceb 1abd 090d c63e e55a 9fbe f708 a3be
00000390: 7fb8 553d 3a58 7fbe cfc2 6fbe 2481 f43d
000003a0: 2dcd 02bf c0ee 76be ce30 003e 9629 503e
000003b0: af78 6d3e 3ed5 5a3e 1e7f 8bbd 8973 51be
000003c0: 66b2 fa3d 1606 72be adfb a23e 8d7b adbe
000003d0: a62b d33e ccb0 5bbe ab1f acbe c968 9b3e
000003e0: 4a6e 183e 8a82 343d db19 273e c8c0 123e
000003f0: 2dfb 50bd 3d31 22be 027e 1ebe ed87 de3e

module_list.0.bias f4 [128]
-0.098757066 0.042175844 -0.11978386 -0.31291345 0.15854008 -0.29262215 0.01281278 -0.041763626
0.23291251 -0.2811713 0.09098359 0.12481656 0.13273095 0.04109948 0.039470166 -0.06894582
0.22802664 0.3279586 -0.33594128 0.34860766 -0.1630365 -0.10519031 0.19437806 -0.09871414
-0.2900805 0.05062108 -0.11751489 0.25427848 0.26342627 0.071835734 0.12532082 -0.31430107
0.108658455 0.058443174 0.18204333 0.17875592 0.38095883 0.26871714 0.3071774 -0.110693544
-0.01732165 0.36072832 0.08962715 -0.062550135 -0.20912057 -0.34485543 0.23637356 0.20313616
0.21711971 0.29636306 -0.077112325 -0.086062066 -0.19129504 0.13584861 -0.13439874 0.20852855
-0.29013446 -0.25197908 -0.15668021 0.0005181558 -0.33239377 0.16777144 0.061228983 0.33898634
0.26099992 -0.22973506 -0.27321386 -0.15623751 -0.31420854 0.0050285934 -0.14399974 -0.03363641
0.135534 -0.24003583 0.16292877 -0.04761202 -0.22441277 -0.055532347 0.057572156 -0.022742074
-0.019030835 -0.2876431 -0.22438432 0.22464028 0.12576294 -0.25443736 0.23187914 -0.27665904
0.17538106 -0.24614097 -0.2872596 0.3154093 -0.062284987 -0.12425053 0.36744222 -0.21129008
-0.33784848 -0.0635666 -0.13477966 0.24843979 -0.3297859 0.28926575 -0.22240798 -0.017474962
-0.42712802 -0.22802033 -0.33353063 -0.1596253 -0.082407795 0.17308207 -0.115165435 -0.02071128
0.22868925 0.14687535 -0.29621604 0.26440805 0.3002049 -0.23352863 0.05788734 0.18500745
-0.2927727 0.19173966 0.0931562 -0.047733206 -0.03829174 0.028086303 -0.115780815 -0.11797911
00000000: 2541 cabd 94c0 2c3d 3e51 f5bd 3136 a0be
00000010: 5558 223e 92d2 95be b2ec 513c 5610 2bbd
00000020: 9e80 6e3e aff5 8fbe 9b55 ba3d d39f ff3d
00000030: 9fea 073e ee57 283d 78ab 213d 7733 8dbd
00000040: d17f 693e 31ea a73e 7f00 acbe b47c b23e
00000050: 0af3 26be 046e d7bd 0b0b 473e a42a cabd
00000060: 6e85 94be 0d58 4f3d a6ab f0bd ca30 823e
00000070: cfdf 863e 9d1e 933d 1a54 003e 12ec a0be
00000080: 5388 de3d 1c62 6f3d 9169 3a3e cb0b 373e
00000090: 090d c33e 4b95 893e 5b46 9d3e 4cb3 e2bd
000000a0: 22e6 8dbc 62b1 b83e 708e b73d 491a 80bd
000000b0: b423 56be e490 b0be e90b 723e ed02 503e
000000c0: a154 5e3e e6bc 973e 11ed 9dbd 4f41 b0bd
000000d0: d9e2 43be e61b 0b3e d39f 09be 8288 553e
000000e0: 818c 94be 6703 81be c770 20be d9d4 073a
000000f0: 842f aabe 47cc 2b3e 3ecb 7a3d 9e8f ad3e
00000100: c8a1 853e ab3f 6bbe b0e2 8bbe bafc 1fbe
00000110: f1df a0be e6c6 a43b ab74 13be 55c6 09bd
00000120: 6dc9 0a3e f4cb 75be cdd6 263e d204 43bd
00000130: 76cc 65be e375 63bd c8d0 6b3d 964d babc
00000140: 8ee6 9bbc f545 93be 01c5 65be 1a08 663e
00000150: 00c8 003e 9d45 82be ba71 6d3e 41a6 8dbe
00000160: 1897 333e 610c 7cbe b113 93be 547d a13e
00000170: 8b1e 7fbd 1077 febd 6321 bc3e 6d5c 58be
00000180: 7afa acbe 352f 82bd ae03 0abe 0067 7e3e
00000190: b3d9 a8be a41a 943e ebbe 63be a727 8fbc
000001a0: 86b0 dabe 297e 69be 87c4 aabe d174 23be
000001b0: 6bc5 a8bd 6d3c 313e dbdb ebbd b4aa a9bc
000001c0: 842d 6a3e 7e66 163e a1a9 97be 7e60 873e
000001d0: 75b4 993e 2122 6fbe 471b 6d3d 9872 3d3e
000001e0: 4ee6 95be 6757 443e aec8 be3d e583 43bd
000001f0: cdd7 1cbd 3f15 e63c 7e1e edbd 089f f1bd

module_list.1.0.weight f4 [64, 128]
-0.012365497 -0.107269056 0.07045661 -0.044058647 -0.12971073 -0.08825899 0.015594853 0.055417318
0.04964034 0.07164573 -0.004754233 -0.046883874 -0.010155857 0.09141563 -0.08441346 0.01684939
-0.03336681 0.057395875 0.035181753 -0.021097517 0.10343888 0.0813613 0.03509117 0.011222968
-0.002601101 0.09043311 -0.025165437 -0.06545085 0.016418362 0.001904041 0.033658385 -0.08312515
0.08360716 0.0728268 0.044551563 0.03741327 -0.068584576 0.07712705 0.06301083 -0.09115733
-0.035473846 -0.05231457 -0.071625784 0.038046297 0.060513094 -0.07224741 0.038073163 -0.0283275
0.078004755 -0.022914639 -0.038529962 0.038438316 -0.023210658 0.06138988 0.013111721 0.0038426893
0.02796768 -0.026963219 0.069472186 0.09671244 -0.065993786 -0.02860182 0.031558864 0.05089195
-0.17865574 0.030182237 0.06286136 0.049022343 0.06658442 -0.02496629 0.02664333 -0.026820565
-0.032325245 0.067119785 0.057874817 0.03125622 -0.039263994 0.080835015 0.0055121686 -0.024375534
-0.031994402 0.033922672 -0.073702954 -0.047419265 0.016300363 -0.004920924 0.055838693 0.11554083
-0.011805971 0.06670567 0.005788126 0.07891201 -0.06661717 -0.08964 -0.018235007 0.022577226
0.10944166 -0.089706086 -0.06992325 -0.08082684 0.083744854 -0.070297025 -0.03752625 0.012105716
0.07443111 -0.006410908 0.038056318 0.12366628 -4.800667e-05 -0.079899326 -0.0049681766 0.028279768
-0.09123833 0.019473108 -0.075290315 0.03950087 0.023647085 -0.072578296 0.00018575694 0.028973602
-0.046459306 -0.055638067 -0.028796967 -0.0132113565 0.09726021 0.086060666 0.021368403 0.10234932
0.079550676 -0.034863852 0.043623827 -0.0809701 -0.06670346 0.035540313 0.034707006 0.020789778
0.052599143 -0.037005126 0.05288576 -0.041832425 0.07410214 -0.042039894 0.03161769 0.027502693
-0.06159375 0.012753814 0.053072847 -0.05367511 0.08284772 0.03016531 0.05653994 -0.028718412
0.08671792 0.08087086 -0.0340901 -0.0113633005 -0.014184923 0.036197804 0.009016502 0.07144973
0.01328493 0.023967408 0.06620993 0.06952539 -0.03386443 0.06657899 0.011732074 0.011627495
0.015520836 -0.0931003 -0.027742613 0.039631706 0.008780431 0.009337941 -0.07562499 0.029092269
0.07868436 -0.015788058 0.09002506 -0.05998004 -0.00860774 0.07943227 -0.0077471314 -0.08288527
-0.07139563 -0.07374299 0.054001845 -0.07523826 0.035164975 -0.026121985 0.06380166 0.024813924
0.0008348117 0.058217674 0.07914828 0.0752578 -0.06666729 -0.052012954 -0.030732065 0.0014362625
-0.058206197 0.012869795 -0.052122433 -0.023230698 -0.07916942 0.044461075 0.07786959 -0.013509529
0.022869235 -0.012890481 -0.07592135 -0.0030794933 -0.042659733 -0.045266774 0.063023455 0.09261653
0.049187083 0.067126594 0.05980655 -0.075640276 0.046047848 -0.078147896 -0.076897345 0.07556197
0.03541091 0.035583243 -0.080159724 -0.051346377 -0.030262358 -0.0023309207 0.03747733 -0.01677333
0.0024262723 0.03728997 0.042280514 -0.08635685 -0.039804835 -0.053632025 -0.004447237 -0.06274444
-0.047611322 0.055358104 0.04913629 -0.07752678 -0.07952271 0.06182338 -0.070573755 0.0025460317
0.042140905 0.031031968 -0.0734492 0.03495557 -0.037042283 0.02889678 -0.045467526 0.035330057
00000000: a798 4abc e1af dbbd 8e4b 903d d776 34bd
00000010: e4d2 04be 21c1 b4bd 8e81 7f3c 45fd 623d
00000020: ab53 4b3d ffba 923d 66c9 9bbb 4e09 40bd
00000030: c064 26bc 1e38 bb3d f7e0 acbd bb07 8a3c
00000040: a3ab 08bd f017 6b3d be1a 103d b3d4 acbc
00000050: c3d7 d33d c1a0 a63d c2bb 0f3d 8ae0 373c
00000060: 3c77 2abb ff34 b93d bf27 cebc 180b 86bd
00000070: cd7f 863c 0491 f93a 60dd 093d 853d aabd
00000080: 3b3a ab3d 3826 953d b37b 363d a83e 193d
00000090: 1276 8cbd c9f4 9d3d d20b 813d b2b0 babd
000000a0: 064d 11bd cd47 56bd 8ab0 92bd 6fd6 1b3d
000000b0: 94dc 773d 73f6 93bd 9bf2 1b3d 130f e8bc
000000c0: f5c0 9f3d 7bb7 bbbc 98d1 1dbd 7f71 1d3d
000000d0: 4724 bebc f473 7b3d 8bd2 563c a1d5 7b3b
000000e0: 7a1c e53c f8e1 dcbc 6f47 8e3d 2c11 c63d
000000f0: c027 87bd 5d4e eabc de43 013d 1474 503d
00000100: 88f1 36be bd40 f73c 75bd 803d a7cb 483d
00000110: 6a5d 883d 1b86 ccbc 1d43 da3c cdb6 dbbc
00000120: 7a67 04bd 1976 893d 250e 6d3d 8606 003d
00000130: 48d3 20bd d48c a53d 6c9f b43b 33af c7bc
00000140: 900c 03bd 80f2 0a3d 93f1 96bd b43a 42bd
00000150: 5788 853c b43f a1bb 1db7 643d aca0 ec3d
00000160: d56d 41bc fb9c 883d 52aa bd3b 9f9c a13d
00000170: 956e 88bd 2d95 b7bd 9561 95bc e0f3 b83c
00000180: f322 e03d d3b7 b7bd ec33 8fbd 8b88 a5bd
00000190: 6c82 ab3d e3f7 8fbd 20b5 19bd 0e57 463c
000001a0: 566f 983d 9812 d2bb f1e0 1b3d bf44 fd3d
000001b0: c55a 49b8 42a2 a3bd 16cc a2bb f9aa e73c
000001c0: 29db babd 1186 9f3c cf31 9abd aacb 213d
000001d0: 88b7 c13c eea3 94bd c0c7 4239 0c5a ed3c
000001e0: 1d4c 3ebd bee4 63bd 9ee7 ebbc 7274 58bc
000001f0: 5c30 c73d 9340 b03d ca0c af3c 859c d13d
00000200: 77eb a23d 66cd 0ebd e6ae 323d a7d3 a5bd
00000210: d39b 88bd b892 113d ef28 0e3d 534f aa3c
00000220: 3372 573d b092 17bd bd9e 583d 7a58 2bbd
00000230: ddc2 973d 0632 2cbd 8d81 013d 544d e13c
00000240: ba49 7cbd 60f5 503c ea62 593d 6fda 5bbd
00000250: 11ac a93d 3d1d f73c 6d96 673d e042 ebbc
00000260: 2a99 b13d 9f9f a53d 10a2 0bbd 232d 3abc
00000270: e167 68bc 2644 143d f3b9 133c 3c54 923d
00000280: 09a9 593c 4c57 c43c 1299 873d 5463 8e3d
00000290: 6eb5 0abd 915a 883d e337 403c 4081 3e3c
000002a0: 1b4b 7e3c 5fab bebd 7a44 e3bc db54 223d
000002b0: ccdb 0f3c 2afe 183c 46e1 9abd e952 ee3c
000002c0: 4425 a13d f555 81bc 0f5f b83d a1ad 75bd
000002d0: 7a07 0dbc 63ad a23d a6db fdbb c1bf a9bd
000002e0: df37 92bd 9106 97bd 0a31 5d3d 8416 9abd
000002f0: 2609 103d c6fd d5bc 72aa 823d 9246 cb3c
00000300: 44d7 5a3a a875 6e3d 7e18 a23d c320 9a3d
00000310: dc88 88bd 890b 55bd d0c1 fbbc f940 bc3a
00000320: 9f69 6ebd d5db 523c 557e 55bd 4e4e bebc
00000330: 9423 a2bd d11c 363d 177a 9f3d 1257 5dbc
00000340: 4358 bb3c 9932 53bc a77c 9bbd 53d1 49bb
00000350: f9bb 2ebd a769 39bd 7112 813d bcad bd3d
00000360: 6578 493d ab79 893d b7f7 743d 4ae9 9abd
00000370: ab9c 3c3d 010c a0bd 5b7c 9dbd 3cc0 9a3d
00000380: 080b 113d bcbf 113d c82a a4bd 9450 52bd
00000390: c4e8 f7bc 5cc2 18bb d481 193d 3968 89bc
000003a0: 1802 1f3b 5ebd 183d 552e 2d3d dcdb b0bd
000003b0: 650a 23bd 41ad 5bbd 21ba 91bb 2880 80bd
000003c0: 1704 43bd 2ebf 623d 2243 493d 5cc6 9ebd
000003d0: cddc a2bd 833a 7d3d f988 90bd 53db 263b
000003e0: f19b 2c3d c136 fe3c 896c 96bd 922d 0f3d
000003f0: a6b9 17bd f1b8 ec3c 283c 3abd 40b6 103d

module_list.1.0.bias f4 [64]
-0.06184357 0.0054511116 0.0061624553 -0.09825973 -0.067369334 0.07471061 0.026538586 -0.10930081
-0.07931842 -0.09346919 -0.032944936 0.07563911 0.046205103 0.101381406 -0.04581997 -0.09002357
0.021966418 0.071465015 -0.019123249 0.04337575 -0.09852501 -0.032220867 -0.0010810953 -0.023504412
0.033002157 0.026599336 -0.068754934 0.026355227 0.013583046 -0.020268023 -0.08977816 -0.012763219
0.021596119 0.09111522 -0.00015110496 -0.10329536 -0.035392504 0.029540507 0.0493912 -0.03242134
-0.03908038 0.0056811376 0.01657739 0.026655339 -0.077961765 0.071376145 -0.09203069 0.04842557
-0.048833832 -0.07010552 0.04453778 -0.07368929 0.026515462 -0.05244167 0.043546386 -0.05819765
0.0004886053 0.04773748 -0.07267862 0.03716915 -0.042177744 0.03656772 0.031272803 0.021982338
00000000: af4f 7dbd 3d9f b23b 6cee c93b 663c c9bd
00000010: eff8 89bd e001 993d 7367 d93c 1ad9 dfbd
00000020: b271 a2bd c66c bfbd 45f1 06bd ade8 9a3d
00000030: 9041 3d3d 0ea1 cf3d b9ad 3bbd 475e b8bd
00000040: ebf2 b33c 405c 923d 5ca8 9cbc c5aa 313d
00000050: 7bc7 c9bd 07fa 03bd 8ab3 8dba 538c c0bc
00000060: 452d 073d dae6 d93c 63cf 8cbd ebe6 d73c
00000070: 6d8b 5e3c 2009 a6bc 9ddd b7bd d21c 51bc
00000080: 58ea b03c 9e9a ba3d ee71 1eb9 858c d3bd
00000090: bbf7 10bd effe f13c 6d4e 4a3d 3dcc 04bd
000000a0: c012 20bd d628 ba3b 4ecd 873c 4c5c da3c
000000b0: 6baa 9fbd a82d 923d 967a bcbd e459 463d
000000c0: fc05 48bd 7c93 8fbd 3f6d 363d 69ea 96bd
000000d0: f436 d93c 14cd 56bd b25d 323d a960 6ebd
000000e0: bf15 003a 6088 433d 87d8 94bd ae3e 183d
000000f0: 92c2 2cbd 09c8 153d e917 003d 4e14 b43c

module_list.2.weight f4 [1, 64]
0.05651152 -0.10608431 -0.095677994 0.011792956 -0.020248061 -0.04613308 -0.0040523834 -0.0055336175
0.0056274277 -0.098484665 0.0024182142 0.07232737 -0.09148927 0.06209002 0.060541365 -0.0019519074
0.00998978 0.06422041 0.088356934 0.07611482 0.0019182503 -0.102749035 -0.123418234 -0.09137969
-0.06810293 -0.030608624 -0.036637157 0.0024394407 0.0013199714 0.027802879 0.039876014 0.007926019
0.056049705 0.02685074 -0.091559134 -0.050342016 -0.094239905 -0.0405485 0.0011542223 0.06723732
-0.0916169 -0.1140251 0.0009270095 -0.028734986 -0.09428031 -0.08492857 -0.07475815 0.09842629
-0.024031555 0.060135864 -0.03995392 0.08473589 -0.03661467 -0.0040565506 -0.055046204 0.045648396
0.008314529 -0.06457159 -0.064880475 0.08259752 -0.013234132 -0.045814335 0.024469763 0.09182394
00000000: a078 673d bb42 d9bd d3f2 c3bd 3e37 413c
00000010: 43df a5bc 0af6 3cbd dbc9 84bb 5953 b5bb
00000020: 4966 b83b 54b2 c9bd e77a 1e3b 5f20 943d
00000030: ba5e bbbd 1b52 7e3d 39fa 773d 25d7 ffba
00000040: 2dac 233c fe85 833d 7bf4 b43d 16e2 9b3d
00000050: cd6d fb3a 166e d2bd b3c2 fcbd 4625 bbbd
00000060: 8d79 8bbd f0be fabc d810 16bd 06df 1f3b
00000070: e402 ad3a ddc2 e33c 0855 233d 22dc 013c
00000080: 6094 653d 15f6 db3c 5b83 bbbd 6e33 4ebd
00000090: da00 c1bd 2f16 26bd 4649 973a b8b3 893d
000000a0: a4a1 bbbd fe85 e9bd 8e02 733a a265 ebbc
000000b0: 0916 c1bd 08ef adbd cd1a 99bd b993 c93d
000000c0: d3dd c4bc 0651 763d b9a6 23bd 038a ad3d
000000d0: 44f9 15bd d0ec 84bb 2178 61bd d0f9 3a3d
000000e0: aa39 083c 1c3e 84bd 0ee0 84bd e328 a93d
000000f0: f9d3 58bc d0a7 3bbd d074 c83c 310e bc3d
