saved_models_MLP/exp-ib1-bcc/mlp_ms_bcc_ratio0.4_seed4_epoch300.pt (torch, 38935 bytes, 5 tensors)

module_list.0.weight f4 [128, 6]
000000 d6 ad 35 3d c5 8f 8f 3e 87 1b e6 bd a5 bf 17 bd
       0.044355236 0.28039375 -0.11235719 -0.037048
000010 bd 27 91 bd e1 15 9e be d3 30 d5 bd 30 db 74 3d
       -0.070876576 -0.30876067 -0.10409703 0.059779346
000020 f1 e5 d7 be 46 5c 3c bd 00 c0 a8 be 42 fb cb be
       -0.4216762 -0.045986436 -0.32958984 -0.39840132
000030 cd ba 32 bd 4c 13 6b be 2c 93 1e be a0 cf b8 3d
       -0.04363518 -0.2295658 -0.15485829 0.09023976
000040 b9 f4 eb be 08 ad eb 3d 98 da 3b be 4d b0 ba bc
       -0.46085146 0.115076125 -0.18345106 -0.022789145
000050 f4 d2 65 be 96 d7 e5 be 17 06 ba 3d 24 14 57 3e
       -0.22443753 -0.44891042 0.09083193 0.21003777
000060 f8 35 7f be da 88 cf 3d ac 86 21 be ca ff 3f 3e
       -0.24922931 0.10133524 -0.1577403 0.1874992
000070 5f 42 16 be 78 7e b6 be 6f c5 91 3c 0c 5e ec be
       -0.14673756 -0.35643363 0.017794339 -0.46165502
000080 47 59 5f be 91 03 00 be 51 70 06 3e e8 89 46 be
       -0.218114 -0.1250136 0.13128783 -0.19388545
000090 23 09 3a be dd 8c 5e 3e c5 78 95 be 74 39 02 bd
       -0.18167548 0.21733423 -0.29193702 -0.031793073
0000a0 bf 87 f0 3d 64 d4 2b 3e cb 50 ee bc 38 8e 97 3e
       0.117446415 0.1678024 -0.02909126 0.29600692
0000b0 f9 d3 7e bd 25 bd 6d bd 26 ed d0 be 58 92 bf be
       -0.06221387 -0.05804171 -0.4080593 -0.3741634
0000c0 ed 10 35 3e da c6 52 3c 89 77 c5 bc 0c 82 cc be
       0.17682238 0.012864793 -0.02410485 -0.39942968
0000d0 c1 07 00 3f a0 56 4d 3d 17 24 cc 3e 76 7d b4 3d
       0.5001183 0.05013144 0.39871284 0.08812992
0000e0 08 74 8a be 7d fd f1 be c4 9b 84 be 34 31 87 bd
       -0.2704165 -0.4726371 -0.2590009 -0.066011816
0000f0 f6 a5 d9 be 6e 22 d4 be af cc 6d be 50 66 5e 3d
       -0.4250943 -0.41432518 -0.23222612 0.05429679
000100 ac aa 33 be 78 69 55 3d 4f e7 7a be 2d 36 30 be
       -0.17545575 0.052102536 -0.245023 -0.17208166
000110 05 05 92 be b8 f9 f6 3e 0c e5 7a 3e 58 71 91 3d
       -0.28519455 0.48237395 0.24501437 0.07101697
000120 35 82 b0 3e 54 76 b4 3e 72 0e b9 be 3d 60 6c 3e
       0.3447434 0.35246527 -0.36143833 0.23083587
000130 b1 54 89 3e 36 a8 a9 3e f7 11 12 bd d0 67 20 3e
       0.26822427 0.33136147 -0.035661664 0.15664601
000140 13 99 d0 be 87 9f 82 3d a6 ff 0f bf 46 6f ab be
       -0.40741786 0.06378084 -0.56249464 -0.33483332
000150 2e dd cc be 89 87 36 bc 28 81 86 bd 16 ad 8f 3e
       -0.40012497 -0.011140713 -0.06567603 0.28061742
000160 2a ef 8a be 30 fe ab be 21 52 77 be 62 32 61 be
       -0.27135593 -0.33592367 -0.24152423 -0.21991876
000170 19 1f 05 3e b4 b7 82 be 19 6f c3 be 28 24 35 bd
       0.13000144 -0.2553078 -0.38170698 -0.044223934
000180 1e 49 8e 3d 86 96 09 3e 91 8f 50 3d ef 96 e8 3d
       0.0694754 0.13436326 0.050918166 0.11356913
000190 11 5e 0e 3f 4d 91 3f be c8 36 7d 3d ee 46 7e be
       0.55612284 -0.18707772 0.06181982 -0.24831745
0001a0 bf e4 fd be 61 d0 c6 be c3 e8 06 3f 72 e6 07 be
       -0.49588582 -0.38830855 0.52698916 -0.13271502
0001b0 20 58 f6 bc 63 45 85 bb b1 bb 13 3e 29 38 5e 3e
       -0.030071318 -0.0040671094 0.14427067 0.21701111
0001c0 93 8c 44 3e 35 27 8f be 81 82 d4 3e 43 eb a1 bd
       0.1919425 -0.279596 0.41505817 -0.07906201
0001d0 dd e9 dc bc 7f 04 ce be c6 e7 11 be 0b 31 9d be
       -0.026966983 -0.40237805 -0.14248571 -0.3070148
0001e0 8d 46 a9 be c8 6f ec 3d ad 61 7d be 99 2b dd 3e
       -0.33061638 0.11544758 -0.24744292 0.43197325
0001f0 89 4c 58 3e b4 44 35 be 22 b2 9a be 2e 43 53 be
       0.21122946 -0.1770199 -0.3021403 -0.20631096
000200 50 31 da 3e f4 ef ba be b8 83 20 3e 19 db 4a be
       0.42615747 -0.36511195 0.15675247 -0.19810142
000210 e5 3f 98 3d 5b ef 8d 3e e9 47 b8 3d c2 ad f4 3c
       0.07434062 0.27721676 0.08998091 0.02986801
000220 2b 26 35 3c 08 6d 67 bd 89 35 e0 3d 74 c3 ca 3d
       0.011056463 -0.056500465 0.10947711 0.09900561
000230 86 72 cb 3e 49 d6 62 be c4 3a 01 be 60 41 19 bd
       0.39735812 -0.22152056 -0.12620074 -0.037415862
000240 de 0c e0 3d bc 06 8a 3d ad ce fd 3e 56 7d 5d 3e
       0.10939954 0.06739566 0.49571744 0.21629843
000250 25 ef e2 3d 30 be 10 be ff 78 71 3e 40 3f d4 be
       0.110807694 -0.14135051 0.23581313 -0.41454506
000260 37 ee 8b 3d fc 59 70 be 08 4e 50 3e a8 41 72 3e
       0.06832545 -0.23471826 0.20342267 0.23657858
000270 1d b1 b4 3e 7f 9f 96 be 55 20 e6 bc a1 2c 9a 3e
       0.35291377 -0.2941856 -0.028091589 0.30112174
000280 30 97 3c 3e 68 27 95 bd 9c e6 50 bc 18 12 28 bd
       0.18417048 -0.07282907 -0.012750294 -0.04103288
000290 f7 e2 e8 bd e3 49 df 3d 79 25 bd be d9 f1 c0 be
       -0.11371415 0.10902765 -0.36942652 -0.37684515
0002a0 e7 b4 c2 3e d3 06 a2 be 53 3d bb 3e b9 19 33 be
       0.38028643 -0.3164583 0.36570224 -0.17490281
0002b0 9e 55 b5 bd a4 17 a4 be 85 b7 7a be 9b 66 0f be
       -0.08854221 -0.32049286 -0.2448407 -0.14003985
0002c0 de eb 3a be 3c 70 e7 bc 76 f3 f0 3e 90 dc 34 3e
       -0.18254039 -0.02825176 0.47060746 0.17662263
0002d0 97 99 00 3d 40 e6 b9 3e 6e bd 9d be 18 ea 17 bd
       0.031396475 0.3630848 -0.30808586 -0.037088484
0002e0 f7 46 83 3e 54 b9 ae be bc e5 9f 3e c5 39 a3 be
       0.2564008 -0.3412577 0.3122996 -0.31880012
0002f0 de 58 1c 3e 98 5f 33 3e 63 88 b2 3d 56 cc 84 be
       0.15268275 0.17516935 0.0871742 -0.25937146
000300 8d 28 e1 3d 4c 22 89 3e 9d 95 d0 be 04 d8 6b be
       0.109940626 0.2678398 -0.40739146 -0.23031622
000310 4c 07 80 be 50 84 14 bd 10 41 16 be c3 45 95 3e
       -0.25005567 -0.036258996 -0.14673257 0.29154786
000320 7f ae fb 3d d2 2a 36 3e af 22 88 be d0 e6 ef bd
       0.12289142 0.17789772 -0.2658896 -0.11713946
000330 4a f5 c3 bd f3 5e 93 bd 54 e3 f0 3d 40 a8 06 3f
       -0.095682696 -0.071958445 0.117621094 0.5260048
000340 52 43 c3 bd 84 74 64 3e 53 46 ca 3e e3 4d b4 3e
       -0.09534325 0.22310072 0.39506778 0.35215673
000350 22 f9 93 be 24 f8 fd 3d e6 68 99 bd 8a 4e 88 3e
       -0.2890101 0.12400845 -0.07490711 0.2662242
000360 64 97 ac 3e 5f 3d 9d be 99 95 1c 3e 86 05 a5 3e
       0.33709252 -0.30710885 0.15291442 0.32230777
000370 dc 37 05 bf c6 23 93 3e 12 4b a0 bc a7 5b c2 3e
       -0.5203836 0.2873823 -0.019567046 0.3796055
000380 a8 52 1f 3e f5 da 42 3e cf 1e ec 3e ae 06 c7 3e
       0.15558875 0.19028838 0.46117255 0.38872284
000390 e9 61 b9 be 24 1e d4 be 11 2e a6 3e 01 b3 8d be
       -0.36207512 -0.41429245 0.3245702 -0.27675632
0003a0 9c 67 4f be e6 53 a6 be b0 90 39 3e d0 5d b0 be
       -0.20254368 -0.32485884 0.181216 -0.34446573
0003b0 2d c3 16 be 7c ab 4d 3e 48 6b 49 3e 20 7f 85 3e
       -0.14722891 0.20084947 0.19669831 0.2607355
0003c0 33 36 09 be 06 0f c1 be 8a 7a 76 be d0 24 05 3f
       -0.13399582 -0.37706774 -0.24070182 0.52009296
0003d0 bd 31 d0 be 44 c9 61 3e ea e8 8c 3e 66 a4 9f be
       -0.40662947 0.22049433 0.2752145 -0.31180114
0003e0 3c 6b d7 3d 5c 8e bf bd b1 c6 cd 3d 30 7a 30 bd
       0.105185 -0.09353325 0.10047663 -0.043085277
0003f0 57 96 91 3e 90 7c c2 be a4 38 a2 be 53 40 ab be
       0.28435013 -0.3798566 -0.31683838 -0.33447513

module_list.0.bias f4 [128]
000000 85 07 c5 3e 83 3e cc 3c 42 84 ae 3e 84 e3 cb be
       0.384823 0.024932152 0.3408528 -0.39822018
000010 76 b7 67 3d dd 7d 8e bd ab 31 56 be 49 9b 97 bd
       0.056571446 -0.069576 -0.20917384 -0.07402665
000020 06 8a 8a bd c4 29 12 3e 10 22 82 3e 56 f2 92 3d
       -0.06764607 0.14273745 0.25416613 0.07175128
000030 eb 4c 40 3e b7 e2 66 3d 9a d9 48 3e 18 b5 94 be
       0.18779342 0.056368556 0.19614258 -0.29044414
000040 52 18 1d 3e 8f 0e 84 bd ea e7 94 3e 2e f3 a0 be
       0.15341309 -0.06448089 0.29083186 -0.3143553
000050 a2 cc 6f be c6 73 0f be 9e b4 8e 3e 35 56 c2 3e
       -0.23417905 -0.14009008 0.27872175 0.37956396
000060 ba 16 89 3e c2 3f d2 3e c6 77 f7 3d 84 6f ad 3c
       0.26775151 0.41064268 0.12083392 0.021171339
000070 c3 f4 04 be f4 e6 d1 3d 20 bc 4b 3d 20 bc 3e 3e
       -0.12983994 0.10249129 0.049739957 0.18626451
000080 88 de 90 3d f1 20 72 3e 79 d2 13 3e cc 9f c4 3e
       0.070736945 0.23645379 0.14435758 0.38403165
000090 94 f6 e9 3d 3a 2e 9a 3e c6 21 b5 be 70 02 c4 3e
       0.11423984 0.30113393 -0.3537733 0.3828311
0000a0 2a 59 40 3e b9 8b a9 3e 03 2b 31 be fd 91 88 3e
       0.18784013 0.33114412 -0.17301564 0.2667388
0000b0 ed fc 68 3e a5 95 93 3d ce c0 8c 3e a6 85 cd be
       0.22752734 0.07206277 0.27490848 -0.40141028
0000c0 ba ea a0 3e 25 a5 29 3d 4e ff c1 bd 92 61 cd be
       0.31429082 0.04141726 -0.09472524 -0.40113503
0000d0 2b 2e b3 be 3a 83 c9 be b2 48 68 3e 50 b7 ed bd
       -0.3499616 -0.3935793 0.22683981 -0.1160723
0000e0 77 26 ae 3d 61 70 30 be 86 3f 88 be 39 e6 b4 be
       0.0850343 -0.17230369 -0.26610965 -0.35331896
0000f0 20 81 64 be fb 7c bb be df 40 6d 3e f4 24 9d bd
       -0.22314882 -0.3661879 0.23169278 -0.07673064
000100 01 66 d3 3d 8e 88 96 3d 51 d3 26 be 99 31 83 3d
       0.1032219 0.073502645 -0.16291548 0.064059444
000110 4e c5 40 bd 6a b7 c9 3e 4e ab 61 bc c4 19 f3 3c
       -0.047063164 0.39397746 -0.013773752 0.029675372
000120 cc cc 9a bd 44 3f 27 3e d1 fc 51 be 69 9f 64 bb
       -0.07558593 0.16332728 -0.20506598 -0.0034885055
000130 01 95 19 3e 77 56 8e bd f5 86 bc bd c5 7f e8 3d
       0.14998247 -0.069500856 -0.092054285 0.11352495
000140 02 2b 28 3c 86 f7 ce 3e 2d 6b 8c 3e a8 6a c0 3d
       0.01026416 0.4042322 0.2742552 0.09395343
000150 e8 bd 71 be 7a 94 76 be 82 ea c6 3e b9 1d ab 3d
       -0.236076 -0.24080077 0.3885079 0.083552785
000160 ee c4 cf 3e 7b 3d 30 be b1 49 9c be 57 d7 4b be
       0.40579933 -0.17210953 -0.30524972 -0.19906364
000170 40 e3 89 be e9 92 1a bd 71 10 ea 3d f9 c7 82 3e
       -0.2693119 -0.03773776 0.11428917 0.25543192
000180 48 a3 41 be 38 cd 15 bc 1d eb 5a bd 2e 44 ad bc
       -0.18909943 -0.009143166 -0.053446878 -0.021150675
000190 b5 b2 4b 3c 86 5e 37 3e d1 93 46 be d7 b9 97 3e
       0.012432744 0.17907152 -0.19392325 0.29633972
0001a0 cb 4e 2d 3e 20 0e 99 be 0b 58 20 be b5 fe 8e be
       0.16924588 -0.2989359 -0.15658586 -0.279287
0001b0 ea ec 6a 3e 96 1b a5 3e ec d3 a7 3e 1f 2e d0 be
       0.22941938 0.3224761 0.3277887 -0.40660188
0001c0 d1 08 92 3e e1 82 a2 be ab 9e 69 be 88 34 a6 bd
       0.2852235 -0.31740478 -0.22814433 -0.08115488
0001d0 b7 b2 72 3d 24 af 66 3d de 93 c7 be 64 3e 95 3e
       0.059252467 0.05631937 -0.3898 0.29149163
0001e0 83 60 fa bd 68 41 e6 bd 3c 5d ca 3e 9b 94 be 3e
       -0.122254394 -0.11242944 0.39524257 0.37222752
0001f0 6f 45 90 3d c4 39 09 3e f5 b9 00 3d 6e 48 bd 3d
       0.070444934 0.13400942 0.031427342 0.092423305

module_list.1.0.weight f4 [64, 128]
000000 d9 f3 fa 3c fc 61 e7 3c cf 23 ca bc c9 1d 3c bd
       0.030633854 0.028244965 -0.024675278 -0.045926843
000010 ba 5d 03 bd cb 93 10 bd 87 9d 44 bd c8 00 a0 bd
       -0.032071806 -0.035297196 -0.048001792 -0.07812649
000020 26 dd 30 3d 6b 52 4e bd 69 6b c2 3d f3 f8 05 bd
       0.043179654 -0.05037157 0.09493143 -0.03270812
000030 f3 11 6f 3c 74 41 8d bd b5 76 81 bc 3c 55 9d bd
       0.014591682 -0.0689725 -0.015803674 -0.07682273
000040 fd e7 66 3d a8 18 31 3d 10 8c c2 bc 21 ae 85 bc
       0.056373585 0.043236405 -0.023748428 -0.016318383
000050 86 cf f1 3c 13 ce ec 3c 73 11 0e 3d 85 65 11 3d
       0.0295179 0.028906858 0.03468461 0.035497207
000060 e2 4b 15 3d 8f fc 29 bd 01 42 a8 3d c9 bc 18 3b
       0.03644932 -0.041500624 0.08215714 0.0023305884
000070 19 5f f5 bc 97 4a 81 3d 30 38 95 bc 7e b4 5f 3d
       -0.029952573 0.06313055 -0.018215269 0.05461549
000080 51 2d da 3c b2 02 ca 3d 8f 0b b3 bb 6d 37 ca 3d
       0.026632937 0.09863795 -0.0054640244 0.09873853
000090 65 46 43 bd 37 8d e2 bb 04 46 b3 bc e4 a8 aa 3b
       -0.047674555 -0.006913807 -0.021883972 0.0052081216
0000a0 ef d7 78 3d d9 14 07 3d 29 78 0c be 58 96 81 bd
       0.060752805 0.032978866 -0.13717712 -0.06327504
0000b0 c2 e7 0c 3c 85 3c 83 3d 67 9b 0b bc 2c cb 8f 3b
       0.008600177 0.064080276 -0.0085209375 0.0043882336
0000c0 da df 87 bd 62 5f c5 3d f0 6b 87 3c 2b 62 b3 bd
       -0.06634493 0.096373335 0.01653096 -0.087589584
0000d0 24 dd a5 3d 37 d8 83 bd 2b 73 58 bd 5c ff 57 3d
       0.0809882 -0.06437724 -0.052844208 0.052733764
0000e0 0a 26 d7 3b 91 ae 90 bd d8 b9 fc bb 29 ed 0b bd
       0.006565814 -0.07064546 -0.007712584 -0.03416172
0000f0 8e da 0e 3d 29 b1 06 bb e1 29 d7 bc b6 e0 1e bd
       0.0348764 -0.0020552373 -0.026265087 -0.03878852
000100 42 f0 fd 3d 39 86 08 bd 00 57 b7 3d a6 50 2d 3d
       0.12399341 -0.03333113 0.08952141 0.04231324
000110 a9 10 3a 3d 1a 39 b1 bb 37 5b 22 bb 8b b6 99 bc
       0.045426045 -0.0054084184 -0.0024773607 -0.018763801
000120 d9 e7 f2 bd 12 1b 99 bd e5 cd c6 3b 64 f2 bc 3d
       -0.11860628 -0.074758664 0.006067025 0.0922592
000130 b2 ee 15 3d 1b 29 a0 3d 5d f9 23 bd f1 40 6b 3d
       0.03660459 0.0782034 -0.040032733 0.05743498
000140 f1 0f 8a bd 41 08 2d bc cc 3f fa 3c 8c 25 0e 3d
       -0.06741322 -0.01056105 0.030547999 0.034703776
000150 52 4f 42 3d b6 7d 25 3d aa 77 e4 3c a9 b0 d9 3c
       0.047438927 0.04040309 0.027889092 0.026573496
000160 62 fe d9 3d ac 37 34 bd 6b 1d 82 3d 23 58 76 bd
       0.10644223 -0.043998405 0.06353267 -0.060142647
000170 fb c0 f0 38 e0 5d a8 bd db 08 e8 3c 41 f7 35 3c
       0.00011480037 -0.0822103 0.028324535 0.011106313
000180 67 00 2a bd 72 cb 36 bd 0c 2a db bd fb aa f6 bc
       -0.04150429 -0.044627614 -0.10701379 -0.030110827
000190 34 c4 89 3d 91 c1 05 3d cb 92 b3 bc 77 ba 72 3d
       0.06726876 0.032655302 -0.021920582 0.059259858
0001a0 cd e6 18 bd 4f c4 ae bd c8 50 84 3d e7 00 76 bd
       -0.037329484 -0.08533537 0.0646072 -0.060059454
0001b0 19 76 a8 bd 3c 84 aa 3d 56 43 72 bd 1f 37 10 3c
       -0.0822565 0.08326003 -0.059146248 0.008802204
0001c0 44 37 4d bd 3b 93 9c bc 89 88 cc bc 75 bf f6 3c
       -0.050101534 -0.019113174 -0.024967449 0.03012059
0001d0 cd 7a 96 3d 65 32 7c bc 30 80 c7 bd 98 67 78 bd
       0.07347641 -0.015392874 -0.09741247 -0.06064567
0001e0 c2 b8 46 3d b6 59 fe 3c 5f 4c f4 3b 0d 46 07 bd
       0.048516043 0.031048637 0.007455393 -0.03302579
0001f0 88 3e cd 3d 56 b5 a9 bc 9a 43 99 bd 8a 4e 83 3d
       0.100216925 -0.02071635 -0.07483597 0.064114645
000200 ec 24 b4 bd 21 07 96 bd cd 7b d9 bd 5a 1f 32 3c
       -0.08796105 -0.073255785 -0.10619316 0.010871733
000210 67 b9 50 bd af ad da bd 0b 31 30 3d a5 90 01 3e
       -0.050958063 -0.10677659 0.04301552 0.12652834
000220 ad 2c d5 bd 94 61 48 3d f9 c8 50 bd ae a1 8a bd
       -0.10408912 0.048921183 -0.050972912 -0.06769119
000230 2b ac 45 bd 57 e3 86 3d aa 18 24 bd 79 47 1a 3c
       -0.048259895 0.065863304 -0.040062584 0.0094164545
000240 4f d4 7f 3d d5 f1 29 bd b5 28 8d bd bb 69 ce 3d
       0.062458333 -0.041490395 -0.0689253 0.1007876
000250 42 96 a7 3d 98 5d ec 3c 95 c0 30 bc 60 b4 48 bd
       0.08182956 0.028853223 -0.010788103 -0.049000144
000260 f4 a2 a5 3d 0d c4 ad bd 09 f1 e4 3c 26 4b f5 bc
       0.080877215 -0.08484659 0.027946966 -0.02994306
000270 d0 4f 44 3a 9c 7b 68 3d c9 99 8c 3d 2f dc a9 bd
       0.00074886996 0.056758508 0.0686527 -0.0829395
000280 13 0e e7 bc 6c e5 a0 3b 7f d8 68 3d 1e 6b 20 3c
       -0.028204953 0.0049101617 0.05684709 0.009791164
000290 83 ab c7 bd fc 32 b2 3d dc 95 95 bd 9a 3f 0a be
       -0.0974951 0.08701131 -0.07303974 -0.13500825
0002a0 96 ba a9 3c 36 54 2f bd cd 9b be bd 24 c3 3e bd
       0.020718854 -0.04280492 -0.093070604 -0.04657282
0002b0 65 d8 81 bd ca 41 a5 3d 02 a5 16 be 43 fd b7 3c
       -0.06340102 0.08069189 -0.14711383 0.022459632
0002c0 25 98 01 bd 7c de 16 3c 93 98 d7 3d da d7 91 bd
       -0.031639237 0.009208318 0.10527148 -0.071212485
0002d0 2c 8a 71 3d fb 44 b8 bc bb 51 4d be 21 97 1a bb
       0.05896966 -0.02249383 -0.20050709 -0.0023588615
0002e0 88 80 d2 3c 01 21 df 3c 65 46 bf 3d 50 9d 8f 3d
       0.025696054 0.027237417 0.093395986 0.07012427
0002f0 be 61 00 3e d6 6f 98 3d ad 25 84 bd 8e dd 01 3e
       0.12537286 0.07443206 -0.064524986 0.12682173
000300 8e be 1c 3b 4a 8f 64 bc 1a 00 07 3c 93 4c 78 bd
       0.002391729 -0.013950178 0.00823977 -0.060619902
000310 f2 2a 40 3a 83 85 5d 3c ee 41 92 3c 0c 34 a2 bc
       0.0007330618 0.013520601 0.017853703 -0.019800209
000320 4d b6 65 3d ca 05 e7 3c ec 0d a3 bd 33 c3 2e bd
       0.05608206 0.028201003 -0.0796164 -0.042666625
000330 90 de 0c bd c9 a2 71 3d 27 43 c1 3d 30 46 24 3d
       -0.03439194 0.058993135 0.094366364 0.040106
000340 e2 17 dd bc 6c 93 3e be cb 65 3a be 2b 59 a5 3d
       -0.026988927 -0.18610924 -0.18202893 0.08073648
000350 56 3c 43 3e cf bf a1 3d 0b f1 31 3d f2 34 82 bd
       0.19065985 0.07897913 0.043442767 -0.06357755
000360 ce 34 2a be 57 84 a4 3d 56 e5 8c 3d 9d 2f ac 3c
       -0.16621706 0.08033054 0.0687968 0.021018798
000370 6d 36 26 3d f9 8e 50 3c b5 40 9a bc f7 7e 35 bd
       0.04057925 0.0127294 -0.018829683 -0.044310536
000380 dc 5a a9 bd 04 93 84 bd 12 fd 8b 3d 90 91 ed 3b
       -0.08269283 -0.064733535 0.06835379 0.0072500184
000390 c1 cb 62 bd f6 46 29 bc e0 16 ce 3c c1 1c b1 bc
       -0.055370096 -0.01033186 0.025157392 -0.021620156
0003a0 dc b1 3d 3b 9c 4d c4 bc 76 65 79 3d dd ad bc bd
       0.0028945124 -0.023962788 0.060887776 -0.09212849
0003b0 5d 07 26 be 6f 63 7f bd 6c 87 87 bd 7f 16 cd bc
       -0.16213746 -0.062350687 -0.066176265 -0.025035141
0003c0 56 41 c1 bd d1 36 22 bb 03 f0 ce 3d c2 4d a2 bb
       -0.0943629 -0.0024751911 0.10104372 -0.004953117
0003d0 e5 38 f2 3d f0 ef 4b bd ff ec 8b 3d 02 05 9d bd
       0.11827258 -0.04978937 0.06832313 -0.07666971
0003e0 9f d0 86 3d bf 15 bb 3b ea bb 1c be 0e 65 79 bd
       0.0658276 0.0057093794 -0.15306059 -0.06088739
0003f0 14 f2 9a 3d d9 b6 4b bd 5c 5d a3 bd 33 44 44 3d
       0.07565704 -0.049734924 -0.07976791 0.047916602

module_list.1.0.bias f4 [64]
000000 df a4 42 3d d5 02 c9 3c 26 c7 0a 3d e3 92 3e bd
       0.047520515 0.024537483 0.03388133 -0.0465268
000010 89 5f a4 bd ac f3 c7 bc ed 21 0e 3d 1c f6 19 bc
       -0.080260344 -0.024408184 0.034700323 -0.009397056
000020 d9 fe 4c 3d 12 7e 70 bc 70 04 a1 3c 47 de 32 3d
       0.05004773 -0.014678495 0.019655436 0.04366901
000030 65 fa 17 3c cc 17 a6 3c b6 f8 b1 ba 78 8b a9 3c
       0.009276007 0.02027502 -0.001357815 0.020696387
000040 9c 1e 92 bd 2a cf 9e bd 40 0e 72 3c 92 36 48 bd
       -0.071347445 -0.07754357 0.014773905 -0.048880167
000050 48 aa f5 bd 44 b7 0d 3e 59 10 43 3c b8 3c 8b bc
       -0.11995369 0.13839442 0.011905753 -0.016996726
000060 dc ab b3 bd e1 f6 7e 3d 42 2a 7b 3d 4c c2 21 bc
       -0.08773014 0.06224716 0.061319597 -0.009872984
000070 aa a3 e4 3c 75 af 88 3c a1 86 d7 bd 3b 9d b0 b8
       0.027910072 0.016685227 -0.10523725 -8.4216204e-05
000080 a1 52 72 bc b6 23 02 3c f9 af 40 3d 9f b6 57 bd
       -0.014790208 0.007943084 0.04704282 -0.052664395
000090 87 fe 5d bc 51 9c 1e bd c1 54 90 3d e4 93 8c ba
       -0.013549454 -0.038723294 0.070474155 -0.0010725227
0000a0 70 d6 8d bd c4 c9 e2 3b f2 17 84 3c f8 3d 4c 3d
       -0.06925666 0.006921025 0.0161247 0.049863786
0000b0 39 8e 16 3d 2d d7 dd bc 9c c8 a5 bd 3d c4 4a 3d
       0.036756728 -0.027080143 -0.08094904 0.049503554
0000c0 3d 78 42 bd 4e 98 9f bd c5 a1 54 bd dd ad 18 bd
       -0.04747795 -0.07792722 -0.051912088 -0.037275184
0000d0 59 9a 94 bc 6e b7 8e 3d 5b e9 82 bc 95 1d f5 bc
       -0.018140005 0.0696858 -0.015980413 -0.029921332
0000e0 21 cb c8 bd a5 ef 92 bd 20 47 2e 3d 39 f8 95 bd
       -0.09804369 -0.07174615 0.0425483 -0.07322735
0000f0 6e bd 7e 3d 59 7c 9e 3c 19 39 9b bd 4c 27 80 bd
       0.062192373 0.019346403 -0.0757925 -0.06257495

module_list.2.weight f4 [1, 64]
000000 80 70 cc 3d 6d 49 17 be 67 5c 05 3e 1e c2 82 3d
       0.09982395 -0.14774103 0.1302353 0.06384681
000010 5f f0 a9 3d 60 48 aa 3c 6c a8 03 3e ab f9 e7 3d
       0.082978 0.020786464 0.12857217 0.11326917
000020 46 9e 01 3e 88 85 fb 3d 64 42 d1 bd cd 65 7b 3d
       0.12658033 0.122813284 -0.10217741 0.06137638
000030 ca fb 11 3e 0e f1 d4 3d de e9 03 3e 0e 04 1c 3e
       0.14256206 0.1039754 0.12882182 0.15235922
000040 d0 96 16 3e f8 4a d5 bd 65 f3 c4 bc 55 87 f3 3d
       0.14705968 -0.1041469 -0.02404184 0.11891047
000050 be 3a 13 be d5 88 8e 3d b2 32 49 be cd 4e b2 be
       -0.14377877 0.069596924 -0.19648245 -0.34825745
000060 4a 3e 01 be 14 16 03 be c7 11 1d 3e b3 ea 16 3e
       -0.12621418 -0.12801391 0.15338813 0.14737968
000070 53 78 19 3e 25 dc f7 3d e6 79 5b 3e 52 13 48 bc
       0.14987306 0.12102536 0.2143322 -0.012211638
000080 ed 63 5b be 40 b5 ac 3d cb 4a a4 be 48 77 11 be
       -0.21424837 0.08433008 -0.32088313 -0.14205658
000090 64 48 0a 3e 92 55 75 3e 59 8a 7b 3d 93 2d ce 3d
       0.13504177 0.23958424 0.061411235 0.10067286
0000a0 c9 41 cd 3d 2c bd 15 be 0b e7 92 bd aa c6 e9 3d
       0.10022313 -0.14622945 -0.07172974 0.11414845
0000b0 d9 87 19 be 7a 49 24 3e a0 75 04 be 70 59 25 3e
       -0.14993228 0.16043654 -0.12935495 0.16147399
0000c0 dd 25 e0 3d a3 83 87 be 6a a5 af bd a5 e0 bc bd
       0.10944722 -0.26467618 -0.08576472 -0.09222535
0000d0 aa 00 c5 bd 33 3d 06 be 6b f7 fd 3d 36 94 60 bd
       -0.09619267 -0.13109283 0.12400707 -0.054828845
0000e0 dc 76 0d be e1 82 36 3e 63 15 2f 3e 72 3b be bd
       -0.13814873 0.17823364 0.17098002 -0.09288682
0000f0 9c 49 95 be 90 7a 1f 3d 6a 73 a1 bc 08 4a 7f be
       -0.29157722 0.038935244 -0.019708354 -0.24930584
