saved_models_MLP/exp-ib1-bcc/mlp_ms_bcc_ratio1_seed2_epoch300.pt (torch, 38935 bytes, 5 tensors)

module_list.0.weight f4 [128, 6]
0	0x3d5cddb4	0.05392237
1	0x3e939170	0.28821898
2	0xbe0e6d1d	-0.13908811
3	0xbcd38045	-0.025818
4	0xbda36f79	-0.07980246
5	0xbe9e15e1	-0.30876067
6	0xbdcaba2b	-0.0989879
7	0x3d9318bc	0.07182452
8	0xbed6121e	-0.41810697
9	0xbcf62c05	-0.030050287
10	0xbea64a96	-0.3247878
11	0xbecbfb42	-0.39840132
12	0xbd0b739d	-0.034045804
13	0xbe618a8a	-0.22025505
14	0xbe01bbaf	-0.12669252
15	0x3e02cc93	0.12773351
16	0xbf069cf5	-0.5258325
17	0x3debad08	0.115076125
18	0xbe4907c3	-0.19631867
19	0xbcf5d448	-0.03000845
20	0xbe70abad	-0.23502989
21	0xbef69594	-0.48160994
22	0x3dd50bd8	0.1040265
23	0x3e571424	0.21003777
24	0xbe8498be	-0.25897783
25	0x3db7541f	0.08951592
26	0xbe181aa9	-0.1485392
27	0x3e42d1b4	0.19025308
28	0xbe2c1847	-0.16806136
29	0xbeb67e78	-0.35643363
30	0x3caa0e8f	0.020758895
31	0xbedcbffb	-0.4311522
32	0xbe238cff	-0.15971754
33	0xbe17766e	-0.14791271
34	0x3e03fd18	0.12889516
35	0xbe4689e8	-0.19388545
36	0xbe4193c5	-0.18904026
37	0x3e5a52f5	0.21320708
38	0xbe9748e7	-0.29547808
39	0xbd3b111a	-0.045670606
40	0x3e0b75a5	0.13619097
41	0x3e2bd464	0.1678024
42	0xbd04d5d6	-0.032430492
43	0x3e91ee3b	0.28502068
44	0xbd9dc28e	-0.07703124
45	0xbd29e80c	-0.041481063
46	0xbecbdb1b	-0.39815602
47	0xbebf9258	-0.3741634
48	0x3e3e02a8	0.18555701
49	0x3c809554	0.015696205
50	0xbd32814c	-0.04358034
51	0xbee7abb0	-0.45248175
52	0x3f03ec84	0.5153277
53	0x3d4d56a0	0.05013144
54	0x3ed13673	0.40861854
55	0x3de8cddd	0.1136739
56	0xbe9ecf68	-0.31017613
57	0xbee36138	-0.4441011
58	0xbe98f4e1	-0.29874328
59	0xbd873134	-0.066011816
60	0xbedf0eff	-0.4356613
61	0xbed4e4ce	-0.41580814
62	0xbe8478e2	-0.25873476
63	0x3d197088	0.037460834
64	0xbe7d70db	-0.24750082
65	0x3d556978	0.052102536
66	0xbe7d0b4a	-0.24711338
67	0xbe382237	-0.17981802
68	0xbe81ee3f	-0.2537708
69	0x3ef327bc	0.47491252
70	0x3e51da9b	0.20493548
71	0x3d917158	0.07101697
72	0x3eb83b67	0.3598282
73	0x3eb2b0e8	0.34900594
74	0xbeb5e87b	-0.3552893
75	0x3e72265f	0.2364745
76	0x3e8ef384	0.27920163
77	0x3ea9a836	0.33136147
78	0xbcc8b4c5	-0.02450026
79	0x3e2ae333	0.16688232
80	0xbecf8a9c	-0.40535438
81	0x3e0b2573	0.13588504
82	0xbf10ea94	-0.5660794
83	0xbeab6f46	-0.33483332
84	0xbede754f	-0.43448874
85	0xbd794b33	-0.06086273
86	0xbdee46cd	-0.11634598
87	0x3e97cc3a	0.29648
88	0xbec42135	-0.38306585
89	0xbeabfe30	-0.33592367
90	0xbe807086	-0.2508585
91	0xbe6a05f0	-0.22853827
92	0x3e025d7a	0.12730971
93	0xbe86dca5	-0.26340213
94	0xbecd3468	-0.40079045
95	0xbd352428	-0.044223934
96	0x3dafcf19	0.085844226
97	0x3e12ae0d	0.14324208
98	0x3d7b1f05	0.06130888
99	0x3df151dd	0.11783192
100	0x3f0bee12	0.5466014
101	0xbe3f914d	-0.18707772
102	0x3d9a3eb7	0.07531493
103	0xbe6bedb2	-0.23039892
104	0xbef5245a	-0.47879297
105	0xbee0fcc8	-0.43942857
106	0x3f09b734	0.5379517
107	0xbe07e672	-0.13271502
108	0xbcb69ae9	-0.022290664
109	0xbaaf6d22	-0.0013383965
110	0x3e243e6a	0.16039434
111	0x3e556ffe	0.20843503
112	0x3e4248eb	0.18973128
113	0xbe8f2735	-0.279596
114	0x3ed47558	0.41495776
115	0xbd9a5940	-0.07536554
116	0xbc8137b1	-0.015773626
117	0xbecf85b0	-0.40531683
118	0xbdcc0e4b	-0.09963664
119	0xbe9d310b	-0.3070148
120	0xbea8b286	-0.32948703
121	0x3ddb009f	0.10693478
122	0xbe58d72a	-0.21175829
123	0x3ee34725	0.44390216
124	0x3e502667	0.2032715
125	0xbe3544b4	-0.1770199
126	0xbea23f16	-0.31688756
127	0xbe6e1fd6	-0.23254332
128	0x3ed09f7a	0.4074667
129	0xbedc754c	-0.4305824
130	0x3e1a8015	0.15087922
131	0xbe4adb19	-0.19810142
132	0x3daf169e	0.08549236
133	0x3e923ded	0.2856287
134	0x3da020d2	0.0781876
135	0x3d96b76f	0.07359206
136	0x3c1989e2	0.009371253
137	0xbd676d08	-0.056500465
138	0x3df31d36	0.11870806
139	0x3dd02eb5	0.10165159
140	0x3ecad1dd	0.39613238
141	0xbe615ccf	-0.2200806
142	0xbddffd4a	-0.10936983
143	0xbd194160	-0.037415862
144	0x3de510f1	0.11184872
145	0x3d917867	0.07103043
146	0x3efdff5a	0.4960888
147	0x3e59c712	0.21267346
148	0x3e08b2f4	0.13349515
149	0xbe10be30	-0.14135051
150	0x3e8a2460	0.26980877
151	0xbecf2a72	-0.4046207
152	0x3df66180	0.120303154
153	0xbe699c94	-0.22813636
154	0x3e4d487b	0.2004718
155	0x3e7241a8	0.23657858
156	0x3ec45312	0.38344628
157	0xbe870c3c	-0.26376522
158	0x3cb70ce0	0.022345006
159	0x3ea38b10	0.31942034
160	0x3e377235	0.1791466
161	0xbd952768	-0.07282907
162	0xbb398249	-0.0028306416
163	0xbcdd2841	-0.026996734
164	0xbde3af5f	-0.11117434
165	0x3e386880	0.18008614
166	0xbed35f51	-0.41283658
167	0xbec0f1d9	-0.37684515
168	0x3eb6f7e5	0.35736004
169	0xbeadb62a	-0.33928043
170	0x3ebb171b	0.36541066
171	0xbe4aa0c5	-0.19787891
172	0xbd964776	-0.07337849
173	0xbea417a4	-0.32049286
174	0xbe842795	-0.2581145
175	0xbe1143e7	-0.14186059
176	0xbe45282e	-0.19253609
177	0xbda24525	-0.079233445
178	0x3ed50e7a	0.41612607
179	0x3e34dc90	0.17662263
180	0x3c70465d	0.014665213
181	0x3eb9e1d9	0.3630512
182	0xbeb919bc	-0.36152446
183	0xbd205cb8	-0.039150923
184	0x3e5eeda8	0.21770346
185	0xbeaeb954	-0.3412577
186	0x3eabd144	0.33558095
187	0xbe9a936a	-0.30190593
188	0x3e671c3b	0.22569363
189	0x3e58bef1	0.21166588
190	0x3d8b1f09	0.06793029
191	0xbe84cc56	-0.25937146
192	0x3dc53871	0.09629906
193	0x3e873986	0.26411074
194	0xbee579cf	-0.44819495
195	0xbe71a2e2	-0.23597291
196	0xbe9331f5	-0.28749052
197	0xbd148450	-0.036258996
198	0xbe1e92aa	-0.15485635
199	0x3e8f9bac	0.28048456
200	0x3ddab3de	0.10678838
201	0x3e44d9a3	0.19223647
202	0xbeaba8c5	-0.33527198
203	0xbdefe6d0	-0.11713946
204	0xbdba57db	-0.09098788
205	0xbd9050f9	-0.07046694
206	0x3e204c50	0.15654111
207	0x3f063a9e	0.5243319
208	0xbdb651ca	-0.08902319
209	0x3e647484	0.22310072
210	0x3ed01754	0.40642798
211	0x3ec302bd	0.38088027
212	0xbe98ba5b	-0.29829678
213	0x3e22e575	0.15907843
214	0xbdd7026d	-0.104985096
215	0x3e884e8a	0.2662242
216	0x3eb39ff2	0.35082966
217	0xbe9a9f57	-0.30199692
218	0x3e24edb1	0.16106297
219	0x3ec2fbf5	0.38082853
220	0xbef6b3bc	-0.48184
221	0x3e9323c6	0.2873823
222	0xbc8ab7b7	-0.016933305
223	0x3ec4af64	0.38415062
224	0x3e16d07a	0.14727965
225	0x3e4bd8ec	0.19906968
226	0x3ee53550	0.44767237
227	0x3ec706ae	0.38872284
228	0xbec78812	-0.38971
229	0xbedc812c	-0.430673
230	0x3ec1077d	0.37701026
231	0xbeb862c8	-0.36012864
232	0xbe12b435	-0.14326556
233	0xbea653e6	-0.32485884
234	0x3e40ac8e	0.18815824
235	0xbeab9ae5	-0.33516613
236	0xbe017899	-0.1264366
237	0x3e5e990c	0.2173807
238	0x3e39141b	0.18074076
239	0x3e857f20	0.2607355
240	0xbe029bdc	-0.12754768
241	0xbebb6bf9	-0.36605814
242	0xbe7999ff	-0.24375151
243	0x3f0521d7	0.5200476
244	0xbedb9ec5	-0.4289457
245	0x3e61c944	0.22049433
246	0x3e961e56	0.2932002
247	0xbe9826a6	-0.29716986
248	0x3e19b75f	0.15011357
249	0xbdb4d411	-0.08829511
250	0x3d9ae66c	0.07563481
251	0xbd307a30	-0.043085277
252	0x3e946d44	0.28989613
253	0xbec0e525	-0.37674823
254	0xbe9d811e	-0.3076257
255	0xbe912d59	-0.2835491

module_list.0.bias f4 [128]
0	0x3ec79445	0.38980308
1	0x3cd2fcd2	0.02575532
2	0x3ea7a02b	0.32739386
3	0xbec6279a	-0.3870209
4	0x3d39f3db	0.045398574
5	0xbddae6f7	-0.10688584
6	0xbe54e1cf	-0.20789264
7	0xbd88d902	-0.06682016
8	0xbd248557	-0.040166225
9	0x3e22f732	0.1591461
10	0x3e76b711	0.24093272
11	0x3d044747	0.032294538
12	0x3e465a19	0.19370307
13	0x3d85c7ac	0.06532225
14	0x3e362094	0.17785865
15	0xbe927498	-0.2860458
16	0x3e1157d0	0.14193654
17	0xbd584555	-0.052800495
18	0x3e8fffe2	0.2812491
19	0xbe9aaf3f	-0.30211827
20	0xbe7add37	-0.2449845
21	0xbe053f61	-0.13012458
22	0x3e8fb593	0.28068218
23	0x3ec40d8e	0.3829159
24	0x3e86ed63	0.26352987
25	0x3eccbf50	0.3998971
26	0x3df2506f	0.11831748
27	0x3c849937	0.01618634
28	0xbdf859f7	-0.121265344
29	0x3dafc209	0.08581931
30	0x3d6705c7	0.056401994
31	0x3e2aa81e	0.16665694
32	0x3da8ff88	0.08251864
33	0x3e6758ca	0.22592464
34	0x3e04ef4f	0.12981914
35	0x3ec8143a	0.39077932
36	0x3de1e6f3	0.11030378
37	0x3e96863c	0.29399288
38	0xbebbd414	-0.3668524
39	0x3ec3aabc	0.38216197
40	0x3e40d897	0.18832622
41	0x3eac98f7	0.33710453
42	0xbe26c3ee	-0.16285679
43	0x3e8a856e	0.27054924
44	0x3e6acbb3	0.22929268
45	0x3dae9e30	0.085262656
46	0x3e9ba377	0.3039815
47	0xbeb85e06	-0.36009234
48	0x3e986600	0.2976532
49	0x3c0e7ba8	0.008696474
50	0xbdbb20a1	-0.09137083
51	0xbecb3cb4	-0.3969475
52	0xbeb285d5	-0.3486773
53	0xbec28845	-0.3799459
54	0x3e86b684	0.26311123
55	0xbdf908aa	-0.12159856
56	0x3de69b68	0.1126011
57	0xbe27cf4c	-0.16387671
58	0xbe7dc362	-0.24781564
59	0xbeb2509b	-0.34827122
60	0xbe51202d	-0.2042243
61	0xbeae097c	-0.3399161
62	0x3e5b76a9	0.21431984
63	0xbd97e36f	-0.074164264
64	0x3dca32be	0.098729596
65	0x3db83dbf	0.08996152
66	0xbe390ef1	-0.18072106
67	0x3cd1f61d	0.025630051
68	0xbd6c76ce	-0.05773049
69	0x3ec7672c	0.389459
70	0xbc165ff0	-0.009178147
71	0x3c611886	0.013738757
72	0xbd899f30	-0.06719816
73	0x3e2c5418	0.16828954
74	0xbe606c6a	-0.21916357
75	0xbd0c38d6	-0.03423389
76	0x3e0d7272	0.13813189
77	0xbdd1238c	-0.10211858
78	0xbd966af4	-0.073446184
79	0x3e0bc956	0.13651022
80	0x3cdc5964	0.026898094
81	0x3ed06f58	0.4070995
82	0x3e88717e	0.26649088
83	0x3d551bdb	0.05202852
84	0xbe6b48e7	-0.22977029
85	0xbe71eb0c	-0.2362482
86	0x3ec74e20	0.38926792
87	0x3dcacb1b	0.099020205
88	0x3ec88507	0.39163992
89	0xbe27b6be	-0.16378304
90	0xbe9b598f	-0.30341765
91	0xbe4d0f67	-0.20025407
92	0xbe822898	-0.25421596
93	0xbcf78415	-0.030214349
94	0x3dd22ec7	0.10262828
95	0x3e701ae0	0.23447752
96	0xbe53bec5	-0.20678242
97	0xbc8dc2d4	-0.017304815
98	0xbd7646cb	-0.060126107
99	0xbd77f7e9	-0.06053916
100	0x3c92ac73	0.017904496
101	0x3e3fffdc	0.18749946
102	0xbe3dccba	-0.18535128
103	0x3e9d61c9	0.30738667
104	0x3e20bda9	0.1569735
105	0xbe8bda26	-0.27314872
106	0xbe287b19	-0.16453208
107	0xbe84118f	-0.25794646
108	0x3e580ba9	0.21098198
109	0x3ea1c57f	0.3159599
110	0x3ea3824a	0.3193534
111	0xbecbb67b	-0.3978766
112	0x3e9a3e93	0.30125865
113	0xbea258c0	-0.31708336
114	0xbe63d8c9	-0.22250666
115	0xbda0bcfe	-0.078485474
116	0x3d3e79f5	0.046503026
117	0x3dab5d69	0.08367426
118	0xbebd4881	-0.3696938
119	0x3e8c9eed	0.27465
120	0xbe060643	-0.13088326
121	0xbe0900ab	-0.13379161
122	0x3ec75f35	0.38939825
123	0x3ebf2cb9	0.37338808
124	0x3d7eee53	0.062239002
125	0x3e10087b	0.14065735
126	0x3d0c2e5e	0.034223907
127	0x3dc7d592	0.09757532

module_list.1.0.weight f4 [64, 128]
0	0x3d38f7a9	0.045158062
1	0x3d5c8ae5	0.053843398
2	0xbc242612	-0.010018842
3	0xbd202d28	-0.039105564
4	0xbd139017	-0.036026087
5	0xbcf9ab25	-0.030477116
6	0xbd40dd87	-0.047086265
7	0xbd87f563	-0.06638601
8	0x3d41b59c	0.047292337
9	0xbc8bd778	-0.017070517
10	0x3db8fce0	0.09032607
11	0xbd44104c	-0.047867104
12	0x3cdb1fe3	0.026748603
13	0xbd0dd087	-0.034622695
14	0xbcba35da	-0.022730757
15	0xbda5fcab	-0.08104833
16	0x3d28aba5	0.041179318
17	0x3d879d7f	0.06621837
18	0xbd15152f	-0.036397155
19	0xb94edefe	-0.00019728762
20	0x3cc546ae	0.024081554
21	0x3b26944c	0.0025417982
22	0x3d1a0d09	0.037610088
23	0x3d20f114	0.03929241
24	0x3c9e809d	0.019348437
25	0xbd26c6f2	-0.040717073
26	0x3db2430f	0.08704197
27	0x3cf4fbe9	0.029905276
28	0xbcc2ca62	-0.023778144
29	0x3d4bd142	0.04976011
30	0xbbe4be88	-0.006980721
31	0x3d5c777c	0.053824887
32	0x3d7d486f	0.061836656
33	0x3dc95fc5	0.0983272
34	0xbcef605a	-0.029220749
35	0x3df603a4	0.12012413
36	0xbd14e910	-0.03635508
37	0xbc47ee78	-0.0122028515
38	0xbd198519	-0.037480447
39	0x3bf85666	0.007578659
40	0x3d8bf30e	0.068334684
41	0x3d0a4e83	0.03376628
42	0xbde9fe8c	-0.11425504
43	0xbd5941b4	-0.053041175
44	0xbbb62fcd	-0.0055598975
45	0x3dd85bf1	0.105644114
46	0x3c9e2f38	0.019309625
47	0x3bf1adb5	0.007375444
48	0xbd59c07c	-0.053162083
49	0x3dd38019	0.10327167
50	0x3c4d90f4	0.012546767
51	0xbdd347a8	-0.10316402
52	0x3d95981b	0.073044024
53	0xbd87720d	-0.0661355
54	0xbd01c5ec	-0.031682894
55	0x3d8582d0	0.06519091
56	0x3d00ab92	0.031413622
57	0xbd7db20d	-0.06193738
58	0xbca08d97	-0.019598765
59	0xbcebabbe	-0.028768416
60	0x3cbd19a0	0.023083508
61	0x3c175752	0.009237127
62	0xbcd94811	-0.026523622
63	0xbd7d7bc7	-0.06188562
64	0x3dd84d0e	0.10561572
65	0xbd0a428e	-0.033754878
66	0x3dbd549b	0.09244653
67	0x3d428f50	0.047499955
68	0x3cb815a3	0.022471255
69	0x3b15a7b2	0.002283555
70	0xba32b152	-0.0006816584
71	0xbcee6078	-0.029098734
72	0xbddbd8fc	-0.10734746
73	0xbd9ffc64	-0.078118116
74	0x3c11ba24	0.008894477
75	0x3d8abfa6	0.06774835
76	0x3c8c5e8b	0.017134925
77	0x3da74541	0.08167506
78	0xbd52dc41	-0.05147958
79	0x3da04f85	0.07827667
80	0xbd818c18	-0.06325549
81	0x389b670b	7.410169e-05
82	0x3cf71f18	0.030166194
83	0x3b8c43bb	0.004280535
84	0x3d3a88f8	0.04554078
85	0x3d47c2c3	0.048769724
86	0x3cc323d6	0.023820799
87	0x3d7ce845	0.061744947
88	0x3de1c1ab	0.11023267
89	0xbd085a7b	-0.033289414
90	0x3d5609f1	0.052255575
91	0xbd5c6cde	-0.05381476
92	0x3c48f4d6	0.012265405
93	0xbdb058f1	-0.08610714
94	0x3cc5c717	0.024142785
95	0x3c910446	0.017702233
96	0xbd809d25	-0.06279973
97	0xbd2b7a8f	-0.041864928
98	0xbdd8fb1d	-0.10594771
99	0xbd44a684	-0.048010364
100	0x3d456c41	0.048198942
101	0x3d2ac7ed	0.04169457
102	0xbc4a6e10	-0.0123553425
103	0x3db36bc1	0.08760787
104	0xbd3dfff7	-0.046386685
105	0xbda5faa2	-0.08104445
106	0x3d8c4762	0.06849553
107	0xbd794b4d	-0.060862828
108	0xbda1d2f2	-0.07901563
109	0x3d9c9436	0.076454565
110	0xbd5a9140	-0.053361177
111	0x3c4ac7af	0.01237671
112	0xbd2a00f4	-0.041504815
113	0xbcb8216d	-0.022476876
114	0xbd0eb9b6	-0.034845077
115	0x3d47b88e	0.04875999
116	0x3d7ba83a	0.06143973
117	0xbc0d4191	-0.008621589
118	0xbdbb1972	-0.09135713
119	0xbd6e0ca0	-0.05811751
120	0x3d0fcea9	0.035109196
121	0x3cdbf472	0.026849959
122	0x3c8f0a19	0.01746087
123	0xbcfc8c08	-0.03082849
124	0x3da1eba3	0.07906272
125	0xbcea2c16	-0.028585475
126	0xbd7e66a3	-0.0621096
127	0x3dad446c	0.08460316
128	0xbdbf4156	-0.09338634
129	0xbd425056	-0.047439896
130	0xbe10b528	-0.14131606
131	0x3c8bc7af	0.01706299
132	0xbd29c712	-0.041449614
133	0xbddbd8ad	-0.10734687
134	0x3d828deb	0.06374725
135	0x3e0a5347	0.1350833
136	0xbe040e20	-0.12896013
137	0x3cdf5ab8	0.027264938
138	0xbd4d69d3	-0.05014975
139	0xbd56f856	-0.052482925
140	0xbd32e2bf	-0.043673273
141	0x3dab4c92	0.08364214
142	0xbcf6454c	-0.03006234
143	0x3c4a1aed	0.012335521
144	0x3d67f67a	0.056631543
145	0xbd3a9683	-0.045553695
146	0xbd9e3197	-0.07724302
147	0x3dc6cbfa	0.09706874
148	0x3dd4b383	0.10385802
149	0x3ce15928	0.027508333
150	0xbc6fad92	-0.014628785
151	0xbd7d95b1	-0.061910335
152	0x3d99ed19	0.07515926
153	0xbde550f7	-0.111970834
154	0x3ca91e88	0.020644441
155	0xbcb800e4	-0.022461362
156	0xba0da986	-0.0005403984
157	0x3d7d6231	0.06186122
158	0x3d8c185c	0.06840584
159	0xbdb8fa3c	-0.090321034
160	0xbcb7e4e4	-0.02244801
161	0x3b5a6b82	0.003332824
162	0x3da49cbe	0.08037709
163	0x3c4b5d05	0.012412314
164	0xbdca6686	-0.09882836
165	0x3da8dd4d	0.08245335
166	0xbd9f4ea7	-0.077786736
167	0xbe2145e7	-0.15749322
168	0x3ccc8831	0.024967285
169	0xbd86f613	-0.06589904
170	0xbdbb33db	-0.0914075
171	0xbd70f9b1	-0.058831874
172	0xbd8fadac	-0.07015547
173	0x3dba479e	0.09095691
174	0xbe2ea7b9	-0.17056169
175	0x3d336980	0.043801785
176	0xbd1bfde2	-0.03808392
177	0x3cae4e60	0.021277606
178	0x3dd5cdde	0.10439657
179	0xbd89b9fa	-0.06724925
180	0x3d8dde00	0.06927109
181	0xbc342388	-0.010994799
182	0xbe74ba63	-0.23899226
183	0x3bc57933	0.006026411
184	0x3c318743	0.010835472
185	0x3cef283b	0.029193988
186	0x3ddba2d6	0.10724418
187	0x3d6bfb15	0.057612497
188	0x3e056a44	0.13028818
189	0x3dccfa81	0.10008717
190	0xbda29944	-0.07939389
191	0x3e05b828	0.13058531
192	0x3b44de2f	0.0030039658
193	0xbc49f9df	-0.01232764
194	0x3d18dd7f	0.03732061
195	0xbd75baaf	-0.05999249
196	0x3b90a073	0.0044136583
197	0x3c2aece2	0.010432454
198	0x3b8728d2	0.004124739
199	0xba6411db	-0.00087001704
200	0x3d67ec1e	0.056621663
201	0x3cd4ad6c	0.0259616
202	0xbd9f6657	-0.07783192
203	0xbce91d17	-0.028456254
204	0xbced3573	-0.02895615
205	0x3dafcbc5	0.08583788
206	0x3dd43fa4	0.10363701
207	0x3d092a23	0.03348745
208	0xbce8ddcf	-0.02842608
209	0xbe5e82bc	-0.21729559
210	0xbe56a434	-0.20961076
211	0x3db2abc4	0.08724168
212	0x3e596e0d	0.21233387
213	0x3da8dd3c	0.08245322
214	0x3d229b27	0.039698746
215	0xbd99efc6	-0.07516436
216	0xbe410b3e	-0.18851945
217	0x3d8731e3	0.06601312
218	0x3d930a86	0.071797416
219	0x3d321740	0.043479204
220	0x3d8df3c3	0.069312595
221	0x3a1507fc	0.00056850887
222	0xbc836f5a	-0.016044308
223	0xbd473a20	-0.048639417
224	0xbd9c637c	-0.07636163
225	0xbd87b2b0	-0.06625879
226	0x3d820e31	0.06350363
227	0x3c5f26bf	0.013620078
228	0xbd39f05f	-0.04539525
229	0xbcdd538e	-0.027017381
230	0x3caac3f6	0.020845395
231	0xbce165ab	-0.0275143
232	0x39c4741e	0.00037470547
233	0xbcc14098	-0.023590371
234	0x3d87c1a2	0.066287294
235	0xbd9d79d5	-0.07689253
236	0xbe3c7d66	-0.1840721
237	0xbd5d1bde	-0.053981654
238	0xbde668c7	-0.112504534
239	0xbce94c1e	-0.028478678
240	0xbde66b8f	-0.11250984
241	0x3c38ddd7	0.0112833595
242	0x3dc8d033	0.09805336
243	0x3be60172	0.0070192153
244	0x3e041580	0.12898827
245	0xbd64ebf0	-0.05588907
246	0x3da1564f	0.0787779
247	0xbd9cc8d9	-0.07655496
248	0x3da63e6a	0.08117373
249	0x3c7b19e5	0.015325998
250	0xbe3835ea	-0.17989317
251	0xbda0e3e8	-0.0785597
252	0x3da0e5d9	0.0785634
253	0xbd5d3bd8	-0.05401215
254	0xbdaaf722	-0.08347918
255	0x3d5a1645	0.053243894

module_list.1.0.bias f4 [64]
0	0x3d5d7b14	0.054072455
1	0x3c10e440	0.008843482
2	0x3c406cd4	0.011744697
3	0xbd3e92e3	-0.0465268
4	0xbde8cd57	-0.113672905
5	0xbcf808bf	-0.030277608
6	0x3d09b56d	0.033620287
7	0xbbeaf1db	-0.0071699447
8	0x3cdd2aea	0.026998002
9	0xbc73ce62	-0.014880748
10	0x3cd50163	0.026001638
11	0x3d528ed6	0.05140575
12	0x3bd51ec2	0.0065039108
13	0xbc4affc6	-0.012390083
14	0x3c019cc5	0.007910912
15	0x3d1cb44f	0.038257893
16	0xbdb3778c	-0.08763036
17	0xbd9163e6	-0.07099132
18	0xbc89447d	-0.01675629
19	0xbd289494	-0.04115732
20	0xbdd03130	-0.10165632
21	0x3e1423b5	0.14466746
22	0x3b5001ad	0.003173928
23	0xbbdc002a	-0.0067138867
24	0xbdcc2be3	-0.09969308
25	0x3d85df76	0.065367624
26	0x3d86b19a	0.065768436
27	0xbcb280ab	-0.02178987
28	0x3cf64cbc	0.030065887
29	0x3c010929	0.007875719
30	0xbdbaaadc	-0.0911462
31	0xb8b09d3b	-8.4216204e-05
32	0xbceffc7e	-0.029295202
33	0x3c5e1443	0.013554635
34	0x3d5049c8	0.050851613
35	0xbd8bc1f5	-0.06824104
36	0xbb626fe5	-0.0034551558
37	0xbd159736	-0.03652116
38	0x3d923ca2	0.07140471
39	0x3bd5ee4e	0.0065286523
40	0xbd86b3df	-0.065772764
41	0x3ce0958c	0.02741506
42	0x3c8417f2	0.0161247
43	0x3cdd5373	0.02701733
44	0x3cca96f1	0.024730178
45	0xbcd4f424	-0.025995322
46	0xbda50d79	-0.0805921
47	0x3d30f1bd	0.04319929
48	0xbd40249f	-0.046909925
49	0xbd9cf526	-0.07663946
50	0xbd803d6a	-0.06261714
51	0xbd5bf9bb	-0.05370496
52	0xbcd18684	-0.025576837
53	0x3d85f00c	0.06539926
54	0xbcfde733	-0.030994033
55	0xbd139274	-0.03602834
56	0xbddff595	-0.10935513
57	0xbd935664	-0.07194212
58	0x3cde0ace	0.027104761
59	0xbd9c3f75	-0.07629291
60	0x3d30481e	0.043037526
61	0x3bf1f3de	0.0073838076
62	0xbd9b3919	-0.0757925
63	0xbd81cc96	-0.0633785

module_list.2.weight f4 [1, 64]
0	0x3da2daa2	0.07951857
1	0xbe2814bb	-0.16414158
2	0x3e013026	0.12616023
3	0x3d82c21e	0.06384681
4	0x3df0dbbc	0.11760661
5	0x3cd642fa	0.026154984
6	0x3dff0709	0.12452514
7	0x3dc65128	0.09683448
8	0x3df6bb4b	0.12047442
9	0x3ddf826a	0.109135464
10	0xbd8ae4c6	-0.06781916
11	0x3d839b58	0.06426114
12	0x3e153f14	0.14574844
13	0x3e0181da	0.1264719
14	0x3df929ca	0.12166174
15	0x3e1c7407	0.15278636
16	0x3e13c6e4	0.1443134
17	0xbdd895ed	-0.10575471
18	0xbd395e97	-0.045256224
19	0x3e03442a	0.12818971
20	0xbde7be0f	-0.11315548
21	0x3d984a75	0.074360766
22	0xbe361dbe	-0.17784783
23	0xbe9d1ede	-0.30687612
24	0xbe26cf1b	-0.16289942
25	0xbe0cf096	-0.13763651
26	0x3e240068	0.1601578
27	0x3e105fdd	0.14099069
28	0x3e15f96b	0.14645927
29	0x3df8f935	0.121569075
30	0x3e6e5eb8	0.2327832
31	0xbc481352	-0.012211638
32	0xbe622942	-0.22086051
33	0x3db7ed5f	0.08980822
34	0xbe9d5493	-0.30728588
35	0xbe210840	-0.15725803
36	0x3e0eea4e	0.13956568
37	0x3e78056a	0.24220815
38	0x3d62e74c	0.055396363
39	0x3dc5f1ad	0.096652366
40	0x3dd82e4e	0.10555707
41	0xbdff4bd9	-0.12465639
42	0xbd92e70b	-0.07172974
43	0x3e0d0d1b	0.1377453
44	0xbe1d678f	-0.15371536
45	0x3e2ec825	0.17068537
46	0xbe0e6a1c	-0.13907665
47	0x3e2124ab	0.15736644
48	0x3e0d06ec	0.13772172
49	0xbe847603	-0.25871286
50	0xbdc99e1e	-0.098446116
51	0xbddc2a47	-0.10750251
52	0xbddb0a63	-0.106953405
53	0xbe0497cc	-0.12948531
54	0x3dfa52c5	0.12222818
55	0xbd862cbe	-0.06551503
56	0xbe05b544	-0.13057429
57	0x3e511e47	0.20421706
58	0x3e1a670e	0.15078375
59	0xbdb8339d	-0.089942195
60	0xbe95eb39	-0.29281023
61	0x3d083e29	0.033262406
62	0xbca1736a	-0.019708354
63	0xbe842a57	-0.25813553
