saved_models_MLP/exp-ib1-bcc/mlp_ms_bcc_ratio1_seed4_epoch300.pt (torch, 38935 bytes, 5 tensors)

module_list.0.weight f4 [128, 6]
000000 87 a0 5e 3d 16 f6 93 3e 17 92 0e be c1 04 b2 bc
       0.05435231 0.28898686 -0.13922916 -0.021730782
000010 b3 cc aa bd e1 15 9e be c7 8c c9 bd ea 62 95 3d
       -0.083398245 -0.30876067 -0.09841304 0.07294257
000020 c7 cd d5 be ce 0c f8 bc f9 35 a4 be 42 fb cb be
       -0.41758558 -0.030279543 -0.32072428 -0.39840132
000030 ac d1 09 bd 67 ed 5c be bc 4d fc bd 42 8d 07 3e
       -0.033647224 -0.21574937 -0.12319514 0.1323748
000040 ca 37 08 bf 08 ad eb 3d 10 cc 46 be 24 76 fd bc
       -0.5321013 0.115076125 -0.19413781 -0.030940123
000050 b2 0c 72 be bc 0a f8 be bb 3a e1 3d 24 14 57 3e
       -0.23637655 -0.4844569 0.1099753 0.21003777
000060 92 c4 84 be fc ac b7 3d 61 5c 16 be 9e d7 3e 3e
       -0.2593122 0.08968541 -0.14683677 0.18636939
000070 bf 13 31 be 78 7e b6 be 7a ea c7 3c f3 e8 dc be
       -0.17292689 -0.35643363 0.0244038 -0.43146476
000080 c3 c3 1f be ac 52 19 be 5c f1 05 3e e8 89 46 be
       -0.15602021 -0.14972943 0.13080353 -0.19388545
000090 3c 10 42 be e1 f2 59 3e 3d 16 97 be 21 de 50 bd
       -0.18951505 0.21284057 -0.29509154 -0.05099309
0000a0 5d 5c 12 3e 64 d4 2b 3e 61 a9 0a bd c5 23 92 3e
       0.14293046 0.1678024 -0.03385294 0.28542915
0000b0 77 38 a4 bd ef a3 38 bd 39 99 ca be 58 92 bf be
       -0.08018582 -0.045078214 -0.39570025 -0.3741634
0000c0 5f 40 40 3e 5c 7d 56 3c 30 82 35 bd 5f 3f ea be
       0.18774556 0.013091411 -0.04431361 -0.45751473
0000d0 81 81 04 3f a0 56 4d 3d b7 11 d1 3e 55 45 e9 3d
       0.5176011 0.05013144 0.40833828 0.11390177
0000e0 af cc 9f be 67 58 e4 be ca ab 9c be 34 31 87 bd
       -0.3121085 -0.44598696 -0.30599815 -0.066011816
0000f0 4b a4 de be 26 7a d5 be 0b 43 85 be e9 e1 15 3d
       -0.4348472 -0.41694754 -0.26027712 0.036592398
000100 45 88 7c be 78 69 55 3d 2e f8 79 be 5f 7b 3d be
       -0.24661358 0.052102536 -0.2441108 -0.18504094
000110 dd eb 80 be 6c 3d f5 3e e3 f9 5f 3e 58 71 91 3d
       -0.2517995 0.47898424 0.21872668 0.07101697
000120 89 b0 b8 3e 24 46 b3 3e 16 6e b4 be 1b d4 78 3e
       0.36072186 0.3501445 -0.3524024 0.24299662
000130 19 7e 93 3e 36 a8 a9 3e 83 b1 be bc 2e 76 2d 3e
       0.28807142 0.33136147 -0.023278004 0.16939613
000140 54 27 d0 be f7 c0 10 3e e6 b7 11 bf 46 6f ab be
       -0.40655005 0.1413611 -0.5692123 -0.33483332
000150 76 4b e0 be a1 78 76 bd eb ca ec bd 16 05 9a 3e
       -0.43807572 -0.060173634 -0.11562141 0.30082005
000160 f3 23 c6 be 30 fe ab be d8 e2 80 be a0 1b 6a be
       -0.38699302 -0.33592367 -0.25173068 -0.228621
000170 0b 29 02 3e 72 bb 87 be 2f 50 cf be 28 24 35 bd
       0.12710969 -0.26510197 -0.40490863 -0.044223934
000180 4a cd ac 3d 4c b4 12 3e 05 62 81 3d f6 ce f8 3d
       0.08437593 0.1432659 0.06317524 0.1214885
000190 2a 92 0b 3f 4d 91 3f be cc ff 99 3d 7b 11 6c be
       0.54519904 -0.18707772 0.075194925 -0.23053543
0001a0 29 ff f2 be 8c 72 e3 be 9d 31 09 3f 72 e6 07 be
       -0.47460297 -0.4442333 0.5359133 -0.13271502
0001b0 99 a6 c0 bc 42 f3 2a ba 9f 22 26 3e 56 7b 58 3e
       -0.02351694 -0.00065212336 0.16224144 0.21140799
0001c0 fc d4 40 3e 35 27 8f be ea 12 d5 3e 19 ba 9a bd
       0.18831247 -0.279596 0.41615993 -0.075550266
0001d0 00 ec 88 bc a6 3a d1 be f1 15 c7 bd 0b 31 9d be
       -0.016714096 -0.40865058 -0.09720982 -0.3070148
0001e0 ec dd a7 be 29 7b cb 3d 17 c4 53 be 4b 0b e5 3e
       -0.327865 0.099356 -0.20680271 0.44735178
0001f0 2c da 61 3e b4 44 35 be 47 a7 a1 be 1a d4 6e be
       0.22055882 -0.1770199 -0.31572935 -0.23323098
000200 17 d2 cf 3e b0 f3 dd be a5 33 10 3e 19 db 4a be
       0.40589973 -0.4334998 0.14082201 -0.19810142
000210 f2 0e ab 3d 11 d1 92 3e 96 49 9f 3d 81 5d 9f 3d
       0.0835246 0.2867513 0.07777707 0.07781506
000220 de 4d b5 3b 08 6d 67 bd cb 7b ef 3d 72 d3 d2 3d
       0.005532964 -0.056500465 0.116935335 0.10294236
000230 2d 16 ca 3e 4e 35 5c be 73 a5 ea bd 60 41 19 bd
       0.39470044 -0.21504709 -0.11457338 -0.037415862
000240 35 46 e9 3d bd 7f 93 3d e3 aa fd 3e 7f cf 5d 3e
       0.11390344 0.072020985 0.4954444 0.21661185
000250 d6 29 09 3e 30 be 10 be 0d 8d 8b 3e cf 41 ce be
       0.13394865 -0.14135051 0.2725605 -0.40284583
000260 53 5c fe 3d 11 ad 66 be 4e f9 47 3e a8 41 72 3e
       0.12419953 -0.22526957 0.19528696 0.23657858
000270 14 94 c4 3e ba 75 87 be 38 f8 ce 3c 73 29 a2 3e
       0.38394225 -0.26457006 0.025264844 0.31672248
000280 0d 88 35 3e 68 27 95 bd 7f 10 d8 b9 af df d2 bc
       0.1772768 -0.07282907 -0.0004121102 -0.025741426
000290 a4 eb e7 bd 7a 51 3a 3e 52 69 d7 be d9 f1 c0 be
       -0.11324242 0.18195143 -0.4207254 -0.37684515
0002a0 33 ab b6 3e 8d 14 ae be 12 6d ba 3e 97 12 52 be
       0.3567749 -0.34000054 0.3641134 -0.20514904
0002b0 0d d1 9a bd a4 17 a4 be 99 c7 83 be 11 1d 12 be
       -0.075594045 -0.32049286 -0.25738218 -0.142689
0002c0 9b 14 43 be f6 28 a1 bd a2 2e d4 3e 90 dc 34 3e
       -0.19050829 -0.07869141 0.41441828 0.17662263
0002d0 eb 3e 62 3c 17 b0 b9 3e 3a 4f ba be 94 42 13 bd
       0.013808946 0.36267158 -0.3638857 -0.035952166
0002e0 38 a2 5b 3e 54 b9 ae be b8 05 ac 3e 56 0f 9a be
       0.214486 -0.3412577 0.33598113 -0.30089825
0002f0 77 b4 6d 3e 97 8e 56 3e b0 93 81 3d 56 cc 84 be
       0.23213373 0.20952831 0.06326997 -0.25937146
000300 f1 b4 c2 3d ad a2 86 3e f2 2c e7 be 49 37 70 be
       0.09507168 0.26295987 -0.45151478 -0.2345859
000310 af 97 95 be 50 84 14 bd 38 5c 1e be 5c c1 90 3e
       -0.29217288 -0.036258996 -0.15464866 0.28272521
000320 b2 79 e1 3d bd 76 42 3e 72 55 af be d0 e6 ef bd
       0.1100954 0.18990608 -0.34244877 -0.11713946
000330 34 d8 b7 bd e0 25 8f bd 1f a2 25 3e f9 e4 05 3f
       -0.08976784 -0.06989646 0.16175126 0.5230251
000340 d4 61 aa bd 84 74 64 3e f8 83 cf 3e 0c 35 c3 3e
       -0.083194405 0.22310072 0.40530372 0.3812641
000350 89 cb 99 be 8c 39 22 3e 19 f8 e8 bd 8a 4e 88 3e
       -0.30038098 0.15842265 -0.11375446 0.2662242
000360 11 44 b4 3e c7 57 99 be 6c e6 25 3e 32 7e c0 3e
       0.3520818 -0.2994978 0.1620118 0.3759628
000370 46 b8 f7 be c6 23 93 3e 76 81 85 bc bc bd c4 3e
       -0.48382777 0.2873823 -0.016297083 0.38426006
000380 c7 cb 17 3e e4 83 50 3e da 32 e4 3e ae 06 c7 3e
       0.14823829 0.20362812 0.44570047 0.38872284
000390 c2 e2 c6 be 29 c4 dc be 52 e5 c0 3e 3e 9d ba be
       -0.38844877 -0.43118408 0.37674958 -0.3644809
0003a0 2b ab 0d be e6 53 a6 be 57 d5 3e 3e fd af aa be
       -0.13834827 -0.32485884 0.1863607 -0.33337393
0003b0 a6 3b fb bd e3 ea 60 3e 26 9c 31 3e 20 7f 85 3e
       -0.122672364 0.21964602 0.17344722 0.2607355
0003c0 12 0e 00 be 34 bd ba be dc ed 79 be 70 40 06 3f
       -0.12505367 -0.36472476 -0.24407142 0.52442074
0003d0 8f 1b db be 44 c9 61 3e 4a 35 97 3e d0 25 97 be
       -0.42794463 0.22049433 0.29532844 -0.29521036
0003e0 01 da 1f 3e a1 e3 b1 bd 3a 9b 91 3d 30 7a 30 bd
       0.15610506 -0.08685995 0.07109685 -0.043085277
0003f0 7d 99 95 3e 58 aa c0 be 80 ab 9d be 9c e9 90 be
       0.29218665 -0.37629962 -0.30794907 -0.2830323

module_list.0.bias f4 [128]
000000 9a b3 c6 3e 58 e3 d1 3c 19 94 a6 3e e8 4b c6 be
       0.388089 0.025621101 0.32534865 -0.38729787
000010 e9 c6 41 3d db 44 e9 bd cc 63 54 be 43 6f 87 bd
       0.047308836 -0.11390086 -0.20741194 -0.06613018
000020 44 65 1e bd 34 51 22 3e d2 bb 73 3e d7 bf f9 3c
       -0.038670793 0.15851289 0.23802117 0.030486984
000030 9b d0 40 3e c8 35 78 3d 5b 55 33 3e d3 8a 91 be
       0.18829577 0.060598165 0.1751303 -0.28426227
000040 c2 c4 0f 3e 64 0a 68 bd d0 f4 8e 3e 40 5a 9a be
       0.14039901 -0.056650534 0.27921152 -0.3014698
000050 d8 84 7a be 8d 68 04 be 53 8c 8e 3e 8e d7 c2 3e
       -0.24464738 -0.12930508 0.27841434 0.3805508
000060 94 d9 85 3e 56 69 cb 3e aa 2f f0 3d 55 58 83 3c
       0.2614256 0.39728802 0.11727841 0.016033331
000070 1e 77 f6 bd c5 eb af 3d 91 63 61 3d 81 e7 27 3e
       -0.120344386 0.08589891 0.055026595 0.16396905
000080 e0 07 ab 3d 4e ba 66 3e fe 42 06 3e de 53 c8 3e
       0.083511114 0.22532007 0.13111493 0.39126486
000090 8d 7d e3 3d 12 32 95 3e c0 42 b9 be 69 c3 c2 3e
       0.11107931 0.29139763 -0.3618374 0.3803971
0000a0 d5 e5 3f 3e f8 81 ab 3e 56 3b 26 be 56 79 89 3e
       0.18740018 0.33497596 -0.16233572 0.26850384
0000b0 69 c6 69 3e 16 a0 b1 3d d1 e8 99 3e 7b 2f b9 be
       0.22829594 0.08673112 0.30060437 -0.36169037
0000c0 ca 6c 95 3e 8d 17 e7 ba e3 8a bd bd fe 72 ca be
       0.29184562 -0.001763092 -0.09255006 -0.39540857
0000d0 f4 65 b1 be 40 1b c1 be 82 f8 83 3e c3 87 f7 bd
       -0.34648097 -0.37716103 0.25775534 -0.12086441
0000e0 ba f4 e5 3d 2d 09 29 be f6 1c 7c be e5 4a b1 be
       0.112283185 -0.16507407 -0.24620423 -0.34627452
0000f0 04 05 4e be 72 da af be e7 8e 59 3e e8 de 99 bd
       -0.20119101 -0.34346348 0.21245919 -0.07513219
000100 2c ed c5 3d 46 8f b4 3d 5e 97 36 be 58 92 d4 3c
       0.096643776 0.0881639 -0.1783118 0.025948688
000110 48 cd 6b bd d8 8e c6 3e 74 70 33 bc da f2 a4 3b
       -0.05756882 0.38780856 -0.010952104 0.005033833
000120 ef 40 8d bd 35 dc 2a 3e 1d 7c 62 be 78 c6 e6 bc
       -0.06897151 0.16685565 -0.22117658 -0.02817081
000130 38 3c 0c 3e 92 05 d6 bd 81 d5 88 bd 70 7d 0c 3e
       0.13694847 -0.10450281 -0.06681348 0.13719726
000140 26 ce de 3c 9a 74 cf 3e ff 07 89 3e 37 fc 4a 3d
       0.027197909 0.40518647 0.26763913 0.049556937
000150 06 1a 69 be 04 ca 6e be d0 56 c7 3e bc f2 c7 3d
       -0.22763833 -0.2331925 0.3893342 0.09763095
000160 10 d5 c7 3e 9e 45 29 be b2 fd 98 be 07 32 4f be
       0.3902974 -0.16530463 -0.29881054 -0.20233928
000170 a8 39 82 be b6 22 f5 bc 43 0a cd 3d 98 d3 6e 3e
       -0.25434613 -0.029923778 0.10011723 0.23322904
000180 ae fb 50 be 09 49 9b bc 87 b7 76 bd b3 fb 78 bd
       -0.20408508 -0.018955724 -0.06023362 -0.060786914
000190 72 43 88 3c fd 5d 3d 3e fd 33 3f be cd 09 9b 3e
       0.016633723 0.18492885 -0.18672176 0.30280915
0001a0 36 c7 1f 3e dd d0 8b be 6d d7 24 be 5b 5e 83 be
       0.15603337 -0.27307788 -0.16097803 -0.25657925
0001b0 1e a2 53 3e 7e 52 a1 3e 32 b4 a3 3e 68 80 ca be
       0.20667312 0.3150825 0.31973416 -0.3955109
0001c0 a2 9b 99 3e af 36 a0 be 40 d4 5e be 4a f5 a5 bd
       0.3000155 -0.3129172 -0.21760654 -0.08103426
0001d0 f0 8a 3e 3d fb 72 ac 3d ca 7d bc be 78 9e 8b 3e
       0.04651922 0.08420368 -0.3681472 0.2726934
0001e0 9b 0f 02 be b2 32 0b be e7 e8 c5 3e 37 5d bd 3e
       -0.12701266 -0.13593557 0.38654253 0.3698518
0001f0 83 92 7b 3d ca 71 0e 3e e0 1b 11 3d e0 00 c7 3d
       0.06141902 0.13910595 0.035426974 0.09716964

module_list.1.0.weight f4 [64, 128]
000000 d8 a2 43 3d ea 56 5e 3d a7 eb eb bb de a1 24 bd
       0.04776272 0.054282106 -0.007199723 -0.04019343
000010 02 b2 14 bd 13 57 f8 bc a4 a7 46 bd 4f 79 83 bd
       -0.036302574 -0.030314958 -0.04849972 -0.06419622
000020 e2 14 3a 3d ec 23 9f bc 83 c7 ba 3d 9e 14 48 bd
       0.04543007 -0.019426309 0.09120085 -0.048847787
000030 e6 4c cd 3c 8b 70 03 bd a3 5d ad bc c3 05 a6 bd
       0.025061082 -0.03208975 -0.021162814 -0.08106568
000040 d4 43 1c 3d 0b ac 82 3d 54 58 17 bd d5 e5 c9 ba
       0.038150623 0.06380471 -0.03694947 -0.0015403578
000050 38 81 b5 3c 6a 0f 90 3b 18 54 1f 3d 37 41 31 3d
       0.022156343 0.0043963687 0.038898557 0.043275084
000060 59 ef 98 3c f7 a5 21 bd e5 21 b0 3d f5 94 14 3d
       0.018668817 -0.039464917 0.08600215 0.03627487
000070 a7 7c c6 bc b4 9a 4a 3d 48 85 fd bb 0b c4 5b 3d
       -0.02422936 0.049463943 -0.0077368356 0.053653758
000080 80 4d 81 3d 51 09 ce 3d 3d 06 ec bc cc c9 f5 3d
       0.0631361 0.10060371 -0.028811568 0.1200138
000090 a4 ac 13 bd 4d d4 68 bc d6 19 15 bd 41 6b 07 3c
       -0.036053315 -0.014210773 -0.036401592 0.008265317
0000a0 2e dd 8d 3d 18 ed 0e 3d 19 39 eb bd 6a 97 50 bd
       0.06926952 0.03489408 -0.114855 -0.05092565
0000b0 7a 89 43 bb 96 f8 da 3d f3 a4 b8 3c b9 61 e8 3b
       -0.002983658 0.10691945 0.022539591 0.0070917276
0000c0 a6 2f 58 bd 52 fb d2 3d 44 6e 68 3c b3 36 d0 bd
       -0.052779816 0.10301842 0.014186446 -0.10166683
0000d0 0a 56 92 3d 3a 26 86 bd 9c d2 e2 bc 28 6f 81 3d
       0.07145317 -0.0655026 -0.027688317 0.063200295
0000e0 b6 06 0c 3d 15 2c 80 bd 60 b8 ad bc 3d 10 f8 bc
       0.034186088 -0.06258408 -0.02120608 -0.03028118
0000f0 56 e8 be 3c 1d 9e 10 3c 52 75 be bc c8 bf 7f bd
       0.023304146 0.00882676 -0.023249302 -0.062438756
000100 00 93 d0 3d 9d 4e 08 bd 02 e7 b6 3d 2b d3 3a 3d
       0.10184288 -0.033278096 0.0893078 0.04561154
000110 a4 03 b6 3c b8 8a 61 3b 60 ad 2b bb a3 06 df bc
       0.022218533 0.0034414958 -0.002619587 -0.027224844
000120 b1 72 d6 bd 54 13 a2 bd 3d 58 c5 3b 03 43 8e 3d
       -0.104710944 -0.07913843 0.0060224817 0.06946375
000130 10 62 8f 3c 9e 0a 9a 3d bd 67 49 bd e9 fa a3 3d
       0.017502815 0.07521556 -0.0491712 0.08006842
000140 aa af 7b bd cb 2e d8 3a 4b a8 03 3d 9b e1 7a 3b
       -0.061446823 0.0016493438 0.03214292 0.0038281444
000150 55 21 37 3d e7 d7 37 3d eb ec e1 3c 11 82 7f 3d
       0.044709522 0.044883635 0.027578792 0.0623799
000160 5a bd e1 3d 49 26 0a bd 58 14 4d 3d 84 8a 63 bd
       0.11022444 -0.033727918 0.05006823 -0.05555202
000170 66 88 5e 3c 87 bd ad bd 19 d8 b8 3c ed e7 9d 3c
       0.013582325 -0.08483415 0.02256398 0.01927563
000180 65 ef 83 bd c6 7d 25 bd bd 5a db bd 80 91 4b bd
       -0.06442145 -0.04040315 -0.10710666 -0.049699306
000190 8c ba 4a 3d 63 15 2e 3d c3 78 4e bc 44 ed b7 3d
       0.04949431 0.042500865 -0.012602034 0.08980802
0001a0 e0 24 36 bd e8 61 a5 bd 95 83 7f 3d 12 81 78 bd
       -0.04446876 -0.08075315 0.062381346 -0.060669966
0001b0 66 f1 a1 bd 3f 40 9f 3d 54 54 56 bd 93 06 3b 3c
       -0.07907371 0.07775926 -0.052326515 0.011415142
0001c0 f1 71 14 bd a8 9b bc bc 66 03 14 bd 79 e2 44 3d
       -0.036241475 -0.023023441 -0.036136054 0.048067544
0001d0 cb 76 7c 3d c4 39 0d bc cb c4 ba bd 43 17 67 bd
       0.061636727 -0.008619729 -0.091195665 -0.05641867
0001e0 2c 4e 02 3d 05 42 d8 3c 33 3e 91 3c c8 d2 e0 bc
       0.03181283 0.026398668 0.017729854 -0.027444258
0001f0 30 98 a3 3d 9f 9a dd bc 16 1f 77 bd 3a 76 ad 3d
       0.07988012 -0.027051268 -0.06033238 0.084698156
000200 6d 8c be bd 37 05 2e bd c7 93 0f be 35 2d 92 3c
       -0.09304128 -0.042485442 -0.14021216 0.017843822
000210 bc 16 25 bd 5f c0 dc bd 7a 7c 8a 3d 33 c1 0d 3e
       -0.040304884 -0.107788794 0.06762023 0.13843231
000220 c0 de 07 be ff e3 ee 3c 49 3d 55 bd dc 5e 5e bd
       -0.13268566 0.029161451 -0.0520604 -0.054289684
000230 6d d4 27 bd 51 75 b4 3d 59 b5 f2 bc 62 f5 47 3c
       -0.04097407 0.08811439 -0.029627489 0.0122045
000240 07 19 65 3d f1 b3 3c bd ef 51 9f bd 1e 38 c6 3d
       0.05593207 -0.046070043 -0.077792995 0.09678672
000250 56 59 d5 3d a8 d3 c4 3c 62 4f 87 bc 96 c5 86 bd
       0.1041743 0.024026707 -0.016517345 -0.06580655
000260 6a 40 92 3d 6c f0 ed bd f4 a6 a1 3c 10 91 bf bc
       0.07141192 -0.116181225 0.01973293 -0.0233846
000270 c9 ba d1 ba 99 87 77 3d 0f a5 92 3d ab ca bb bd
       -0.0016001101 0.06043205 0.07160389 -0.09169515
000280 f4 49 8f bc 6f fb 80 3b fc e9 a4 3d e4 40 70 3c
       -0.017491318 0.003936223 0.080524415 0.014663909
000290 1b 46 cb bd eb 24 a5 3d ed 75 a4 bd 27 8b 25 be
       -0.09925481 0.08063682 -0.08030305 -0.16166364
0002a0 c5 4d c9 3c e3 06 8f bd b6 a6 bb bd 4a 35 71 bd
       0.024573216 -0.069837354 -0.09162657 -0.05888871
0002b0 2a ce 9d bd 64 d1 c5 3d ff 9f 2d be 58 cc 41 3d
       -0.07705338 0.09659079 -0.16955565 0.047314018
0002c0 49 d4 1b bd 35 50 d8 3c dd 09 d8 3d fa 72 8f bd
       -0.038044248 0.026405433 0.10548756 -0.07004352
0002d0 2f e5 8f 3d 7f d5 42 bc a6 38 75 be 58 48 e0 3b
       0.07026135 -0.011891722 -0.23947391 0.0068445615
0002e0 60 2b 2d 3c 3e 6b ea 3c ad cd df 3d 46 7f 75 3d
       0.010569423 0.02861559 0.109279014 0.05993583
0002f0 8b 58 01 3e fe 7e d9 3d 3b 4d ad bd f0 ce 05 3e
       0.12631433 0.10619925 -0.08461996 0.13067222
000300 60 de 2d 3b dd d4 21 bc 13 2f 29 3d 39 10 7a bd
       0.002653025 -0.009877411 0.04130466 -0.061050627
000310 4e f0 98 3b 34 4f 29 3c 9b 98 39 3b 19 ad 6b ba
       0.0046673184 0.010333825 0.002831972 -0.0008990332
000320 38 39 75 3d 58 bc da 3c fc 36 a0 bd b0 20 f0 bc
       0.05986902 0.026701137 -0.078229874 -0.029312462
000330 f7 1d 01 bd c0 d1 bc 3d 4c 16 d5 3d 39 56 0e 3d
       -0.031522717 0.09219694 0.104046434 0.034750197
000340 15 81 e0 bc 2c bb 5e be 8b 0b 59 be 09 42 ad 3d
       -0.027405301 -0.21751088 -0.2119581 0.08459861
000350 ab 34 5d 3e a2 6a a8 3d aa f5 1e 3d c3 f8 92 bd
       0.21602122 0.082234636 0.038808502 -0.07176354
000360 7c f8 44 be 22 c8 89 3d b9 b2 90 3d d0 67 42 3d
       -0.19235414 0.067276254 0.07065339 0.047462285
000370 a5 1c 97 3d c7 07 50 bb 61 9a 65 bc 41 2a 43 bd
       0.073785104 -0.0031742917 -0.014013858 -0.04764772
000380 81 13 a2 bd c1 b5 8b bd 7b 7d 82 3d dc 77 36 3c
       -0.07913876 -0.06821776 0.0637159 0.011136975
000390 5c a7 3d bd 60 70 cf bc 38 d2 a9 3c 09 c2 c1 bc
       -0.046302184 -0.02532214 0.020730123 -0.023652093
0003a0 ba 75 2f 3a 46 8f c8 bc ee 2c 88 3d 9b f8 9d bd
       0.0006693263 -0.02448238 0.06649195 -0.07713433
0003b0 4d 55 40 be 99 30 66 bd dc 76 e9 bd aa 9f da bc
       -0.1878254 -0.05619869 -0.11399624 -0.026687462
0003c0 f3 ea ef bd 5c 6b 15 3c 81 b8 c0 3d e4 04 4e 3c
       -0.11714735 0.009119835 0.09410191 0.012574408
0003d0 20 0a 02 3e 9f 01 6f bd 48 21 a0 3d 3e 8d a0 bd
       0.12699175 -0.058351155 0.07818848 -0.0783944
0003e0 1b 61 aa 3d c3 4f 6e 3c 56 81 38 be 62 f4 a9 bd
       0.08319303 0.014545384 -0.18018088 -0.082985654
0003f0 bc f3 a1 3d d5 43 5d bd 91 2c ad bd 93 e6 63 3d
       0.07907817 -0.054019768 -0.08455766 0.055639815

module_list.1.0.bias f4 [64]
000000 86 7d 64 3d 6b d6 07 3c 91 c3 32 3c e3 92 3e bd
       0.05578377 0.008290867 0.0109108845 -0.0465268
000010 89 c1 ea bd f0 d2 fe bc c9 ac 07 3d ee 0b 04 bc
       -0.11462695 -0.031106442 0.033123765 -0.008059485
000020 c0 c3 d8 3c bb e3 89 bc 99 4e c3 3c a9 32 56 3d
       0.026460528 -0.016832223 0.02384119 0.052294407
000030 00 8c b4 3b 05 e3 8b bc e2 5c 84 3b 7e 03 20 3d
       0.0055098534 -0.017076025 0.004039393 0.03906583
000040 84 02 b4 bd c6 53 95 bd 34 db 96 bc 9c 2d 28 bd
       -0.08789542 -0.07291369 -0.018415071 -0.04105912
000050 b4 e9 ca bd 73 1d 15 3e 37 86 0d ba df f4 d6 bb
       -0.099078566 0.14562015 -0.0005398723 -0.0065599526
000060 77 86 ca bd 71 85 8c 3d 51 1d 84 3d d7 dd b6 bc
       -0.098889284 0.068613894 0.06450904 -0.022322578
000070 2c 72 ef 3c d4 5a 23 3c e9 e8 bb bd 3b 9d b0 b8
       0.029229246 0.009970386 -0.091752835 -8.4216204e-05
000080 82 b7 e7 bc 89 cb 5a 3c 16 88 53 3d 10 f1 8c bd
       -0.028285746 0.013354191 0.051643454 -0.068819165
000090 f0 af 84 bb 33 9d 18 bd 0d 8a 93 3d 5a ee b5 3b
       -0.0040492937 -0.03725929 0.072040655 0.0055520954
0000a0 ae 65 86 bd 76 25 f4 3c f2 17 84 3c a8 84 f5 3c
       -0.065623626 0.029803019 0.0161247 0.029970482
0000b0 2d 37 bd 3c c6 8a df bc c8 75 9e bd 7d 82 1c 3d
       0.023097599 -0.027287852 -0.07737309 0.03821038
0000c0 98 cf 3f bd 60 f6 9a bd eb f4 87 bd 4f 76 5e bd
       -0.046828836 -0.075665236 -0.06638511 -0.054312047
0000d0 d3 00 d6 bc 7b d2 83 3d 93 ce fc bc 70 52 15 bd
       -0.02612344 0.0643663 -0.030860221 -0.03645557
0000e0 15 39 e0 bd 1a f8 98 bd d3 bd dc 3c 7c 1d a4 bd
       -0.109483875 -0.074691966 0.026945984 -0.08013436
0000f0 1d f8 2f 3d c7 c7 e2 3b 19 39 9b bd e2 1a 79 bd
       0.04296123 0.006920788 -0.0757925 -0.060816653

module_list.2.weight f4 [1, 64]
000000 da 73 9e 3d f7 13 2b be ae 77 fc 3d 1e c2 82 3d
       0.07736941 -0.16706835 0.123275146 0.06384681
000010 0c a2 ec 3d 0e bd cf 3c d2 bc fe 3d 9c 94 c4 3d
       0.115543455 0.025358703 0.12438358 0.095986575
000020 ac 66 fa 3d 62 ac e2 3d f3 b9 86 bd e7 01 7d 3d
       0.12226614 0.11068036 -0.06578436 0.061769392
000030 7a d1 14 3e 4e c1 05 3e ae 86 f3 3d 85 9b 1c 3e
       0.14533034 0.13062021 0.118909225 0.15293701
000040 ab f2 12 3e 29 c4 d7 bd b4 42 33 bd 80 15 03 3e
       0.14350383 -0.105354615 -0.043764785 0.1280117
000050 72 2a e3 bd c9 27 98 3d a7 e4 32 be 76 bb 9c be
       -0.1109208 0.074294634 -0.17470036 -0.3061177
000060 a3 6b 2a be 6f 45 0b be 59 75 23 3e 31 8c 10 3e
       -0.16642623 -0.13600706 0.15962733 0.14115979
000070 8d d0 15 3e 5d d1 f7 3d a3 2b 6f 3e 52 13 48 bc
       0.14630337 0.1210048 0.2335649 -0.012211638
000080 41 fd 5e be da 29 b6 3d fa 54 9a be 5d fe 23 be
       -0.21776296 0.08894701 -0.30142957 -0.16015
000090 e1 84 0c 3e 96 8c 77 3e 61 f6 6a 3d 43 93 c9 3d
       0.13722564 0.24174723 0.05736387 0.09842541
0000a0 99 83 d6 3d 3e 29 fd bd 0b e7 92 bd 78 91 0e 3e
       0.10474319 -0.12361382 -0.07172974 0.1392268
0000b0 78 91 1d be 77 55 2f 3e 26 cd 0c be 8d 61 21 3e
       -0.15387523 0.17122446 -0.13750133 0.15759869
0000c0 38 eb 0d 3e 44 ac 85 be fb 58 ce bd 13 08 e2 bd
       0.1385926 -0.2610799 -0.100755654 -0.11036696
0000d0 f2 90 d7 bd db 49 03 be 0d d9 f8 3d 34 ac 82 bd
       -0.10525693 -0.12821142 0.12150774 -0.063805014
0000e0 b4 e2 04 be 7d 66 51 3e b3 d8 18 3e 05 11 af bd
       -0.12977105 0.20449252 0.14926414 -0.08548168
0000f0 02 ca 96 be c4 1a 09 3d 6a 73 a1 bc 3e 55 84 be
       -0.29450995 0.03347279 -0.019708354 -0.25846285
