saved_models_MLP/exp-f-fcc/mlp_ms_fcc_ratio1_seed1_epoch300.pt (torch, 38935 bytes, 5 tensors)

module_list.0.weight f4 [128, 6]
00000000: 50e7 4b3e 9faa 593e f796 5abd a8a8 ec3e
00000010: 9ad1 ab3e 2a47 cdbe a4db 46be f8db c23e
00000020: d454 853e 4968 b13e f173 45bf 302b 4d3d
00000030: 0c7a adbe 6eda f83d bd14 d4be 959d c5be
00000040: 7283 263e 7fb2 b6be f58a 303e 3850 06bd
00000050: c850 f43e 6417 093f 43ea 5ebf 79fc 9abe
00000060: fd93 313e ff5b 913e bdeb c3be 59f6 ac3d
00000070: 0206 ef3d e0b9 643e acad fdbc 24ba bbbe
00000080: 0f83 e73e 8e16 7abe 22ae 59bf a8fc 053d
00000090: 8206 0ebe a1c8 93be 7d62 a03e f458 02bf
000000a0: 7c73 32bf a07a babc 0604 3a3e fd3e a03d
000000b0: 2346 8cbe 6d51 37be 4e12 4d3e 780f 653d
000000c0: 3963 42be ea81 58be 7cc7 81be ffe2 083f
000000d0: 1d9a a1be ba88 893e 7c74 883e 51ac ffbd
000000e0: 85aa 2b3e 3910 8b3e d17d 943e 6d42 4fbe
000000f0: 703c 653e 8afd a33e 952b afbe ba90 c13e
00000100: 2242 bfbe b653 c6be 6878 c23e 2ba5 cb3d
00000110: c42c 783d 6dca 063f b0ff dcbd 94cf 9d3e
00000120: 79c2 ffbd f379 e0bb c481 1b3e adac 4b3e
00000130: 3bd1 663e f024 9f3e 6ee7 29be 9fac f23e
00000140: b5cf 7d3e accc 3ebe 4bf4 c9be 14ad 9a3e
00000150: 17f5 87bc 4fda dd3d e381 6d3e a2cb e9be
00000160: 057b 6ebe ac0b a8bd c2be 9e3e 1104 13be
00000170: 785a 02bf 12fa febe cdb3 f93e 9c0b c73e
00000180: b4a6 b7bd 8ed6 e03e 6d34 8abe 28d7 503d
00000190: 15bf e13d c504 3bbe 658e 27be 0969 9e3e
000001a0: 51d7 e33e fa4c 5dbe 7765 0c3f 6e83 b4be
000001b0: 7bc6 c73d acdc 90bd 7765 023e 00d9 6d3e
000001c0: 00f4 863d ec40 203e 275f 3d3d 76d7 153e
000001d0: e66a a43e fb66 0a3f 9dd4 56bf e5fb 7ebe
000001e0: a1b3 453d f86d 3e3e 6949 8e3e c704 93be
000001f0: fbee fb3c 522d c83e 04b4 9cbc 367a 803d
00000200: 47d5 ab3d dda1 64be 8a84 123f d882 603d
00000210: 615f 61be 954c 6ebe 670e d6be d5e2 c8bd
00000220: 98a4 29be 9c9f 3f3e d5dc 82bd 7535 41be
00000230: bab8 d03d ad63 45bd 07df aabe 244e 883e
00000240: cc15 f3bd 1b83 8d3e e2ed 6ebd e0a0 9ebe
00000250: c310 f2be f817 f2bd 1b12 a03d 4265 0b3e
00000260: 0337 0d3e 795f bc3e 89ca 123e 582d 313d
00000270: ea68 44be 9c8a b9be 1863 d93a 2623 213e
00000280: d0b7 c93e 2c67 80be d48d 313e f9ef 293e
00000290: 6d0c 39be 5ffa 48bf 059a 183e 105f efbd
000002a0: d67d 39be a11f 8b3e e8ed 313e bf96 da3e
000002b0: cb80 68be 88bc 323d 17d9 1a3e 228b af3e
000002c0: a352 91be 7f64 65be a094 f0be c5bf b8be
000002d0: 0d6b ab3e 52ba e3be fbe3 403e 54c8 b93c
000002e0: 25f6 18bf a05d 7c3e b1b5 1e3e 42eb ab3e
000002f0: 2610 133f 1836 a0be f698 103e 8e62 bfbe
00000300: 940d 633d ba1b 70be 61db b33d 6368 323f
00000310: a994 bdbc 00ec 1fba edd1 ad3e d0c2 57bd
00000320: 5000 ad3e cedd 0e3f 3062 16be 905b 32be
00000330: 5b92 213e f3b6 153e 1564 5fbe f9ff 9a3e
00000340: a531 da3e 4a1f a4be 86aa a03e 0d45 3d3d
00000350: 0ae0 66be 7196 9e3e 437c a1be 703f 203e
00000360: e80f a33e 7653 87be 48ef c6be c092 08be
00000370: bd18 dbbe 6828 2e3e 6534 18bd 30e6 353e
00000380: deb3 a13d 249f 57be cb75 163f d1b4 51be
00000390: edea ae3e 6f87 ee3e 4609 b53e a5fa d6be
000003a0: 9e21 07bf b94d 51be 6b60 913e 9329 84bd
000003b0: 72ea 95be ce8c 583d 81bb 533e 1825 c93d
000003c0: f7b5 aebd 9361 d6be 0464 e63d 1761 433f
000003d0: 1ba6 6b3e b6ba 93be b244 02bc ff69 b3be
000003e0: 183c 9cbe 8e05 ac3e ea00 e03e a605 a5be
000003f0: c749 ae3e 8c47 9bbd 6b72 0fbc 6a32 8abe
0.19912457 0.21256493 -0.053366628 0.46222425 0.3355835 -0.40093356 -0.19419724 0.38058448
0.2604128 0.34649876 -0.7713004 0.050090015 -0.33882177 0.12151037 -0.41422072 -0.38596788
0.1626108 -0.35683057 0.17240508 -0.032791346 0.4771788 0.53551316 -0.87076205 -0.30270746
0.1734161 0.283905 -0.38265792 0.084454246 0.11671068 0.2233653 -0.030966602 -0.36665452
0.45217177 -0.24422666 -0.8503133 0.032711655 -0.1386967 -0.28864005 0.3132514 -0.5091698
-0.69707465 -0.02276355 0.18165597 0.07824514 -0.2739726 -0.17902155 0.20026514 0.055922955
-0.18983163 -0.21143308 -0.25347507 0.5347137 -0.31562892 0.26862127 0.2665137 -0.124840386
0.16764267 0.27160814 0.2900224 -0.20240183 0.22386336 0.32029372 -0.34212938 0.3780573
-0.37355143 -0.3873574 0.37982488 0.09943613 0.060589567 0.5265263 -0.10790956 0.30822432
-0.124882646 -0.006850475 0.1518622 0.1989009 0.22540753 0.3108287 -0.1659219 0.47397324
0.24786265 -0.18632764 -0.39444193 0.30210173 -0.01659636 0.10832655 0.23194079 -0.45663172
-0.23289116 -0.08205351 0.31004912 -0.1435702 -0.50919294 -0.49800164 0.4876999 0.38876045
-0.08967343 0.43913692 -0.26993123 0.05098644 0.11022774 -0.18263538 -0.16362913 0.3093951
0.4450021 -0.21611395 0.54842323 -0.35256523 0.09754654 -0.0707334 0.12734018 0.2322731
0.06589508 0.15649766 0.046233322 0.14632973 0.32112807 0.54063386 -0.8391817 -0.24900778
0.04826701 0.18596637 0.27790383 -0.28714582 0.030753603 0.39097077 -0.019128807 0.0627331
0.08390289 -0.22327371 0.5723349 0.054812282 -0.2200904 -0.23271401 -0.41807863 -0.0980889
-0.16566694 0.1871323 -0.063897766 -0.18868048 0.10191484 -0.04819076 -0.3337328 0.26622117
-0.11869392 0.27639088 -0.05833233 -0.30982113 -0.47278413 -0.11820978 0.07815953 0.13612846
0.13790517 0.3679159 0.14335074 0.043256134 -0.19180647 -0.36238563 0.0016585318 0.15736064
0.3939805 -0.25078714 0.1733926 0.16595449 -0.18071146 -0.78507036 0.14902504 -0.116880536
-0.18114409 0.27172568 0.1737591 0.42693135 -0.2270538 0.04363683 0.15121876 0.34285837
-0.2838336 -0.22401617 -0.46988392 -0.3608381 0.3348011 -0.4447809 0.18836968 0.022678532
-0.59750587 0.2464509 0.15498997 0.33577925 0.57446516 -0.3129127 0.1412085 -0.3737988
0.05543287 -0.23448077 0.087820776 0.6969053 -0.023142176 -0.00061005354 0.33949223 -0.052676022
0.337893 0.558072 -0.14685893 -0.17417741 0.15778486 0.14620571 -0.21815522 0.30273417
0.42616 -0.32055122 0.313801 0.04620843 -0.22546402 0.30974153 -0.31540117 0.156492
0.31848073 -0.26430863 -0.38854432 -0.1333723 -0.4279231 0.17007601 -0.037159342 0.17763591
0.07895635 -0.21056801 0.5877349 -0.20479132 0.3416361 0.46587703 0.35358638 -0.41988102
-0.5278567 -0.20439805 0.28393874 -0.06453242 -0.2928043 0.052868657 0.20676996 0.09821528
-0.08530801 -0.41871318 0.11249545 0.7632002 0.23012583 -0.28853387 -0.007950949 -0.35041806
-0.30514598 0.33597988 0.43750697 -0.32230872 0.34040663 -0.07582006 -0.008755307 -0.26991588

module_list.0.bias f4 [128]
00000000: 0c6f b33e c3fc 93be 13d6 d6be f390 46bd
00000010: 5f0d 6b3c f58c 143e c2a5 6bbe bfec b43e
00000020: 5a7a b33e 2141 40be c9a3 743e a418 6c3e
00000030: 5a43 adbe 0325 6d3d b919 b73c efcc 64be
00000040: e810 2a3e 04b9 0abe 45ef 983e 8a41 66be
00000050: 3f6f b63e 1648 bf3e 041e c0be 3ea8 96be
00000060: beef 063e 6304 203e 605d bdbd bdbd 9bbe
00000070: 746e c9bd be13 233e 8770 683c 5481 1cbd
00000080: 44fe 603e 97b4 e7bd dd33 293e 0060 83be
00000090: dc77 b3be 96aa adbe 8985 abbe 8341 d23d
000000a0: 8df4 b53d 505e be3e b5b6 dabe 00f1 cbbe
000000b0: 5461 063f d53e 153d 0c4c ec3d 7250 d83e
000000c0: 3575 6a3e ccc4 533e fa51 803e 828c ac3e
000000d0: a07b 9fbd 4d22 5f3e 6ea0 263d 157e dc3e
000000e0: 2e3c 8fbe 799d 90be 7bcc cb3b 53b7 ecbe
000000f0: da55 10bf db7a 98bd 40a1 95be 9b6f 773e
00000100: 8065 cd3e 504b 76be 9369 1c3d 5812 ebbd
00000110: da44 133d d36e 84be 08d8 b63e ab07 ccbd
00000120: aebb 463e 11c0 e83d e88c b9be 1574 debe
00000130: 586d c0be 54f0 353e d7ed cbbe ccb2 503e
00000140: bce7 3bbe f747 3ebe a69d d43e 119e 80be
00000150: fb7d cabe 9e95 a7be 495d 9fbe ebec 99be
00000160: bff5 8abd 07ef b4be af6c 0e3e 82cb 403d
00000170: 5d80 c23e 8be2 843e 8695 063e 75ef 73be
00000180: 9dc6 ecbe 87f6 babd 5f28 123e 6004 283e
00000190: 58c8 19be 9f3f dcbd dbd5 cfba 5456 82be
000001a0: cd8f 31be 37ec b63e 9637 80be be43 fcbd
000001b0: ba26 81be 4716 563e 5d5a a63e 8b70 e03e
000001c0: 5340 073e 0b4c 903e cc7a b4be d142 7d3e
000001d0: 67c4 963e 6fbf b7bd 8e25 0f3e a45e 803e
000001e0: a4c0 95bd 23ea e3be 9f2f 8cbe 7dbb 4fbd
000001f0: fcf0 dbbe 0a1f a03e bfe2 af3e 26e0 1e3e
0.3504566 -0.2890378 -0.419602 -0.048478078 0.01434645 0.14506896 -0.2301245 0.35336873
0.35054284 -0.18774845 0.23890604 0.23056275 -0.33840448 0.057896625 0.022351133 -0.22343801
0.16608012 -0.1354714 0.29870048 -0.22485939 0.3563175 0.37359685 -0.375229 -0.29425234
0.13177392 0.15626673 -0.092463255 -0.30418196 -0.098355204 0.159255 0.014186985 -0.038209274
0.21971995 -0.11313742 0.1652369 -0.2565918 -0.35052383 -0.3391921 -0.33500317 0.102664016
0.08884535 0.3718133 -0.4271752 -0.39832306 0.5249226 0.036436874 0.11537942 0.42248875
0.22896273 0.20680541 0.25062543 0.3370095 -0.077872515 0.21790428 0.04068034 0.43064943
-0.279756 -0.28245142 0.0062194443 -0.46233615 -0.56381 -0.07445308 -0.29224586 0.24163668
0.401165 -0.24052167 0.03818662 -0.11478108 0.035954334 -0.25865802 0.35711694 -0.099624
0.19407532 0.11364759 -0.36240315 -0.4344794 -0.37583423 0.17767459 -0.39829895 0.20380706
-0.18350118 -0.1858214 0.41526526 -0.25120595 -0.3954924 -0.32731336 -0.31125858 -0.30063567
-0.067851536 -0.35338613 0.13908647 0.04706908 0.37988558 0.2595409 0.13142976 -0.23821814
-0.4624528 -0.091290526 0.14273213 0.16407919 -0.15017831 -0.10754322 -0.001585658 -0.25456488
-0.17340012 0.35727093 -0.2504241 -0.12317608 -0.2522486 0.20906936 0.32490817 0.43835863
0.13208131 0.28183016 -0.35249937 0.2473252 0.29446718 -0.0897206 0.1397917 0.25072205
-0.07312134 -0.4451457 -0.27380082 -0.050715912 -0.42957294 0.3127368 0.3435268 0.15515193

module_list.1.0.weight f4 [64, 128]
00000000: 1bb9 84bd 3282 07bd d063 11bc a258 c83c
00000010: f2f6 b2bc e00c 71bc 3dd6 fa3d c414 bdbd
00000020: e3d8 873d 3ca8 7ebd 2a15 2a3d 750d 39bd
00000030: fec6 91bd 1276 cb3d 1588 58bd fd52 95bd
00000040: 9f1d 15bd 12d9 12bd 2d7f d7bd f434 793d
00000050: e9fa 81bd 2d03 d9bc 6779 993d 7f8e c2bd
00000060: 236d cf3d 7562 0abe 77c5 84bd ae8f 153c
00000070: b4dc 6fbc a644 763c f640 15bd 3c50 cebd
00000080: 6678 67bd 6f1a aaba 670c 7bbd e2e0 bb3c
00000090: f2c8 fdbc f556 6fbd a2d5 82bd 591e 2dbd
000000a0: ee6e c1bc a00c fa3b 0666 89bd 34be 033d
000000b0: c03d 183d e0f4 c3bd f9bd 763d 5c6d d53d
000000c0: 94c7 f5bd 1a9c 64bd a2e5 4e3d 9c43 d33d
000000d0: 9ba6 aa3d f61d a4bd ae68 aa3d c07c 78bc
000000e0: d2fa 8bbd d93b 153a 40a7 9ebd 0256 3f3b
000000f0: 895d 8f3d a2dd 313b d91e 61ba c391 013d
00000100: 4da0 413d 6480 383c c2ac ebbc 9186 c83d
00000110: d960 0fbe eb65 78bd dbeb 3f3d e1bc dd3c
00000120: 8d54 59bd e1b3 593d faf0 28ba 00e6 3fbd
00000130: 01d7 adbd 2ad6 63bc ca8f 043d 4411 883c
00000140: 8689 91bd e16c 37bd f764 bcbd b51a 573d
00000150: 5b2a 36bd 7956 ffbc 3bf8 1c3d 2f38 c9bd
00000160: 5e57 8dba 49d1 de3d 03cc f23d c67f 183d
00000170: 9135 d4bd 31b9 4d3d d978 9abc 6b8c 933d
00000180: 03c2 afbc 2bce 8abc 46cc e3bc 8426 b4bc
00000190: 166d dc3c 2ccc 68bd 6a51 42bd d893 1b3d
000001a0: a61e 803d e78b 51bd bc7a f73d bfc3 39bc
000001b0: 6bf8 36bd 30dd 563c 4bba 27bc bd23 903d
000001c0: 7e3a 72bd 4f53 6c3d 4954 e63c a6d5 febd
000001d0: c697 b1bc 7a64 11bd 05f7 00be ba2f b9bc
000001e0: 8472 523d 9318 ba3c 37e6 0e3c 419a 26bd
000001f0: efec 9e3c ab40 02bc bff4 db3c 08e5 de3d
00000200: 3c03 d7bc e5bb f6bd d409 963d 9f2a 4ebe
00000210: c4a3 873d 043b 2bbe 7536 11be 0673 7c3d
00000220: 50d4 6fbc 8529 eabc ebec 963c 3a8c 39bd
00000230: 8814 a7bb e6ba 393d 1b9d cc3b 0385 cd3d
00000240: 3f1c dd3c fc64 9c3d 8b83 cd3b c945 89be
00000250: b49b 953d 79a6 263e e8f4 99bd 865e d8bd
00000260: 737a 143a 8099 0f3d 5a92 ad3c 66ab 613d
00000270: f7ee 8fbd 1a77 623c ddb1 d3bc c45d 64bd
00000280: ebf9 293d 10a2 82bd 7fff c33d 86a7 b8bd
00000290: 880a 95bd e44c 863d 7913 bebd 44f7 4bbd
000002a0: 023a 8a3c 6fd7 b63d 7f07 0a3b f90c c5bd
000002b0: 6839 f7bb d4a9 01bd c6fe f23c fc33 533d
000002c0: 375b 193d e24d 2cbd 1e38 963d 5574 a0bd
000002d0: 18c6 0bbc 5ff9 6eba 68da 21bd f24b c23c
000002e0: 1c36 9fbb d9c2 843d a889 e5bc 8a1a 06be
000002f0: b9cb f7bd b374 9a3d 29ba 46be 5fc5 313d
00000300: cb38 99bd be44 693d 4e06 24bd e46c 3bbd
00000310: 1f9e 3d3e e826 efbb 00ef 92bb e5da dfbc
00000320: eec0 a8bd dbc6 613c 0367 85bc 65ce 973b
00000330: 0d58 2dbd bb05 2abc adc8 9fbc d510 153c
00000340: 20db 6fbd ee38 79bd d89f 2f3e dc56 25bd
00000350: 962c 0e3c fffc 47bd 5066 cb3d 02e4 b2bb
00000360: db9f fabd f355 52bd 99d1 fbbc 288e 70bd
00000370: 1885 80bd 580b 6abd bb85 82bd e651 2ebe
00000380: f2fc 9a3c 618b 3cbe 541a 3bbe 6a0b d3ba
00000390: a2b3 a33c 47f0 7d3c 7471 90bd 01b2 0dbd
000003a0: cb24 8d3c 33a5 babd 92d3 14be f7e2 0ebe
000003b0: 1f2e 353d 1d52 f4bd 8017 af3d 0898 81bc
000003c0: a316 873b c6ff 94bc 5dcc 26bc 9039 103d
000003d0: 5017 093a 26e6 8bbc 627a e2bc 9f87 363c
000003e0: 59d7 423e 8301 6bbd 323a adbd fd90 e7bb
000003f0: 4543 35bd eecd babb 0fff 70bb f1f4 ad3b
-0.064806186 -0.03308315 -0.008873895 0.024456326 -0.021846268 -0.014712542 0.12247894 -0.09232476
0.06633165 -0.06217216 0.04152409 -0.04517885 -0.07118033 0.099346295 -0.052864153 -0.072912194
-0.036405202 -0.035851546 -0.10522304 0.060841516 -0.063466854 -0.026490772 0.07493859 -0.09499835
0.10128238 -0.13514121 -0.06482976 0.009128494 -0.014640022 0.0150310155 -0.036438905 -0.10073897
-0.056511305 -0.0012977849 -0.061291125 0.02293438 -0.030979607 -0.058432538 -0.063884035 -0.04226527
-0.023612466 0.0076308995 -0.067089126 0.032163814 0.037168264 -0.095681906 0.060239766 0.10421249
-0.12000957 -0.055812933 0.050511964 0.1031563 0.08332559 -0.08013527 0.08320747 -0.0151664615
-0.068349496 0.0005692817 -0.07746744 0.0029195552 0.07000262 0.002714016 -0.00085876655 0.03163315
0.047272015 0.011261079 -0.0287689 0.097912915 -0.14001788 -0.06064407 0.04685579 0.027067604
-0.05305915 0.05315006 -0.00064446 -0.046850204 -0.08488274 -0.013906041 0.03236369 0.016609795
-0.07106309 -0.04478157 -0.09198945 0.052515704 -0.044473987 -0.031169163 0.03832267 -0.09825169
-0.0010783484 0.10879762 0.118553184 0.03723123 -0.103617795 0.05022544 -0.018856453 0.07204517
-0.021454817 -0.016944012 -0.027807366 -0.021991022 0.026907485 -0.05683534 -0.047440924 0.03798279
0.06255846 -0.051158812 0.120839566 -0.011338173 -0.044670504 0.013114259 -0.010237287 0.070380665
-0.059137814 0.057696637 0.028116362 -0.12443094 -0.021678817 -0.035496213 -0.1259423 -0.022605766
0.05137874 0.022716796 0.00872188 -0.04067445 0.019400088 -0.007949988 0.026850102 0.10883528
-0.02624666 -0.12047557 0.07326093 -0.20133446 0.06623033 -0.16721731 -0.1418093 0.061633132
-0.014638022 -0.028584251 0.018423518 -0.045299746 -0.005098883 0.045344256 0.0062443144 0.100351356
0.026991008 0.07636449 0.0062717847 -0.26811054 0.07305089 0.16274442 -0.07517415 -0.10564904
0.00056639983 0.0350585 0.02118795 0.0550951 -0.07028001 0.013822341 -0.025841648 -0.055753484
0.041498106 -0.06378567 0.095702164 -0.090163276 -0.07277399 0.065576345 -0.09281058 -0.049796358
0.016873363 0.089278094 0.0021061597 -0.09621615 -0.007544685 -0.0316561 0.029662501 0.051563248
0.037440505 -0.042066462 0.07334922 -0.078346886 -0.008531116 -0.00091161387 -0.03951493 0.023717854
-0.0048587453 0.06482477 -0.028019741 -0.13096061 -0.12099404 0.0754179 -0.19406952 0.04340112
-0.074815355 0.056950323 -0.040045075 -0.045758143 0.1851735 -0.007298339 -0.0044840574 -0.027326057
-0.082399234 0.013780321 -0.016284471 0.0046327584 -0.0423203 -0.010377343 -0.01950487 0.009098251
-0.058558583 -0.060845308 0.1715082 -0.04036604 0.008677622 -0.04882526 0.09931624 -0.0054593096
-0.12237521 -0.0513515 -0.030739592 -0.05872932 -0.062753856 -0.057139724 -0.06373163 -0.1702343
0.018919442 -0.18412544 -0.18271762 -0.0016101424 0.019983117 0.015499181 -0.070528895 -0.034593586
0.017229458 -0.091135405 -0.14533833 -0.13953768 0.044233438 -0.11929724 0.08549404 -0.015819564
0.0041225716 -0.018188369 -0.01018056 0.035211146 0.0005229609 -0.017077517 -0.027646247 0.011140733
0.19027461 -0.05737449 -0.084583655 -0.0070668445 -0.044253606 -0.0057008183 -0.003677312 0.0053087403

module_list.1.0.bias f4 [64]
00000000: 58d7 88bd 8497 b03c b605 9fbc 0fa2 943d
00000010: aa51 143d 9c8a f33c aa71 ea3b 3d11 cbbd
00000020: beac 50bd 1696 213c 93e0 67bd ac0e b7bb
00000030: 592c 593d 525f 73bd c6af a93d f30e c4bc
00000040: 4612 833c 85b2 013d 9617 dfbb 02f3 c1bd
00000050: b24e e0bc 8df0 0e3c deed ae3b d828 95bd
00000060: 43fa 813d 315a fbbc e81b 74bb d428 d2bc
00000070: ba8a e2bd dcae 57bd c760 5b3d dc1e 0ebd
00000080: 62a5 5fbd 09f5 923c 3863 50bd 8b54 913d
00000090: c669 8e3c c28f d1bc 2fcc 33bd abd2 e23d
000000a0: 96f1 08bd 167a aeba b701 143d 8643 89bd
000000b0: 80a6 8e3d e437 44bd 004a 2f3d 49dd d33c
000000c0: e16f 95bd a91e f03b dfbe 813d bd71 493c
000000d0: 1e8c d8bd 7c44 a83b e7bf 6d3d ea15 9b3a
000000e0: 80ec e0bd d50e 0c3d 2fb5 51bd dbd2 913d
000000f0: c399 c03c a43c 25be f545 22be b50c 0bbe
-0.066816986 0.021556623 -0.019411903 0.07257473 0.036210693 0.02972918 0.007154663 -0.09915397
-0.05094599 0.009862443 -0.056610655 -0.005586466 0.05302081 -0.059417076 0.08285479 -0.02393291
0.015999924 0.03166439 -0.0068082316 -0.09470178 -0.027381275 0.008724344 0.0053384146 -0.07283181
0.06346562 -0.030682655 -0.0037248079 -0.025654234 -0.11061616 -0.052656993 0.05355909 -0.0346974
-0.05460108 0.017939107 -0.050875872 0.070962034 0.017384421 -0.025581244 -0.043895897 0.11075338
-0.03343352 -0.0013311531 0.036134448 -0.06702332 0.06965351 -0.047904864 0.04279518 0.025862353
-0.0729673 0.0073278737 0.06335234 0.012295184 -0.105736 0.005135117 0.05804434 0.0011832092
-0.10982609 0.034193832 -0.05119818 0.071202956 0.02351082 -0.16136414 -0.15846999 -0.13579066

module_list.2.weight f4 [1, 64]
00000000: a789 123e a46e 83be 7aa5 e43c 505c 0a3e
00000010: 94bd aebd 1d6d 863d 3940 d23d 3a30 dcbc
00000020: 9c15 36bd 5d1c 353e 6db5 4fbd 3354 25bc
00000030: 489b babd 96b1 a23d b6df 25be 992b 3c3d
00000040: e422 b73d aece 083e 3898 37be 962b 79bc
00000050: bdfe bc3d bee1 08be eece bd3d ae19 603d
00000060: 4eb1 96bd b5ad 563d e176 2cbd ae42 51be
00000070: fed0 d23d c528 813e 1071 cdbd 5328 c03d
00000080: a43e cbbd 8565 c53d 5d2b 1c3e 6430 b13d
00000090: a4b5 80bd ef1e debd a1b1 05be becb e73d
000000a0: 18e7 0cbe 5358 4f3d c796 bb3c c2da 33bd
000000b0: c245 9e3d 72ff 5abe 96f4 adbd 19a8 e93d
000000c0: 5902 2abe 3a93 8cbd 72df 103e 27ca dcbd
000000d0: 02fd 86bd c0ea a43d 709a 81bd 1a03 29be
000000e0: 551d db3d 129f bfbc 2889 4fbc 3cf1 143e
000000f0: 0863 38bd f290 85bd 983d 88be 5ab8 e3bd
0.14310323 -0.2567035 0.027910937 0.13511777 -0.08532253 0.065637805 0.10266156 -0.026878465
-0.044454202 0.17686601 -0.05071013 -0.010090875 -0.09111649 0.07944028 -0.1619862 0.045940015
0.08942202 0.13360092 -0.1792916 -0.015208146 0.09228275 -0.13367364 0.09267984 0.05471199
-0.07358037 0.052411754 -0.04210556 -0.20435593 0.10293768 0.25226417 -0.100313306 0.09382691
-0.09924057 0.09638504 0.15250917 0.08651808 -0.06284645 -0.10845744 -0.13056041 0.113181576
-0.1376003 0.050621342 0.022899045 -0.043909796 0.07728149 -0.21386507 -0.08493917 0.11409015
-0.16602458 -0.06864019 0.14147738 -0.10780745 -0.06591226 0.080525875 -0.06328285 -0.1650509
0.10698954 -0.02339128 -0.012666978 0.14545149 -0.04501632 -0.06521787 -0.26609492 -0.11119147
