saved_models_MLP/exp-f-fcc/mlp_ms_fcc_ratio0.4_seed1_epoch300.pt (torch, 38935 bytes, 5 tensors)

module_list.0.weight f4 [128, 6]
000000 9b dc 57 3e e3 74 6f 3e 61 f3 ca bd f8 d1 d3 3e
       0.21080248 0.23384432 -0.09909702 0.4137113
000010 76 18 ad 3e 2a 47 cd be 0f ee 7c be 7d c9 d6 3e
       0.33807725 -0.40093356 -0.24700187 0.41950598
000020 1a d3 3b 3e 5f 99 af 3e 93 6a 21 bf 30 2b 4d 3d
       0.18342248 0.342967 -0.63053244 0.050090015
000030 f6 28 b2 be 3d c4 fa 3d c7 51 c3 be b1 cf c7 be
       -0.34796876 0.12244461 -0.3814833 -0.39025643
000040 38 18 c9 3d 7f b2 b6 be 3b cd 42 3e 01 2c 0b bc
       0.098190725 -0.35683057 0.19023602 -0.008494378
000050 53 2c bb 3e 41 4d f5 3e 95 76 22 bf 79 fc 9a be
       0.36557254 0.47910503 -0.6346219 -0.30270746
000060 ec cd 51 3e f6 92 66 3e 7c e7 c3 be 36 60 89 3d
       0.20488709 0.22516999 -0.38262546 0.06707804
000070 cf 78 f8 3d e0 b9 64 3e df 74 51 bd c5 99 a7 be
       0.121324174 0.2233653 -0.051136848 -0.32734504
000080 1a f4 e5 3e 01 3c 84 be 1a 3a 31 bf a8 fc 05 3d
       0.44912797 -0.2582703 -0.6922928 0.032711655
000090 66 b2 17 be 7a f8 9a be f5 28 9f 3e 8c 4f f1 be
       -0.14814147 -0.30267698 0.31085935 -0.47131002
0000a0 f3 6d 19 bf a0 7a ba bc 5c a2 45 3e 1f e9 9c 3d
       -0.59933394 -0.02276355 0.19300216 0.07661652
0000b0 c6 aa 90 be 52 54 be bd 97 a2 30 3e 78 0f 65 3d
       -0.2825529 -0.092934266 0.17249523 0.055922955
0000c0 1e 66 5c be 09 2d 5c be 54 16 55 be 50 ed 07 3f
       -0.2152333 -0.21501555 -0.20809299 0.53096485
0000d0 ff f3 af be ba 88 89 3e 1a ef 89 3e 88 af f0 bd
       -0.34365842 0.26862127 0.26940233 -0.1175223
0000e0 9a e9 9d 3d 1b ec 80 3e e8 10 cc 3e 6d 42 4f be
       0.077105716 0.25180134 0.39856648 -0.20240183
0000f0 24 b5 70 3e b9 85 b0 3e ad e8 9f be f4 e8 b3 3e
       0.235066 0.34477022 -0.31232205 0.35138667
000100 34 b9 88 be b6 53 c6 be 2e f9 c9 3e 98 27 e1 3d
       -0.267038 -0.3873574 0.39447922 0.1099388
000110 ca a1 f1 bc 7a 4e 0a 3f a5 e3 ea b9 94 cf 9d 3e
       -0.029496092 0.54025996 -0.00044801566 0.30822432
000120 b2 ad fd bd 16 84 6d bb c4 f0 03 3e dc 7e 2e 3e
       -0.123866454 -0.003624206 0.12884814 0.1704058
000130 c5 59 71 3e f0 24 9f 3e 10 97 35 be aa 50 cc 3e
       0.235694 0.3108287 -0.17733407 0.39905292
000140 19 05 9f 3e a1 ce 0f be ae 0c ab be 14 ad 9a 3e
       0.31058577 -0.14043666 -0.3340811 0.30210173
000150 5c 66 7f bc 83 c3 f1 3d b2 1b 51 3e bd b2 d9 be
       -0.015588369 0.11804869 0.20420721 -0.4251918
000160 2b 17 1e be ac 0b a8 bd d2 9a ac 3e ee 57 36 be
       -0.15438525 -0.08205351 0.3371187 -0.1780698
000170 23 bc d6 be 06 d5 fb be f7 4d 75 3e 9c 0b c7 3e
       -0.41940412 -0.4918596 0.23955522 0.38876045
000180 8b 44 be bd d7 05 d3 3e c3 e7 23 be 21 40 5b 3d
       -0.09290417 0.41215393 -0.16006379 0.053527955
000190 3e a1 0a 3d c5 04 3b be 47 cd 41 be 1f ef a5 3e
       0.03384518 -0.18263538 -0.18925963 0.32408997
0001a0 39 60 e5 3e 4d 8d 6b be 76 51 df 3e 6e 83 b4 be
       0.44799975 -0.2300312 0.43616837 -0.35256523
0001b0 71 c8 cb 3d dc 6c 9b bd 4f 67 df 3d 2c cf 5b 3e
       0.099503405 -0.07589123 0.109083764 0.21465749
0001c0 2a 14 3b 3c ec 40 20 3e 3b 41 66 3d e7 6e 17 3e
       0.011418382 0.15649766 0.056214552 0.147884
0001d0 bd 72 52 3e bd 57 04 3f 70 4e 15 bf e5 fb 7e be
       0.20551582 0.5169638 -0.5832281 -0.24900778
0001e0 b6 7d 6d 3d 25 a3 0b 3e 71 b5 a3 3e 06 18 79 be
       0.057981215 0.13636453 0.31974366 -0.2432557
0001f0 c3 9c 9b bd 52 2d c8 3e 8e 17 b4 bc 45 88 93 3d
       -0.07598259 0.39097077 -0.021983888 0.07203726
000200 4b 95 a7 3d 78 4f 46 be c1 94 f1 3e d8 82 60 3d
       0.08182772 -0.19366252 0.47183803 0.054812282
000210 01 86 74 be b4 19 46 be c5 ee d3 be d9 83 49 bd
       -0.23879243 -0.19345742 -0.41393104 -0.049198005
000220 f9 cd ca bd 9c 9f 3f 3e 95 68 92 bd ec 25 70 be
       -0.099025674 0.1871323 -0.07148854 -0.23451966
000230 36 cc b8 3c 9d 86 68 bc a5 8c 7d be 24 4e 88 3e
       0.022558313 -0.014192251 -0.24760683 0.26622117
000240 20 9a 2a be 0a 15 a4 3e 0c ce 16 bd 54 2f 86 be
       -0.16660357 0.32047302 -0.036817595 -0.26207983
000250 cc 94 72 be f8 17 f2 bd 3d d8 a8 3d 2e 29 0f 3e
       -0.23689574 -0.11820978 0.08244369 0.13980553
000260 3d 9d ff 3d 19 c1 97 3e 39 58 06 3e 58 2d 31 3d
       0.12481163 0.2963951 0.13119592 0.043256134
000270 8c 92 52 be ea 18 c3 be 16 ee f3 3c 23 70 08 3e
       -0.20563716 -0.38104945 0.029776614 0.13324027
000280 ad e7 a6 3e 2c 67 80 be 46 88 48 3e 7e 8f 32 3e
       0.3259863 -0.25078714 0.19583234 0.1743755
000290 df a9 22 be 8f 77 3e bf 3f 32 b6 3d 10 5f ef bd
       -0.15885113 -0.7440118 0.088963024 -0.116880536
0002a0 84 78 64 be 35 dd 9b 3e c8 f3 e1 3c 11 05 e0 3e
       -0.22311598 0.30442205 0.027582064 0.43753865
0002b0 e5 74 ac bd 88 bc 32 3d e3 bf 55 3e e7 4f 9e 3e
       -0.08420733 0.04363683 0.2087398 0.30920336
0002c0 7e 93 2a be 08 25 51 be 96 03 d9 be c5 bf b8 be
       -0.16657826 -0.20424283 -0.42385548 -0.3608381
0002d0 a9 4a b0 3e 5d 2b d4 be ec 17 2f 3e de 31 73 3d
       0.3443196 -0.41439334 0.17098969 0.05937373
0002e0 a6 fb cd be a0 5d 7c 3e e9 3d 22 3e 53 2e c3 3e
       -0.40231055 0.2464509 0.1584393 0.3812128
0002f0 b5 ae e8 3e 46 75 a0 be 74 0c 6e 3e 8e 62 bf be
       0.4544579 -0.31339473 0.23246938 -0.3737988
000300 29 39 9c 3d e7 24 84 be 18 b5 9c 3c e9 8a 16 3f
       0.0762809 -0.25809404 0.019129321 0.5880571
000310 82 06 54 3d 00 ec 1f ba 7b 2b af 3e a4 a3 1f bd
       0.05176402 -0.00061005354 0.3421286 -0.03897442
000320 2e 9d 82 3e f9 6e 04 3f 3b 3b ab bd 90 5b 32 be
       0.25510544 0.5173183 -0.08360907 -0.17417741
000330 6b 6a 25 3e 79 53 1b 3e 18 dc 5c be ea 60 93 3e
       0.16153876 0.15168561 -0.21568334 0.28784877
000340 7e c8 ca 3e 4a 1f a4 be 02 77 ac 3e 57 9a 48 3d
       0.39606088 -0.32055122 0.33684546 0.048975315
000350 ea 56 9a be 9e 04 89 3e 83 ba 5f be 70 3f 20 3e
       -0.30144435 0.26761335 -0.21848492 0.156492
000360 3c 24 ad 3e 48 0f 9b be 9d 80 f6 be 1f 9f 40 be
       0.33816707 -0.30285096 -0.48145 -0.188107
000370 8d 0a 89 be 68 28 2e 3e c2 99 c9 bc 7b 33 28 3e
       -0.26765862 0.17007601 -0.02460945 0.16425888
000380 55 eb 7f 3d aa 8b 48 be f5 fd cf 3e d1 b4 51 be
       0.06248029 -0.19584528 0.4062344 -0.20479132
000390 f1 9c c4 3e 3e 37 e8 3e 4c 4b ae 3e 98 1e d6 be
       0.38400987 0.45354646 0.34041822 -0.41820216
0003a0 cf 58 c2 be b9 4d 51 be d5 4c 9c 3e 9a 59 45 bd
       -0.3795838 -0.20439805 0.30527368 -0.048181154
0003b0 d0 51 a4 be 66 4e e6 3d a2 8b 73 3e 18 25 c9 3d
       -0.32093668 0.11245422 0.23783734 0.09821528
0003c0 d3 d4 cc bd 23 56 c5 be b8 b5 69 3d 08 0f 28 3f
       -0.100015305 -0.3854228 0.057058066 0.65647936
0003d0 90 89 7f 3e b6 ba 93 be 02 93 61 bc 1c 35 a5 be
       0.2495482 -0.28853387 -0.01376796 -0.32267082
0003e0 48 43 ae be 20 3f 9b 3e 60 ed a0 3e a6 05 a5 be
       -0.34035707 0.30321598 0.31431103 -0.32230872
0003f0 49 4b c2 3e a1 be fb bc c8 c1 bf bd 39 a4 a0 be
       0.37948063 -0.030730547 -0.09363133 -0.31375292

module_list.0.bias f4 [128]
000000 8f 6e c5 3e 18 54 58 be 16 87 d3 be 39 08 c6 3b
       0.38560912 -0.21125829 -0.41314 0.0060434607
000010 4f 2f c6 3b 54 4d 27 3e bf 99 58 be 8c f9 a6 3e
       0.00604812 0.16338092 -0.211524 0.32612264
000020 fa 87 a3 3e e5 18 1e be dd ce 79 3e 36 42 7e 3e
       0.3193968 -0.15439184 0.24395318 0.24829945
000030 b1 8f a0 be 12 1a 48 3d 1a 8a 39 3d 69 44 81 be
       -0.31359628 0.048852988 0.04529772 -0.25247505
000040 90 74 15 3e 37 24 24 be 77 52 91 3e b4 f7 10 be
       0.14595246 -0.1602944 0.28383228 -0.14156991
000050 d6 a7 8f 3e 2e 1d b4 3e 2e 2d b3 be 38 e6 84 be
       0.28057736 0.35178512 -0.34995407 -0.25956893
000060 fc be 47 3e 2c bf 13 3e bf 89 c1 bd 40 35 9b be
       0.19506449 0.14428395 -0.09450101 -0.30314064
000070 1c b1 40 bd 31 c8 c2 3d 49 ee 02 3d 70 e3 27 bc
       -0.047043905 0.0951084 0.031965528 -0.010247096
000080 e8 9f 4c 3e b5 92 ac bd e1 ae 21 3e 17 bd 69 be
       0.19982874 -0.0842642 0.15789367 -0.22826038
000090 a5 f0 93 be c6 04 b5 be 10 d6 9e be 7a 2b e9 3d
       -0.28894535 -0.35355204 -0.31022692 0.113852456
0000a0 ba 03 d5 3d a2 59 ad 3e 6e 11 a4 be 26 a2 b5 be
       0.104011014 0.33857447 -0.32044548 -0.35475272
0000b0 a9 8e f2 3e 10 44 32 3d 46 ff dd 3d 5a 8e c1 3e
       0.47374466 0.04352194 0.10839705 0.37803918
0000c0 01 ee 60 3e c9 75 7b 3e 1a 3d 87 3e f4 35 a2 3e
       0.21965791 0.2455665 0.26413804 0.31681788
0000d0 17 b0 70 bd d3 38 39 3e e8 46 48 3d ad 7a cb 3e
       -0.058761682 0.18088083 0.048895746 0.39742032
0000e0 97 05 88 be 9a 90 99 be 5d a2 8e 3d 4b de d5 be
       -0.26566765 -0.29993135 0.06964562 -0.4177116
0000f0 8b ba e9 be e0 59 7d bd 1f 5d 6c be 01 03 44 3e
       -0.45650133 -0.06185329 -0.23082398 0.19141771
000100 85 af ca 3e d4 78 86 be 53 1a 84 3d e7 af 99 bd
       0.39587036 -0.2626406 0.064503334 -0.07504254
000110 65 73 22 3d f1 db 84 be d8 22 9a 3e 42 64 a1 bd
       0.03966083 -0.25949052 0.3010471 -0.07880451
000120 d1 0a 6b 3e f6 6d ec 3d b7 c6 b2 be 4d 8b cf be
       0.22953345 0.11544411 -0.34917232 -0.40535966
000130 d9 a8 af be 45 dc 3f 3e cb 19 ac be 31 3b 09 3e
       -0.34308508 0.1873637 -0.33613428 0.13401486
000140 53 63 16 be be da 26 be 42 0e c3 3e 75 31 86 be
       -0.14686327 -0.16294381 0.38096815 -0.26209608
000150 7e 65 c8 be a4 97 ad be 21 67 a5 be d0 dc 91 be
       -0.39139932 -0.33904755 -0.32305244 -0.2848878
000160 d2 a9 8c bd 47 79 ac be 33 3e 00 3e 12 d4 a7 3d
       -0.06868328 -0.33686277 0.12523727 0.08194746
000170 27 36 c4 3e 27 f6 6c 3e 0a 33 14 3e 4c 0b 5a be
       0.38322565 0.23140775 0.14472595 -0.21293372
000180 8f 3a d4 be 36 14 9d bd a3 68 31 3e f5 75 19 3e
       -0.41450927 -0.076698706 0.17325072 0.14986403
000190 81 ba 1f be 67 cc f0 bd 1e f4 64 3b 7b 62 92 be
       -0.1559849 -0.11757737 0.0034935544 -0.2859076
0001a0 a3 3b 47 be 81 38 b9 3e bb 1d 44 be 80 82 9a bd
       -0.19456343 0.36175922 -0.19151966 -0.07544422
0001b0 3d 39 84 be d3 bd 82 3e c5 c5 a4 3e 17 62 d8 3e
       -0.2582492 0.2553545 0.32182136 0.42262337
0001c0 ff df 03 3e fc 09 6c 3e 9b 30 9f be 8b 81 75 3e
       0.12878416 0.23050684 -0.3109177 0.23975198
0001d0 5d 5a 90 3e b7 79 c3 bd 89 45 20 3e f9 b2 6b 3e
       0.28193942 -0.095447 0.15651526 0.23017491
0001e0 3e 2e cc bd fb e6 c7 be 50 79 77 be f1 21 4b bd
       -0.099697575 -0.39043412 -0.24167371 -0.049592916
0001f0 1a fb d4 be c0 27 98 3e b8 00 a3 3e d3 ca 11 3e
       -0.41597825 0.29717827 0.31836486 0.14237528

module_list.1.0.weight f4 [64, 128]
000000 c0 58 7c bd 34 41 ae bc 8a 00 7a bc 88 f5 06 3d
       -0.061608076 -0.021271326 -0.015258918 0.032949
000010 38 65 db bc 5a 5f 0a bc 51 ad 01 3e 08 f3 e0 bd
       -0.026781663 -0.008445585 0.12663771 -0.109838545
000020 a0 7f 83 3d 7e 06 72 bd 8d 9f 23 3d 0b 83 32 bd
       0.06420827 -0.059088223 0.03994708 -0.043582004
000030 b2 b0 30 bd 75 65 ce 3d f6 4e 5c bd bf 3c a1 bd
       -0.04313726 0.10077945 -0.05378624 -0.078729145
000040 55 b3 22 bd 93 ff be bc 1a 1e ba bd 2c b5 93 3d
       -0.039721806 -0.023315227 -0.09087773 0.0721229
000050 8e 40 a5 bd 86 0f 08 bd 00 31 7d 3d 84 02 81 bd
       -0.080689535 -0.03321793 0.06181431 -0.06299308
000060 0d b3 ca 3d 4d df ef bd 0d 92 85 bd 8a 90 82 3b
       0.098974325 -0.11712513 -0.065219976 0.0039845156
000070 7c f4 26 bc 28 6e f6 3b a5 93 12 bd c6 96 bf bd
       -0.010190126 0.007520456 -0.035785336 -0.093549296
000080 b5 b3 5d bd 08 80 a7 3b e1 6f 87 bd e9 07 b2 3c
       -0.05412646 0.005111698 -0.06613136 0.021732287
000090 89 f7 10 bd b7 94 fd bc 2a cd 82 bd ef 64 40 bd
       -0.035392318 -0.030954702 -0.06386788 -0.046971258
0000a0 1f 49 09 bc dc db a2 3a 09 36 8d bd 31 db 35 3d
       -0.00837925 0.0012425142 -0.06895072 0.04439849
0000b0 50 07 d6 3c db 4f c5 bd 43 c4 6b 3d be da d1 3d
       0.026126534 -0.09634372 0.057560217 0.102468
0000c0 38 05 ec bd 3a f7 6e bd 46 b2 5e 3d 74 00 cb 3d
       -0.11524433 -0.058341242 0.054369234 0.09912196
0000d0 cb 9f 82 3d ca a1 a1 bd 4a a1 ae 3d 05 f5 8a bc
       0.06378134 -0.07892187 0.08526857 -0.016962538
0000e0 a1 dc 9f bd 0a 76 ac 3b 7d 9b 98 bd 49 02 a6 3b
       -0.078057535 0.005263095 -0.07451532 0.0050661904
0000f0 f1 46 9d 3d 12 92 6a 3b 24 d3 27 3d 79 66 9a 3c
       0.076795466 0.003579263 0.040972844 0.01884769
000100 81 38 2f 3d bc b4 43 3c 4d 8c f6 bc 84 b9 cf 3d
       0.042778496 0.011944946 -0.030096198 0.10142806
000110 5d 40 14 be e9 36 87 bd 8b 0d 39 3d 70 7b 03 3d
       -0.14477678 -0.0660227 0.04517893 0.03210014
000120 b8 48 6a bd ca c3 57 3d be 1f 56 ba f6 59 2b bd
       -0.057198256 0.052676953 -0.0008168182 -0.04183384
000130 b8 3e b3 bd 48 e3 29 bd 7a 94 17 3d d8 50 66 ba
       -0.08752197 -0.041476518 0.037006833 -0.00087858504
000140 d1 df 93 bd b5 70 27 bd 10 f8 bc bd b7 5c 48 3d
       -0.07220424 -0.04087897 -0.09227002 0.048916545
000150 5e d7 12 bd 19 28 0d bd 4a 2f 3c 3d 3f d6 c8 bd
       -0.03584992 -0.03446207 0.045943536 -0.09806489
000160 9f 14 b7 ba 3e 47 e4 3d 86 9e e8 3d 97 81 57 3d
       -0.0013967938 0.11146401 0.11358361 0.05261382
000170 54 a7 dc bd 0b 17 2b 3d e7 e4 91 bc 9d ab 95 3d
       -0.10774103 0.041770022 -0.017809344 0.07308123
000180 28 47 6b bc 47 a3 0d bd 0c a0 90 bb 2d b4 87 bc
       -0.014360227 -0.03457954 -0.0044136103 -0.016565407
000190 45 d1 b8 3c 29 fb 5f bd 52 1c 31 bd 23 f9 07 3d
       0.022560725 -0.054682884 -0.0432399 0.03319658
0001a0 b7 20 4f 3d 23 b5 5e bd 80 0c 02 3e 9a 7d 5d bc
       0.05056831 -0.054371964 0.12700081 -0.013518715
0001b0 14 58 3a bd d3 e6 87 3c 77 40 94 bb 97 31 79 3d
       -0.045494154 0.016589558 -0.0045242864 0.06083831
0001c0 58 39 86 bd 29 5d 5d 3d 43 21 d2 3d 0c 0f ed bd
       -0.06553906 0.054043923 0.102602504 -0.115751356
0001d0 31 64 b5 bc 4c ff 13 bd e4 27 fa bd ec 84 b2 bc
       -0.022142502 -0.036132142 -0.1221464 -0.021791898
0001e0 6e 3f cf 3c 95 7c 07 3d f2 88 03 3c 0f bd 32 bd
       0.0252988 0.033077795 0.008028256 -0.04363733
0001f0 e7 b7 63 3d e0 21 05 bc 4b 48 84 3c ba 95 da 3d
       0.055595305 -0.008125752 0.016147753 0.10673089
000200 aa bb 2e bd 5c 82 ec bd 0a e8 8f 3d 87 c7 3f be
       -0.04265944 -0.115483016 0.0702668 -0.18728457
000210 93 06 76 3d 39 46 f6 bd cd c3 e6 bd e9 62 52 3d
       0.060064863 -0.12025113 -0.11267815 0.05136386
000220 5a 3b cd bc 6d f6 d0 bc a9 f5 7d 3c a9 6f 38 bd
       -0.025052715 -0.02550813 0.0155004645 -0.045028362
000230 92 f2 7f 38 07 3e 42 3d 2a 3d 06 3d 4a 39 d2 3d
       6.102265e-05 0.047422435 0.032773174 0.10264833
000240 87 57 74 3c 40 85 9b 3d 7f 5d 91 bb 38 85 7c be
       0.014913446 0.07593775 -0.0044361944 -0.24660194
000250 f2 a6 82 3d e4 76 05 3e c5 6b 9b bd 74 65 87 bd
       0.063794985 0.13033634 -0.07588915 -0.066111475
000260 72 c5 27 bb 40 91 9f 3c 49 0c 2f 3c 80 bf 8a 3d
       -0.0025599864 0.01947844 0.010684081 0.06774807
000270 c0 46 9a bd 67 0c ad 3c 9b 4b 76 bc cd 73 32 bd
       -0.07533026 0.021124078 -0.015032674 -0.043567467
000280 b2 c5 04 3d 16 84 6a bd 20 e9 a5 3d f2 46 ae bd
       0.0324151 -0.057254873 0.08101106 -0.085096255
000290 83 5c 83 bd a4 0a 8f 3d ce 25 9f bd 56 c8 5a bd
       -0.064141296 0.069844514 -0.077708825 -0.05341371
0002a0 7b a7 48 bc 86 aa 0c 3d be e4 25 3c c4 53 a3 bd
       -0.012246962 0.03434231 0.010125337 -0.079749614
0002b0 99 09 b6 bc 77 1e 12 bd f5 4b fb 3c 88 c1 39 3d
       -0.022221373 -0.035673585 0.030675868 0.04535058
0002c0 fd dc 09 3d 8d fb 17 bd 42 b4 80 3d ef 9e a9 bd
       0.033658016 -0.037105132 0.062843814 -0.08282267
0002d0 2d f4 dc 3c 69 f6 85 bc 42 e0 13 bd 16 5b 8c 3c
       0.0269719 -0.01635285 -0.03610254 0.017133277
0002e0 a3 88 57 bc e7 0a 82 3d ef 1f 9e bc 01 e0 f5 bd
       -0.013155135 0.06349736 -0.019302336 -0.12005616
0002f0 4f 7d b2 bd 52 1d 6d 3d 62 bd 14 be d7 1d a0 3d
       -0.08715307 0.05788929 -0.14525369 0.078181915
000300 42 79 be bd a5 f4 75 3d 40 e4 21 bd f3 77 48 bd
       -0.09300472 0.060047764 -0.039524317 -0.048942517
000310 1e 08 23 3e 0f e0 52 ba 4b 09 86 bc 3b 58 c6 bc
       0.15921065 -0.00080442516 -0.016361853 -0.024211993
000320 44 0e a8 bd 98 ee ff 3a 57 42 38 bc ef ad ee 3b
       -0.08205846 0.0019526063 -0.011246285 0.007283918
000330 03 71 31 bd 25 e3 ec bc 05 0f b7 bc b9 5d 31 bb
       -0.043320667 -0.028916905 -0.022346029 -0.002706392
000340 83 04 61 bd a8 e1 a6 bd 85 82 1d 3e e9 0e 38 bd
       -0.054935943 -0.08148509 0.1538182 -0.044936094
000350 03 d3 ac 3c 82 82 20 bd a0 37 d7 3d 42 31 60 bb
       0.021096712 -0.039186962 0.105086565 -0.0034209047
000360 1c f3 e9 bd c2 47 47 bd 45 f7 27 bd c9 07 84 bd
       -0.114233226 -0.048652418 -0.0410073 -0.064467974
000370 25 45 89 bd 4f d3 64 bd 4d 1a 82 bd 00 60 f1 bd
       -0.067026414 -0.055865582 -0.06352673 -0.11785889
000380 c7 96 32 3d 65 97 00 be e7 c5 27 be 96 b8 fd bb
       0.043600824 -0.12557752 -0.16384088 -0.0077429516
000390 5c 18 a2 3c 55 02 a9 3c 9c 56 8a bd bd 39 ee bc
       0.019787006 0.020630995 -0.06754801 -0.029080266
0003a0 11 9a e3 3c 3b eb b6 bd b2 01 c1 bd e3 34 f7 bd
       0.027783426 -0.089315854 -0.094241515 -0.12070634
0003b0 5d 1c 3f 3d 98 d1 f9 bd 5d 36 98 3d 93 ec 24 bd
       0.04665791 -0.1219818 0.07432244 -0.040264677
0003c0 97 6e 87 bb 6b 60 d1 bc 97 8b c5 3c f2 af 03 3d
       -0.0041330564 -0.025558671 0.024114413 0.032150216
0003d0 08 88 32 bc cd e1 4a 3a 67 05 c3 bc e4 6e e4 3b
       -0.01089669 0.00077393354 -0.023806287 0.006971227
0003e0 56 8d 2b 3e c4 34 9f bc 6a fc 9c bd 2c 0f 52 bc
       0.16753134 -0.01943434 -0.07665332 -0.012821
0003f0 bc b1 92 3b fc 40 78 bc 57 3d 87 bc 2b 3c da ba
       0.004476754 -0.015152212 -0.016508741 -0.0016650012

module_list.1.0.bias f4 [64]
000000 1a 42 a3 bd 55 9c 62 bb 72 c8 85 3b c2 3f 91 3d
       -0.07971592 -0.0034578044 0.004082733 0.07092239
000010 23 5a 4f 3d 07 ec 86 3d 06 3f b1 3c 70 07 d9 bd
       0.05062307 0.065879874 0.021636497 -0.10597122
000020 1b 38 2b bd 8f 2a f6 3c e0 de 53 bd ac 62 c2 3b
       -0.041801553 0.03004959 -0.051726222 0.0059321728
000030 ea b7 81 3d 65 b9 3c bd 07 79 9e 3d c2 06 19 bd
       0.06333907 -0.046075244 0.07737928 -0.03735996
000040 95 5a cd 3b a2 f5 2c bc 3d 47 df 3b 2a 92 b8 bd
       0.0062669017 -0.01055661 0.006813912 -0.090122536
000050 fe e0 97 3a 6e e1 2b 3b dd 4b 1c bd 8a cd 0f bd
       0.0011587439 0.0026226896 -0.038158286 -0.035108127
000060 ae 32 35 3d ef 7c eb 3b 0b aa bb b9 01 60 a7 3b
       0.044237785 0.007186524 -0.0003579411 0.00510788
000070 7d 8c d5 bd 01 10 c1 bc c3 28 2f 3d 60 29 4b bd
       -0.10427187 -0.023567202 0.042763483 -0.049600005
000080 16 2a 7d bd 1e 86 0b 3d 74 74 64 bd 25 c4 36 3d
       -0.061807714 0.03406345 -0.05577512 0.04462065
000090 76 71 af 3c 9d 5f 03 bd b8 45 92 bc 68 1b b9 3d
       0.021416407 -0.032073606 -0.01785551 0.090384305
0000a0 96 a3 7e bc c3 e3 ac bc ce 89 0b 3d 93 51 77 bd
       -0.015541932 -0.021104699 0.034066968 -0.06038053
0000b0 c0 da 54 3d e3 29 5e bd b1 9f 5a 3d de 8e 75 3d
       0.05196643 -0.054239165 0.05337495 0.059950702
0000c0 6f 3a 68 bd 94 82 8f bc 81 b7 2d 3d f3 4f 29 bc
       -0.05669635 -0.01751832 0.04241133 -0.010334003
0000d0 07 4d d8 bd 54 0d 87 ba e7 bf 6d 3d 96 f2 06 3c
       -0.10561567 -0.0010303655 0.05804434 0.008236548
0000e0 7e 8d ea bd 33 81 21 3d 2f b5 51 bd 28 a7 6e 3d
       -0.11452769 0.039429855 -0.05119818 0.05826488
0000f0 af a2 ed 3c 46 27 12 be b3 a9 ff bd e3 08 47 bd
       0.029008238 -0.14272794 -0.124835394 -0.04859246

module_list.2.weight f4 [1, 64]
000000 ac f5 14 3e 1e 32 68 be bb 59 3a 3d 55 f6 04 3e
       0.14546841 -0.22675368 0.04549573 0.12984593
000010 b1 84 a8 bd 67 fa 85 3d f0 d1 ca 3d 7f 2f a1 bc
       -0.08228434 0.06541901 0.09903324 -0.019675968
000020 12 c8 5e bd 35 8e 0d 3e 9e 7a 5b bd c1 c9 94 bc
       -0.05439002 0.13823779 -0.053583734 -0.01816261
000030 e1 5d d3 bd 54 37 bd 3d 9e b6 25 be 3b 8d 10 3d
       -0.1032064 0.092390686 -0.16182944 0.035290938
000040 ba 1f b2 3d 0f d7 e7 3d e6 d6 23 be 25 cf ba bc
       0.086974576 0.11320316 -0.15999946 -0.022803852
000050 89 0b ab 3d 65 df d1 bd 3e 51 15 3d 1f 38 00 3d
       0.083518095 -0.10247687 0.03645443 0.03130352
000060 b7 96 99 bd 62 c6 4d 3d 88 f5 03 bd 53 e0 2b be
       -0.0749945 0.05023802 -0.03221658 -0.16784792
000070 52 4d f3 3d 67 da 80 3e 05 44 c2 bd 24 bb aa 3d
       0.11879982 0.25166628 -0.0948563 0.083364755
000080 17 09 aa bd 74 79 e1 3d 65 2e 21 3e 7b 5c ac 3d
       -0.08302515 0.110094935 0.15740354 0.08416077
000090 b9 f2 75 bd fb 06 e6 bd 5e 46 03 be 01 b1 df 3d
       -0.06004593 -0.112318 -0.12819812 0.10922433
0000a0 83 35 de bd 53 ee 4a 3d 15 e7 c9 3c 4c eb 42 bd
       -0.1085005 0.04954369 0.024646321 -0.047587678
0000b0 20 49 6a 3d e9 5b 5c be 21 bc aa bd 1d c1 e2 3d
       0.057198644 -0.21519436 -0.08336664 0.1107199
0000c0 3c c1 33 be 11 ad 9b bd d6 63 0f 3e 8b 7f 10 be
       -0.17554182 -0.07601369 0.14002928 -0.14111154
0000d0 38 5e 8b bd 35 40 a5 3d 70 9a 81 bd ca 44 05 be
       -0.0680508 0.08068887 -0.06328285 -0.13014522
0000e0 f4 e3 e3 3d 82 97 0f bd 28 89 4f bc 61 af 1a 3e
       0.11127463 -0.0350566 -0.012666978 0.15105964
0000f0 06 5a 3e bd 7c e3 a9 bd 9f b6 1e be b3 35 99 bd
       -0.04647257 -0.08295342 -0.15499352 -0.074809454
