saved_models_MLP/exp-f-fcc/mlp_ms_fcc_ratio0.8_seed1_epoch300.pt (torch, 38935 bytes, 5 tensors)

module_list.0.weight f4 [128, 6]
0.20255901 0.2081421 -0.054661456 0.45884433 0.33683884 -0.40093356 -0.20650367 0.3824587
0.26182798 0.34176278 -0.77099484 0.050090015 -0.34015995 0.12328747 -0.40869895 -0.39428315
0.14868487 -0.35683057 0.18317538 -0.039804935 0.463638 0.54345256 -0.8723888 -0.30270746
0.18677877 0.29102057 -0.38388512 0.08376225 0.122020885 0.2233653 -0.03525952 -0.36940163
0.44211546 -0.23000218 -0.85308117 0.032711655 -0.13924702 -0.29254824 0.30887586 -0.49786025
-0.70483124 -0.02276355 0.18714395 0.07780699 -0.27982172 -0.16063197 0.2067635 0.055922955
-0.1952344 -0.21061875 -0.2487275 0.51357543 -0.34013748 0.26862127 0.26937178 -0.12794727
0.16498125 0.26171523 0.3017189 -0.20240183 0.22861938 0.32677916 -0.3301734 0.38255572
-0.37190437 -0.3873574 0.38433254 0.09761718 0.035741694 0.5322752 -0.097209655 0.30822432
-0.12524277 -0.00955723 0.15805292 0.18982321 0.2338982 0.3108287 -0.17000724 0.482607
0.2592212 -0.18722707 -0.3861074 0.30210173 -0.018148702 0.112304956 0.24275634 -0.44665712
-0.23773849 -0.08205351 0.321152 -0.14150271 -0.49824476 -0.5066921 0.49459445 0.38876045
-0.09453845 0.44834957 -0.27294874 0.04187614 0.108654365 -0.18263538 -0.1775258 0.31260282
0.44284746 -0.21620692 0.5632053 -0.35256523 0.09862636 -0.074319266 0.11917805 0.23515332
0.06792376 0.15649766 0.052158486 0.14397039 0.31605428 0.53886634 -0.8346751 -0.24900778
0.051529363 0.1842591 0.2890438 -0.27229068 0.017645013 0.39097077 -0.018265832 0.067739345
0.08360859 -0.22096248 0.57041043 0.054812282 -0.22612637 -0.22083189 -0.41854215 -0.11250736
-0.1736306 0.1871323 -0.06659122 -0.19398327 0.09808698 -0.059128813 -0.33124977 0.26622117
-0.13424417 0.29984328 -0.048833955 -0.29248002 -0.4802191 -0.11820978 0.080908045 0.12829179
0.1393592 0.37413993 0.14028977 0.043256134 -0.19675906 -0.37268022 -0.010282758 0.16355978
0.39318886 -0.25078714 0.17947425 0.17301449 -0.16960935 -0.79090255 0.15864679 -0.116880536
-0.19502725 0.2722514 0.16108167 0.41245154 -0.21024004 0.04363683 0.16067253 0.34691158
-0.27816057 -0.18352152 -0.46854442 -0.3608381 0.33941698 -0.44764456 0.1874419 0.0467653
-0.6061547 0.2464509 0.15722777 0.33655602 0.5698499 -0.31080315 0.1381381 -0.3737988
0.0642171 -0.26057723 0.08469108 0.7043463 -0.03457289 -0.00061005354 0.33956614 -0.057778038
0.34376207 0.56296694 -0.14456278 -0.17417741 0.15869285 0.15602827 -0.21902424 0.29800716
0.4338112 -0.32055122 0.3169902 0.03896442 -0.24118799 0.31268147 -0.29547456 0.156492
0.3198168 -0.26802856 -0.3940758 -0.14670436 -0.41974327 0.17007601 -0.03966001 0.17825797
0.08142207 -0.23837858 0.5982793 -0.20479132 0.34819755 0.46203083 0.3287805 -0.41168216
-0.49665943 -0.20439805 0.28695974 -0.063037224 -0.2943589 0.043073256 0.21346994 0.09821528
-0.08757984 -0.44076878 0.09849647 0.77670884 0.22860207 -0.28853387 -0.006316809 -0.3542712
-0.31218657 0.33458978 0.4319968 -0.32230872 0.34945714 -0.08554629 -0.02203439 -0.25700444
00000000: a16b 4f3e 3423 553e b1e4 5fbd a5ed ea3e
00000010: 2476 ac3e 2a47 cdbe b375 53be a0d1 c33e
00000020: 510e 863e 88fb ae3e eb5f 45bf 302b 4d3d
00000030: 7229 aebe 247e fc3d fd40 d1be 7bdf c9be
00000040: d940 183e 7fb2 b6be 5492 3b3e 800a 23bd
00000050: f661 ed3e b51f 0b3f df54 5fbf 79fc 9abe
00000060: ef42 3f3e a600 953e 978c c4be 8b8b ab3d
00000070: 16e6 f93d e0b9 643e 496c 10bd 3622 bdbe
00000080: f55c e23e b185 6bbe 8763 5abf a8fc 053d
00000090: c596 0ebe e2c8 95be fa24 9e3e 8ae7 febe
000000a0: d26f 34bf a07a babc aaa2 3f3e 4559 9f3d
000000b0: cb44 8fbe b57c 24be d0b9 533e 780f 653d
000000c0: 87eb 47be 71ac 57be 6cb2 7ebe ae79 033f
000000d0: 8026 aebe ba88 893e 19eb 893e 9c04 03be
000000e0: d8f0 283e 8aff 853e e67a 9a3e 6d42 4fbe
000000f0: 331b 6a3e 994f a73e 7d0c a9be 58de c33e
00000100: 406a bebe b653 c6be 3cc7 c43e 84eb c73d
00000110: e265 123d 3043 083f db15 c7bd 94cf 9d3e
00000120: a43f 00be ee95 1cbc a0d8 213e 0461 423e
00000130: 0283 6f3e f024 9f3e 6116 2ebe 4418 f73e
00000140: a4b8 843e 74b8 3fbe deaf c5be 14ad 9a3e
00000150: 96ac 94bc 2400 e63d 1e95 783e 3eb0 e4be
00000160: b871 73be ac0b a8bd 096e a43e 16e6 10be
00000170: f019 ffbe 93b6 01bf 7c3b fd3e 9c0b c73e
00000180: 609d c1bd 138e e53e f0bf 8bbe 5186 2b3d
00000190: 2e86 de3d c504 3bbe 53c9 35be 7a0d a03e
000001a0: e7bc e23e 5965 5dbe 392e 103f 6e83 b4be
000001b0: 9efc c93d b334 98bd 9f13 f43d 08cc 703e
000001c0: 9d1b 8b3d ec40 203e 23a4 553d f96c 133e
000001d0: ded1 a13e 25f3 093f 44ad 55bf e5fb 7ebe
000001e0: 7410 533d 6bae 3c3e 8dfd 933e af69 8bbe
000001f0: 468c 903c 522d c83e 3aa2 95bc edba 8a3d
00000200: fb3a ab3d fd43 62be 6b06 123f d882 603d
00000210: ac8d 67be c121 62be 284b d6be 426a e6bd
00000220: 38cc 31be 9c9f 3f3e fa60 88bd 8da3 46be
00000230: d4e1 c83d 0e31 72bd 9299 a9be 244e 883e
00000240: 4e77 09be 0f85 993e 1d06 48bd f1bf 95be
00000250: 47df f5be f817 f2bd 1eb3 a53d ec5e 033e
00000260: 2eb4 0e3e 458f bf3e 1fa8 0f3e 582d 313d
00000270: 357b 49be f1cf bebe 0379 28bc 377c 273e
00000280: 0d50 c93e 2c67 80be 19c8 373e b62a 313e
00000290: 13ae 2dbe 9778 4abf 4e74 223e 105f efbd
000002a0: 39b5 47be 8964 8b3e 98f2 243e d92c d33e
000002b0: 2a49 57be 88bc 323d 5787 243e 659e b13e
000002c0: 106b 8ebe 11ed 3bbe 0ee5 efbe c5bf b8be
000002d0: 10c8 ad3e ab31 e5be c5f0 3f3e f98c 3f3d
000002e0: f42c 1bbf a05d 7c3e 5100 213e 1251 ac3e
000002f0: afe1 113f 9721 9fbe 1374 0d3e 8e62 bfbe
00000300: 4184 833d 616a 85be 8472 ad3d 0a50 343f
00000310: 4d9c 0dbd 00ec 1fba 9ddb ad3e aaa8 6cbd
00000320: 9501 b03e 9a1e 103f 4408 14be 905b 32be
00000330: 6180 223e e0c5 1f3e e447 60be 6594 983e
00000340: 801c de3e 4a1f a4be 8a4c a23e 2899 1f3d
00000350: fcf9 76be c917 a03e 7148 97be 703f 203e
00000360: 07bf a33e 0a3b 89be 4ec4 c9be ab39 16be
00000370: 97e8 d6be 6828 2e3e 8972 22bd 4289 363e
00000380: 9dc0 a63d 8419 74be d528 193f d1b4 51be
00000390: f346 b23e 4e8f ec3e eb55 a83e 01c8 d2be
000003a0: 254a febe b94d 51be 63ec 923e a919 81bd
000003b0: 36b6 96be 956d 303d dd97 5a3e 1825 c93d
000003c0: 0f5d b3bd 72ac e1be 84b8 c93d 64d6 463f
000003d0: a916 6a3e b6ba 93be 3cfd cebb 0963 b5be
000003e0: ebd6 9fbe 5a4f ab3e af2e dd3e a605 a5be
000003f0: 0cec b23e e532 afbd 7781 b4bc 1696 83be

module_list.0.bias f4 [128]
0.349591 -0.28560305 -0.41987726 -0.043716036 0.016588515 0.14715241 -0.22703764 0.3558771
0.3477958 -0.18305986 0.24255052 0.22900207 -0.3358721 0.057385046 0.032133095 -0.21811827
0.1686683 -0.13010596 0.29731473 -0.21809845 0.35973206 0.3735653 -0.37552384 -0.2956615
0.1353921 0.155886 -0.096315645 -0.308894 -0.08965959 0.15199853 0.014317006 -0.03270783
0.22408164 -0.111876495 0.16283345 -0.25995567 -0.3503633 -0.34359658 -0.33193636 0.1025959
0.08784472 0.37018508 -0.42586574 -0.40806732 0.5197136 0.034682076 0.11542416 0.4218509
0.22729479 0.20850557 0.25157815 0.33477166 -0.07893424 0.2189915 0.02870252 0.4326824
-0.29452255 -0.27960318 0.018905431 -0.4579075 -0.5599561 -0.072011806 -0.2866227 0.2414352
0.3999143 -0.24763554 0.039726738 -0.10908684 0.03175426 -0.26011425 0.34900972 -0.09965691
0.1911777 0.11936444 -0.35963422 -0.4334103 -0.3784426 0.17954521 -0.39676893 0.18995886
-0.17091589 -0.18853234 0.41563392 -0.25232327 -0.39383593 -0.33160096 -0.31512108 -0.30050746
-0.06933473 -0.3510672 0.13877638 0.05035513 0.3813838 0.2589697 0.13031673 -0.23969656
-0.4635981 -0.091937914 0.14347132 0.15843083 -0.13917884 -0.11204504 -0.004255594 -0.25383556
-0.17361991 0.36229238 -0.24097537 -0.1167831 -0.255042 0.21403308 0.32977867 0.43914947
0.13099258 0.27521753 -0.3552293 0.24990483 0.2927743 -0.09163836 0.14125969 0.25262234
-0.078657076 -0.44391277 -0.27312958 -0.051177718 -0.42932445 0.31597087 0.3446117 0.15249962
00000000: 97fd b23e 903a 92be 27fa d6be 960f 33bd
00000010: a3e4 873c 1faf 163e 8e7c 68be 8635 b63e
00000020: 4b12 b23e 0b74 3bbe 2a5f 783e 857f 6a3e
00000030: 6ef7 abbe 950c 6b3d fe9d 033d 655a 5fbe
00000040: 62b7 2c3e 7f3a 05be a339 983e 3355 5fbe
00000050: cd2e b83e f343 bf3e a944 c0be f260 97be
00000060: 3aa4 0a3e 94a0 1f3e 2341 c5bd 5b27 9ebe
00000070: 729f b7bd 81a5 1b3e e091 6a3c a5f8 05bd
00000080: a875 653e 811f e5bd d0bd 263e e918 85be
00000090: d262 b3be e4eb afbe 90f3 a9be cd1d d23d
000000a0: efe7 b33d e688 bd3e 130b dabe 33ee d0be
000000b0: f30b 053f cb0e 0e3d 8163 ec3d d7fc d73e
000000c0: f7bf 683e 7c82 553e dace 803e 3167 ab3e
000000d0: 46a8 a1bd 4f3f 603e 8c21 eb3c 8c88 dd3e
000000e0: a9cb 96be 2628 8fbe 90df 9a3c da72 eabe
000000f0: 4859 0fbf ed7a 93bd 36c0 92be ca3a 773e
00000100: 91c1 cc3e 2c94 7dbe 81b8 223d ec68 dfbd
00000110: c110 023d b22d 85be 67b1 b23e ec18 ccbd
00000120: 16c4 433e 5875 f43d fa21 b8be f4e7 ddbe
00000130: 3ac3 c1be b3da 373e 4c25 cbbe 9384 423e
00000140: 9304 2fbe 9f0e 41be f8cd d43e 8430 81be
00000150: dda4 c9be 9ac7 a9be 8d57 a1be 1ddc 99be
00000160: 5eff 8dbd 14bf b3be 651b 0e3e 2e41 4e3d
00000170: bd44 c33e ad97 843e c071 053e 0473 75be
00000180: bb5c edbe f249 bcbd 25ea 123e b13b 223e
00000190: e684 0ebe df77 e5bd 8372 8bbb bcf6 81be
000001a0: 6bc9 31be 637e b93e 3fc2 76be fa2b efbd
000001b0: dd94 82be 7d2b 5b3e c0d8 a83e 33d8 e03e
000001c0: eb22 063e 50e9 8c3e 9de0 b5be 0de7 7f3e
000001d0: 83e6 953e e4ac bbbd 61a6 103e b757 813e
000001e0: f616 a1bd 8948 e3be a4d7 8bbe ba9f 51bd
000001f0: 6ad0 dbbe efc6 a13e f270 b03e dc28 1c3e

module_list.1.0.weight f4 [64, 128]
-0.06377151 -0.029108116 -0.010427907 0.024463661 -0.022614695 -0.01126413 0.12384629 -0.094103605
0.064071454 -0.061361413 0.040739633 -0.04433652 -0.06645531 0.09911367 -0.04240786 -0.07368192
-0.038824707 -0.031002106 -0.10578334 0.061717544 -0.05346431 -0.025077097 0.071470685 -0.096255384
0.10113463 -0.13224748 -0.06691852 0.010053376 -0.013858152 0.014560219 -0.036188554 -0.09611445
-0.06308047 -1.7657594e-05 -0.06209218 0.022851085 -0.03177669 -0.052986264 -0.061874904 -0.04277008
-0.022136899 0.0062711425 -0.066503644 0.03308048 0.034452993 -0.09538793 0.058475867 0.10216404
-0.11988367 -0.05570794 0.049731914 0.102005325 0.09352453 -0.07718455 0.082466975 -0.015905876
-0.080486566 0.00061125815 -0.076445766 0.0036849738 0.07134264 0.003053123 0.012266166 0.032547187
0.043888662 0.011588528 -0.028496884 0.0969457 -0.1372133 -0.05977253 0.044765957 0.02832845
-0.054252647 0.0523381 -0.00030356884 -0.046360817 -0.0852521 -0.025330575 0.028557936 0.014475569
-0.07082892 -0.044600587 -0.092707306 0.05019081 -0.042524643 -0.034033377 0.040511202 -0.097119495
2.454889e-05 0.1084267 0.11845022 0.041912355 -0.104327366 0.047943506 -0.019051546 0.06679504
-0.017501768 -0.025515253 -0.032057572 -0.02263844 0.025051128 -0.05577755 -0.050113536 0.036922794
0.060919452 -0.04802347 0.12164555 -0.01166436 -0.0440052 0.013460316 -0.007871143 0.07310216
-0.062429998 0.055160638 0.043181412 -0.12114118 -0.022001123 -0.032501496 -0.12799795 -0.015641352
0.052250564 0.024131542 0.009017933 -0.041467153 0.013587825 -0.008191706 0.024664663 0.106575
-0.02199102 -0.12270405 0.07004 -0.19752426 0.068477355 -0.16532436 -0.1429913 0.06392918
-0.01910576 -0.0270591 0.023038063 -0.04164276 -0.0071520484 0.04570024 0.014505396 0.10150585
0.028095238 0.07795724 0.010674111 -0.26424167 0.08069899 0.16461651 -0.08635419 -0.1091055
0.00014930601 0.041260865 0.012416225 0.05700151 -0.07116844 0.018050592 -0.02367781 -0.045278918
0.03931185 -0.06021837 0.098826 -0.08986034 -0.07248795 0.06893572 -0.086619124 -0.04860969
0.006387922 0.08203028 0.0034084187 -0.10023567 -0.011103661 -0.030226873 0.025603259 0.047650374
0.039594676 -0.04040886 0.07306629 -0.07988426 -0.0046195216 -0.0027598909 -0.04110417 0.022553744
-0.014159964 0.061924696 -0.024103047 -0.12897755 -0.114633985 0.07192406 -0.18733044 0.04906393
-0.075327456 0.05824351 -0.03892767 -0.048563026 0.19438289 -0.0068893377 -0.008681163 -0.027984576
-0.08542496 0.011534179 -0.013722179 0.0030940296 -0.0421675 -0.011706973 -0.02356579 0.0009911661
-0.055952847 -0.063557714 0.17285538 -0.045808773 0.0070567396 -0.04816658 0.097314544 -0.002187314
-0.11903406 -0.053617727 -0.028838417 -0.05801325 -0.060186964 -0.05645412 -0.06457155 -0.17199175
0.017990336 -0.18782267 -0.18437551 -0.003424407 0.01854193 0.017411314 -0.070454165 -0.034232814
0.018460432 -0.08662542 -0.14115517 -0.13405779 0.047496524 -0.120561495 0.085733294 -0.009849867
0.0024190277 -0.021234604 -0.0064663766 0.04556273 -0.0010405197 -0.0073375804 -0.02639902 0.017816665
0.18606292 -0.056479402 -0.08406013 -0.00911517 -0.048402235 -0.00714211 -0.0060360217 0.0022382117
00000000: a39a 82bd 2574 eebc d0d9 2abc 0468 c83c
00000010: 7442 b9bc 2f8d 38bc 20a3 fd3d 64b9 c0bd
00000020: e537 833d 1b56 7bbd 9ade 263d 369a 35bd
00000030: b919 88bd 1cfc ca3d ddb3 2dbd 8ce6 96bd
00000040: a806 1fbd 21f8 fdbc f0a4 d8bd 89cb 7c3d
00000050: 64fd 5abd 7c6e cdbc 395f 923d 8b21 c5bd
00000060: ac1f cf3d e26b 07be 940c 89bd eab6 243c
00000070: 4d0d 63bc fc8d 6e3c 733a 14bd a7d7 c4bd
00000080: 5530 81bd 651f 94b7 5f54 7ebd 3332 bb3c
00000090: 4628 02bd 2008 59bd 8a70 7dbd ae2f 2fbd
000000a0: 7158 b5bc 287e cd3b 1033 88bd 667f 073d
000000b0: 951e 0d3d bf5a c3bd 6484 6f3d 613b d13d
000000c0: 9285 f5bd 022e 64bd b1b3 4b3d 2be8 d03d
000000d0: ca89 bf3d ef12 9ebd 72e4 a83d 0a4d 82bc
000000e0: 24d6 a4bd d73c 203a 998f 9cbd 9a7f 713b
000000f0: 171c 923d e716 483b 07f8 483c 3350 053d
00000100: 99c4 333d cfdd 3d3c 4c72 e9bc 788b c63d
00000110: a581 0cbe 0ad4 74bd 825c 373d 1111 e83c
00000120: 0638 5ebd 7a60 563d 5228 9fb9 d7e4 3dbd
00000130: a798 aebd 1182 cfbc 55f2 e93c f02a 6d3c
00000140: c10e 91bd 1baf 36bd 54dd bdbd e194 4d3d
00000150: 522e 2ebd 9566 0bbd 13ef 253d 96e6 c6bd
00000160: 57ee cd37 d10e de3d 0796 f23d 4aac 2b3d
00000170: 96a9 d5bd 6960 443d fd11 9cbc d7cb 883d
00000180: de5f 8fbc 5d05 d1bc cd4e 03bd 4074 b9bc
00000190: 0638 cd3c 0077 64bd da43 4dbd 5b3c 173d
000001a0: ad86 793d 42b4 44bd 4d21 f93d df1b 3fbc
000001b0: cc3e 34bd a888 5c3c f7f5 00bc 96b6 953d
000001c0: 99b6 7fbd 1ff0 613d fede 303d de18 f8bd
000001d0: b33b b4bc 4a20 05bd e511 03be 4b22 80bc
000001e0: b004 563d 83af c53c f4bf 133c 76d9 29bd
000001f0: 789f 5e3c 8136 06bc 8c0d ca3c fe43 da3d
00000200: 8326 b4bc 434c fbbd 2271 8f3d cd43 4abe
00000210: db3d 8c3d ca4a 29be 506c 12be 4ded 823d
00000220: af83 9cbc 0cab ddbc 52ba bc3c 9991 2abd
00000230: bb5b eabb 2d30 3b3d 0aa8 6d3c 4de2 cf3d
00000240: fc27 e63c 0ca8 9f3d 77e2 2e3c af4a 87be
00000250: 8345 a53d 3b91 283e 77da b0bd b472 dfbd
00000260: 078f 1c39 2701 293d 6c6d 4b3c 6a7a 693d
00000270: c2c0 91bd d6de 933c f7f7 c1bc 6376 39bd
00000280: 7605 213d 8aa7 76bd 4965 ca3d b308 b8bd
00000290: 9074 94bd 2c2e 8d3d 5e65 b1bd f41a 47bd
000002a0: c651 d13b 7eff a73d c75f 5f3b 5c48 cdbd
000002b0: 21ec 35bc 599e f7bc edbd d13c 0a2d 433d
000002c0: 072e 223d c383 25bd c7a3 953d 5c9a a3bd
000002d0: 5b5f 97bb 49df 34bb d95c 28bd a1c2 b83c
000002e0: 32ff 67bc c0a4 7d3d c173 c5bc b112 04be
000002f0: 39c5 eabd ec4c 933d 8dd3 3fbe 42f7 483d
00000300: 4845 9abd bf90 6e3d 9f72 1fbd 06ea 46bd
00000310: 4f0c 473e f4bf e1bb 703b 0ebc e93f e5bc
00000320: 48f3 aebd daf9 3c3c fed2 60bc 34c5 4a3b
00000330: d4b7 2cbd 9bce 3fbc 0b0d c1bc 04ea 813a
00000340: d02e 65bd 8c2a 82bd 0001 313e fba1 3bbd
00000350: 393c e73b 524a 45bd d94c c73d 0a59 0fbb
00000360: 21c8 f3bd 439e 5bbd 8b3e ecbc 4d9f 6dbd
00000370: 9b86 76bd 6f3c 67bd 173e 84bd 9b1e 30be
00000380: 7860 933c 9654 40be efcc 3cbe 046c 60bb
00000390: 3fe5 973c 2ca2 8e3c 464a 90bd b537 0cbd
000003a0: 553a 973c ab68 b1bd fb8a 10be 7246 09be
000003b0: b78b 423d f2e8 f6bd f094 af3d 5661 21bc
000003c0: 8d88 1e3b 31f4 adbc e6e3 d3bb fc9f 3a3d
000003d0: 0c62 88ba 1670 f0bb c242 d8bc 41f4 913c
000003e0: 4787 3e3e f256 67bd b827 acbd cb57 15bc
000003f0: 6c41 46bd 5c08 eabb d2c9 c5bb f6ae 123b

module_list.1.0.bias f4 [64]
-0.0694143 0.023348188 -0.01704984 0.073541805 0.035346102 0.032620575 0.011257384 -0.094872534
-0.053530835 0.009686438 -0.059813622 -0.009120953 0.05287919 -0.05964898 0.08227185 -0.02938034
0.013018337 0.031832766 -0.0067536137 -0.09308337 -0.02660205 0.010083023 0.0029859717 -0.07326018
0.06249791 -0.026780346 -0.00051665923 -0.023537043 -0.10917951 -0.055249788 0.054371372 -0.03548502
-0.049199548 0.020922739 -0.053202745 0.06934012 0.023612726 -0.026559688 -0.041835587 0.11011388
-0.033031963 -0.004993188 0.03874611 -0.068277776 0.07065524 -0.051485784 0.045285426 0.030165281
-0.07303708 0.0034544605 0.062340267 0.012174479 -0.10576761 0.0058712587 0.05804434 -0.0030438022
-0.10992151 0.035448063 -0.05119818 0.07200765 0.025169125 -0.16136414 -0.1530334 -0.13169748
00000000: 1629 8ebd b344 bf3c 1bac 8bbc 169d 963d
00000010: 13c7 103d 279d 053d e470 383c 884c c2bd
00000020: 2643 5bbd deb3 1e3c 21ff 74bd 0d70 15bc
00000030: d997 583d 7d52 74bd 257e a83d 0aaf f0bc
00000040: dd4a 553c 1363 023d 6b4d ddbb 7ea2 bebd
00000050: 8bec d9bc 4433 253c 4bb0 433b 6f09 96bd
00000060: cffd 7f3d 7562 dbbc 6a70 07ba c2d0 c0bc
00000070: 8299 dfbd 9a4d 62bd 84b4 5e3d be58 11bd
00000080: 7785 49bd 2a66 ab3c 1feb 59bd 3102 8e3d
00000090: 7a6f c13c b493 d9bc cb5b 2bbd 6383 e13d
000000a0: 864c 07bd e69d a3bb 3eb4 1e3d 38d5 8bbd
000000b0: b2b3 903d c2e2 52bd 367d 393d 2e1d f73c
000000c0: 7794 95bd 3b64 623b 8258 7f3d 7777 473c
000000d0: b09c d8bd b063 c03b e7bf 6d3d 877a 47bb
000000e0: 871e e1bd fd31 113d 2fb5 51bd bf78 933d
000000f0: 7b2f ce3c a43c 25be cab4 1cbe b4db 06be

module_list.2.weight f4 [1, 64]
0.14285304 -0.2572205 0.03003677 0.13760836 -0.08597395 0.06645189 0.106272124 -0.027522419
-0.051173132 0.18476863 -0.05245892 -0.017054014 -0.092677034 0.08171948 -0.16212152 0.045015413
0.089164585 0.13427849 -0.1852223 -0.020086331 0.091492236 -0.13336718 0.09447922 0.055594638
-0.07459555 0.053503342 -0.043563288 -0.20548712 0.10452881 0.25373462 -0.10172697 0.09504955
-0.10165017 0.094834 0.15396158 0.087761335 -0.064798795 -0.11057334 -0.13436024 0.114045456
-0.14038575 0.05069768 0.025342284 -0.049057692 0.078756735 -0.21372361 -0.0871823 0.11592712
-0.1730816 -0.06887536 0.14273697 -0.10762986 -0.06940824 0.08055804 -0.06328285 -0.16627878
0.1070014 -0.025792798 -0.012666978 0.1474812 -0.046885364 -0.06521787 -0.2676779 -0.115273684
00000000: 1148 123e 68b2 83be ac0f f63c 35e9 0c3e
00000010: 1c13 b0bd ee17 883d 33a5 d93d b276 e1bc
00000020: eb9a 51bd fd33 3d3e 2adf 56bd dcb4 8bbc
00000030: 75cd bdbd 8b5c a73d 2f03 26be 1562 383d
00000040: ec9b b63d 4d80 093e eaaa 3dbe 178c a4bc
00000050: 4860 bb3d 6891 08be 527e c13d 34b7 633d
00000060: 8dc5 98bd 5226 5b3d 6b6f 32bd 376b 52be
00000070: 3313 d63d 81e9 813e 3b56 d0bd 57a9 c23d
00000080: f72d d0bd 5438 c23d 1ba8 1d3e 37bc b33d
00000090: 3bb5 84bd 4674 e2bd bb95 09be aa90 e93d
000000a0: 48c1 0fbe 5fa8 4f3d 9f9a cf3c b8f0 48bd
000000b0: 364b a13d 5dda 5abe a28c b2bd 336b ed3d
000000c0: 4e3c 31be 860e 8dbd a429 123e 0b6d dcbd
000000d0: e825 8ebd 9dfb a43d 709a 81bd fc44 2abe
000000e0: 8d23 db3d 6b4b d3bc 2889 4fbc 5005 173e
000000f0: de0a 40bd f290 85bd 140d 89be 9c14 ecbd
