saved_models_MLP/exp-f-bcc/mlp_ms_bcc_ratio0.8_seed4_epoch300.pt (torch, 38935 bytes, 5 tensors)

module_list.0.weight f4 [128, 6]
0	0xbd07cf05	-0.033156414
1	0xbecbba56	-0.397906
2	0x3d8f9de8	0.0701254
3	0xbd89f7bb	-0.06736704
4	0xbec94fea	-0.39318782
5	0xbeb29ffa	-0.34887677
6	0xbd8e9246	-0.06961493
7	0x3dc4e16a	0.09613307
8	0x3e59d117	0.21271168
9	0xbcae3965	-0.021267602
10	0xbc359ee2	-0.011085244
11	0xbd26b1e0	-0.04069698
12	0x3dc5586b	0.09636005
13	0x3ed59a10	0.41719103
14	0x3bff8e7c	0.007798968
15	0xbeee48bc	-0.46539867
16	0x3cd8cf22	0.026465956
17	0xbe9d8ef0	-0.30773115
18	0xbd36cf0c	-0.04463105
19	0xbe48d884	-0.19613844
20	0xbebc108e	-0.3673138
21	0xbd0cf6b0	-0.034414947
22	0x3ed006e7	0.40630266
23	0xbebae50b	-0.3650287
24	0x3e826237	0.25465557
25	0x3ea7dbaf	0.32784793
26	0xbd6c420e	-0.057680182
27	0x3eba677f	0.36407086
28	0x3c31a222	0.010841878
29	0x3e175714	0.14779311
30	0xbce2e0fa	-0.027695168
31	0xbf0e75dd	-0.55648595
32	0xbe3ddfc7	-0.18542396
33	0xbeda9064	-0.42688286
34	0x3ef2b193	0.47401103
35	0x3e5f114c	0.21783942
36	0xbe898bd4	-0.26864493
37	0xbe4c8aa7	-0.19974767
38	0x3d3e5ae4	0.0464734
39	0xbf335a89	-0.7006002
40	0x3da5e034	0.08099404
41	0x3ddba850	0.107254624
42	0x3e3d2693	0.18471746
43	0xbdb853d3	-0.09000363
44	0x3dd42e6f	0.10360419
45	0xbe082a9c	-0.13297504
46	0xbd9bb728	-0.07603294
47	0xbebfbf6b	-0.37450728
48	0x3e7b3124	0.24530464
49	0xbe9cefbb	-0.3065165
50	0xbd554f70	-0.05207771
51	0xbe35b523	-0.1774488
52	0x3eead1ec	0.45863283
53	0xbe359620	-0.1773305
54	0xbc4873c0	-0.012234628
55	0xbed00c36	-0.40634316
56	0xbebedef6	-0.3727948
57	0xbd3b3c01	-0.04571152
58	0xbe28fb53	-0.16502123
59	0xbe8052ac	-0.25063074
60	0x3e43dbb7	0.19126783
61	0x3e585cae	0.21129104
62	0x3eb3b12b	0.35096106
63	0x3c70800e	0.014678968
64	0xbe3d2581	-0.18471338
65	0xbdbe19dc	-0.09282276
66	0x3e649518	0.223225
67	0x3e50c650	0.2038815
68	0x3e90e515	0.28299776
69	0xbf14da31	-0.58145434
70	0xbd215dcc	-0.039396092
71	0xbe079e50	-0.13243985
72	0x3e0cf237	0.13764273
73	0x3ee58e99	0.44835356
74	0x3d249d47	0.040189054
75	0xbebe6fef	-0.37194774
76	0xbec0fcb2	-0.3769279
77	0x3c45eb40	0.012080014
78	0xbc893a2e	-0.016751375
79	0x3ecb4054	0.39697516
80	0x3e2166dc	0.15761894
81	0x3dd07780	0.10179043
82	0xbee6b7a2	-0.45061976
83	0x3e0b6548	0.13612854
84	0x3eb4076b	0.3516191
85	0xbead18ac	-0.33807886
86	0x3d4def9c	0.050277337
87	0x3e4a3cc6	0.19749746
88	0x3e807956	0.25092572
89	0xbecaaf19	-0.39586714
90	0xbe8ee110	-0.27906084
91	0x3cfd5c4a	0.030927796
92	0x3e1ce831	0.15322949
93	0x3e7eebc5	0.24894626
94	0xbe9bb617	-0.3041236
95	0xbcee3350	-0.029077202
96	0x3d87a821	0.06623865
97	0xbdcf9dca	-0.10137518
98	0x3eed7c08	0.4638369
99	0xbc8397ab	-0.016063532
100	0xbf1ce4d3	-0.6128666
101	0xbdcb39d0	-0.09923136
102	0x3dc206a4	0.09473923
103	0xbeb1c6f9	-0.34722117
104	0x3dd56229	0.10419113
105	0xbecae903	-0.396309
106	0xbe392582	-0.18080714
107	0x3d803224	0.062595636
108	0xbc3b456c	-0.011430126
109	0x3ec18f9b	0.37804875
110	0x3db2ef71	0.08737076
111	0xbe950ad8	-0.29109836
112	0xb9dc62d0	-0.0004203529
113	0xbe820e46	-0.25401515
114	0xbdaefa49	-0.08543832
115	0xbd8de298	-0.06927985
116	0x3e6636f0	0.22481894
117	0x3e0b91f3	0.13629894
118	0xbef9b09f	-0.48767564
119	0x3e81354c	0.25235975
120	0x3e701f17	0.2344936
121	0xbe9cd00d	-0.3062748
122	0x3edaf6da	0.42766458
123	0xbe87f0bc	-0.26550853
124	0x3f14062d	0.57821923
125	0x3eaded72	0.3397022
126	0x3ce6571f	0.028117714
127	0x3e6a724e	0.22895166
128	0x3c5b5ef5	0.013389339
129	0xbe71818d	-0.23584576
130	0xbe375d38	-0.17906654
131	0x3e478a4c	0.1948635
132	0x3cfb11b5	0.030648092
133	0xbecab287	-0.3958933
134	0x3eb2303a	0.3480242
135	0xbf26d28f	-0.65165037
136	0x3da692a9	0.08133442
137	0x3b8cedc0	0.004300803
138	0x3cfdb87d	0.03097176
139	0x3b3af6fe	0.0028528566
140	0xbe9d72c0	-0.3075161
141	0x3f0247b2	0.5089065
142	0x3eea4ad5	0.45760217
143	0x3e54e900	0.20792007
144	0xbea3e629	-0.32011536
145	0x3e879dad	0.26487485
146	0x3e02c098	0.12768781
147	0x3e8cbd55	0.274882
148	0xbf102e6c	-0.56320834
149	0x3e4bae04	0.198906
150	0x3e5ffc88	0.21873677
151	0x3e815bee	0.2526545
152	0xbe8fbb16	-0.28072423
153	0x3f251e2b	0.6449916
154	0xbea4a36d	-0.32155934
155	0xbe0cbd7e	-0.1374416
156	0x3bbd2057	0.0057716775
157	0xbee4b468	-0.4466889
158	0xbe715c3c	-0.23570341
159	0xbd8fbdfb	-0.07018658
160	0x3e14953a	0.1451005
161	0x3ec21612	0.37907463
162	0xbdb179c9	-0.08665807
163	0x3db659e6	0.089038655
164	0x3ed969b1	0.4246345
165	0xbc3a53d0	-0.0113725215
166	0xbe4c671a	-0.19961205
167	0x3dc278d8	0.09495705
168	0x3eb39c91	0.35080388
169	0x3e88662a	0.26640445
170	0x3ef37f93	0.4755827
171	0xbeb6be93	-0.35692272
172	0xbe62bc9e	-0.22142264
173	0xbe253081	-0.16131784
174	0x3e83d290	0.25746584
175	0xbe945647	-0.28972074
176	0x3e555822	0.20834401
177	0xbe9a5ae7	-0.30147478
178	0x3e02665a	0.12734357
179	0x3eca8b88	0.3955958
180	0xbe817432	-0.25283962
181	0xbee74348	-0.4516852
182	0xbd4ef429	-0.050525818
183	0xbe149c8a	-0.1451284
184	0x3d3de345	0.04635932
185	0xbe2ccdcd	-0.16875382
186	0xbe20738c	-0.15669078
187	0xbe8bcfb7	-0.2730691
188	0xbe47c286	-0.19507799
189	0x3e8604b2	0.26175457
190	0x3e930856	0.28717297
191	0x3e8f8f16	0.28038853
192	0x3e5af735	0.21383364
193	0xbeb18ba0	-0.34676838
194	0xbe169859	-0.14706554
195	0xbe698192	-0.22803333
196	0x3d98ca8c	0.07460508
197	0x3e16e67c	0.1473636
198	0xbe0262fd	-0.12733074
199	0x3d599d1c	0.053128347
200	0x3cabd186	0.020973932
201	0xbe368cbe	-0.17827126
202	0x3e2f45d1	0.17116477
203	0x3e458660	0.19289541
204	0xbcd191f0	-0.025582284
205	0x3ee4f8ea	0.44721156
206	0x3de3ec71	0.11129082
207	0xbef4ef35	-0.4783875
208	0x3df50c49	0.11965234
209	0xbe28edd2	-0.16496971
210	0x3ddd6e00	0.108119965
211	0x3dbaf390	0.09128487
212	0x3d994c9e	0.07485317
213	0xbe932710	-0.2874074
214	0xbda256b1	-0.07926691
215	0xbe88594e	-0.26630634
216	0xbd9a77bd	-0.075423695
217	0xbc9ec14c	-0.01937928
218	0xbee75ab2	-0.45186383
219	0x3f05151e	0.5198535
220	0xbefc6990	-0.49299288
221	0xbeb7c72e	-0.3589415
222	0x3eb59b60	0.35470104
223	0x3e41d4c0	0.18928814
224	0x3e92c31e	0.28664488
225	0xbe136b02	-0.14396289
226	0xbdd32456	-0.10309665
227	0x3e61e628	0.22060454
228	0xbe523fc6	-0.2053214
229	0x3e494140	0.19653797
230	0x3eba2ac3	0.3636075
231	0x3f1e3b71	0.6180945
232	0x3f0c67aa	0.5484568
233	0xbe25d07c	-0.16192812
234	0xbe834df5	-0.25645414
235	0xbe5835d9	-0.21114291
236	0x3e9784a9	0.295934
237	0xbf0952de	-0.5364207
238	0x3d0af65d	0.033926357
239	0x3e744ae4	0.23856694
240	0x3e84758a	0.25870925
241	0xbe38cbfc	-0.18046564
242	0xbed0d862	-0.40790087
243	0x3e839a7e	0.25703806
244	0xbebafe4a	-0.36522132
245	0xbda1096c	-0.07863125
246	0xbdb9de5e	-0.09075616
247	0x3ec344a4	0.38138306
248	0x3d8ed7f9	0.06974787
249	0x3e7417c8	0.23837197
250	0x3f1796e1	0.592146
251	0x3e3f76b4	0.18697625
252	0xbe8c1e4f	-0.27366874
253	0x3decd171	0.11563385
254	0xbeb4f7b6	-0.35345238
255	0xbe25db6a	-0.16196981

module_list.0.bias f4 [128]
0	0x3e01f7ae	0.12692139
1	0xbea9b85f	-0.33148476
2	0x3e8e4696	0.27788228
3	0xbe1cc44d	-0.15309258
4	0xbee7b676	-0.45256394
5	0xbd9a7a99	-0.07542915
6	0x3d2edde5	0.042692084
7	0x3e6c20f6	0.23059449
8	0x3e6cbbcf	0.23118518
9	0xbec7c084	-0.39014065
10	0x3db0a478	0.0862512
11	0xbd7e4ffe	-0.062088005
12	0xbde78447	-0.11304527
13	0x3ea75aa6	0.32686347
14	0xbe484b30	-0.19559932
15	0xbeb0ad8c	-0.34507406
16	0x3e9b9a53	0.30391178
17	0xbd79df5f	-0.06100404
18	0x3e9a88c6	0.30182475
19	0x3e61021e	0.21973464
20	0x3eaceae5	0.3377296
21	0xbe63245b	-0.22181837
22	0x3c8e885b	0.017399004
23	0xbc1de22b	-0.009636442
24	0xbea52040	-0.32251167
25	0xbd0e8ad8	-0.03480038
26	0xbe4dc503	-0.20094685
27	0xbe632468	-0.22181857
28	0xbe07b98a	-0.13254371
29	0x3e55a0a3	0.2086206
30	0x3e81a476	0.25320786
31	0x3ebb8ff8	0.36633277
32	0x3e5566ac	0.20839947
33	0xbe6296f4	-0.22127897
34	0xbe5c8a4b	-0.2153713
35	0xbeb96874	-0.36212504
36	0x3ed3b539	0.413492
37	0xbed0ecb8	-0.40805602
38	0x3d54e6d4	0.051977947
39	0x3e1537bd	0.14572044
40	0xbdbe327b	-0.09286972
41	0xbeb3be37	-0.3510606
42	0xbe7cbc7c	-0.24681276
43	0x3e66d51d	0.22542234
44	0xbecdf73d	-0.4022769
45	0x3cdf039d	0.027223403
46	0x3ea94ecd	0.33067933
47	0xbeaf4fff	-0.3424072
48	0xbebbbe44	-0.366686
49	0x3d5dbe37	0.05413648
50	0xbe3792fc	-0.17927164
51	0xbe814bc6	-0.25253123
52	0x3ed671c0	0.4188366
53	0xbe3a9cb3	-0.18223839
54	0xbd9961d3	-0.074893616
55	0xbe86f4f0	-0.26358747
56	0x3ed2aa7e	0.411457
57	0xbea12469	-0.3147309
58	0x3e482a7c	0.19547457
59	0x3eb56510	0.35428667
60	0xbeb2e00c	-0.3493656
61	0x3e51ecd9	0.20500506
62	0x3ea1bb60	0.31588268
63	0xbe918927	-0.2842495
64	0xbe427948	-0.18991578
65	0xbd888430	-0.06665838
66	0xbde1059c	-0.10987398
67	0xbead51bb	-0.33851418
68	0xbee20657	-0.44145462
69	0xbedb60f9	-0.42847422
70	0xbe8ca9dc	-0.27473342
71	0xbede6bb1	-0.43441537
72	0xbc93743c	-0.01799976
73	0x3d558695	0.0521303
74	0xbee8f37b	-0.4549826
75	0x3ebba9c2	0.36652952
76	0xbe827c74	-0.25485575
77	0x3e436d7d	0.19084735
78	0x3dc72318	0.097234905
79	0xba9edca6	-0.0012120202
80	0xbed40e5d	-0.41417208
81	0x3e019747	0.12655364
82	0x3e5aa3a7	0.21351491
83	0xbe6cedd0	-0.23137593
84	0xbed39bb6	-0.41329736
85	0x3ec20a42	0.3789845
86	0x3e3be25a	0.18348065
87	0x3e1ec43c	0.15504545
88	0xbd5e36ec	-0.054251596
89	0x3da3d13e	0.07998894
90	0xbe2cce02	-0.1687546
91	0xbea5a781	-0.32354358
92	0xbe0d5609	-0.13802351
93	0xbe98f30e	-0.29872936
94	0x3c276597	0.010217092
95	0xbe9c2312	-0.30495507
96	0x3dac2ee0	0.08407378
97	0xbe9eefee	-0.31042427
98	0x3ea6fd54	0.3261515
99	0xbc5134a9	-0.012768903
100	0x3e9c724e	0.30555958
101	0x3eaa54b3	0.33267745
102	0xbe9717ab	-0.29510245
103	0xbd58f56b	-0.052968424
104	0x3e9fdf98	0.31225276
105	0x3e26f3b2	0.163039
106	0xbda081bc	-0.07837245
107	0x3e92609f	0.2858934
108	0x3ecaafa0	0.39587116
109	0xbecd5ddf	-0.4011068
110	0xbe88252d	-0.26590863
111	0x3dae89b6	0.0852236
112	0xbea527c6	-0.32256907
113	0x3e50746c	0.20356911
114	0xbe27a2e1	-0.16370727
115	0x3ee27e61	0.44237044
116	0x3e3626ce	0.1778824
117	0xbdf2026e	-0.1181687
118	0xbeb29c42	-0.3488484
119	0xbe1ca54f	-0.15297435
120	0x3eca789f	0.39545152
121	0x3dd376c1	0.10325385
122	0xbe432290	-0.19056153
123	0x3de088e6	0.10963611
124	0xbeca6f71	-0.39538148
125	0x3e3272c5	0.17426594
126	0x3cfc1f6f	0.030776707
127	0x3ea315f9	0.318527

module_list.1.0.weight f4 [64, 128]
0	0x3d915502	0.07096292
1	0xbda3be0d	-0.07995234
2	0xbdaf1e64	-0.085507184
3	0xbc6fc3f3	-0.01463412
4	0xbdda6a17	-0.10664766
5	0x3da2823c	0.079349965
6	0x3d9b2e6f	0.07577216
7	0xbd19d078	-0.037552327
8	0xbb16ff50	-0.0023040362
9	0x3dd51764	0.10404852
10	0xbc65b5fc	-0.014020439
11	0xbcf65462	-0.030069534
12	0xbcd83d91	-0.026396545
13	0xbcaee212	-0.021348033
14	0x3bb5252c	0.005528113
15	0x3c4e3719	0.0125863785
16	0x3d6b5bd4	0.05746062
17	0x3d04dd9d	0.03243791
18	0xbdf27592	-0.11838831
19	0x3d829a41	0.06377078
20	0xbd55c92d	-0.05219381
21	0xbe1abb0a	-0.15110412
22	0xbd176c84	-0.036968723
23	0xbc13195d	-0.008978215
24	0xbda77be1	-0.08177925
25	0x3d926d37	0.07149737
26	0x3dd07934	0.10179368
27	0x3cbbd8ae	0.02293047
28	0xbdbe6d6b	-0.092982136
29	0xbd5af887	-0.05345967
30	0x3a1d8d22	0.0006010105
31	0x3d8a310f	0.067476384
32	0x3deb7ecf	0.11498796
33	0xbd622ef5	-0.055220563
34	0xbe506fee	-0.20355198
35	0xbd815b8d	-0.0631629
36	0x3e0e9728	0.13924849
37	0x3cc1a111	0.023636373
38	0x3d0796a5	0.03310265
39	0xbc8be7aa	-0.01707824
40	0x3c99890b	0.018742105
41	0xbe070a28	-0.13187468
42	0xbcc01dd2	-0.02345172
43	0x3d3fabe3	0.046794783
44	0xbd413c1e	-0.047176473
45	0xbde69ff9	-0.11260981
46	0x3d8239f6	0.063587114
47	0xbdb25785	-0.08708099
48	0xbd8b7b3d	-0.06810615
49	0xbdd284ab	-0.10279211
50	0xbc515865	-0.012777423
51	0xbc8d5b7a	-0.017255533
52	0x3d29b36f	0.041430887
53	0xbd1e4daa	-0.038648285
54	0x3bcabb30	0.0061868653
55	0x3dba2bab	0.0909036
56	0x3e3a5c41	0.18199255
57	0xbd7b015d	-0.061280597
58	0x3db46258	0.0880782
59	0xbb3963bf	-0.0028288213
60	0xbc93da04	-0.018048294
61	0xbd772d89	-0.06034616
62	0x3d570b9f	0.052501317
63	0x3d1323f2	0.035922952
64	0x3d85b43c	0.065285176
65	0x3b982b2c	0.0046438184
66	0xbe0bad39	-0.13640298
67	0xbb9cc62c	-0.004784366
68	0x3c0ebf31	0.008712576
69	0x3d30a257	0.04312357
70	0x3cf3e9fb	0.029774657
71	0xbdf335fa	-0.118755296
72	0x3e0bf931	0.13669278
73	0xbdd49e06	-0.10381703
74	0xbd963803	-0.07334902
75	0xbc03b076	-0.008037677
76	0xbc5c651b	-0.01345184
77	0x3d3c63cb	0.045993607
78	0x3da7a125	0.08185033
79	0x3bbb4b5c	0.0057157706
80	0x3cc10ca2	0.023565594
81	0xbdd82e02	-0.1055565
82	0xbd34ec21	-0.044170503
83	0x3d895b36	0.0670685
84	0xbda02981	-0.07820416
85	0x3d5543be	0.052066557
86	0x3d5ec303	0.054385196
87	0xbd0141d3	-0.031556915
88	0x3dc6c14b	0.097048365
89	0x3c61121a	0.013737226
90	0xbdb6c46d	-0.08924184
91	0x3caf5402	0.021402363
92	0xbcbbd5e5	-0.022929141
93	0xbd8b4e1f	-0.0680201
94	0x3d3a1edf	0.045439597
95	0xbdcc60c4	-0.09979394
96	0x3caa386e	0.02077886
97	0x3dc348bf	0.095353596
98	0xbe1bbde6	-0.1520916
99	0x3c8aad07	0.016928209
100	0x3db82688	0.08991724
101	0xbcfb492e	-0.030674543
102	0x3e0c006a	0.13672033
103	0xbda8e38b	-0.082465254
104	0xbd83d360	-0.06436801
105	0x3df47bc7	0.11937671
106	0x3d127f13	0.03576572
107	0x3d48c9d2	0.049020596
108	0x3d0b7443	0.034046423
109	0xbd8fed41	-0.070276745
110	0x3dc5056a	0.09620173
111	0xbcda3174	-0.02663491
112	0xbe4373ec	-0.1908719
113	0xbdc1cc6a	-0.09462817
114	0x3ca14e0e	0.01969054
115	0xbd1cda88	-0.038294345
116	0xbd837579	-0.064188905
117	0xbe0ef0fe	-0.13959119
118	0xbc9c8637	-0.019106967
119	0x3da3f831	0.08006323
120	0xbcae76ff	-0.021296976
121	0x3d9ea485	0.07746223
122	0x3d7cc072	0.061706968
123	0x3d9d84c4	0.07691339
124	0xbb80a9b9	-0.0039264825
125	0x3b8cc811	0.0042963107
126	0xbcf54684	-0.029940851
127	0x3da72966	0.08162193
128	0xbb9b269a	-0.0047348263
129	0xbd06a811	-0.032875124
130	0xbd32fc7e	-0.043697827
131	0xbca21bd4	-0.01978866
132	0x3d829adc	0.06377193
133	0x3d43d6b5	0.047812182
134	0x3cb460dd	0.022018844
135	0x3d79b9c2	0.060968168
136	0x3d49e21b	0.049287897
137	0xbcd58230	-0.026063055
138	0xbd557375	-0.05211206
139	0xbd2f74f0	-0.04283613
140	0xbd0bedf4	-0.034162477
141	0xbe1eaab8	-0.15494812
142	0x3db3721d	0.08762
143	0x3da4fe24	0.08056286
144	0x3cbdf866	0.023189735
145	0x3c27b548	0.010236092
146	0xbd0e1eb8	-0.034697264
147	0xbdd40fe2	-0.10354592
148	0xbd83c669	-0.06434328
149	0xbd8f31d2	-0.06991924
150	0xbbd7fcb1	-0.0065914025
151	0x3dbf891a	0.09352322
152	0xbd75e29f	-0.060030576
153	0xbcb42e70	-0.0219948
154	0x3c877647	0.016535891
155	0x3dc943ff	0.09827422
156	0x3cc199a3	0.02363283
157	0x3d91b707	0.07114988
158	0x3d9f6648	0.077831805
159	0xbc9d938e	-0.019235399
160	0x3cdb7b5b	0.026792219
161	0xbd3cde03	-0.046110164
162	0x3c7650d7	0.015033922
163	0x3db74f6d	0.08950696
164	0xbd9e974b	-0.077437006
165	0x3d46c143	0.048524152
166	0x3c57d5a4	0.0131734945
167	0xbd386999	-0.04502258
168	0x3c14b9ca	0.009077499
169	0x3d6b9602	0.057516105
170	0x3cd51dd2	0.026015196
171	0x3d0f401a	0.03497324
172	0xbd91b446	-0.071144626
173	0xbd0321ce	-0.03201466
174	0xbd85a4f0	-0.065256
175	0xbc1290d0	-0.008945659
176	0x3dc7cd0f	0.09755909
177	0x3adfc67b	0.0017072702
178	0x3dd70c31	0.10500372
179	0x3daeed6e	0.0854138
180	0xbd9e311f	-0.07724213
181	0x3d268952	0.040658303
182	0xbd543fcd	-0.051818658
183	0x3d063940	0.03276944
184	0x3d3797d1	0.044822518
185	0x3d94f355	0.072729744
186	0xbda85c26	-0.08220701
187	0xbda83722	-0.08213641
188	0x3ce3ba33	0.027798748
189	0x3d0bad4d	0.03410082
190	0x3d8716fb	0.0659618
191	0x3dbeb879	0.09312529
192	0xbc22b1d4	-0.009930093
193	0xbce40c0b	-0.027837774
194	0xbcbc7858	-0.023006603
195	0x3db67f6d	0.08911023
196	0x3cdc49f7	0.026890738
197	0x3d4a8083	0.049438965
198	0x3dcac864	0.09901503
199	0xbd9d9426	-0.07694273
200	0x3e1029a0	0.14078379
201	0x3e66f931	0.22555996
202	0xbc4ca919	-0.012491488
203	0xbb05f1e4	-0.0020438368
204	0x3d4ce3d4	0.05002196
205	0x3d30863b	0.043096762
206	0xbe10d9c7	-0.14145575
207	0xbd4bb247	-0.049730565
208	0x3d9dae0d	0.07699213
209	0x3d7944f9	0.060856793
210	0xbe004f64	-0.12530285
211	0xbd9fce0b	-0.078029715
212	0x3cdeefe9	0.027214007
213	0x3d0c7bd9	0.034297798
214	0xbd337d88	-0.043820888
215	0xbd20c291	-0.039248053
216	0x3d531ad1	0.051539246
217	0xbc8c08f2	-0.01709411
218	0x3dbb8354	0.09155908
219	0x3d1e76a8	0.03868738
220	0x3cf93bf6	0.0304241
221	0x3d9c9a63	0.076466344
222	0xbd449a06	-0.04799845
223	0x3d1c011f	0.038087007
224	0xbd85221e	-0.06500648
225	0x3d551427	0.052021172
226	0xbcea7016	-0.0286179
227	0x3a9afde5	0.0011824934
228	0x3d861fe0	0.065490484
229	0x3cedd2fe	0.029031273
230	0x3e1519fc	0.14560694
231	0xbd44f163	-0.048081767
232	0x3d198e68	0.037489325
233	0x3d2c8d97	0.042127218
234	0xbdaf6d7b	-0.085658036
235	0x3dc23038	0.09481853
236	0x3d9bd219	0.07608432
237	0x3d4157d7	0.04720291
238	0x3d907775	0.070540346
239	0xbdfca3be	-0.12335919
240	0x3c43e5ad	0.011956614
241	0x3c1ef5ca	0.009702155
242	0xbcdd7440	-0.027032971
243	0xbdbd1f10	-0.0923444
244	0xbdbb6c60	-0.0915153
245	0x3cc44f80	0.02396369
246	0x3d67cef5	0.056593854
247	0x3c6256ba	0.013814623
248	0xbd83a5c7	-0.06428104
249	0xbd8c68a1	-0.06855894
250	0xbd944ba8	-0.07240993
251	0x3cb90901	0.022587301
252	0x3d96984f	0.07353269
253	0xbce2aa87	-0.027669204
254	0xbd9653b8	-0.07340187
255	0x3d115085	0.03547718

module_list.1.0.bias f4 [64]
0	0x3d721eef	0.05911153
1	0xbdce8693	-0.10084262
2	0xbcb30bea	-0.021856267
3	0x3bee953c	0.0072809737
4	0x3d5974d1	0.05308992
5	0xbd29111f	-0.041276094
6	0xbad41a91	-0.0016182234
7	0xbd9a0fab	-0.0752252
8	0x3d82d193	0.06387629
9	0x3d9bf4ac	0.07615027
10	0xbd95b07f	-0.073090546
11	0xbd1a71cf	-0.037706193
12	0xbd78db97	-0.060756292
13	0x3bf142a2	0.0073626796
14	0xbd161fee	-0.036651544
15	0x3d951a3c	0.072803944
16	0xbd4bb642	-0.04973436
17	0xbb3003e5	-0.002685779
18	0xbd1988e3	-0.03748406
19	0x3cf15b85	0.029462585
20	0x3be265ce	0.0069091087
21	0x3dc521c3	0.0962558
22	0x3d0e4f91	0.03474385
23	0x3dab60cc	0.08368072
24	0xbd983d85	-0.07433609
25	0xbd0d5645	-0.0345061
26	0x3d971e41	0.07378817
27	0xbc8dadf1	-0.017294856
28	0x3cb4bf9f	0.022064028
29	0x3b197fe0	0.0023422167
30	0x3d3b7fb8	0.0457761
31	0x3d2554f6	0.04036423
32	0xbc40b31a	-0.011761451
33	0x3d094328	0.03351131
34	0xbce02bf1	-0.027364703
35	0x3ca9ee7b	0.0207436
36	0x3def3b46	0.116812274
37	0xbb8de446	-0.004330191
38	0xbdb39c17	-0.08770006
39	0xbc32e76f	-0.010919436
40	0xbcfb77c0	-0.03069675
41	0x3d63b68b	0.05559401
42	0xbd914d84	-0.07094863
43	0x3d9cdee9	0.07659704
44	0x3d1da298	0.03848514
45	0x3d26017f	0.04052877
46	0x3d2bd98d	0.04195552
47	0xbb22930b	-0.0024806883
48	0xbdb39120	-0.08767915
49	0x3c67b159	0.014141404
50	0xbd8d1fd1	-0.06890834
51	0x3cfa17df	0.03052896
52	0xbcdcabb0	-0.026937336
53	0xbc4e2414	-0.012581844
54	0xbd8bbdc6	-0.06823306
55	0xbddd6f2e	-0.108122215
56	0x3d1b2dd4	0.037885502
57	0xbd419d02	-0.047268875
58	0x3d262a58	0.040567726
59	0xbd73b7ff	-0.059501644
60	0xbcbb9e30	-0.022902578
61	0x3da8b984	0.08238509
62	0xbd6f7e43	-0.058470022
63	0x3cc272ed	0.023736442

module_list.2.weight f4 [1, 64]
0	0x3dce92fa	0.10086627
1	0x3dcf41db	0.10119983
2	0x3e01022f	0.12598489
3	0x3d6acfa7	0.05732694
4	0xbddc3c80	-0.10753727
5	0xbd366a07	-0.04453471
6	0x3dc40082	0.09570409
7	0xbdbc2912	-0.09187521
8	0x3d66c1dd	0.056337226
9	0x3d14c9d7	0.036325302
10	0xbe037710	-0.12838387
11	0xbd15db61	-0.03658617
12	0xbdea2eda	-0.114347175
13	0x3dff1274	0.124546915
14	0xbe1ad995	-0.15122063
15	0x3d782b1f	0.060588
16	0x3d029922	0.03188432
17	0x3ddd6ac6	0.10811381
18	0xbdd5d0a6	-0.10440187
19	0x3e3ef6c1	0.18648817
20	0x3e24e40b	0.16102616
21	0xbdc9bb8a	-0.09850223
22	0x3de3d476	0.11124508
23	0x3da0ff3a	0.078611806
24	0x3d8b14c8	0.06791073
25	0xbdba5802	-0.090988174
26	0x3d9f31fe	0.07773207
27	0x3e13a266	0.14417419
28	0x3dbe4375	0.0929021
29	0x3de53fe4	0.11193827
30	0x3e3ff364	0.1874519
31	0x3df52dc3	0.11971619
32	0x3e1a1038	0.1504525
33	0xbdbfed95	-0.09371487
34	0x3d9349e4	0.07191828
35	0xbd849a84	-0.06474784
36	0xbe02ab3b	-0.12760632
37	0xbd841019	-0.06448383
38	0xbd853be2	-0.06505562
39	0x3e357ed1	0.17724158
40	0xbd81a03c	-0.063293904
41	0xbdb15b64	-0.086600095
42	0xbdce9836	-0.10087626
43	0x3d5a9e3e	0.053373568
44	0xbdee68f0	-0.11641109
45	0xbe1a83d0	-0.15089345
46	0x3c804a3d	0.0156604
47	0x3a91c924	0.0011122567
48	0x3e652914	0.22378951
49	0x3dcbec81	0.09957219
50	0xbd97f4e5	-0.07419757
51	0xbb9a8a77	-0.0047162133
52	0xbd5c81d3	-0.053834748
53	0xbe297711	-0.16549326
54	0x3dc4ce7b	0.096096955
55	0x3e0f589b	0.13998644
56	0xbe39dbc4	-0.1815024
57	0x3d0779b1	0.03307504
58	0xbd565317	-0.052325334
59	0x3d8136b9	0.06309266
60	0xbe0de6c5	-0.13857563
61	0x3dbab7f4	0.091171175
62	0x3cd919fc	0.026501648
63	0xbddd5051	-0.10806335
