saved_models_MLP/exp-f-bcc/mlp_ms_bcc_ratio0.2_seed5_epoch300.pt (torch, 38935 bytes, 5 tensors)

module_list.0.weight f4 [128, 6]
000000 f4 67 05 bd d0 9e c3 be 59 dd d1 3d 47 c6 9e bd
       -0.03256984 -0.38207102 0.10247297 -0.07752662
000010 9d 6f cd be fa 9f b2 be 14 f6 b9 bd 2d f0 a8 3d
       -0.40124217 -0.34887677 -0.09080139 0.08248935
000020 dc 3e 36 3e 95 3a b3 3d 10 67 46 bd e0 b1 26 bd
       0.17797416 0.08751408 -0.04843813 -0.04069698
000030 f4 88 23 3e db 5d b9 3e 8b 36 f4 bd a9 e2 bc be
       0.15970212 0.3620442 -0.11924466 -0.36891678
000040 dc 87 2f 3d f0 8e 9d be 90 21 7f bd 2b f2 38 be
       0.042854175 -0.30773115 -0.062287867 -0.1806113
000050 9b 5b 82 be d8 62 ce bd 95 c5 81 3e 0b e5 ba be
       -0.25460514 -0.10077447 0.25346056 -0.3650287
000060 db c0 7e 3e a1 77 a8 3e 56 82 c9 bd b1 1d 8b 3e
       0.24878256 0.3290377 -0.09839313 0.2717109
000070 57 47 29 3e 14 57 17 3e 2a bf 1c bd 3a 57 fc be
       0.1653112 0.14779311 -0.038268246 -0.492853
000080 04 45 f1 bd ab 17 b5 be 46 5f 79 3e 4c 11 5f 3e
       -0.11780742 -0.3536962 0.2435275 0.21783942
000090 8a 0c 9b be da 1b 99 be 9f 56 01 bd 0d a3 e6 be
       -0.30283004 -0.29904062 -0.03157675 -0.45046273
0000a0 3b e7 23 be 50 a8 db 3d 19 5a 44 3e ea b1 aa bd
       -0.16006176 0.107254624 0.19174995 -0.08334716
0000b0 83 a0 ab 3d 49 f5 05 be b4 ff 34 bd 6b bf bf be
       0.083802246 -0.1308185 -0.04418917 -0.37450728
0000c0 9a a2 83 3e 44 fd 93 be af 83 84 bd 1b 7f 3a be
       0.25709993 -0.28904164 -0.06470429 -0.1821255
0000d0 d3 59 fa 3e 20 96 35 be e5 33 dd bc 3d 55 b4 be
       0.48896655 -0.1773305 -0.027002284 -0.35221282
0000e0 c4 2b 8f be 56 f2 d6 bc 06 d4 29 be ac 52 80 be
       -0.27963078 -0.026238602 -0.16584787 -0.25063074
0000f0 af ef 3a 3e 05 a6 2c 3e 09 c9 ac 3e f9 31 db bb
       0.18255495 0.16860206 0.33747128 -0.006689307
000100 7c c9 9b bd dc 19 be bd 72 bc 76 3e 2b a7 2c 3e
       -0.076067895 -0.09282276 0.24095324 0.16860645
000110 c5 9e 75 3e 28 6a f8 be 22 5b 43 ba 50 9e 07 be
       0.23986347 -0.4851849 -0.00074522395 -0.13243985
000120 bc 62 1a 3e 65 f8 ce 3e b3 af 52 bd 12 53 8d be
       0.15076727 0.40423885 -0.05143709 -0.2760244
000130 9b 36 80 be 40 eb 45 3c 6b 41 a2 bc 7b ec 8b 3e
       -0.2504166 0.012080014 -0.019806584 0.27328858
000140 d5 5c c7 3d 75 2a b2 3d 86 32 3b be 48 65 0b 3e
       0.09734503 0.08699504 -0.18280992 0.13612854
000150 a2 87 b2 3e 23 24 a1 be 5b ce e0 3d c3 bf 61 3e
       0.34869105 -0.31472883 0.10976859 0.22045808
000160 05 61 90 3e 19 af ca be 72 43 98 be e3 31 7b 3a
       0.2819902 -0.39586714 -0.29738957 0.0009582324
000170 80 7f 2f 3e d1 05 43 3e f7 4c b3 be 50 33 ee bc
       0.17138481 0.19045188 -0.35019657 -0.029077202
000180 4f 6a 5f 3d 81 7a 0d be 86 b4 d2 3e 0e 2b 7f bc
       0.054544743 -0.13816263 0.41153353 -0.01557423
000190 66 07 b5 be d0 39 cb bd 35 2e a6 3d be 1c b2 be
       -0.35357207 -0.09923136 0.08114282 -0.34787554
0001a0 9f 00 d4 3d ac e3 91 be 1f 92 06 be 24 32 80 3d
       0.10351681 -0.28494012 -0.13141678 0.062595636
0001b0 89 2c 0c 3b a9 22 a4 3e e5 c8 22 bd 96 a4 95 be
       0.002138885 0.32057694 -0.03974237 -0.29227132
0001c0 69 55 10 3e 46 0e 82 be 33 6a b0 bd 1b 80 76 bd
       0.14095081 -0.25401515 -0.08614006 -0.060180765
0001d0 cf bc 49 3e 9c f4 29 3d dc e9 d7 be 4c 35 81 3e
       0.19700931 0.041493043 -0.42170608 0.25235975
0001e0 49 ee 74 3e d1 53 a2 be f9 27 d5 3e e4 d3 7a be
       0.23919024 -0.31704572 0.4163206 -0.24494892
0001f0 e4 45 06 3f 72 ed ad 3e 9d c3 01 3d ed 1d 4d 3e
       0.52450395 0.3397022 0.031680692 0.20030947
000200 b5 fa 1b bd 20 05 58 be 80 85 31 be 4c 8a 47 3e
       -0.03808089 -0.21095705 -0.17336082 0.1948635
000210 3f be 06 3d 47 89 bd be d2 03 b8 3e c9 3e 9f be
       0.032896277 -0.37018797 0.35940415 -0.3110259
000220 96 64 7c 3d c0 ed 8c 3b 66 9a 0b 3d 43 49 a8 3c
       0.061619364 0.004300803 0.034082793 0.020542746
000230 cf fe 87 be ff 19 e8 3e 3c 74 c3 3e 00 e9 54 3e
       -0.2656159 0.45332333 0.38174617 0.20792007
000240 29 f7 a7 be 58 40 79 3e c6 4b 05 3e 0b 64 80 3e
       -0.32805756 0.24340951 0.13017187 0.25076327
000250 17 01 e7 be 04 ae 4b 3e 1d 32 66 3e 5a d6 81 3e
       -0.4511802 0.198906 0.22480054 0.2535885
000260 22 22 4d be 63 bc e9 3e 4b 6f 33 be 7e bd 0c be
       -0.20032552 0.4565154 -0.17522924 -0.1374416
000270 68 65 c3 bc 1e 02 9d be 17 f1 33 bd 55 56 d3 bc
       -0.023852065 -0.30665678 -0.043931093 -0.025798002
000280 a5 89 8b bc 12 16 c2 3e 90 c1 3b be 80 27 d6 bc
       -0.017033407 0.37907463 -0.18335557 -0.026141882
000290 bb ff c5 3e da 71 09 be 6f f9 29 be d8 78 c2 3d
       0.3867167 -0.13422337 -0.16599058 0.09495705
0002a0 fc 6b b9 3e 0c d9 42 3e d6 c4 de 3e 2f 3e 49 be
       0.36215198 0.1902811 0.4350955 -0.19652627
0002b0 1c 18 56 be 81 30 25 be b0 29 87 3e b9 5f 74 be
       -0.20907634 -0.16131784 0.26398993 -0.2386464
0002c0 d4 4f 4a 3e 81 e9 8b be bd c5 06 3d 88 8b ca 3e
       0.19757015 -0.27326587 0.03290342 0.3955958
0002d0 dc 04 89 be 09 4f dc be 06 38 ee bc a6 ab 28 be
       -0.2676152 -0.4302905 -0.029079448 -0.16471729
0002e0 47 ed 6a bd cd cd 2c be c5 17 25 be 5b e7 73 be
       -0.05735519 -0.16875382 -0.16122349 -0.23818724
0002f0 7e 50 3b be 14 6c 48 3e 16 c4 4c 3d 16 8f 8f 3e
       -0.18292424 0.19572479 0.04999169 0.28038853
000300 96 b9 62 3e c5 d1 a0 be 27 8d 19 be ef 97 6d be
       0.22141108 -0.3141004 -0.14995252 -0.2320249
000310 9a e6 7d 3d 7c e6 16 3e 01 60 03 be a8 64 85 3d
       0.061987497 0.1473636 -0.12829591 0.06513339
000320 8e 3b a7 ba 8d 77 43 be 7f 50 38 3d 60 86 45 3e
       -0.0012758838 -0.19088574 0.044998642 0.19289541
000330 29 41 8d bc 06 97 af 3e c4 4e fc ba 4a aa 9d be
       -0.017242985 0.3429491 -0.0019249548 -0.30793983
000340 93 c3 d0 3d d2 ed 28 be b0 f1 eb 3d 32 18 bb 3d
       0.10193553 -0.16496971 0.115207076 0.09135474
000350 b6 b8 e7 3d b5 fa 81 be f5 06 1b 3d 4e 59 88 be
       0.11314528 -0.25386587 0.03784843 -0.26630634
000360 79 a7 92 bd 31 b2 1d bc a6 75 e4 be 2c df ca 3e
       -0.07160849 -0.009625004 -0.4462101 0.39623392
000370 64 57 f0 be 2e c7 b7 be 1e 5e bd 3e 1f 52 7e 3e
       -0.46941674 -0.3589415 0.36985868 0.24836014
000380 83 d9 86 3e c0 2d 6d bd 12 aa bb bc 28 e6 61 3e
       0.26337823 -0.05790496 -0.022908244 0.22060454
000390 a2 f2 52 be 3a d8 69 3e ad 24 c2 3e d0 b4 08 3f
       -0.2060037 0.2283639 0.37918606 0.534009
0003a0 75 30 e6 3e 7c d0 25 be 27 74 8d be e0 ea 5e be
       0.44958845 -0.16192812 -0.2762768 -0.21769285
0003b0 1a 57 7e 3e 1e 75 bc be ee a1 a8 bd e4 4a 74 3e
       0.24837914 -0.36808103 -0.08234011 0.23856694
0003c0 23 93 84 3e 09 2b 37 be ad a9 cc be a4 35 34 3e
       0.25893506 -0.1788751 -0.39973202 0.17598587
0003d0 51 09 60 be 6c 09 a1 bd 62 58 c9 bd 48 e3 b8 3e
       -0.21878554 -0.07863125 -0.09831311 0.36110902
0003e0 62 10 c5 3d ff 60 67 3e 7d 44 f4 3e b4 76 3f 3e
       0.096222654 0.22595595 0.47708502 0.18697625
0003f0 3b 90 99 be db a2 f5 3d 70 c1 ba be 77 cd 9d bd
       -0.29992852 0.11993953 -0.36475706 -0.07705205

module_list.0.bias f4 [128]
000000 bb 5c fb 3d ca 21 ad be 27 94 82 3e 3f 1f 3d be
       0.12273546 -0.33814842 0.25503656 -0.1846895
000010 dc 2b cc be af 79 92 bd 73 e9 e0 3c ec 90 6f 3e
       -0.39877212 -0.071521156 0.027455067 0.23395127
000020 c1 de 83 3e 47 59 ce be 87 be cd 3d 0e 35 ff bb
       0.25755885 -0.40302488 0.10046106 -0.007788307
000030 39 b5 80 bd 23 d4 b5 3e 2f c9 3a be 47 5d ae be
       -0.062845655 0.3551341 -0.18240808 -0.3405554
000040 97 b5 99 3e 18 33 9e bd d6 f2 9b 3e b0 be 43 3e
       0.30021355 -0.07724589 0.30458707 0.1911571
000050 7a 26 ae 3e e2 95 59 be cc d7 1e bc 5b a3 98 bc
       0.3401373 -0.21248582 -0.009695005 -0.018632581
000060 e8 e6 b0 be 03 3e b6 bc 08 11 85 be 2f b8 3e be
       -0.34551167 -0.022246366 -0.25989556 -0.18624948
000070 18 52 e7 bd 2d 6b 6c 3e c5 5e 73 3e a5 2f b5 3e
       -0.11294955 0.2308776 0.2376662 0.35387912
000080 d4 4f 4b 3e 65 0f 80 be 67 5d 74 be b5 84 aa be
       0.19854671 -0.25011745 -0.23863755 -0.33304372
000090 f7 af cc 3e b1 c1 c3 be c7 af 3f 3d 8c 5e 05 3e
       0.39978 -0.38233712 0.046798494 0.13024348
0000a0 22 5c a6 bd 0c 6c af be ce 39 81 be de c7 68 3e
       -0.08123042 -0.3426212 -0.25239414 0.22732493
0000b0 e9 5e cf be 35 04 d0 bc cf 8b 9d 3e 2e a0 af be
       -0.40502098 -0.025392631 0.30770728 -0.34301895
0000c0 aa d4 9f be b7 8f b2 3d 4f 83 16 be 42 87 89 be
       -0.31216937 0.08718818 -0.14698528 -0.26861006
0000d0 3e 44 d7 3e 1c 34 30 be 48 6e a3 bd df bf 81 be
       0.42044252 -0.17207378 -0.07980019 -0.253417
0000e0 2d dd d6 3e 12 b5 a5 be 18 18 32 3e 2d d3 ae 3e
       0.4196562 -0.32364708 0.17392004 0.3414549
0000f0 de c4 b7 be 5e 42 a7 3e 07 49 ab 3e 85 9a 88 be
       -0.35892385 0.32667822 0.33454153 -0.2668039
000100 05 f3 4a be 41 c3 68 bd 20 ca e5 bd c4 dd a5 be
       -0.19819267 -0.056826834 -0.11220193 -0.32395756
000110 c1 18 dd be 93 6d ce be 66 3b 8d be 32 14 df be
       -0.43182948 -0.40317973 -0.2758438 -0.43570095
000120 c1 95 8e bc 06 d2 56 3d ed dc d9 be 6e 13 bd 3e
       -0.017405393 0.052446388 -0.42551365 0.36928886
000130 7a a9 5b be 7b 54 40 3e 21 71 9d 3d 81 a7 ab bb
       -0.21451369 0.18782227 0.07687593 -0.005238474
000140 f3 fb c5 be d4 52 12 3e f8 8c 5d 3e 63 ab 7b be
       -0.38668784 0.14289409 0.21635807 -0.24577098
000150 6b fa d3 be b5 31 c4 3e 4c e8 37 3e 1b 2c fb 3d
       -0.4140199 0.38319173 0.17959708 0.12264272
000160 90 c2 7d bd 9b 28 b0 3d af ee 1a be 3f 84 b0 be
       -0.061953127 0.08601495 -0.15130113 -0.34475896
000170 91 6f ff bd 75 e2 98 be 0f 3e bc 3b ef 41 a3 be
       -0.124724515 -0.29860273 0.0057447026 -0.3188624
000180 1b 06 0c 3d 8c c6 98 be 92 71 b0 3e bf fc f4 ba
       0.03418551 -0.2983898 0.34461647 -0.0018691047
000190 36 37 a8 3e 84 4c b5 3e 53 57 9c be f5 84 43 bd
       0.32854623 0.3540994 -0.30535373 -0.04773422
0001a0 ae 89 a6 3e d7 f9 21 3e 28 19 4b bd 53 a4 94 3e
       0.32526916 0.15817963 -0.049584538 0.2903162
0001b0 b0 6c c7 3e b9 a8 b1 be 1e 7f 87 be 70 40 b6 3d
       0.3895011 -0.34699038 -0.2646417 0.08899009
0001c0 fb 90 aa be b8 9e 51 3e a6 c1 29 be 24 46 dc 3e
       -0.33313736 0.20470703 -0.16577777 0.43022263
0001d0 ca be 05 3e c0 85 f9 bd 64 9d b3 be 7d 59 26 be
       0.13061062 -0.12183714 -0.35081017 -0.16245075
0001e0 30 a3 ca 3e 73 d0 59 3d a0 bb 3d be f1 a3 dc 3d
       0.39577627 0.05317731 -0.18528605 0.10773457
0001f0 99 c6 c4 be da 8a 45 3e ca 00 22 3d 2f 32 a3 3e
       -0.38432768 0.19291249 0.039551534 0.31874225

module_list.1.0.weight f4 [64, 128]
000000 92 de 8b 3d 99 2e 80 bb f6 3b a9 bc 4f 0b a4 bd
       0.06829561 -0.003911805 -0.020658474 -0.080099694
000010 cd 72 d7 bd 67 c9 41 3d f0 83 c0 3d f2 e5 21 bd
       -0.105199434 0.047311213 0.09400165 -0.039525934
000020 01 3c 0f bd ae ce 1a 3d f3 e5 d8 3c 1a ac 0c 3d
       -0.034969334 0.03779476 0.026476836 0.034343816
000030 da e9 0d 3d 05 38 25 3c 56 23 0a bc 31 63 09 3d
       0.034646846 0.010084157 -0.008431276 0.033541862
000040 a7 23 e0 3d 9d f5 88 3d 7b 10 76 bc c0 b8 b2 3d
       0.109443 0.06687472 -0.015018578 0.087266445
000050 e9 f2 4e bd 0d 11 8b bd 42 f5 39 3d 55 3d 0d be
       -0.050524626 -0.067903616 0.04539991 -0.13792928
000060 93 81 5f bd c3 b9 fc 3c f5 eb 24 3d 05 41 c9 3d
       -0.05456693 0.030850297 0.04026409 0.098268546
000070 17 08 54 bd 02 dd 40 bd 6f 1b 93 bc 95 e6 7d 3c
       -0.051765528 -0.04708577 -0.017957417 0.01549687
000080 2c a7 ad 3d 4a 8c 1b 3c 71 1e b5 bd 0f a0 5c bc
       0.08479151 0.009493897 -0.08843697 -0.013465895
000090 c6 ae 6d 3d eb 31 4c 3d 60 7a fd 3c 7a 34 44 3c
       0.058028005 0.049852293 0.030942142 0.011975402
0000a0 e0 f5 bb bc 25 bd da bd 0b 34 b8 bc 68 e6 e4 3c
       -0.02294439 -0.10680608 -0.022485754 0.027941898
0000b0 5f 93 c6 bc e3 6e ca bd a9 1f 57 3d f2 47 a5 bd
       -0.024240194 -0.09884431 0.052520428 -0.08070363
0000c0 07 be 1d 3d d5 5c 16 bd b4 69 4c 3c f1 bd 4b bc
       0.038511302 -0.036709625 0.012476373 -0.012435422
0000d0 51 72 d5 bb 0a 4c 81 3c ea c7 19 3c a5 32 22 3d
       -0.0065138717 0.015783329 0.009386042 0.03959908
0000e0 d3 78 f9 3d e5 6a 08 3c 05 60 8f 3d aa 85 05 3c
       0.121812485 0.008326267 0.07000736 0.008149544
0000f0 24 6a c4 3c 90 27 a2 bd f5 9b 5f 3d e6 b9 4e 3d
       0.023976393 -0.07917702 0.05459209 0.050470255
000100 1c d4 3f 3d e9 0e 61 3d 1f a0 24 bd 71 47 a8 ba
       0.046833143 0.05494586 -0.040191766 -0.0012838674
000110 62 b3 62 3d 74 b7 b7 3d 77 4d 5d bd c8 e2 4f bd
       0.055346854 0.08970538 -0.054028954 -0.050753385
000120 57 e8 d9 3c 43 f8 87 bd 7f 0f 9f bd 0b 54 8e 3c
       0.026600046 -0.06639149 -0.077666275 0.01737406
000130 f9 80 17 bc 86 cc 2e 3d c6 e9 00 3d bc d9 7b bd
       -0.009247058 0.042675517 0.031472944 -0.061486945
000140 90 4b 30 3d ce ad be bd 58 b7 28 bc 0d d7 32 3d
       0.043040812 -0.09310494 -0.010297619 0.04366212
000150 10 b9 54 bc c6 62 8f 3d f0 75 06 3e b4 99 8f bd
       -0.012983575 0.070012614 0.13130927 -0.070117384
000160 c4 37 84 3c c5 a4 e9 bb 11 b4 99 bd 57 be 87 3d
       0.016139872 -0.0071302378 -0.07505048 0.06628101
000170 6c f6 53 bd 9e 06 e4 bc db 91 9c 3d e0 f8 c8 bd
       -0.051748678 -0.027835187 0.07645007 -0.09813094
000180 e7 e5 0f 3c 50 40 5c 3d a6 b2 87 bd 0a a0 5f 3c
       0.00878284 0.05377227 -0.06625871 0.013648996
000190 9f 8b 87 3d 7e 9f ad bd 70 46 b8 3d 67 e2 dc bd
       0.066184275 -0.08477686 0.0899781 -0.1078537
0001a0 e9 f8 5e bd d3 26 15 3d ca 25 00 3c b1 57 0a bb
       -0.054436598 0.03641398 0.00782151 -0.0021109397
0001b0 e3 2a 13 3d 31 4c 9b bd ca 27 06 3d da 84 45 bd
       0.03592957 -0.07582892 0.03275279 -0.0482224
0001c0 a9 96 23 be 77 c0 a6 bd f1 bd f5 3c 76 66 80 bc
       -0.15975441 -0.081421785 0.029997798 -0.015673857
0001d0 c9 e9 a0 bd b5 d0 be bd 5c 36 07 bc 17 6f 9e 3d
       -0.07857091 -0.093171515 -0.008252706 0.077360325
0001e0 d0 39 1f bd 29 2a a3 3d 19 50 a4 3d 24 6f e2 bc
       -0.038873494 0.07967026 0.0802309 -0.027640887
0001f0 bf e9 87 3c f8 19 6f bd 82 15 39 bd 6d 36 b4 3d
       0.016590951 -0.058374375 -0.045186527 0.087994434
000200 bb 21 56 bd c5 45 6c bd 09 1a 4c bc 01 66 86 bd
       -0.05227826 -0.057683725 -0.012457379 -0.065624245
000210 e4 86 81 3d e6 a5 b0 bc 92 d9 2a 3c 22 dc 93 3d
       0.063245565 -0.021563482 0.010427849 0.072197214
000220 2d b3 62 3d c2 9f b3 bd 0e 21 2c bd b7 b4 27 bd
       0.055346657 -0.08770706 -0.04202371 -0.040943827
000230 95 b2 12 bc e1 a5 57 bd e3 98 93 3d 9d 4e 87 3d
       -0.00895371 -0.05264843 0.07206895 0.06606791
000240 39 41 16 3d 26 02 44 bd 46 80 21 3d ad 1c b0 bd
       0.036683295 -0.04785361 0.03942897 -0.085992195
000250 ef 67 82 bd de 4e 85 bd 58 40 88 bd 40 48 e1 3d
       -0.0636748 -0.06509183 -0.066528976 0.11000109
000260 64 f7 8d bd b8 91 8e bb fb cd 7a bd 8b 30 aa 3d
       -0.06931952 -0.004350867 -0.061231595 0.0831004
000270 61 46 b1 3c a2 07 97 3d 13 0e 8e 3d 4c 5c 9c 3b
       0.021640005 0.07374503 0.06936278 0.004771745
000280 98 b3 04 3d 08 6d 78 bd 6f b1 80 3c 06 5b 79 3c
       0.032397836 -0.060650855 0.015709607 0.015219456
000290 7e 1e 76 3c 10 b6 1a 3d 17 86 30 3c 84 70 63 bd
       0.015021918 0.037771285 0.010774157 -0.055527225
0002a0 82 90 0d 3c e6 6b 32 3d 1b 56 b9 3c a7 3a 43 3d
       0.00864041 0.04355993 0.022624066 0.047663357
0002b0 fa 23 a1 bd 7a 18 ff bc ab f0 17 bd e7 77 a6 bc
       -0.0786819 -0.031139601 -0.037094753 -0.020320846
0002c0 f8 e9 84 3d 5b de 4f 3d 97 d9 c9 3d 1c ae 9f 3d
       0.064899385 0.050749164 0.09855955 0.077968806
0002d0 f9 0e 0d bc 5a 0f ef 3c 40 a3 67 bd d1 0b 83 3c
       -0.008609527 0.029182125 -0.05655217 0.015996845
0002e0 94 0a 9a 3d 12 93 7c 3d 98 8c b4 bd 93 2b 99 bd
       0.07521549 0.061663695 -0.08815879 -0.07479014
0002f0 8e 90 57 3c 47 81 2a 3d 5f 51 a8 3d 86 ab 9c 3d
       0.013157023 0.041627195 0.08218645 0.07649903
000300 03 37 36 bd ce e9 be bc 78 14 b0 bc 3c 32 a3 3d
       -0.044486057 -0.023304846 -0.021494135 0.07968566
000310 8a 9e 1d bd 80 15 99 3c 1c 2e 84 3d 5e 71 af bd
       -0.038481273 0.01868701 0.06454107 -0.08566545
000320 be 49 24 3e 64 d9 33 3e 20 3b 8f bc df a1 6a 3b
       0.16043755 0.17563397 -0.017484248 0.003580205
000330 6f 6e 21 3d 14 00 5a 3d 56 f6 c1 bd 06 34 55 bd
       0.03941196 0.05322273 -0.09470813 -0.052051567
000340 0a 75 90 3d 86 85 b0 3d 14 f6 a0 bd 47 46 b8 bd
       0.070535734 0.086192176 -0.07859436 -0.08997779
000350 e7 e1 07 3c d8 98 4f 3d fc 7a 5f bd 9f a1 15 3c
       0.008293605 0.050682873 -0.054560646 0.009132772
000360 25 89 10 3d 16 49 a8 bc d9 0f 97 3d 36 c8 29 3d
       0.03528704 -0.020542663 0.073760696 0.0414507
000370 87 72 22 3d 79 2b 75 3d 38 4f 8d bd 09 83 04 3d
       0.039660003 0.059855912 -0.068998754 0.032351527
000380 c9 3b 93 bd 96 04 3f 3d 85 13 67 3c 86 ec 12 3d
       -0.071891375 0.046635233 0.014103775 0.035870098
000390 fd 29 9c 3d 85 88 90 3d 19 cd 88 3d 9b f4 a0 bc
       0.07625196 0.07057289 0.06679744 -0.019647887
0003a0 ce 2c 53 3d 34 65 ea 3c 86 3b 50 bd c2 44 b8 3d
       0.0515564 0.02861271 -0.050838016 0.089974895
0003b0 b7 8d ae 3d 5b 12 ed 3c cb 94 6f 3d b2 0c b0 bd
       0.08523124 0.028939417 0.05849151 -0.085961714
0003c0 92 de a0 bc b3 42 a1 3c 44 31 3d bd d2 c5 70 3c
       -0.01963738 0.019685125 -0.04618956 0.014695602
0003d0 52 75 a6 bd 23 a3 e7 3c 66 b6 1d 3d 10 8f 10 3b
       -0.08127846 0.028276032 0.038504027 0.0022057928
0003e0 33 5c 65 bd 83 3d 77 bd ec 53 9a bd 8e 57 94 3c
       -0.05599613 -0.060361397 -0.07535538 0.018108156
0003f0 e3 9d 0f 3d a6 79 0b bc 0c c6 8f bd 49 1e 64 3d
       0.035062682 -0.00851289 -0.07020196 0.055692945

module_list.1.0.bias f4 [64]
000000 d9 6d db 3c e9 84 6f bd 66 59 46 bc 77 2e ff ba
       0.026785778 -0.058476362 -0.012106275 -0.0019468804
000010 f3 6f 92 3c 74 d1 84 bd f3 dd 46 bc 3a 87 0c bd
       0.017875647 -0.064852625 -0.012137878 -0.03430865
000020 a5 57 ca 3c 26 56 6a 3d b2 c3 18 bd 76 bd 33 bd
       0.024699995 0.057211064 -0.037296005 -0.043881856
000030 53 b2 47 bd 4b 55 02 3d 2d 07 da 3a 80 7f b2 3d
       -0.048754048 0.031819623 0.0016634219 0.08715725
000040 42 b6 4b bd 4a 79 2b bb be bf 22 bd 86 2b 42 3c
       -0.04973436 -0.0026164823 -0.03973364 0.011851197
000050 0a af 2c 3d 3d dc c0 3d c9 89 80 3d 91 23 1f 3d
       0.042159118 0.09417007 0.062762804 0.03885228
000060 2e bf 03 bd 7b 7f 90 bd 2c 24 59 3d 06 98 8d bc
       -0.032164745 -0.07055565 0.05301301 -0.017284404
000070 d3 c5 4d 3c 66 b8 7b bb 49 0a 4e 3d 38 29 4e 3d
       0.012559372 -0.003840947 0.050302777 0.050332278
000080 c3 5e 35 bc 99 34 65 bc f8 c9 c6 bb a4 a4 39 3d
       -0.011069956 -0.013989591 -0.006066557 0.04532303
000090 3b 65 c0 3d a9 62 ed bb ec 93 9e bd ab 4a af bc
       0.09394308 -0.007244427 -0.077430576 -0.02139791
0000a0 96 ab 5d bd dd 62 14 3d 84 4d 91 bd 27 58 ac 3d
       -0.054118715 0.036227096 -0.07094863 0.08415251
0000b0 ff 30 43 3d 38 e6 5b 3d de 81 65 3d b6 86 8e 3b
       0.04765415 0.05368635 0.056032054 0.004349555
0000c0 d8 75 b4 bd 82 17 eb 3a b5 37 b4 bd 6d e7 24 3d
       -0.088115394 0.0017936083 -0.08799688 0.040259767
0000d0 d0 e7 24 bd f0 0c 90 bc 26 53 2f bd 77 0a 86 bd
       -0.040260136 -0.017584294 -0.042803906 -0.06544965
0000e0 b2 b3 af 3c e5 05 ba bc 95 13 ee 3c 97 1f 4a bd
       0.02144799 -0.022707889 0.029062072 -0.049346533
0000f0 77 d3 03 bc ce 15 8f 3d fc bd 5b bd 0e 15 a6 3c
       -0.008046023 0.06986581 -0.05364798 0.020273712

module_list.2.weight f4 [1, 64]
000000 64 17 94 3d b8 45 b7 3d 91 f1 d1 3d 1a f7 92 3d
       0.07231024 0.08948845 0.10251153 0.07176037
000010 bc 08 a7 bd 9f f3 6c bc bf dc de 3d 3d b8 6d bd
       -0.08155963 -0.014462381 0.10881948 -0.05803703
000020 87 69 d2 3c 75 a2 5e 3d 48 97 f1 bc 2f e7 07 3c
       0.025685085 0.05435415 -0.029491082 0.008294865
000030 51 93 9e bd 52 f2 f2 3d 8b 5d b4 bd ca 0a 52 3d
       -0.07742942 0.11862625 -0.088069044 0.05127982
000040 22 99 02 3d 5c d6 dc 3d 8e 2a 95 bd a7 e2 cf 3d
       0.03188432 0.10783073 -0.07283507 0.101506524
000050 a2 fc b2 3d 2c 45 74 bd 9e 97 d7 3d aa 76 17 3d
       0.08739592 -0.05963628 0.105269656 0.0369784
000060 91 8b 47 3d 60 9b d5 bd 81 9c ca 3d 09 18 09 3e
       0.048717085 -0.10430026 0.09893132 0.13388075
000070 79 0f eb 3d af a0 c2 3d 90 db 36 3c d4 5b e0 3d
       0.114775605 0.09503304 0.011160746 0.10955015
000080 c6 f9 1f 3e 79 ad 6f bd 36 3a 85 3d e4 d7 2a bd
       0.15622625 -0.058515046 0.065052435 -0.041709796
000090 0d ca b2 bd 93 0d 66 bd 9f 24 fb bc e5 70 37 3e
       -0.087299444 -0.05616529 -0.03065711 0.1791416
0000a0 bd d5 cc bc 7f bd 97 bd 36 98 ce bd 18 20 83 3d
       -0.025004262 -0.074091904 -0.10087626 0.06402606
0000b0 84 7c cd bd b1 8f bb bd 13 51 da 3c db 00 94 3c
       -0.10033515 -0.09158266 0.026649987 0.018066814
0000c0 40 95 48 3e 58 8c f9 3d 84 cc 1a bd 19 ce 1e bc
       0.19588184 0.121849716 -0.037792698 -0.009692692
0000d0 b3 09 3f bd c7 ae 05 be 02 11 a8 3d a3 e2 f1 3d
       -0.04664011 -0.13054954 0.08206369 0.11810806
0000e0 d3 45 1e be 88 f6 9d 3c fe e3 e2 bc f9 ef 74 3d
       -0.15456323 0.019282594 -0.027696606 0.05979917
0000f0 0d a5 ae bd fc 04 d5 3d 95 f7 82 3d 8d be aa bd
       -0.08527575 0.10401341 0.06394879 -0.08337126
