saved_models_MLP/exp-f-bcc/mlp_ms_bcc_ratio1_seed2_epoch300.pt (torch, 38935 bytes, 5 tensors)

module_list.0.weight f4 [128, 6]
00000000: cfeb 10bd c4e9 cdbe c2c1 9c3d 077f 8cbd
00000010: 53a9 d1be fa9f b2be e2ed 87bd cebe c93d
00000020: 5bcc 583e bf81 e7bc ec21 14bc e0b1 26bd
00000030: 6f4e a03d 2b45 c93e 67e6 fb3c 31ee e2be
00000040: 083f ca3c f08e 9dbe 522a 5bbd a6f5 47be
00000050: 7dcb b9be bcce 3fbd 57e4 e33e 0be5 babe
00000060: e3fd 823e 63fe a83e 9053 54bd e4fc c13e
00000070: fc1f 45bd 1457 173e 4ab4 2cbd 613b 0ebf
00000080: fd61 3ebe fe2f 01bf 8baf 173f 4c11 5f3e
00000090: 8971 88be 8e2b 3cbe 96a3 2a3d d96e 3dbf
000000a0: 56dc 343e 50a8 db3d 0850 3d3e b1d3 b8bd
000000b0: e6c9 d33d e897 01be ec0f bdbd 6bbf bfbe
000000c0: ef47 753e cc93 9abe a027 53bd e2e9 5abe
000000d0: fecc 013f 2096 35be a4a3 8cbc ecd9 cebe
000000e0: c528 bebe 3a32 5bbd d73e 45be ac52 80be
000000f0: 5df3 453e eb3f 5f3e 28fa b33e 66d2 3d3c
00000100: a22a 39be dc19 bebd 5d25 633e fda0 5a3e
00000110: 91bc 883e a5c0 17bf 54db 16bc 509e 07be
00000120: f7a9 113e 5a9d e83e be98 c93c fbcd adbe
00000130: 80ff d7be 40eb 453c 76f0 e2bb f1f4 cf3e
00000140: 0a6c 223e b323 223e d4e0 00bf 4865 0b3e
00000150: 8965 b13e 0d6a adbe f880 8a3d 1026 4f3e
00000160: ccb3 7a3e 19af cabe 6745 8bbe 1a28 123d
00000170: a1fb 273e db0f 883e 9506 a2be 5033 eebc
00000180: 5cab 8a3d d592 b0bd e71d f23e c54a 0cbb
00000190: 25f4 2bbf d039 cbbd 8fde b13d 7536 aebe
000001a0: 8fcc d33d 662a ddbe 29c9 4ebe 2432 803d
000001b0: d9c0 ccb9 ef67 bf3e 4163 bc3d af4c 9abe
000001c0: 1b98 913d 460e 82be ef05 aabd 5389 91bd
000001d0: d3db 763e e794 363e 74a6 16bf 4c35 813e
000001e0: f88b 6c3e a9d2 9abe b51e d93e 3182 8ebe
000001f0: b93b 1d3f 72ed ad3e 09bd e33c 0f94 6d3e
00000200: 058f 153c 8b62 64be d848 47be 4c8a 473e
00000210: 0794 7d3c ac6e c4be 9ab0 b13e cd28 3fbf
00000220: 2e05 043e c0ed 8c3b 4272 003d 6fe2 733b
00000230: d6bc 98be 5c82 003f 8c95 f23e 00e9 543e
00000240: 19c0 a3be 5bc3 873e 1b72 0d3e 93c5 963e
00000250: bbeb 17bf 04ae 4b3e f650 5e3e 2878 823e
00000260: 598e 87be 525c 2b3f 1f6b c1be 7ebd 0cbe
00000270: 657a 46bc 9a78 e0be eba6 84be a94e 24be
00000280: 3232 273e 1216 c23e ed80 a5bd 538c bc3d
00000290: 8d29 db3e aada f4bc 5936 70be d878 c23d
000002a0: 1edb b13e e6ab 8b3e 6cd0 ee3e 9390 b5be
000002b0: c847 80be 8130 25be 5c14 813e 46e0 95be
000002c0: e1c2 503e 685e abbe 18b2 2c3e 888b ca3e
000002d0: 0599 81be ea10 eabe 6759 66bd 3588 2bbe
000002e0: 4e85 853d cdcd 2cbe 76b0 1ebe 1273 8ebe
000002f0: fdc9 53be b4da 8d3e d6d3 903e 168f 8f3e
00000300: 6e4f 563e e322 b3be a0dc 1cbe 30b0 6cbe
00000310: 4fb3 903d 7ce6 163e 7ec9 e8bd 72f2 3e3d
00000320: 0c03 3c3c 9f45 2cbe 36d9 4e3e 6086 453e
00000330: 1ee4 e1bc e7c4 e63e 600e ce3d ca81 f5be
00000340: d643 fc3d d2ed 28be d530 d33d 6afa d93d
00000350: 0471 733d 2e99 9cbe 5500 b4bd 4e59 88be
00000360: af2b 9bbd bec5 a0bc bafc e6be 70a5 0c3f
00000370: e410 0abf 2ec7 b7be cc9e af3e 9634 4f3e
00000380: 4b57 8e3e 2c71 20be b4dd bbbd 28e6 613e
00000390: 6e59 4dbe 0a72 483e 3977 b83e 9bf9 193f
000003a0: d3eb 163f 7cd0 25be ae00 81be 735e 63be
000003b0: 3401 913e 4525 0fbf a5af 803d e44a 743e
000003c0: f3bd 843e 3d53 37be df69 ccbe 93cb 933e
000003d0: 2fba d3be 6c09 a1bd 81d9 b1bd ab7f c03e
000003e0: 7dba 9d3d 6462 6c3e 8a3b 2a3f b476 3f3e
000003f0: 71bb 8cbe 82a4 e03d c9d6 b1be 941a 47be
-0.035381135 -0.40217412 0.07654144 -0.06860166 -0.40949497 -0.34887677 -0.066371694 0.09850846
0.21171705 -0.02826011 -0.009041291 -0.04069698 0.0782746 0.39310583 0.030749513 -0.4432235
0.024688259 -0.30773115 -0.053507157 -0.19527301 -0.36288062 -0.046828017 0.44510147 -0.3650287
0.25584325 0.33006582 -0.051837504 0.37888253 -0.048126206 0.14779311 -0.042164125 -0.55559355
-0.18592067 -0.50463855 0.5925223 0.21783942 -0.2664912 -0.1837599 0.041659914 -0.73997265
0.17662176 0.107254624 0.18487561 -0.09024752 0.103412434 -0.12655604 -0.092315525 -0.37450728
0.23953222 -0.30190885 -0.05155146 -0.21378282 0.5070342 -0.1773305 -0.017167874 -0.40400636
-0.3714048 -0.053514697 -0.19262253 -0.25063074 0.19331117 0.21801727 0.35151792 0.011585807
-0.1808267 -0.09282276 0.22182222 0.21350475 0.26706365 -0.5927833 -0.009207565 -0.13243985
0.14224993 0.4543255 0.024608966 -0.33946213 -0.4218712 0.012080014 -0.006925638 0.40616563
0.15861526 0.1583393 -0.5034306 0.13612854 0.34647778 -0.33869973 0.0676288 0.20229363
0.2448265 -0.39586714 -0.27201387 0.035682775 0.16404583 0.26574597 -0.31645647 -0.029077202
0.067709655 -0.08621756 0.4728844 -0.002140687 -0.6716941 -0.09923136 0.08685028 -0.34025922
0.10341751 -0.4319641 -0.20193924 0.062595636 -0.00039053595 0.37383983 0.09198619 -0.3013663
0.0710909 -0.25401515 -0.08301913 -0.07106271 0.24107294 0.17830239 -0.5884774 0.25235975
0.23100269 -0.30238846 0.4240624 -0.27833703 0.61419255 0.3397022 0.0278001 0.23201011
0.009128337 -0.22303216 -0.19461381 0.1948635 0.015477187 -0.38365686 0.3470505 -0.7467163
0.12892601 0.004300803 0.031358965 0.0037213822 -0.2983157 0.5019891 0.4737972 0.20792007
-0.31982496 0.26516232 0.13813059 0.29447612 -0.5934407 0.198906 0.21710572 0.25482297
-0.2647579 0.66937745 -0.3777704 -0.1374416 -0.012114142 -0.43842012 -0.25908598 -0.16045631
0.16327742 0.37907463 -0.08081231 0.09206452 0.42805138 -0.029889423 -0.23458232 0.09495705
0.34737486 0.27279586 0.46643388 -0.35461864 -0.25054765 -0.16131784 0.25210845 -0.2927267
0.2038684 -0.33470464 0.16864812 0.3955958 -0.25312057 -0.4571603 -0.056237604 -0.16751178
0.065195665 -0.16875382 -0.15497002 -0.27822167 -0.20682521 0.2770592 0.28286618 0.28038853
0.20928738 -0.34987554 -0.15318537 -0.23114085 0.070654504 0.1473636 -0.113665566 0.046617933
0.011475336 -0.16823433 0.20200047 0.19289541 -0.027574595 0.450721 0.100613356 -0.47950584
0.12317626 -0.16496971 0.10312048 0.10643466 0.059433952 -0.30585617 -0.08789126 -0.26630634
-0.07576691 -0.01962554 -0.4511469 0.5493994 -0.53932023 -0.3589415 0.3430084 0.20234904
0.27800974 -0.15668172 -0.09173146 0.22060454 -0.20053646 0.19574752 0.3602846 0.6014649
0.5895359 -0.16192812 -0.2519583 -0.22203998 0.2832123 -0.55916244 0.062835015 0.23856694
0.2592617 -0.17902847 -0.39924523 0.28866252 -0.41352984 -0.07863125 -0.08684064 0.37597403
0.077015854 0.23084408 0.664971 0.18697625 -0.27486756 0.109688774 -0.3473418 -0.19443733

module_list.0.bias f4 [128]
00000000: f416 043e 7239 abbe 2459 933e 3d8e 21be
00000010: 4ca9 e6be e9ac 9abd bec0 0f3d 3fa3 6c3e
00000020: 1dd5 6b3e 0d2d c8be 65d4 a73d 1851 aebd
00000030: 8b49 f8bd 3ab9 a63e 811e 55be 772a b5be
00000040: efa3 9c3e 4e82 6ebd 9b85 9b3e 719a 663e
00000050: 3d55 ae3e bfb0 69be d3ed d33c aa6e 0dbb
00000060: 538a a4be 5c90 0bbd 28e9 5bbe 4400 5dbe
00000070: 5e31 13be 252c 4c3e 7bb0 843e 08c8 ca3e
00000080: 10b4 593e 9c0a 5bbe ec15 66be c9be c1be
00000090: 2f1d d63e 4d36 d7be 4f7b 563d ef5b 183e
000000a0: 1411 cebd 1280 b5be c32e 77be 179f 683e
000000b0: f974 d0be 40f8 1d3d 3f90 a93e edb6 b6be
000000c0: 5408 b6be 3972 2c3d b010 3fbe 99b6 7bbe
000000d0: 30d9 d83e a194 41be 8331 9cbd 4a2b 88be
000000e0: 976c db3e 58aa 9fbe bbeb 523e 9026 b63e
000000f0: 362a b4be ef89 2a3e c0b1 a63e 297b 92be
00000100: c381 41be 651c 94bd 0eb6 f0bd c6cd adbe
00000110: 3c77 e4be 168d d9be 623c 8cbe 6725 e0be
00000120: 3a60 78bc 373f 5b3d 6eeb eebe e734 bb3e
00000130: 5f78 8bbe 68d9 443e 3306 cc3d 50d6 483c
00000140: ceac dabe 214f ff3d fd45 5d3e 5d0b 70be
00000150: 96f7 d5be b1e1 c23e 245a 3a3e 5ef3 373e
00000160: 4756 58bd cddc b53d 32db 21be ece7 a8be
00000170: c178 0cbe 5bb4 9bbe 7f72 333c c1d3 9bbe
00000180: d5ad 013e f535 a3be 2f30 ad3e 45fb bdbc
00000190: d83d a13e 3beb b03e f915 99be cb95 7dbd
000001a0: bcfd a53e 05f6 343e 0440 b0bd 8e4a 963e
000001b0: 3704 ce3e d06f d4be 5fe6 89be c9e9 b43d
000001c0: b1bb a6be 7f29 543e 3ea5 36be cfe5 e63e
000001d0: 7641 453e 010e f9bd 7101 b1be ae3b 17be
000001e0: b2e4 c93e 84c4 e63d 786a 45be 3246 f23d
000001f0: 097f cfbe 16b2 383e fc89 4d3c 524d a93e
0.12899381 -0.33442265 0.28778946 -0.15776916 -0.45051038 -0.07552511 0.035095923 0.23109148
0.23030515 -0.3909687 0.08194808 -0.08511561 -0.12123402 0.32563192 -0.20812418 -0.3538396
0.3059382 -0.058229737 0.3037537 0.22519852 0.34049407 -0.2282133 0.02587024 -0.0021580853
-0.32136783 -0.03407322 -0.21475661 -0.21582133 -0.14374301 0.19938715 0.25915894 0.39605737
0.21260095 -0.21390766 -0.224693 -0.3784087 0.4181914 -0.42033616 0.05236369 0.1487882
-0.10061851 -0.35449272 -0.24138932 0.22716938 -0.40714243 0.038566828 0.33117864 -0.35686436
-0.3555323 0.04210112 -0.1865871 -0.24581374 0.423532 -0.18904354 -0.07626631 -0.26595527
0.42856285 -0.3118465 0.20597737 0.35576296 -0.35188454 0.1665418 0.32557487 -0.2860959
-0.18897156 -0.07231978 -0.11753474 -0.33946055 -0.4462222 -0.42490453 -0.27389818 -0.43778536
-0.015159661 0.053527083 -0.46663994 0.365638 -0.27240273 0.19223559 0.0996212 0.012258127
-0.42709965 0.124662645 0.2160873 -0.23441835 -0.41790456 0.38062814 0.18198448 0.17963931
-0.052816655 0.08880005 -0.15806273 -0.32989442 -0.13717939 -0.30411038 0.010952591 -0.30434993
0.12663968 -0.31877103 0.33825824 -0.023191104 0.31492496 0.34554467 -0.29899576 -0.06191043
0.32420146 0.17671974 -0.0860596 0.29353756 0.4023759 -0.41491556 -0.26933572 0.088336535
-0.32565072 0.20718955 -0.17836472 0.45097205 0.19263253 -0.12160874 -0.34571412 -0.1476886
0.39432293 0.11267951 -0.19278896 0.11829795 -0.40526608 0.18036684 0.012545105 0.33066803

module_list.1.0.weight f4 [64, 128]
00000000: 7ce9 8f3d b251 adbd 2cd4 a1bd e16e 9abc
00000010: b527 e1bd 2d2f 9a3d d0a1 9c3d 0916 1dbd
00000020: 40af d7ba 5e66 c93d 95e2 7fbc 2212 edbc
00000030: 2b1d b7bc a95a 62bc b12c 1f3b 6cc7 2f3c
00000040: 1976 7d3d 4cb1 0b3d 4910 dabd 2cb9 883d
00000050: 8ac6 5ebd 709c 1abe c9e4 13bd 6411 42bc
00000060: 966d a9bd b4b5 933d c7e6 c03d 2da3 963c
00000070: 0be2 bdbd 967f 61bd 513c 043b 7916 893d
00000080: 2323 ee3d 5fd9 6bbd 68d3 50be 438d 82bd
00000090: bd7b 163e 333d bb3c 0fe3 033d cfcb 88bc
000000a0: 6199 9f3c ba20 0cbe 5d86 b9bc 60d1 453d
000000b0: c72a 3ebd c25e e3bd 381c 833d 8484 b8bd
000000c0: f295 98bd 5c85 cbbd 4fd2 80bc 4d33 80bc
000000d0: e3c8 463d 7d39 13bd b946 063c f085 ba3d
000000e0: 3b8d 403e 6e07 80bd 418c ba3d 9a48 8ebb
000000f0: 23de 9bbc 15ae 7ebd d1a1 4f3d c76d 063d
00000100: f17b 7a3d 3f1f 9c3b 8ae1 0abe f430 09bc
00000110: cc5f ec3b 8388 123d 8a58 d73c 516a f3bd
00000120: 530e 0b3e 9ca0 f0bd 7aa7 9bbd 0d01 dcbb
00000130: e6b6 87bc deed 3e3d c741 b63d 8d65 cd3b
00000140: 5354 a93c 5e06 dabd 23d4 1cbd ed8e 8e3d
00000150: 9b1f a4bd cbc4 573d 1a90 653d 7558 f7bc
00000160: 7489 c73d 19c7 813c d39c bcbd ae5e c73c
00000170: 7040 babc 67b1 86bd 4db2 343d 45df cfbd
00000180: f0fe bc3c f4d6 c13d 79ef 17be 4811 b63c
00000190: 3f9d b83d 5b2c 2abd a190 093e bc5c a0bd
000001a0: a90b 7ebd b930 ee3d 279e 1a3d 7722 3f3d
000001b0: 8ea5 073d bc5c 98bd 80ab c73d a86c ebbc
000001c0: 1561 49be 4acc bebd abd4 863c b0f2 00bd
000001d0: 3cf6 7bbd 227b 10be 4f13 95bc 2472 a63d
000001e0: f146 b6bc e1ca a33d 6d1d 863d 4f97 9b3d
000001f0: 0c83 3dbb 1ebb 9d3b 25c0 01bd ca72 ab3d
00000200: 0758 033b ea94 14bd 8708 1dbd 3bd9 68bc
00000210: 1d5e 4f3d 863c a53d 8825 e63c 72bd 873d
00000220: b014 6b3d 3aaa aebc c994 56bd b4dd 14bd
00000230: 2e2a 19bd a626 3dbe 6bd6 be3d ebc8 983d
00000240: eaa0 d33c ee2d be3c c92d 0bbd 5129 f3bd
00000250: 0e2f 66bd e0ca 95bd 7560 803c c922 a43d
00000260: c83f 8abd 669b 0bbd d931 163d d975 c13d
00000270: 9c11 d73c 5154 9e3d 7247 ae3d 6f0e a0bc
00000280: c14d 0a3d 1797 41bd bd8b 723c 7043 cc3d
00000290: 0e6d e3bd 5c5f 4d3d d862 e23b 718c 19bd
000002a0: f54b 0e3c c3cb 553d 167f da3c e686 1e3d
000002b0: cb2c a1bd c684 21bd f58d 94bd 617b 3c3a
000002c0: e765 d73d 3668 93bc 0f4f e53d 576e a33d
000002d0: 991a a7bd 2260 313d 6424 70bd 7393 7eba
000002e0: ab2c 4a3d 1c37 953d 47d9 a7bd 7373 a0bd
000002f0: 8585 cd3c 09cd 1f3d 781b 853d c0f0 bd3d
00000300: b130 803a 3878 13bd f8d8 e0bc 144f b33d
00000310: 1847 073d e767 4c3d 465a aa3d 316b a4bd
00000320: ec4c 0c3e fc3e 873e 762c 7fbc 60b5 023b
00000330: 523f 663d ad70 4b3d a06c 02be 039b 21bd
00000340: 6ac6 943d 8c3f 783d cfe6 0bbe 535e abbd
00000350: 5a85 cf3c abcb f43c 6e14 ecbc 4d52 4bbd
00000360: c87e 0b3d c237 86bc 3aff b53d 7c4e 233d
00000370: d302 f03c 8c88 9d3d 0dc9 2fbd 7327 2e3d
00000380: 77f1 7dbd 9fb1 3c3d 91cb fdbc eb22 94bc
00000390: 4f77 8b3d cede 913c 4c98 2e3e e835 89bd
000003a0: f45d 153d 2b55 623d 6313 edbd 3288 ca3d
000003b0: a4c2 b53d 0848 123d 4b04 863d 1bbe 1bbe
000003c0: 6146 953b 81a0 9e3b f102 acbc f215 90bd
000003d0: 9ee5 d6bd 3e32 d43c 23ba 583d 07be 7c3c
000003e0: 6a2e 6abd e122 92bd f28f a3bd 0096 c03c
000003f0: d33e a63d 47d8 babc 7258 8bbd 92f9 fb3c
0.070269555 -0.08462848 -0.07901797 -0.0188517 -0.10993902 0.07528529 0.07648051 -0.038351092
-0.0016455427 0.09833978 -0.015617986 -0.02893931 -0.022352776 -0.01381556 0.0024288113 0.010728698
0.061880205 0.03410463 -0.106476374 0.06675944 -0.05438856 -0.15098739 -0.03610686 -0.011844967
-0.08272855 0.072123915 0.09419017 0.018388355 -0.0927163 -0.055053316 0.0020177553 0.066937394
0.116277955 -0.057580348 -0.20393145 -0.063746 0.1469564 0.02285633 0.03219896 -0.016698746
0.019482316 -0.13684359 -0.022647077 0.04829538 -0.046427514 -0.11102058 0.06401867 -0.0900965
-0.07450475 -0.09937546 -0.015725283 -0.015649462 0.048531424 -0.035943497 0.0081955725 0.09107578
0.18803875 -0.06251417 0.091087826 -0.004342151 -0.019026821 -0.062177736 0.05069143 0.032819536
0.061153356 0.004764467 -0.13562599 -0.008373488 0.0072135683 0.03577472 0.026287336 -0.118855126
0.13579683 -0.11749384 -0.07600303 -0.0067139925 -0.016566705 0.046613567 0.08899265 0.0062682093
0.020670092 -0.10645746 -0.038288247 0.06960855 -0.08013841 0.05267791 0.05604563 -0.030193547
0.09743014 0.015842007 -0.09209599 0.024337139 -0.022735804 -0.065768056 0.044115353 -0.10150007
0.023070782 0.09464827 -0.14837445 0.022225037 0.09014367 -0.041546207 0.13434078 -0.07830188
-0.06202284 0.11630387 0.037748482 0.046663728 0.03311687 -0.07439563 0.09749508 -0.028738335
-0.1966594 -0.09316309 0.01645883 -0.031481445 -0.061514124 -0.14109471 -0.018197684 0.08127239
-0.022250624 0.079976805 0.06548581 0.07597219 -0.0028917221 0.004813566 -0.031677384 0.08371504
0.0020041482 -0.036274828 -0.03833821 -0.014211948 0.050626863 0.080681846 0.028094068 0.06627931
0.057392776 -0.021321405 -0.052387986 -0.036344245 -0.03739374 -0.18471774 0.09318241 0.07460197
0.025833566 0.02321526 -0.03397921 -0.11873115 -0.05619722 -0.07314086 0.015670994 0.08014447
-0.067504466 -0.034083746 0.036668632 0.09446306 0.026253514 0.07730926 0.08509721 -0.019538132
0.03376556 -0.04726323 0.014803824 0.099738 -0.11104785 0.05013977 0.0069087557 -0.03748745
0.008685102 0.052196275 0.026671927 0.038702868 -0.07869872 -0.039433263 -0.07253639 0.0007190016
0.10517483 -0.017994028 0.1119672 0.0798003 -0.0815937 0.04330457 -0.058628455 -0.00097113027
0.049359005 0.07285902 -0.08195739 -0.0783452 0.025088081 0.039013896 0.0649938 0.09274435
0.0009780136 -0.03600332 -0.027447209 0.08755317 0.033026785 0.049903776 0.083179995 -0.08028258
0.13701218 0.2641524 -0.015574565 0.0019944534 0.05621273 0.049668003 -0.1273675 -0.03945447
0.07264407 0.060607478 -0.13662265 -0.083676 0.025332142 0.029882273 -0.028818335 -0.049639035
0.034056455 -0.01638401 0.08886571 0.03986977 0.029298222 0.0769206 -0.042916346 0.04251809
-0.061997857 0.04606783 -0.030980857 -0.018083056 0.06809866 0.017806437 0.17050284 -0.06699735
0.036466554 0.055257004 -0.11575963 0.098892584 0.088750154 0.035713226 0.065437876 -0.15209238
0.004555509 0.004840911 -0.020997496 -0.07035436 -0.10493015 0.025902864 0.05291189 0.015426165
-0.05717317 -0.07135559 -0.0798644 0.023509026 0.081174515 -0.022808207 -0.06803979 0.030758653

module_list.1.0.bias f4 [64]
00000000: 626c 893d eb19 c6bd 74d1 18bc af06 2c3c
00000010: 65cc 5c3d fe00 05bd 8e98 3cba 6d33 9cbd
00000020: 29e3 8d3d 4dff a33d 9fb5 a1bd b007 2dbd
00000030: b12c 7dbd 229a d53b 71ac 6cbd e3b4 9f3d
00000040: 42b6 4bbd 33ec 003c d488 e3bc 7b71 073d
00000050: 94ac f7ba ff51 d23d 40bd 063d 2bfd b93d
00000060: 56cb a6bd df26 e8bc d7e2 973d 305a 1ebc
00000070: 2a04 a33c a371 cfba a176 2d3d 6608 3c3d
00000080: d9c6 65bc ab75 243d b068 e7bc f1ab c13c
00000090: 41a4 d93d ee69 44bb f287 b8bd 1d2e 20bc
000000a0: 633b ffbc d2e6 6e3d 844d 91bd 8980 9f3d
000000b0: 7132 1d3d 44a7 0a3d 06ad 283d 7f07 44bd
000000c0: 9cc1 afbd de71 fa3b c260 97bd d8a8 083d
000000d0: b8da a9bc 8a0e d7bb a968 a8bd 1112 eebd
000000e0: 481c 173d 03b2 46bd 84e4 403d 5e27 91bd
000000f0: 4645 1bbc 91ab ab3d 0547 1dbd 76bc d73b
0.067101255 -0.09672912 -0.009327281 0.01049964 0.053905863 -0.03247165 -0.0007194363 -0.07626996
0.06928093 0.08007679 -0.078959696 -0.04224366 -0.0618102 0.006518618 -0.05778164 0.07798173
-0.04973436 0.007868814 -0.027775206 0.033067208 -0.0018896037 0.10269546 0.032895327 0.09081491
-0.08144252 -0.028338848 0.07416313 -0.009665057 0.019899447 -0.0015826713 0.04234946 0.045906447
-0.01402446 0.04015128 -0.028248161 0.023641558 0.10627032 -0.0029970366 -0.090103045 -0.009776619
-0.031156247 0.058325596 -0.07094863 0.07788188 0.038378183 0.033850923 0.041180633 -0.04785871
-0.0858185 0.0076429686 -0.07391502 0.033364147 -0.020734176 -0.0065630125 -0.08223087 -0.1162454
0.036892205 -0.04850961 0.04709293 -0.07087587 -0.009476965 0.08382333 -0.038397808 0.0065837456

module_list.2.weight f4 [1, 64]
00000000: 4efc cc3d 61e3 da3d acc5 073e 05e4 4e3d
00000010: fd15 e2bd 7ff7 2ebd c276 b73d 49fd b9bd
00000020: 0cdf 833d f5ec 0c3d 17e0 12be 153b 31bd
00000030: 7db2 f6bd b972 f03d 1fca 1dbe daf3 853d
00000040: 2299 023d aea5 de3d aa8a debd be1e 4d3e
00000050: e03f 7c3e 2c07 cfbd b8dd e33d 4f26 b83d
00000060: b53c 933d 4d8a c7bd 1979 953d 87a8 173e
00000070: 1851 b43d 8ec2 e73d ebbc 393e 7328 ec3d
00000080: 204a 183e 1b88 d0bd d817 903d d363 8cbd
00000090: 73ef 0abe a1b7 90bd 7266 8bbd d7fd 2e3e
000000a0: 50de 76bd 0b2a b7bd 3698 cebd b91f 6f3d
000000b0: bea6 f2bd 4163 2cbe 0dab eb3c 7a46 ebb9
000000c0: 0b51 5e3e 0161 c53d 86a2 91bd a4cc 62bc
000000d0: a93a 65bd 26df 24be d392 093e 6e1c 103e
000000e0: 4db5 45be eb98 013d 17d3 64bd 4b67 a33d
000000f0: 4417 0ebe 2b02 af3d 7226 073d 4c08 ffbd
0.10009061 0.106879 0.13259 0.050510425 -0.1103935 -0.0427165 0.08958198 -0.090815134
0.06439027 0.034405667 -0.14343296 -0.043269236 -0.12045763 0.117406316 -0.15409134 0.065406516
0.03188432 0.10871445 -0.10866292 0.20031258 0.24633741 -0.1010879 0.11126274 0.08991682
0.07189313 -0.09743176 0.07298488 0.14810382 0.0880453 0.11316405 0.18138473 0.115311526
0.14872026 -0.1018221 0.07035798 -0.068549775 -0.13567905 -0.070662744 -0.06806649 0.1708902
-0.060270607 -0.08943566 -0.10087626 0.058379862 -0.1184821 -0.16834737 0.028768087 -0.00044875202
0.21710603 0.09637643 -0.07111077 -0.013842735 -0.055964146 -0.1610075 0.13434915 0.14073345
-0.19307442 0.031639975 -0.055865373 0.07978686 -0.13876063 0.085453354 0.03299565 -0.124527544
