saved_models_MLP/exp-f-fcc-eform/mlp_eform_fcc_ratio0.4_seed2_epoch300.pt (torch, 38935 bytes, 5 tensors)

module_list.0.weight f4 [128, 6]
000000 fc cc 0b 3e 1f 26 3e 3e 07 53 91 bd 68 07 9e 3e
       0.13652414 0.1856923 -0.07095914 0.30865026
000010 49 96 2e bd 05 28 53 be 62 17 6f 3e 4f 60 b2 be
       -0.04262379 -0.20620735 0.23348764 -0.34839103
000020 d9 1e 8c 3e 05 d4 25 3e 07 ea 06 3e 06 a1 58 be
       0.27367285 0.1619416 0.13175212 -0.21155176
000030 81 a3 b5 3e 22 09 a5 3d 2a 72 a0 bd ec 48 91 bd
       0.35476306 0.080583826 -0.07834275 -0.07093987
000040 b7 ef 90 be dc 47 11 3e 9e 10 98 3e 54 fc 12 be
       -0.28307888 0.14187568 0.29700178 -0.14354068
000050 54 7c b4 be 97 22 75 be 62 df f8 bb 96 36 93 be
       -0.35251105 -0.23938976 -0.0075949887 -0.28752583
000060 b2 f2 86 be 20 e2 57 3e 4d 18 c0 bd 3e fa 8c be
       -0.26357037 0.21082354 -0.09379635 -0.2753467
000070 9d ba 42 bd 88 ce bb bd f1 00 4c bd 65 ae 1b be
       -0.04754125 -0.09170252 -0.049805585 -0.15203245
000080 28 e3 0b bd d2 e6 6b 3e 33 ee 54 be 70 30 06 be
       -0.03415218 0.2303727 -0.20793991 -0.13104415
000090 2e b6 bd 3e f2 d9 be 3e e6 04 a4 be ba de 8b be
       0.37053055 0.37275654 -0.32034987 -0.27318364
0000a0 91 56 ad be 03 9a 7f be b2 3a 66 3e e0 98 26 3d
       -0.33855107 -0.24961095 0.22483328 0.040673137
0000b0 b6 8e 26 be a8 3e c1 3e 2f a8 d2 bd 28 1b b6 3d
       -0.16265377 0.37743115 -0.10285985 0.088918984
0000c0 47 a8 b7 be 2a ec 84 3e c6 bd 00 be fc c2 c6 3e
       -0.35870573 0.2596143 -0.12572393 0.38820636
0000d0 99 13 99 be d4 95 7b 3e 96 4c 3d bc 51 7e 06 bd
       -0.29897764 0.24568874 -0.011553904 -0.03283531
0000e0 f7 99 9c be 68 68 a3 3e a4 bf aa 3e 94 34 84 3e
       -0.30586216 0.31915593 0.33349335 0.25821364
0000f0 cf d8 08 be a2 77 78 3e 16 15 0a be 76 6a 11 3e
       -0.13363956 0.24264386 -0.13484606 0.14200768
000100 49 72 99 be f6 bf d0 3e 85 a6 a7 be e6 a8 c2 be
       -0.29970005 0.40771455 -0.32744232 -0.38019484
000110 53 02 b6 3e 99 17 c6 bd e6 0a 06 be 96 85 c2 3e
       0.35548648 -0.0967247 -0.13090095 0.37992543
000120 e7 b9 73 be a0 ca 23 be 36 99 ac 3c 3b bf d3 3e
       -0.23801385 -0.15995264 0.02106915 0.41356835
000130 e3 c7 1b be 80 05 48 3e d2 ed 7d be 82 4b 85 be
       -0.1521297 0.19533348 -0.24797752 -0.2603417
000140 03 a6 36 3c d9 96 66 be da 8b e0 bc 12 b3 ac be
       0.011147979 -0.22518481 -0.027410436 -0.3373037
000150 ee 11 aa 3d 5d d4 47 3e fb b5 28 3e 2b e5 c2 3e
       0.08304201 0.19514604 0.1647567 0.38065466
000160 3d 9b 29 be da 31 a7 3e f4 f0 fc bd f3 3c 9f 3e
       -0.16563125 0.3265522 -0.12350646 0.31101188
000170 e8 ec d2 be 4e 33 4d be 7f 81 a8 be 80 91 1c 3e
       -0.4119637 -0.20039102 -0.32911298 0.15289879
000180 e5 4c 4a be 5f 02 99 3d 16 30 bd 3e 78 4f 91 bd
       -0.19755895 0.074711554 0.3695075 -0.070952356
000190 b5 a7 8e be 1e 93 92 3e 42 3e 4e 3c bc 06 09 3e
       -0.27862325 0.28627867 0.012588086 0.13381475
0001a0 77 28 13 be 25 3a 27 3e b7 91 a9 3e 20 5b cb bc
       -0.14370905 0.16330774 0.33118984 -0.024823725
0001b0 04 24 46 3e 26 49 ca be be 3c 61 3d f5 5c 0e 3e
       0.19349676 -0.39508933 0.05498957 0.13902648
0001c0 e9 e0 11 3e 28 92 bf 3e 71 a4 36 3e b4 87 47 3e
       0.14245953 0.37416196 0.17836167 0.1948536
0001d0 d2 a6 b3 3d 41 b2 29 3e 82 f7 8b be 70 72 39 3e
       0.08772053 0.16571905 -0.2733727 0.1811006
0001e0 92 5a c4 bd c1 85 f1 3b c9 77 07 3e 40 71 69 be
       -0.095875874 0.007370681 0.13229288 -0.22797108
0001f0 8f 20 87 be 2c 6d 5c 3e 79 67 af be db 35 82 3e
       -0.26392028 0.21526021 -0.3425863 0.25431713
000200 02 69 72 be 77 44 a8 3e ff 41 b5 be 96 d7 81 be
       -0.2367287 0.32864735 -0.35401914 -0.25359792
000210 3d f7 8c 3e 3b 02 01 be 03 ed 35 3e 92 1c 09 be
       0.27532378 -0.12598507 0.17766194 -0.13389805
000220 13 3f b3 3e e1 b9 8e be 39 61 a0 be c8 ec 0d bd
       0.3500906 -0.2787619 -0.31324175 -0.03464964
000230 8b 78 7b 3e b9 ca 00 3c 2b bf 9d 3e b8 91 d6 3d
       0.24557702 0.007860833 0.30809912 0.104770124
000240 2c be 36 bd f9 ed b3 be 58 08 81 be 61 1f 95 be
       -0.044614956 -0.35142496 -0.25201678 -0.29125503
000250 52 5c 8f 3c f9 b8 29 be 46 16 dc 3d 05 e1 a4 be
       0.017500076 -0.16574468 0.10746436 -0.32202926
000260 b5 e6 8d be 51 b2 18 be 48 bc 30 bd 46 29 6d be
       -0.27715078 -0.14911772 -0.04314831 -0.23160276
000270 f3 e5 60 3e 56 80 1e be e4 c4 45 bd 53 05 ee bc
       0.21962719 -0.15478644 -0.048283473 -0.029055273
000280 01 10 c4 3e ca 45 b2 3e a7 82 79 be 45 8e 2b bd
       0.3829346 0.3481887 -0.24366246 -0.041883726
000290 d3 ee 85 bd d5 06 a2 3e 0e 83 b2 3e 57 01 a9 be
       -0.06539693 0.31645837 0.34865612 -0.33008835
0002a0 49 ad 9d be 43 29 d2 3e 84 d2 53 3e 78 7e d5 be
       -0.3079627 0.41047105 0.20685774 -0.4169805
0002b0 b2 64 c4 3e be b9 43 be 6c 50 0f 3e 36 a7 c7 be
       0.38358074 -0.19113824 0.13995522 -0.3899476
0002c0 77 5a 4f be 2c 96 bb 3d da 46 ef 3d 68 f9 05 3d
       -0.20249353 0.091595024 0.11683436 0.032708555
0002d0 84 db ab be 33 4a c4 bd 8e 90 bf 3e 4a 7f 5a 3d
       -0.33565915 -0.09584465 0.37414974 0.05334405
0002e0 e1 84 ab be ba 45 47 be 08 cb e0 3b 3a 6a 9f bd
       -0.33499816 -0.19460192 0.0068601407 -0.07783933
0002f0 7b 83 65 be fb 9a a6 3e 55 cb 6e 3e 70 09 a4 bc
       -0.22413437 0.32540116 0.23319753 -0.020024031
000300 23 0e bc 3e 19 27 c4 3e a6 5d 85 be aa a9 63 be
       0.36729535 0.3831108 -0.2604801 -0.2223269
000310 f8 cf 19 be 06 1c 95 3e 1e a0 8c 3e a7 0e b1 3d
       -0.1502074 0.29122943 0.2746591 0.08645373
000320 69 7d c5 3e fb 70 22 3e 94 9e a6 bd d0 cb a5 bc
       0.38572243 0.15863411 -0.08135715 -0.020238787
000330 79 9e c8 3d ec 65 02 3e ca e6 0a 3e 1c a6 8e be
       0.09795851 0.12734193 0.13564602 -0.27861106
000340 48 d5 6f 3e d8 de 25 3e e6 8a 24 3d 56 56 16 be
       0.23421204 0.1619829 0.040171526 -0.14681372
000350 57 56 19 be 42 70 e1 be 41 cb 22 3e 98 ca 4e bd
       -0.14974342 -0.44030958 0.15897848 -0.050486177
000360 7e f2 09 3e c7 86 c6 3d 88 ad 2a bd 9b 60 ab be
       0.1347141 0.096936755 -0.0416694 -0.33472142
000370 2a 18 49 3d 30 8e 3f bd 0c 12 a8 3e 72 d3 ac bd
       0.04909531 -0.04676646 0.3282627 -0.084387675
000380 dd fc b8 be 10 4e 82 bd ad 0d 09 3e c0 33 57 3e
       -0.3613042 -0.063625455 0.13384123 0.21015835
000390 65 a7 2e 3e c6 59 d1 be 33 2a 3a 3d f8 27 61 3e
       0.17056043 -0.40888804 0.0454504 0.21987903
0003a0 b9 e1 d8 3d 14 16 b5 3e 5c 70 53 be a1 a3 5e be
       0.10589928 0.35368407 -0.2064833 -0.21742107
0003b0 9b ab 50 3e b6 c9 e6 bd 12 09 92 3c 8c c3 b4 be
       0.20377962 -0.11268942 0.01782659 -0.3530544
0003c0 91 bf 04 3e 4e d2 bf be 71 d9 cd be 5a c9 76 3e
       0.12963702 -0.37465137 -0.40204957 0.24100247
0003d0 a1 67 69 be f2 44 a6 3e 7a 1f 42 3e f6 50 5d 3e
       -0.22793438 0.32474476 0.1895732 0.21612915
0003e0 94 03 c4 3d b0 9b ac 3d bb 06 c3 3c 97 25 d0 be
       0.09570995 0.084281325 0.02380692 -0.4065368
0003f0 57 6e 8c 3e 6d b4 62 be 84 f4 b5 bd 43 5c 20 3e
       0.27427933 -0.2213914 -0.08884528 0.15660195

module_list.0.bias f4 [128]
000000 32 2d 9d 3e 62 75 8a be 42 41 1b 3e d8 36 33 be
       0.30698544 -0.2704268 0.15161613 -0.1750139
000010 36 51 ab 3e 7c 73 14 be 98 e7 a1 3e 0b 89 f4 bd
       0.33460397 -0.14497179 0.31622005 -0.11940201
000020 d2 6a b3 3e 33 bc b5 be 4c 05 96 3e d5 31 10 3e
       0.35042435 -0.35495147 0.29300916 0.1408151
000030 89 2a b8 3e 04 98 e9 bd 3d 43 88 be d3 ea 9c be
       0.35969952 -0.11405948 -0.266138 -0.30647907
000040 a0 48 03 be 73 ff 22 be a1 5a 35 bd 4a 97 a2 be
       -0.12820673 -0.15917759 -0.044275884 -0.3175605
000050 d2 22 09 be fb 0e 2d 3e a5 5f dc 3d 18 7a 71 3e
       -0.13392189 0.16900246 0.1076043 0.23581731
000060 d5 ad 79 3e 46 61 a5 3d 38 ce 61 3d 82 48 15 be
       0.24382718 0.08075194 0.055128306 -0.14578441
000070 a6 12 d6 bd 74 47 4f 3e f5 3f 8c be 66 1f bc be
       -0.10452776 0.20242101 -0.27392545 -0.36742705
000080 56 c1 51 3d 16 79 cc 3e 52 9c 82 bd ff 34 9e bd
       0.05120977 0.3993613 -0.06377472 -0.07724952
000090 f2 bb 2c 3e 8c b0 69 be 30 53 17 be 6d 25 88 3d
       0.1686857 -0.22821254 -0.14777827 0.066477634
0000a0 c7 be bc 3e ad 56 a6 be 87 93 a3 3e 98 58 a3 bd
       0.36864302 -0.32488003 0.31948492 -0.07975882
0000b0 21 3a 56 3e d7 51 5c 3e c7 0b b7 3e b8 65 76 bd
       0.20920612 0.21515594 0.35751173 -0.0601556
0000c0 eb 94 bd bd e9 d8 cc be ab d7 d3 be 9f 44 bd 3d
       -0.092569195 -0.4000924 -0.4137548 0.09241604
0000d0 8a 62 54 3e 1e f3 88 3c e8 f4 96 bc 13 39 a9 3e
       0.20740715 0.01671749 -0.018427327 0.33051357
0000e0 34 b1 78 be 08 0e f0 3d ae c7 8f 3e e9 6b b6 3e
       -0.24286348 0.11721426 0.2808203 0.35629204
0000f0 c2 01 03 bd 86 c5 9b be 83 26 0e 3e 0a e8 a1 3e
       -0.0319841 -0.30424136 0.13881879 0.31622344
000100 47 ff 96 be 6a 7b 3c be 93 e2 0e 3e e2 71 c1 bd
       -0.29491636 -0.18406454 0.13953619 -0.094455495
000110 29 34 b5 3e 17 e2 b8 3d d1 b8 25 bd 45 d9 a6 3d
       0.35391358 0.09027498 -0.040459458 0.081469096
000120 05 ce 1d be 80 88 37 3e 18 43 c8 be f3 05 0a bd
       -0.15410621 0.17923164 -0.39113688 -0.03369708
000130 30 86 8a be e8 f9 89 3b 91 c4 9c be 69 48 5d 3e
       -0.27055502 0.0042106993 -0.30618718 0.21609654
000140 72 4f 9d 3e 2b e8 16 3e ad c6 79 be d4 55 9f 3d
       0.30724674 0.14737003 -0.24392195 0.07780042
000150 a4 db 25 3e 96 0c d1 3e f4 9e 80 3e 53 53 19 3e
       0.16197067 0.40829915 0.25121272 0.14973192
000160 5e b3 49 bb a6 87 a9 bd 57 6b cf 3c 0b 89 5d 3e
       -0.0030777077 -0.08277826 0.025319738 0.21634309
000170 30 be 79 3e d7 d4 d8 3d d5 c6 63 bd d9 71 2c 3e
       0.24388957 0.10587471 -0.055609543 0.16840304
000180 2e d2 ea 3e aa e5 6f be 4c 67 66 be 15 00 84 be
       0.4586348 -0.23427454 -0.22500342 -0.25781313
000190 a3 f9 62 3e 99 1f 53 3d 8d cf ef 3b 25 68 b1 3e
       0.22165541 0.051543806 0.007318443 0.34649768
0001a0 9f ae d5 be bd 05 61 3e 5b 4a 39 3e 93 e4 9c be
       -0.41734788 0.21974845 0.1809477 -0.30643138
0001b0 1f b6 21 be b4 99 c8 bc ed 98 86 be 14 71 af be
       -0.1579213 -0.024487354 -0.26288548 -0.3426596
0001c0 bc 33 4c bd ff 81 c5 3e 4b fc ff 3c 4d 04 ca 3e
       -0.049854025 0.38575742 0.031248232 0.39456406
0001d0 76 d4 ad be 2e 4e b8 3e f0 dc 9a 3e f7 8b cb bc
       -0.33951157 0.35997146 0.30246687 -0.024847014
0001e0 e0 1f bd bd 5f 18 a9 be 8e 68 8d 3e 3e e9 b3 3e
       -0.09234595 -0.33026406 0.2761883 0.35138887
0001f0 8d bd 62 3e 3a 6d 2e 3b e6 ef a9 be d2 ee 9d be
       0.2214262 0.0026615397 -0.3319084 -0.30846268

module_list.1.0.weight f4 [64, 128]
000000 d7 2f 1b bd 45 0f b4 3c 88 fe 5c 3d f7 84 59 bd
       -0.03788742 0.021979937 0.053953677 -0.05310532
000010 00 1d a8 3d 22 0c ac 3d ca 85 1c 3b b9 98 94 3d
       0.08208656 0.08400752 0.0023883455 0.07255692
000020 64 a6 8c 3d e8 8b b5 3d 2a 5a a4 3d b8 e4 d0 3b
       0.06867674 0.088645756 0.0802501 0.0063749216
000030 9d 78 8e 3d 8d 68 8b 3d 04 13 fc 3c f7 d8 ad 3c
       0.06956599 0.06807051 0.030770786 0.021221621
000040 6f 99 7a 3d c9 71 1e 3d a4 29 a6 bd b4 f4 37 bc
       0.061181482 0.038682733 -0.08113411 -0.011227775
000050 ae fa c0 3c f6 4e 29 bb b4 41 a5 3c fd d0 f8 3b
       0.023557033 -0.0025834418 0.020172931 0.0075932727
000060 a7 d8 35 3d fd 96 63 bd 1a aa 80 3d 27 56 46 3d
       0.04439607 -0.055563916 0.06282444 0.048422005
000070 3d ab 30 bc a4 31 16 bb 90 20 12 bc 39 c8 3f bd
       -0.010783014 -0.0022917772 -0.008918896 -0.046821807
000080 74 20 25 ba 26 9f 18 bd d8 27 4b bd 10 82 f3 bc
       -0.00062990864 -0.03726115 -0.049598545 -0.029725105
000090 ad f8 fa bc 74 f3 19 3d 79 0c 95 bd e5 1e ed 3b
       -0.030636156 0.03758569 -0.072777696 0.007236349
0000a0 ed 22 90 bd c9 29 36 3d b2 0f 8d bd 5c 35 6c 3d
       -0.070379116 0.044473443 -0.06887759 0.057668075
0000b0 86 70 78 bd 1f bf 7b bd c7 18 61 3d a2 91 4d 3c
       -0.060654186 -0.061461564 0.05495527 0.012546929
0000c0 cf 88 45 3d c1 28 1d bd 92 59 6c 3d cf c2 a5 bc
       0.048226174 -0.038368944 0.05770261 -0.020234494
0000d0 90 22 81 3d 09 53 3c bc ea 8d 95 bd ea e7 8c bd
       0.063054204 -0.0114944065 -0.073024586 -0.068801716
0000e0 71 3b a8 3d e2 fd 8f bc 9e 85 06 bd 28 46 8d bd
       0.082144625 -0.017577115 -0.03284227 -0.06898147
0000f0 88 bd 67 bd 90 ed 5e 3d 92 6b af bc c8 4d cb bc
       -0.056577235 0.054425776 -0.021413598 -0.024817362
000100 2c 16 b3 3d 9e 4b b1 3d 63 b5 96 3c 89 d5 a6 bd
       0.08744463 0.08657001 0.018397039 -0.08146197
000110 dc 34 4c 3c e6 c3 05 bc 36 31 aa ba 0a d1 cd bc
       0.0124637745 -0.008164382 -0.0012984637 -0.025124092
000120 7f 90 8a 3d e1 69 b1 bc 82 3b 65 3d 29 a2 1b 3d
       0.06765842 -0.021656932 0.055964954 0.037996445
000130 79 80 1a 3d 6a b1 d3 bc 54 9f 53 bd 19 0c 79 3d
       0.037720177 -0.025841434 -0.05166562 0.060802553
000140 be 76 88 bd 20 20 49 3d 78 2c 98 3b f7 c2 42 bb
       -0.06663273 0.049102902 0.004643973 -0.002971826
000150 cf 92 67 3d e0 3e 3f bd 4b 6c d3 3b d6 90 75 3d
       0.056536492 -0.04669082 0.0064521185 0.05995258
000160 d9 e7 d1 bc 56 19 49 3d 6f eb c6 3c e6 91 1f 3d
       -0.025623249 0.049096428 0.024282185 0.0389575
000170 63 f8 b1 bc 23 e6 5f 3d 1a 72 8b 3d 98 b8 4f 3d
       -0.021724885 0.054662835 0.068088725 0.05071315
000180 e0 d9 d2 bc b4 19 92 bd 64 fb 9f bd 1a fb 2c bd
       -0.025738657 -0.07133809 -0.07811621 -0.042231657
000190 23 01 d8 bd cf 1f a0 bd f8 69 67 3d 7a e1 36 3c
       -0.10547092 -0.07818567 0.056497544 0.011162156
0001a0 f5 2a 0e bd 40 18 9d bc d1 b1 8f 3d 54 d0 1a bd
       -0.034708936 -0.019176602 0.07016338 -0.037796333
0001b0 d8 0a 9f bd 8e 85 a9 bd 15 0c 2e 3c e8 69 07 bb
       -0.0776574 -0.08277427 0.010622998 -0.002066249
0001c0 a6 8a 6c 3d 0f ef 7d bc a4 6a b0 3d 67 17 64 3d
       0.057749413 -0.015498891 0.0861409 0.05568638
0001d0 3b a6 f7 bc b9 b7 73 3d 6e fe f4 bc d3 af 5d 3d
       -0.030230632 0.059501383 -0.029906478 0.054122757
0001e0 fb 31 0b 3d c0 ad 40 3c 02 e5 26 bc 09 1a ab 3d
       0.033983212 0.011760175 -0.010186436 0.08354575
0001f0 7a 5f 10 3c d3 94 3f bd 0e 78 c6 3a 38 e1 14 3d
       0.008811826 -0.04677279 0.001514198 0.036347598
000200 1f a2 39 3d f9 ab 4b bd a3 be 76 bd fc 63 55 3d
       0.045320626 -0.049724553 -0.0602404 0.052097306
000210 94 ec b1 bc be 11 8e bd 2f 13 79 3c 10 1c 98 3d
       -0.021719255 -0.06936978 0.015202328 0.074272275
000220 70 22 0a 3d d3 2f b9 3c 15 7b 67 bd ae d6 76 3c
       0.03372425 0.022605812 -0.056513865 0.015065832
000230 93 3e 51 bd b6 85 cc 3c da 2f 81 3d d3 90 8c 3c
       -0.051085066 0.024966102 0.06307955 0.017158901
000240 7f 4d 4e 3d ad 93 68 3d d3 46 a6 bd c1 9e 56 3d
       0.050366875 0.05678146 -0.081189774 0.052397493
000250 74 05 c5 3d 60 d9 4c 3d 45 e7 8b bd 9d ca 52 bd
       0.09620181 0.050011992 -0.068312205 -0.05146276
000260 bf 1b 55 bc d3 d8 1e bc ad 91 6a 3d ba 0e af bd
       -0.013007103 -0.00969525 0.057267834 -0.08547731
000270 bc fc 7e 3c bc 64 9d 3b c4 75 42 3d 0c dd 9f 3c
       0.015563186 0.0048032682 0.04747559 0.019514583
000280 88 36 aa bd 4e 01 72 bd 9a bf 98 bc fa 45 c6 bc
       -0.08311182 -0.059083275 -0.01864605 -0.02420329
000290 15 69 60 3d 55 80 a3 bd b2 e3 3f bc 70 00 88 bc
       0.054787714 -0.07983462 -0.011712002 -0.016601771
0002a0 e1 79 74 bd 4a 0d d8 3c db 4e 2a bc a0 98 24 3d
       -0.059686545 0.026373524 -0.010394777 0.040184617
0002b0 4d b0 47 3d 0e 26 32 3d 7f 6a 00 bd fd 0c 62 3c
       0.048752118 0.043493323 -0.031351563 0.013797042
0002c0 f2 1f 9b bd 5a 13 f2 3c 22 56 9b 3d 73 33 8b 3d
       -0.075744525 0.029550243 0.07584788 0.067969225
0002d0 5e fb d0 3c d0 15 22 bd 38 09 90 bd b2 b8 57 bb
       0.025510486 -0.039571583 -0.07033008 -0.0032916483
0002e0 45 ee 93 3d 8d 8d b4 3d e0 2b 46 3d a1 e5 9a bc
       0.07223181 0.08816061 0.048381686 -0.018908324
0002f0 8b 43 ac 3c c4 b0 8c bd 98 44 23 bd e9 e3 62 3c
       0.0210283 -0.06869653 -0.039860338 0.013848283
000300 be 08 50 bc 3d 82 06 3d 35 b1 80 3c b7 ce fb 39
       -0.012697397 0.03283905 0.015709499 0.00048028465
000310 8d 81 e7 3b 80 7d 98 bc 2c 2f a6 3d 9c 32 ac bd
       0.007065004 -0.01861453 0.08114466 -0.084080905
000320 8f 5b 3b 3d 56 e0 3d bb 56 c2 b7 bd f0 12 5a bb
       0.045741614 -0.0028972826 -0.089726135 -0.0033275448
000330 2e c0 65 3d 3d 0a 65 bc ee 2c c8 bc a3 39 95 3d
       0.05609148 -0.013979492 -0.024435487 0.07286384
000340 44 19 3e bd d5 8f 9c 3c 73 78 b4 bd ba e4 98 bd
       -0.046410814 0.019111553 -0.08812036 -0.07465501
000350 7e 35 7f bd 93 3e 93 bd 85 50 9e 3d 33 31 bd 3c
       -0.062306874 -0.071896695 0.07730202 0.02309475
000360 16 36 b2 bd 2d b1 60 bd 48 e5 9b bd fa 74 a1 3d
       -0.08701722 -0.054856468 -0.07612091 0.0788364
000370 10 d0 37 bd 6f c1 a8 3d 72 85 3d 3d 9a 8f 29 bd
       -0.04487616 0.082400195 0.04626984 -0.041396715
000380 ee ee 99 bd a4 a1 77 3a 04 00 c7 3c 45 40 96 3d
       -0.07516275 0.00094463886 0.024292 0.07336477
000390 d2 f4 fb 3c 9e 2e ae bd e0 15 1b bd bc a5 a0 bd
       0.030756388 -0.08504985 -0.03786266 -0.07844111
0003a0 e6 06 5e bc ed e8 a6 3d ef bc b3 3d af 25 40 3d
       -0.013551449 0.08149896 0.087762706 0.046910938
0003b0 87 63 ad 3d f0 88 cc 3a 22 1f 0c 3c 66 8d 0a 3d
       0.08466249 0.0015604775 0.0085523445 0.033826254
0003c0 f2 26 79 bd a0 68 9a 3d 05 a3 3b bc 9e 37 29 bc
       -0.060828157 0.07539487 -0.011452441 -0.010328202
0003d0 04 ed 25 bd f2 b0 6c 3c 95 8c 5c 3d 03 9e 84 bc
       -0.04050924 0.014446484 0.053845007 -0.016188627
0003e0 30 41 30 bd 65 00 ae 3c 64 21 72 bc 30 0f 36 3d
       -0.043030918 0.021240423 -0.014778469 0.044448078
0003f0 30 8a fb bc 28 1a 33 bc 06 db 36 bb bc 81 25 3d
       -0.030705541 -0.010931529 -0.0027901544 0.040406927

module_list.1.0.bias f4 [64]
000000 64 d9 c0 3b ed 4e 9f bd 63 f4 10 bd 5f 90 6f bd
       0.00588529 -0.07778726 -0.035389315 -0.058487292
000010 e4 42 18 3c 32 8a c6 bc 5f 39 5a 3d aa e7 d3 bb
       0.009293292 -0.024235819 0.05327737 -0.0064668255
000020 44 19 4b bd 39 01 16 bd 63 06 85 bd 5f 66 67 3d
       -0.049584642 -0.03662226 -0.06495359 0.056494113
000030 67 de a8 bb 60 2d 50 bd 51 0d c4 bc 92 25 19 bd
       -0.0051534656 -0.050824523 -0.023932131 -0.037389345
000040 ee bc 70 bc 19 5a a5 bd c0 cd 11 3d 3e d4 d5 bc
       -0.014693482 -0.080738254 0.03559661 -0.026102182
000050 b8 18 7c bd 69 80 0a bd a2 01 74 3a 31 c7 e2 bd
       -0.06154701 -0.033813868 0.00093081046 -0.11073149
000060 74 78 c3 bc 76 03 1e bd 54 02 80 3d 7d 89 70 bd
       -0.023861147 -0.03857752 0.06250444 -0.05872487
000070 88 c8 a3 bd 67 b2 d7 3b 85 d8 65 3c 82 2c 60 3d
       -0.07997233 0.0065825465 0.014028673 0.054729946
000080 f6 35 3e 3d 3d 25 98 bd 07 64 45 bd bd 6d 55 bd
       0.04643818 -0.07428978 -0.048191097 -0.052106608
000090 68 ea 41 bd 43 80 89 3c 12 18 95 3c bc e7 2c 3b
       -0.047342688 0.016784793 0.018199954 0.0026383242
0000a0 03 25 99 bd 61 87 3c 3d 66 c7 29 bc 26 71 31 bd
       -0.074777626 0.046027545 -0.010362482 -0.043320797
0000b0 f8 35 a9 bd 20 85 88 bd 87 5f f7 ba b2 1e a8 bd
       -0.08262247 -0.066660166 -0.0018873074 -0.0820898
0000c0 26 d3 de bd b2 a9 9a bd ab c4 ed bc e3 e4 9f bc
       -0.10880117 -0.07551898 -0.029024443 -0.019518321
0000d0 e5 fb 92 3d 32 c6 d2 bd b4 5e 01 3c 5d c8 19 3b
       0.07176951 -0.10291709 0.007896114 0.0023465373
0000e0 a9 54 af bc 41 20 16 bd c1 58 9e bd 63 77 79 3a
       -0.021402674 -0.036651853 -0.07731772 0.0009516386
0000f0 6c cb 49 bd 05 11 6b 3d 0b 3f 94 bc 8e 61 9f 3d
       -0.049266264 0.057389278 -0.018096467 0.07782279

module_list.2.weight f4 [1, 64]
000000 f8 4f c5 3d a9 ed 88 3d 79 2d ae 3c 4e 2c b8 bd
       0.096343935 0.06685955 0.021261917 -0.089928254
000010 f8 b0 5c bd 0d 9f e2 bc 46 3e d4 bd 37 19 56 bc
       -0.053879708 -0.027663732 -0.1036344 -0.013067535
000020 bf 9c 44 bd 8d 0f fe 3c e2 d9 86 3d 30 e6 9b bd
       -0.048001047 0.031013275 0.065845266 -0.07612264
000030 c5 f4 bc bd 78 b0 ad 3d 26 d1 83 3d ef d4 bf 3b
       -0.092263736 0.08480924 0.06436376 0.005854241
000040 86 a6 37 bd fe a7 19 bc a7 44 3a bb f3 49 59 3c
       -0.044836544 -0.009378431 -0.0028422268 0.01326226
000050 bc 32 33 3c 2f 28 90 3d de 33 c1 3d 26 6b bb bb
       0.010937389 0.070389144 0.09433721 -0.00571956
000060 68 df c0 bd e1 85 64 bc 34 a5 bf bc 5b ed 38 bd
       -0.09417611 -0.013947935 -0.023394205 -0.045148235
000070 1e de 8f 3d 40 95 b8 3a dc d1 9b bb f5 11 e5 3d
       0.07024787 0.0014082566 -0.004755242 0.11185066
000080 28 49 3e 3b 98 cc 25 3d 56 e0 81 3d 42 00 b6 bc
       0.0029035304 0.04047832 0.06341617 -0.02221692
000090 da 1a fc 3c f4 be e3 3c 81 91 c9 3d d2 e7 b7 bd
       0.030774523 0.027801014 0.09842206 -0.08979763
0000a0 d6 96 48 bb 08 9b e9 3d 1a c2 4a 3d 26 0d 55 bd
       -0.0030607483 0.11406523 0.049501516 -0.052014492
0000b0 a0 80 1a bd 83 1a 66 bd 88 0c a5 bd c7 db 1c bd
       -0.037720323 -0.056177627 -0.08059031 -0.038295534
0000c0 b4 98 10 bd 2d ab a8 bd 39 fa c4 bb 3e da 85 bd
       -0.03530188 -0.08235774 -0.006011274 -0.06535767
0000d0 ea c6 07 bd db 49 b8 bd 69 12 6c 3c f9 19 4a bd
       -0.033148684 -0.08998462 0.014408686 -0.049341176
0000e0 49 7f f8 bc d2 a8 39 bd c8 fb 92 bd 7c ff 82 3b
       -0.030334132 -0.045327015 -0.0717693 0.0039977413
0000f0 38 66 84 3d e3 5e 4c 3d b8 b7 b7 bd 5b 93 d8 bd
       0.06464809 0.04989518 -0.089705884 -0.10574981
