saved_models_MLP/exp-f-fcc-eform/mlp_eform_fcc_ratio0.4_seed1_epoch300.pt (torch, 38935 bytes, 5 tensors)

module_list.0.weight f4 [128, 6]
0	0x3e0bc517	0.13649403
1	0x3e3ad338	0.18244636
2	0xbd85c6a6	-0.0653203
3	0x3ea2096e	0.3164782
4	0xbd5e089c	-0.05420743
5	0xbe532805	-0.20620735
6	0x3e6d0f05	0.23150261
7	0xbeb38af4	-0.3506695
8	0x3e887aea	0.26656276
9	0x3e153b5b	0.14573424
10	0x3e14a831	0.14517285
11	0xbe58a106	-0.21155176
12	0x3eb5db02	0.35518652
13	0x3daaf990	0.083483815
14	0xbd9e1e3d	-0.07720611
15	0xbd13ccb1	-0.03608388
16	0xbe98bfa0	-0.29833698
17	0x3e1147dc	0.14187568
18	0x3e983e1c	0.29734886
19	0xbe0fa472	-0.14027575
20	0xbeb4158e	-0.35172695
21	0xbe793d3f	-0.2433977
22	0x3b4418ea	0.0029922077
23	0xbe933696	-0.28752583
24	0xbe86dc5f	-0.26340005
25	0x3e58044f	0.21095394
26	0xbdc8a218	-0.09796542
27	0xbe929184	-0.28626645
28	0xbcfb3125	-0.030663082
29	0xbdbbce88	-0.09170252
30	0xbd4e817b	-0.05041645
31	0xbe12cdf6	-0.1433638
32	0xbcfb150e	-0.030649688
33	0x3e68aea0	0.22722864
34	0xbe55a63a	-0.20864192
35	0xbe063070	-0.13104415
36	0x3ebe79da	0.3720234
37	0x3ebe17da	0.37127572
38	0xbea5ee82	-0.3240853
39	0xbe8b9c79	-0.27267817
40	0xbeacbf27	-0.33739588
41	0xbe7f9a03	-0.24961095
42	0x3e68ee1d	0.22747083
43	0x3d20b412	0.03923423
44	0xbe29b12f	-0.16571496
45	0x3ec22974	0.3792225
46	0xbdc164f5	-0.09443084
47	0x3db61b28	0.088918984
48	0xbeb819e4	-0.35957253
49	0x3e875118	0.26429057
50	0xbdf702b8	-0.120610654
51	0x3ec6f3bc	0.3885783
52	0xbe925ad9	-0.28584936
53	0x3e7b95d4	0.24568874
54	0xbbda7797	-0.0066670883
55	0xbd104f50	-0.03523189
56	0xbe8999fe	-0.268753
57	0x3ea4a7ea	0.32159358
58	0x3ea5ff46	0.3242132
59	0x3e843494	0.25821364
60	0xbe0b0757	-0.13577019
61	0x3e7e5bbb	0.2483968
62	0xbe037c2a	-0.12840334
63	0x3e151c4b	0.14561574
64	0xbe980a9f	-0.29695603
65	0x3ed0bff6	0.40771455
66	0xbea7bc26	-0.32760733
67	0xbec3c8a6	-0.3823902
68	0x3eb633ce	0.355864
69	0xbdb55f5a	-0.088560775
70	0xbe1706aa	-0.14748636
71	0x3ec28596	0.37992543
72	0xbe7cd6a4	-0.24691254
73	0xbe19198e	-0.14951155
74	0x3d21b7ed	0.039482046
75	0x3ec4e716	0.38457555
76	0xbe30aee5	-0.17254217
77	0x3e480580	0.19533348
78	0xbe7ec141	-0.24878408
79	0xbe867b77	-0.2626607
80	0x3ae5361a	0.0017487437
81	0xbe6ac8f9	-0.22928227
82	0xbd0dae92	-0.03459031
83	0xbeacb312	-0.3373037
84	0x3dab56d8	0.083661735
85	0x3e4799c6	0.19492254
86	0x3e180475	0.1484545
87	0x3eb7d85f	0.35907266
88	0xbe1292ce	-0.14313814
89	0x3ea731da	0.3265522
90	0xbdfd3ff3	-0.12365713
91	0x3e9d20b3	0.3068901
92	0xbed27442	-0.41104323
93	0xbe44ffa7	-0.19238149
94	0xbeafd711	-0.3434377
95	0x3e1c9180	0.15289879
96	0xbe4d6826	-0.2005926
97	0x3d95b364	0.07309607
98	0x3ec2e50f	0.38065383
99	0xbd7b874b	-0.061408322
100	0xbe8cc5c6	-0.2749464
101	0x3e92931e	0.28627867
102	0x3b7022a3	0.003664174
103	0x3e0736d6	0.13204512
104	0xbe1250ad	-0.14288588
105	0x3e2d5309	0.16926207
106	0x3e9df7f5	0.3085324
107	0xbccb5b20	-0.024823725
108	0x3e46333e	0.19355485
109	0xbec8ff50	-0.39257288
110	0x3d642532	0.055699535
111	0x3e14a043	0.1451426
112	0x3e157980	0.1459713
113	0x3ebf9228	0.37416196
114	0x3e2e16fc	0.17000955
115	0x3e4847b5	0.19558604
116	0x3d964861	0.07338024
117	0x3e1d1a61	0.15342094
118	0xbe86720c	-0.26258886
119	0x3e397270	0.1811006
120	0xbdd9278b	-0.10603245
121	0x3c6d40b3	0.0144807575
122	0x3e4c72c0	0.19965649
123	0xbe48c11c	-0.19604915
124	0xbeb334c9	-0.3500121
125	0x3e5c6d2c	0.21526021
126	0xbeafcc1c	-0.3433541
127	0x3e814377	0.25246784
128	0xbe6fc859	-0.2341627
129	0x3eabdd8e	0.3356747
130	0xbeb9f959	-0.3632305
131	0xbe81d796	-0.25359792
132	0x3e8e3054	0.27771246
133	0xbe0061db	-0.12537329
134	0x3e298249	0.16553606
135	0xbe1a3e78	-0.15062892
136	0x3eb837a8	0.35979962
137	0xbe8eb9e1	-0.2787619
138	0xbea44c7c	-0.32089603
139	0xbd3513f9	-0.0442085
140	0x3e842a06	0.2581331
141	0xbc83b553	-0.016077673
142	0x3e9614bb	0.2931269
143	0x3dd691b8	0.104770124
144	0xbd3a94f9	-0.045552228
145	0xbeb4450b	-0.35208926
146	0xbe7f799c	-0.24948734
147	0xbe9b4110	-0.30323076
148	0xba00bc43	-0.00049108657
149	0xbe29b8f9	-0.16574468
150	0x3de0f01c	0.10983297
151	0xbea461ef	-0.32105967
152	0xbe8f0a8b	-0.2793773
153	0xbe070ed3	-0.13189249
154	0xbd2e6223	-0.04257406
155	0xbe6d2946	-0.23160276
156	0x3e624482	0.22096446
157	0xbe2225ab	-0.15834682
158	0xbd42fdd7	-0.04760536
159	0xbd0ca9f7	-0.03434178
160	0x3ec16bc9	0.37777546
161	0x3eb245ca	0.3481887
162	0xbe79f9c7	-0.24411689
163	0xbd38f06b	-0.045151155
164	0xbd839bfa	-0.064262345
165	0x3e9fce77	0.31212208
166	0x3eb0cb7c	0.34530246
167	0xbea90157	-0.33008835
168	0xbe9e39ba	-0.30903417
169	0x3eced5de	0.40397543
170	0x3e59c41a	0.21266213
171	0xbed2316e	-0.41053337
172	0x3ec50877	0.3848302
173	0xbe43b9be	-0.19113824
174	0x3e1011da	0.1406931
175	0xbec85b48	-0.39132142
176	0xbe539e78	-0.2066592
177	0x3db70ff5	0.089385904
178	0x3e06b442	0.131547
179	0x3d05f968	0.032708555
180	0xbeabeead	-0.33580533
181	0xbdbff951	-0.09373725
182	0x3ebf1c77	0.37326404
183	0x3d614669	0.05499879
184	0xbeaaa61b	-0.33329853
185	0xbe4745ba	-0.19460192
186	0x3a7299ba	0.00092544744
187	0xbd965f64	-0.07342413
188	0xbe61d5f0	-0.22054267
189	0x3eacb2b0	0.33730078
190	0x3e6d055e	0.23146579
191	0xbca40970	-0.020024031
192	0x3ebed1fc	0.3726958
193	0x3ebd38fb	0.36957535
194	0xbe936831	-0.2879043
195	0xbe74d40a	-0.23909011
196	0xbdeeca39	-0.11659665
197	0x3e951c06	0.29122943
198	0x3e8db47e	0.27676767
199	0x3daa68ce	0.08320771
200	0x3ec1c58c	0.3784603
201	0x3e3b82e2	0.18311647
202	0xbdaf58e7	-0.08561879
203	0xbca5cbd0	-0.020238787
204	0x3dcb8d2d	0.099390365
205	0x3e03dd92	0.12877491
206	0x3e0ed18a	0.1394712
207	0xbe8fc5a3	-0.28080472
208	0x3e776e9d	0.2416329
209	0x3e25ded8	0.1619829
210	0x3d534028	0.051574856
211	0xbe1fadf1	-0.15593697
212	0xbe254060	-0.16137838
213	0xbee10ffb	-0.43957505
214	0x3e258d7b	0.16167252
215	0xbd4eca98	-0.050486177
216	0x3e133623	0.1437612
217	0x3da49f23	0.080381654
218	0xbd443df5	-0.04791065
219	0xbeaeed4b	-0.34165415
220	0x3d8070d9	0.06271524
221	0xbd3f8e30	-0.04676646
222	0x3ea8f6ec	0.33000886
223	0xbda581d7	-0.080814056
224	0xbeb736d5	-0.3578402
225	0xbd64d8a8	-0.055870682
226	0x3e020edf	0.12700985
227	0x3e5733c0	0.21015835
228	0x3e2f4a94	0.17118293
229	0xbed24c45	-0.41073814
230	0x3d429fd4	0.047515705
231	0x3e6a0699	0.2285408
232	0x3def0869	0.11671526
233	0x3eb51614	0.35368407
234	0xbe5480f9	-0.20752324
235	0xbe64aaef	-0.22330831
236	0x3e5022e7	0.20325814
237	0xbdd12b91	-0.10213388
238	0x3ab88a34	0.0014079274
239	0xbeb4c38c	-0.3530544
240	0x3e017850	0.12643552
241	0xbec072f8	-0.37587714
242	0xbec7816c	-0.3896593
243	0x3e69ddf5	0.22838576
244	0xbe5b17c9	-0.21395792
245	0x3ea644f2	0.32474476
246	0x3e423f2c	0.1896941
247	0x3e5bb08a	0.21454063
248	0x3dbf2a18	0.093342006
249	0x3da82dea	0.082118824
250	0x3c596d3a	0.013270671
251	0xbed02597	-0.4065368
252	0x3e8e3d68	0.27781224
253	0xbe6278fd	-0.22116466
254	0xbdb071e8	-0.08615476
255	0x3e1fab33	0.15592651

module_list.0.bias f4 [128]
0	0x3e9c47f6	0.30523652
1	0xbe8e6407	-0.2781069
2	0x3e1e237b	0.15443222
3	0xbe3241c9	-0.17407908
4	0x3eabdd90	0.33567476
5	0xbe12b64f	-0.14327358
6	0x3ea260f8	0.31714606
7	0xbdea468e	-0.114392385
8	0x3eb43ee0	0.3520422
9	0xbeb192f3	-0.34682426
10	0x3e91459a	0.28373414
11	0x3e0fd36a	0.14045492
12	0x3eb82b3b	0.35970482
13	0xbde66810	-0.11250317
14	0xbe876552	-0.2644449
15	0xbe9cb3c6	-0.30605906
16	0xbe03da3a	-0.12876216
17	0xbe2323ba	-0.15931597
18	0xbd343a25	-0.044000763
19	0xbea4a18f	-0.3215451
20	0xbe071321	-0.13190891
21	0x3e2bf07c	0.16790956
22	0x3dcde91d	0.100542285
23	0x3e70ba57	0.23508583
24	0x3e809ee4	0.25121224
25	0x3da4c60a	0.080455855
26	0x3d625bb0	0.05526322
27	0xbe164fa1	-0.14678814
28	0xbddf9f09	-0.109190054
29	0x3e4dbcb0	0.2009151
30	0xbe8a5dcd	-0.2702469
31	0xbebb31d0	-0.3656144
32	0x3d38a27b	0.04507683
33	0x3ece35bc	0.4027537
34	0xbd8047d1	-0.06263698
35	0xbd9d827c	-0.076909035
36	0x3e2e900d	0.17047139
37	0xbe66f010	-0.22552514
38	0xbe1a110c	-0.15045565
39	0x3d80298f	0.06257927
40	0x3ebb16fb	0.3654097
41	0xbea68eda	-0.32530862
42	0x3ea49e9b	0.32152256
43	0xbdaa4b61	-0.08315159
44	0x3e494963	0.19656901
45	0x3e5ce84e	0.21572992
46	0x3eb61191	0.35560277
47	0xbd7c4718	-0.061591238
48	0xbdbd6f61	-0.092497595
49	0xbecce5e7	-0.40019152
50	0xbed30f91	-0.41222814
51	0x3dc10a14	0.094257504
52	0x3e544168	0.20728076
53	0x3c94f654	0.018183865
54	0xbcae2193	-0.021256244
55	0x3ea6a8ca	0.3255065
56	0xbe76b4ef	-0.24092458
57	0x3ddf8f4e	0.10916005
58	0x3e91a8be	0.28449053
59	0x3eb620e8	0.3557198
60	0xbcfad935	-0.03062115
61	0xbe9af81c	-0.30267417
62	0x3e0bde8c	0.13659114
63	0x3ea267e5	0.3171989
64	0xbe94c8de	-0.290595
65	0xbe3ae0ce	-0.18249819
66	0x3e0eb3dd	0.139358
67	0xbdc11bb4	-0.09429112
68	0x3eb2514e	0.34827656
69	0x3da8628a	0.0822192
70	0xbd257bc3	-0.04040123
71	0x3dad6f19	0.08468456
72	0xbe1d3ede	-0.15356013
73	0x3e36672b	0.17812793
74	0xbec917fe	-0.39276117
75	0xbd1565e7	-0.036474135
76	0xbe8af64f	-0.27141044
77	0x3b4dda80	0.0031410754
78	0xbea6677c	-0.32500827
79	0x3e5d574c	0.21615332
80	0x3e9cce60	0.30626202
81	0x3e129b12	0.14316967
82	0xbe8050ef	-0.25061747
83	0x3d9333e3	0.07187631
84	0x3e26aaea	0.16276136
85	0x3ed08770	0.4072833
86	0x3e8364ec	0.25662935
87	0x3e1894a8	0.14900458
88	0xbad5815b	-0.0016289161
89	0xbda7bbbb	-0.081901036
90	0x3ccd2e5f	0.025046526
91	0x3e5f51de	0.21808574
92	0x3e78302e	0.24237129
93	0x3dd8fc12	0.105949536
94	0xbd52d6f7	-0.051474538
95	0x3e2bebac	0.1678912
96	0x3ee6e2f4	0.45095026
97	0xbe7099e2	-0.23496202
98	0xbe673693	-0.22579412
99	0xbe83b55c	-0.25724304
100	0x3e62c7e8	0.2214657
101	0x3d5a4300	0.053286552
102	0x3bce0f19	0.006288421
103	0x3eb253c3	0.3482953
104	0xbed14af6	-0.40877503
105	0x3e683b82	0.2267895
106	0x3e3d3e50	0.18480802
107	0xbe9cd767	-0.3063309
108	0xbe218eff	-0.15777205
109	0xbcdb8a90	-0.02679947
110	0xbe8764c8	-0.26444077
111	0xbeb3d2c7	-0.35121748
112	0xbd5739a8	-0.05254522
113	0x3ec656db	0.3873814
114	0x3d01487b	0.031563263
115	0x3ec8c260	0.39210796
116	0xbeae5663	-0.34050283
117	0x3eb805d0	0.35941935
118	0x3e9b35f9	0.30314615
119	0xbccb1212	-0.02478889
120	0xbdbdc263	-0.09265592
121	0xbe9c3322	-0.3050776
122	0x3e8ccb3b	0.27498803
123	0x3eb2eea4	0.34947693
124	0x3e661038	0.22467124
125	0x3afcd9a6	0.0019290939
126	0xbeaa39fe	-0.3324737
127	0xbe9f3b20	-0.31099796

module_list.1.0.weight f4 [64, 128]
0	0xbd25f018	-0.040512174
1	0x3cbe62ea	0.023240525
2	0x3d66085b	0.056160312
3	0xbd51a8f0	-0.051186502
4	0x3da5dd4e	0.08098851
5	0x3dadb908	0.084825575
6	0x3b328c7d	0.0027244382
7	0x3d9622b1	0.073308356
8	0x3d8909ce	0.06691323
9	0x3db54440	0.08850908
10	0x3da12f6f	0.07870375
11	0x3ba579b1	0.005049907
12	0x3d8a7d85	0.06762222
13	0x3d89287b	0.06697174
14	0x3cfba857	0.03071992
15	0x3ca56d52	0.02019373
16	0x3d74e26a	0.059786238
17	0x3d08b375	0.03337427
18	0xbda3778b	-0.079817854
19	0xbc27d69c	-0.010244038
20	0x3cc1d863	0.023662752
21	0xbb8f3c0d	-0.0043711723
22	0x3cb49ef3	0.02204845
23	0x3bc4df51	0.0060080667
24	0x3d40419e	0.046937577
25	0xbd588975	-0.052865464
26	0x3d83dc6d	0.06438527
27	0x3d395175	0.0452437
28	0xbc458874	-0.012056459
29	0xba1b74d1	-0.0005930188
30	0xbc2df6c6	-0.010617917
31	0xbd3f7516	-0.04674252
32	0x3ab376f6	0.0013692069
33	0xbd11b9b0	-0.035577476
34	0xbd409fac	-0.047027275
35	0xbccf83c1	-0.02533138
36	0xbcf02567	-0.02931471
37	0x3d2015b7	0.03908321
38	0xbd92a7eb	-0.07160934
39	0x3bc2cb3a	0.0059446367
40	0xbd8b48c7	-0.068009906
41	0x3d3aad92	0.045575686
42	0xbd890211	-0.06689847
43	0x3d770ecd	0.06031685
44	0xbd7f1226	-0.062273167
45	0xbd7fc76b	-0.06244604
46	0x3d6d2135	0.057892997
47	0x3c290ab1	0.01031749
48	0x3d3f4eb0	0.0467059
49	0xbd285f09	-0.041106258
50	0x3d735965	0.059411425
51	0xbca25fd2	-0.019821081
52	0x3d866c0f	0.06563579
53	0xbc604ee8	-0.013690688
54	0xbd974279	-0.073857255
55	0xbd8fb26a	-0.07016452
56	0x3dab0f5c	0.08352539
57	0xbc9cb262	-0.019128028
58	0xbcfb2623	-0.030657833
59	0xbd8f4f21	-0.069975145
60	0xbd618be8	-0.055065066
61	0x3d61a896	0.055092417
62	0xbc960c9f	-0.018316565
63	0xbcd00774	-0.025394179
64	0x3db3eda1	0.087855585
65	0x3dad1bbb	0.08452555
66	0x3c863693	0.016383445
67	0xbda706b0	-0.081555724
68	0x3c3d90b7	0.011570147
69	0xbc275e68	-0.010215379
70	0xbab95802	-0.0014140608
71	0xbcc592c4	-0.024117835
72	0x3d898ecb	0.06716689
73	0xbc86a8ec	-0.01643797
74	0x3d643c90	0.05572182
75	0x3d25f45f	0.040516254
76	0x3d1410ec	0.03614895
77	0xbce2e40c	-0.027696632
78	0xbd543253	-0.051805805
79	0x3d72223e	0.059114687
80	0xbd840a54	-0.064472824
81	0x3d44dd13	0.048062395
82	0x3b0f1586	0.0021832897
83	0xbb885338	-0.004160311
84	0x3d6cf764	0.057853118
85	0xbd4367b6	-0.04770633
86	0x3ba870d2	0.0051404024
87	0x3d7219b1	0.059106532
88	0xbcc8e9d9	-0.02452557
89	0x3d51e61c	0.05124484
90	0x3cd3fe9c	0.025878243
91	0x3d188ad6	0.03724178
92	0xbcc05077	-0.023475869
93	0x3d5c8eb0	0.053847015
94	0x3d88eed3	0.06686177
95	0x3d57e01c	0.05270396
96	0xbcda966a	-0.026683051
97	0xbd949599	-0.07255096
98	0xbda5e44c	-0.08100185
99	0xbd2443ba	-0.04010365
100	0xbdd8f26b	-0.105931126
101	0xbd9d4b00	-0.07680321
102	0x3d70a8a3	0.058754575
103	0x3c524e92	0.012836115
104	0xbd05d63e	-0.03267502
105	0xbc85e169	-0.016342836
106	0x3d8ca1ef	0.06866824
107	0xbd13948c	-0.036030337
108	0xbd9c3500	-0.076272964
109	0xbda76567	-0.08173638
110	0x3c2b352c	0.010449689
111	0xbb975c5f	-0.004619166
112	0x3d7495ec	0.05971329
113	0xbc776603	-0.015100005
114	0x3dad8796	0.084731266
115	0x3d58520a	0.052812614
116	0xbce87eda	-0.0283808
117	0x3d6d433c	0.057925448
118	0xbce069ff	-0.027394293
119	0x3d65ca21	0.05610097
120	0x3d0cdb4b	0.03438882
121	0x3c575fb9	0.013145381
122	0xbc469dd0	-0.012122586
123	0x3da7b4e0	0.08188796
124	0x3c245d74	0.010032047
125	0xbd47ef94	-0.048812464
126	0x3a89c5d7	0.0010511231
127	0x3d115910	0.035485327
128	0x3d4d0cdd	0.050061096
129	0xbd4ed213	-0.05049331
130	0xbd76362b	-0.060110252
131	0x3d50e611	0.05100066
132	0xbcab613c	-0.020920388
133	0xbd8888a4	-0.06666687
134	0x3c7e69fc	0.015528198
135	0x3d97d9f7	0.0741462
136	0x3d0fe065	0.03512611
137	0x3cb0ce88	0.021582857
138	0xbd60a6d7	-0.05484661
139	0x3c8303bf	0.015992997
140	0xbd47b924	-0.04876055
141	0x3cc9df95	0.024642745
142	0x3d7d4e97	0.061842527
143	0x3c7013ea	0.014653185
144	0x3d4baba3	0.049724232
145	0x3d585812	0.052818365
146	0xbda22da7	-0.07918864
147	0x3d504c29	0.050853882
148	0x3dc064b2	0.09394206
149	0x3d5117c4	0.051048055
150	0xbd8c3de0	-0.06847739
151	0xbd4ebf7a	-0.050475575
152	0xbc2dcdf3	-0.010608184
153	0xbbe5f5a3	-0.0070178076
154	0x3d6a09a7	0.05713811
155	0xbdaea751	-0.08528007
156	0x3c6efc59	0.014586532
157	0x3c11e9a6	0.008905804
158	0x3d404fd9	0.04695115
159	0x3c9b8cf8	0.018988118
160	0xbdabb844	-0.08384755
161	0xbd6b4f7e	-0.057448857
162	0xbcad75bf	-0.02117431
163	0xbcdd7fa7	-0.027038408
164	0x3d5f31ed	0.054490972
165	0xbda584a8	-0.08081943
166	0xbc23cfbf	-0.009998261
167	0xbc82f864	-0.015987583
168	0xbd48703d	-0.048935164
169	0x3cca3b37	0.024686439
170	0xbc0e364e	-0.008679939
171	0x3d1beb15	0.03806599
172	0x3d502def	0.050825056
173	0x3d34e258	0.04416117
174	0xbcfe0101	-0.031006338
175	0x3c6726d4	0.014108378
176	0xbd9d3916	-0.07676904
177	0x3ce99839	0.028514968
178	0x3d9770f1	0.07394589
179	0x3d89c2d9	0.06726617
180	0x3ccf34a1	0.02529365
181	0xbd104211	-0.035219256
182	0xbd90bc35	-0.07067148
183	0xbb959976	-0.004565413
184	0x3d91c154	0.071169525
185	0x3db5908a	0.08865459
186	0x3d4c9583	0.049947273
187	0xbc948c43	-0.018133288
188	0x3ca70fec	0.020393334
189	0xbd913063	-0.07089307
190	0xbd1b7bb3	-0.037959766
191	0x3c87af1f	0.016562996
192	0xbc7068d9	-0.014673435
193	0x3cfdb004	0.03096772
194	0x3c8b8510	0.017031223
195	0x3a5f01b5	0.0008507029
196	0x3c079868	0.008276083
197	0xbc90beb8	-0.017669067
198	0x3da2fe89	0.07958705
199	0xbdab859a	-0.08375092
200	0x3d34958c	0.04408793
201	0xb9168756	-0.00014355531
202	0xbdbc69d0	-0.0919987
203	0xbb1e113b	-0.0024119157
204	0x3d5c596e	0.053796224
205	0xbc7fa487	-0.015603191
206	0xbcdee1bd	-0.02720725
207	0x3d93fabb	0.072255574
208	0xbd3a95a0	-0.04555285
209	0x3c9e073f	0.019290565
210	0xbdb84221	-0.08996988
211	0xbd985b0d	-0.074392416
212	0xbd7c74a2	-0.061634667
213	0xbd8df414	-0.0693132
214	0x3da092cb	0.078404985
215	0x3cbe5842	0.023235444
216	0xbdb2485c	-0.08705208
217	0xbd657424	-0.056018963
218	0xbd9b701a	-0.07589741
219	0x3dac8dc9	0.08425481
220	0xbd334137	-0.043763366
221	0x3da00b1b	0.07814618
222	0x3d3c32b2	0.045946784
223	0xbd291b26	-0.041285656
224	0xbd97e097	-0.07415884
225	0x39ca87f4	0.00038629735
226	0x3cc4fa12	0.024045024
227	0x3d9120d4	0.070863396
228	0x3d1e0e7b	0.03858803
229	0xbdad45dc	-0.0846059
230	0xbd1b0fee	-0.03785699
231	0xbd9c703a	-0.07638593
232	0xbc640d0c	-0.013919126
233	0x3daaf130	0.08346784
234	0x3db3dec3	0.08782723
235	0x3d3ad528	0.045613438
236	0x3dab826f	0.083744876
237	0x3af0aabf	0.0018361433
238	0x3bf8c85e	0.007592245
239	0x3d0955cb	0.033529084
240	0xbd7d2f5e	-0.06181275
241	0x3d9b0147	0.07568603
242	0xbc3ed200	-0.011646748
243	0xbb0adc25	-0.0021188345
244	0xbd39a276	-0.04532095
245	0x3c88f4ed	0.016718352
246	0x3d5d9c63	0.05410422
247	0xbc89b0a8	-0.01680787
248	0xbd26cfff	-0.040725704
249	0x3ca3a992	0.019978318
250	0xbc4ef46b	-0.012631516
251	0x3d3a8445	0.0455363
252	0xbcf2d51c	-0.029642634
253	0xbc235c8d	-0.009970796
254	0xbc1364c3	-0.008996191
255	0x3d19a438	0.037510127

module_list.1.0.bias f4 [64]
0	0x3b9ae17b	0.0047265864
1	0xbd99a799	-0.0750267
2	0xbd1c5593	-0.038167547
3	0xbd6b7f65	-0.05749454
4	0x3c3fd1cc	0.011707734
5	0xbc5140d9	-0.012771809
6	0x3d5e7251	0.05430824
7	0xba2c6a58	-0.0006577126
8	0xbd3d73cd	-0.046253014
9	0xbd164653	-0.03668816
10	0xbd7fd8a9	-0.062462483
11	0x3d6d6ab7	0.0579631
12	0x3a14ee28	0.000568124
13	0xbd4fc6f0	-0.05072683
14	0xbcc8282f	-0.024433224
15	0xbce421e7	-0.027848197
16	0xbc630faa	-0.013858715
17	0xbda3b9f2	-0.07994451
18	0x3d414d96	0.047193132
19	0xbcd06884	-0.025440462
20	0xbd7d15a7	-0.061788227
21	0xbd0bacf1	-0.034100477
22	0x3a0e8893	0.0005437221
23	0xbdc71e72	-0.09722604
24	0xbcca6c96	-0.024709981
25	0xbd14e101	-0.036347393
26	0x3d86eb69	0.0658787
27	0xbd6fecf1	-0.058575574
28	0xbda2c951	-0.07948554
29	0x3c4870fb	0.012233968
30	0x3c65d885	0.014028673
31	0x3d5910ef	0.052994665
32	0x3d3f3db0	0.04668969
33	0xbd98253d	-0.07428978
34	0xbd3a87dc	-0.04553972
35	0xbd487c2d	-0.04894655
36	0xbd428d47	-0.047498014
37	0x3c84ad20	0.016195834
38	0x3c9220ee	0.017837968
39	0x3c393116	0.011303207
40	0xbd992503	-0.074777626
41	0x3d3369f7	0.043802228
42	0xbb8cfa3a	-0.0043022903
43	0xbd381aa1	-0.04494727
44	0xbdb5e837	-0.08882182
45	0xbd879845	-0.0662084
46	0x3b27656f	0.0025542637
47	0xbd3245ca	-0.043523587
48	0xbdd048dd	-0.101701476
49	0xbda6bdd3	-0.08141675
50	0xbce0beac	-0.02743467
51	0xbc9eb48e	-0.019373205
52	0x3d8adc9d	0.0678036
53	0xbdb4e775	-0.088332094
54	0x3c3cfb7d	0.011534569
55	0x3b45decd	0.0030192614
56	0xbc731849	-0.014837333
57	0xbd10ddbd	-0.035367716
58	0xbd9b5d1e	-0.0758612
59	0x3c53ee71	0.012935267
60	0xbd3285d9	-0.04358468
61	0x3d81ff4e	0.06347524
62	0xbc9c19c9	-0.019055264
63	0x3d9eb83e	0.07749985

module_list.2.weight f4 [1, 64]
0	0x3dc63049	0.096771784
1	0x3d872ce1	0.06600357
2	0x3cbc2279	0.022965657
3	0xbdbc5463	-0.09195783
4	0xbd64c970	-0.05585617
5	0xbc5adf82	-0.0133589525
6	0xbdd6fa9a	-0.10497017
7	0xbc51df03	-0.012809518
8	0xbd4185ea	-0.04724685
9	0x3d080638	0.033209056
10	0x3d8fa88b	0.07014569
11	0xbda4ad7b	-0.08040901
12	0xbdb7202e	-0.08941685
13	0x3dafce40	0.08584261
14	0x3d8dcfc8	0.06924397
15	0x3a056bf3	0.0005089633
16	0xbd254342	-0.040347345
17	0xbc21816c	-0.009857517
18	0xbb08ad50	-0.0020855255
19	0x3c80573a	0.015666593
20	0x3c438248	0.011932917
21	0x3d94a87e	0.072587
22	0x3dc398e1	0.09550644
23	0x3b1d2265	0.00239768
24	0xbdc685c5	-0.09693483
25	0xbbd07aac	-0.00636228
26	0xbcd2d5f2	-0.025736783
27	0xbd49338e	-0.049121432
28	0x3d9a24f0	0.075265765
29	0xb9fa871d	-0.00047784383
30	0xbb9bd1dc	-0.004755242
31	0x3de749d5	0.11293379
32	0x3bd42279	0.006473836
33	0x3d25cc98	0.04047832
34	0x3d8793a4	0.06619957
35	0xbd034962	-0.032052405
36	0x3d0ae282	0.03390742
37	0x3cf20a0e	0.02954581
38	0x3dcdefb6	0.10055487
39	0xbd91826c	-0.07104954
40	0xbb4896d6	-0.0030607483
41	0x3deda1f5	0.116031565
42	0x3d4fe9ea	0.050760187
43	0xbd0ea6b2	-0.03482694
44	0xbd1df6e4	-0.03856553
45	0xbd6a6c2f	-0.05723208
46	0xbd9c43c6	-0.07630114
47	0x3aaf8f7e	0.0013394204
48	0xbd201744	-0.039084688
49	0xbda9f4e4	-0.08298662
50	0xbc227c08	-0.009917267
51	0xbd8b19b8	-0.06792015
52	0xbd073212	-0.033006735
53	0xbda60091	-0.08105577
54	0x3c77e523	0.015130314
55	0xbd4f1249	-0.050554547
56	0xbce0a464	-0.027422138
57	0xbd391cf3	-0.045193624
58	0xbd95d311	-0.07315648
59	0x3c917a40	0.017758489
60	0x3d9f79d0	0.07786906
61	0x3d509a57	0.05092844
62	0xbdb9059c	-0.09034273
63	0xbddc79c0	-0.107654095
