saved_models_MLP/exp-onehot-fcc/mlp_ms_fcc_ratio0.8_seed5_epoch300.pt (torch, 87063 bytes, 5 tensors)

module_list.0.weight f4 [128, 100]
00000000: 817f 863d f67a 7b3d b05c 403c ed31 76bd
00000010: dcce 0bbd 26af 0bbd d0b8 223c 006e e3b9
00000020: d6ab 7b3d eb76 b2bd 53f7 c73d 8975 993d
00000030: 0e5b 8ebd d025 67bc f793 843d ca28 19bd
00000040: 37c6 b0bd ba00 23bd 3313 aa3d 8a31 233d
00000050: 921f 4f3d 97d2 71bd 43fd 2ebd 4fff b53e
00000060: 11fc 573e c576 e2bd 2b2f 8fbd b463 aebd
00000070: 1435 83bd 8af0 113d f412 cb3c 4222 343d
00000080: bb91 c8bd 6c37 bf3c c8b1 9f3c a8d5 3c3c
00000090: cba2 93bd e08a e6bb 97c0 76bd 9ac5 54bd
000000a0: b064 25bc 80cf a5ba e8ec adbd e109 943d
000000b0: adf3 babd e578 1abe 57f4 c9bd a064 7bbb
000000c0: f037 4cbc 587d b8bc 921e 283d b45f eb3c
000000d0: cc84 eebc 009d ec3b ec94 f7bc 28a0 9bbc
000000e0: 9440 fb3c 7f79 8a3d 92c2 a8bd ef60 b0bd
000000f0: acf4 c63c 4a28 10bd f0d5 17bc 92d4 4b3d
00000100: 60b5 b7bc b5c2 933d ce20 5e3d d06a 64bc
00000110: ae17 8ebd 6a6e 213d 5a18 57bd ae1f 0c3d
00000120: ed5a c93d 184c 49bc 140a b33c 8329 bdbd
00000130: 944a ea3c c42e d53c da32 373d 111b b53d
00000140: 0060 7ebd 9956 9a3d e07d f1bc c3d1 4abd
00000150: 0e0e 84bd 6227 743d 00ce 85bb 103a 573c
00000160: 681e a63c a6b0 313d 6deb 83bd 4037 c6bd
00000170: 7ecc 9bbd e99c 883d 0008 fa3b 52a9 7c3d
00000180: 00ad 17bd 387c a43c db14 a13d 065e 02bd
00000190: a33c bcbd ee65 223d 6741 2abd 4139 b23d
000001a0: d824 61bc b320 a63d 80ea b33b c0aa 76bb
000001b0: b802 b4bd a023 12bd f6fc 423d cdb8 a7bd
000001c0: b29b 603d 856e b7bd 8662 3c3d e31b c93d
000001d0: ca51 16bd d3f8 79bd 49bf cc3d 625f 6e3d
000001e0: 1b43 c03d 987b dabc 2506 c4bd 30e1 5a3d
000001f0: 2ad3 863e 7550 3c3e 69a7 6fbd c210 f3be
00000200: b9ce 943d 40e4 62bb 583a 493c 1c0d e93c
00000210: 6071 d1bb 147f ae3c e86a 54bc 0dd2 a2bd
00000220: a8f3 b3bd c2c3 433d 85e5 b4bd 2e87 3c3d
00000230: b947 be3d efc7 a03d 135a 93bd aeda 583d
00000240: e7b2 9c3d 0c89 9bbe 4c2c afbc f736 c63d
00000250: 3a93 2e3d 3cb9 82bd 7663 9cbd 94d3 a4bc
00000260: d999 c53d 2a51 4abd 80cf f53a 9bc6 cb3d
00000270: d827 21bc 60e1 55bd 30aa b3bd 3db4 70bd
00000280: 6ad4 8bbd 5239 033d 10a3 a2bd 848d e63c
00000290: c085 a6bc 3b36 9b3d 2275 bdbd c071 22bb
000002a0: 0888 bfbc 1aec 023d 701d c2bd ec4a fabc
000002b0: 6203 603d a098 893b aa41 1abd 53c0 9d3d
000002c0: 5783 1abd 08fd 92bd 80d7 4ebc 3a6d abbd
000002d0: ac1c da3c a227 8ebd 634d 65bd c0b4 98bd
000002e0: 97aa 6cbd b4c0 0fbd 10b6 693c 4902 bc3d
000002f0: f387 41bd 0046 d7ba 8231 84bd 087a ab3c
00000300: 82f1 a2bd 32eb 363d 0a90 b2bd a83d 093c
00000310: 8262 713d baa8 5fbd 0237 743d 5b19 843d
00000320: 4074 033c 855d 9e3d f80b e4bc a734 c4bd
00000330: e216 c8bd 8a46 74bd 4cef c73c 206c acbc
00000340: 60e7 843b 0054 68bb 8784 4bbd bd20 a23d
00000350: 0972 a13d 0033 7fbb 9905 973d 08de a5bc
00000360: d00f 84bb b862 d3bc 0348 67bd ed32 85bd
00000370: a885 8bbc 1231 92bd 40a8 093c fa67 e23d
00000380: 4e31 893e 9f10 7dbe 3a5c 65be b08a 06be
00000390: ef92 adbd 170a 9a3d 23bb 2cbd 187d 49bc
000003a0: f533 8abd 98c1 383c c05b babd 680c 6b3c
000003b0: e85c b43c c0e5 b6bc 90a2 97bd 92c4 c1bd
000003c0: ef98 bc3d ba54 563d 944c d6bc 71af b43d
000003d0: 305c b0bd c84c f63b 845c eb3c 8e30 86bd
000003e0: 385c bcbc b2ba 99bd d2c1 9abd 2f46 bb3d
000003f0: 02ee 7a3d 3c66 f93c 129a 563d 1829 39bc
0.06567288 0.06139656 0.011740848 -0.060106207 -0.034132823 -0.03410258 0.009931758 -0.0004337877
0.061443172 -0.08714088 0.0976397 0.07493121 -0.06950961 -0.014108136 0.064735346 -0.037392415
-0.086315565 -0.039795615 0.08304443 0.039842166 0.050567217 -0.059038725 -0.042721998 0.35546347
0.2109225 -0.1105781 -0.069914185 -0.085151106 -0.06406608 0.035629787 0.024789311 0.043977983
-0.09793421 0.023341857 0.019493952 0.011525549 -0.07208785 -0.007035598 -0.06024226 -0.05194626
-0.010094807 -0.0012650341 -0.08492452 0.07228447 -0.09128509 -0.1508518 -0.09861057 -0.0038359538
-0.012464508 -0.022520706 0.04104478 0.028732158 -0.029116057 0.0072208643 -0.030222379 -0.018997267
0.030670442 0.06761455 -0.08240236 -0.086122386 0.02428659 -0.035194673 -0.009267315 0.04976327
-0.022425354 0.07214872 0.054230504 -0.013941482 -0.0693811 0.03941194 -0.052513458 0.0342099
0.09831796 -0.012286209 0.021855392 -0.09236433 0.028600015 0.026023276 0.04472623 0.08843053
-0.06210327 0.075360484 -0.029478967 -0.04951645 -0.06447993 0.05960787 -0.004083395 0.013136402
0.02027817 0.043381356 -0.06441388 -0.09678507 -0.07607363 0.06670553 0.007630348 0.061684914
-0.03703022 0.020078763 0.07865306 -0.03182795 -0.09191253 0.03964799 -0.04156628 0.087023266
-0.013741694 0.08111706 0.005490601 -0.0037638396 -0.08789581 -0.035678506 0.047604524 -0.08189545
0.054835983 -0.08956627 0.045992397 0.09819772 -0.036699094 -0.061028313 0.09997422 0.058196433
0.09387799 -0.026670262 -0.095714845 0.05343741 0.2633298 0.18390067 -0.058509264 -0.47473723
0.07265992 -0.003462091 0.012281977 0.028448634 -0.006391689 0.02130083 -0.012964942 -0.0795022
-0.08786708 0.04779411 -0.0883284 0.046027355 0.09291024 0.07850634 -0.07194915 0.052942924
0.076513104 -0.30377996 -0.021383427 0.096784525 0.042620875 -0.06382987 -0.07636158 -0.02012042
0.09648485 -0.04939381 0.0018753856 0.0994999 -0.00983616 -0.052216887 -0.08772695 -0.05876564
-0.06827624 0.032037087 -0.07941258 0.028143652 -0.020327449 0.07578703 -0.09250857 -0.0024787039
-0.023380294 0.031963445 -0.09478271 -0.030553304 0.054690726 0.0041991025 -0.03766028 0.077026986
-0.03772291 -0.07177168 -0.012624621 -0.08370443 0.026625 -0.06941153 -0.055982005 -0.0745635
-0.057779875 -0.035095885 0.0142645985 0.09180123 -0.047248792 -0.001642406 -0.06454755 0.020932212
-0.0795622 0.044657893 -0.087188795 0.008376516 0.058931835 -0.05460427 0.059622772 0.06450149
0.008023322 0.07732681 -0.027837738 -0.09580355 -0.097699896 -0.059637584 0.024406098 -0.021047652
0.0040559024 -0.0035450459 -0.049686935 0.079164006 0.078830786 -0.003894031 0.073741145 -0.020247474
-0.0040302053 -0.025803909 -0.05646516 -0.06503854 -0.017031506 -0.07138266 0.00840193 0.11054988
0.2679543 -0.24713372 -0.22398463 -0.13138843 -0.08475291 0.07521456 -0.042170655 -0.012297891
-0.06748191 0.011276625 -0.09099531 0.01434622 0.022016957 -0.02232635 -0.07404053 -0.09461321
0.09208857 0.052326895 -0.026159562 0.08822525 -0.08611333 0.0075164773 0.028730638 -0.0655223
-0.022993192 -0.075063124 -0.075564995 0.09144246 0.06126214 0.030444257 0.052393027 -0.011301301

module_list.0.bias f4 [128]
00000000: c5ca 963c 0031 9ebd d67d 003c 59a2 a8bd
00000010: 7323 dc3d 08c6 d0bb a68d 95bd 9bfa eb3c
00000020: 3422 9c3d a10c 8b3d aea3 ee3d 9852 07bd
00000030: 121d 003e 432e f3bc 1674 a6bc 1bed e4bd
00000040: 4147 ecbd b2da 5f3c c9d6 0abd 88c5 e2bc
00000050: 9d33 a43d 21f7 bdbc fbe4 cdbd 0236 3ebb
00000060: f790 01be dfbd 07be 28cf 8e3d e9a3 7a3d
00000070: 7165 47bd 56e9 503d 3bf2 6bbd 16f1 fabb
00000080: 57da 0abe e75d ae3d b2da df3b b9a1 d9bc
00000090: 9a2c 8c3d 9643 0e3c e11f e4bd 60a8 353d
000000a0: a6c0 84bd 9785 94bd d4b0 b03d b1d3 293e
000000b0: 8dc7 adbd 8241 083d 2ba6 583d 8405 32bd
000000c0: 8c00 bc3d 025b e6bd 51ce 92bd 3857 b33d
000000d0: bc42 6ebd 9aed 78bd fd4d 963d 81c3 4b3d
000000e0: d2fc b83c 423e 73bd 65ff edbd bbe9 abbc
000000f0: 64dc c33d 639e fbbd f0de fbbd f547 873d
00000100: 3ba8 f1bd 5569 343e 63db 9a3d 626b cc3d
00000110: 6e6a 4f3d 4b2e 543d 57d0 edbd b321 e7bc
00000120: c642 e5bc 3b6f 48bd 5ba3 373e b01a b2bd
00000130: 5ecc b7bc c36c 833d a44b 51bd c144 fa3c
00000140: e61f 96bd ea7c f0bd 11bd 503b 9f12 553d
00000150: f9e0 d13d 2e1f bdbd 06d9 15bd db9f 9ebd
00000160: abf5 eb3c 3ad0 ea3d 96a2 bb3d 8449 cdbd
00000170: 406f acbd 10f5 c6bd 79ac 0a3d b655 893d
00000180: 4b36 e5bb 93d7 473e 0a19 26bd 68b7 20bd
00000190: 8a91 4c3d 2dff 203d 2461 6bbb b273 90bd
000001a0: e467 0abe 8f51 39be bec7 bc3d ecaf 49bd
000001b0: 0e5b 31be 3d0b a13d 985e 23bd 9067 de3d
000001c0: 1249 013e 224a 9abd 1be4 ac3d 2b02 f0bd
000001d0: 0cdf 66bd 146d e8bc 4d03 ae3d 1dfd ed3c
000001e0: 228c 96bd 8f29 a03d 2755 ea3d 4915 a23d
000001f0: e176 79bd 745e 6ebd 84c8 91bd 34c6 9cbd
0.018407235 -0.0772419 0.007842502 -0.0823409 0.10748949 -0.0063712634 -0.07302408 0.028806021
0.07623711 0.06789518 0.11652313 -0.033037752 0.1251109 -0.029685145 -0.020319026 -0.11178037
-0.11537028 0.013662981 -0.03389624 -0.02768208 0.08017657 -0.02318913 -0.1005344 -0.002902389
-0.12652956 -0.13256024 0.06973106 0.061191473 -0.048680726 0.051003776 -0.057604056 -0.007658134
-0.13559853 0.08514004 0.0068314904 -0.026566373 0.068444446 0.008683106 -0.11138893 0.044350028
-0.06482057 -0.07252043 0.08627477 0.1658466 -0.08485327 0.033265598 0.052892845 -0.04346229
0.09179792 -0.11247827 -0.07168258 0.0875687 -0.05816911 -0.06077347 0.07339094 0.049746994
0.022581492 -0.059385546 -0.11620978 -0.020985475 0.095635206 -0.12286069 -0.12298381 0.066055216
-0.117996655 0.17618306 0.07561376 0.09981419 0.05063861 0.05180196 -0.11612003 -0.028214311
-0.027985942 -0.048934203 0.17933409 -0.086964965 -0.022436317 0.06417229 -0.051097527 0.030550363
-0.07330303 -0.117425755 0.0031850974 0.05201971 0.10247988 -0.09234463 -0.036583923 -0.07745334
0.028803667 0.11465497 0.0916187 -0.100237876 -0.08419657 -0.09714711 0.03385589 0.06705801
-0.0069949976 0.19515829 -0.040551223 -0.03923741 0.049943484 0.039305855 -0.0035916055 -0.07053317
-0.13516194 -0.18097518 0.09217785 -0.049240038 -0.17319891 0.07863472 -0.039885134 0.10859597
0.1262553 -0.07533671 0.08441945 -0.117191635 -0.056365058 -0.028372325 0.08496723 0.029051358
-0.07350947 0.07820427 0.11442023 0.07914216 -0.060904387 -0.058195546 -0.071183234 -0.07654992

module_list.1.0.weight f4 [64, 128]
00000000: d57f 8f3c ad7b 923d 098b 7bbd aba1 d13d
00000010: 894e 4abc e368 b9bd f94f 753d 729a 8a3d
00000020: 0abc 8a3d 9c21 973d 0a03 f23c dfa8 06bd
00000030: 1bd6 46bd f62a b03c 2c62 17bd 6d7f 94bd
00000040: 369a 9f3d 26a3 eb3d 0d1d 573d 9758 98bd
00000050: f899 233d ed40 87bc 3d7f d3bd 6b18 d2bd
00000060: a791 e7bc 95fb 8abd a03c 303e f39f 9abc
00000070: ed77 b5bd ba42 edbb fa76 80bd a230 26bd
00000080: 7e89 b93c 76bc 853d c619 16bd 8553 02be
00000090: 4264 163e 1cbf 1abb cf16 1fbe 4f40 42bd
000000a0: 52ee a63d a947 e7bc d774 123d f15b b03d
000000b0: 14a0 c8bc fb42 a93c 024e 003e 0e54 0bbe
000000c0: c491 a2bd 546d 9ebd bc86 bdbd 3381 2b3c
000000d0: 674a c13d 6519 87bc ba4d db3b ae24 ebbc
000000e0: 2ac8 34bd 138f 0cbe c326 06be a43a 9abc
000000f0: 9bb1 fe3d 6dbd 97bd b486 0fbd 49f4 a43c
00000100: fd1b 93bd acf8 533b 7355 113d f700 a53d
00000110: c21e 2a3e 23b8 d2bd cee7 963d d3ea 143e
00000120: 2530 e2bc dfd7 153d 98ca 1dbd 6d9d f63c
00000130: 2254 d33c 8643 94bd b458 92bc 5098 823d
00000140: fc49 3f3d b210 fbbd fc76 9cbd 8c2b 663d
00000150: 01ab 2f3d e3fb 8bbd 63df 02be 7a87 6ebd
00000160: 79b1 e2bb 0bb4 143d 76ee b03d cb76 a13d
00000170: 1f24 1cb9 0207 7abc ced3 0d3c 8cf0 3a3d
00000180: bb38 223e a98c 803d e269 8dbd 3d54 c13d
00000190: fea0 ab3d 2473 60bd 3252 f9bc f238 c0bd
000001a0: c236 85bd 5892 19bd 6e26 d0bd ec32 90bc
000001b0: 167b d43b 81bc 373d 16c9 86bd 8805 523d
000001c0: 203e cd3c 66ef 7cbd 6b81 193d 8073 493d
000001d0: 5e95 edbd d66d 1f3d 4eab 2a3e 5c52 063d
000001e0: 5203 0bbd 17a6 213e 677c 683c 019b f03d
000001f0: 8c7e 6f3c 1c77 01be 8cb4 f4bc 3bae fb3c
00000200: 4499 063c 4f27 ac3d 881c 3b3d f684 fdbc
00000210: aad2 73bc ba27 e93b e6ae 693d bcea ea3b
00000220: 3d41 a0bd 2423 70bd 5567 d5bc 3d7a 9a3d
00000230: 6859 193d 6974 8a3d 25a4 8b3d 3c67 7b3d
00000240: 8267 80bd 6e42 a8bc 9048 6e3d fb84 a53d
00000250: 91fd b3bd d71b 9a3c 28c4 763d bd4c 73bc
00000260: 656a 893d 37ed 30bd 429b 38bd 489e a1bd
00000270: d2da 903c 58c3 29bd 928c 91bd 1093 a03c
00000280: 60cd 143c 46bf 4ebd fc0f 093c e9a2 5bbd
00000290: a2af 803d fccd 5a3d 7767 bb3d 7c29 933c
000002a0: 62e6 93bc 192c 603b c7ff 73bd 4ae8 f0bc
000002b0: ff63 9bbc b725 7b3d 341a 1e3d ba7c 933d
000002c0: 01e7 213d 2562 97bd dec8 333d 23cd 34bd
000002d0: 100c 79bc 3373 b33d c18a fe3b a5d6 10bd
000002e0: 1a62 8bbc a53d c2bc 43f7 60bd ff3f 36bd
000002f0: b5a7 aabd 5025 6abc 5a44 5ebd 63f5 1cbd
00000300: febd 0d3d a21b 163d 77cb 70bc 26df a2bc
00000310: 06a4 1dbc 15af 763d 257f b8bc 99cc 1e3d
00000320: 382c 7abd 388c bcbc d12f 2cbc 7bb2 953d
00000330: 1cc2 04bc 8bae 873d 30ab ad3c 467d 723d
00000340: e7fc a5bd 1511 68bc d361 5abd bc86 ffbc
00000350: 97d9 b5bc 12c7 913d f1cc 983d cf7b ac3c
00000360: aff4 e8bc 96b7 2a3c 7ea4 5ebd a4a2 2abd
00000370: 25ad 873d eb2f 43bd 659b f63c 1073 9cbd
00000380: 2d11 d03c 3567 a4bd b370 813d 7d56 e8bc
00000390: 6746 7f3d 5c82 64bd 40fa 853c dadf ae3c
000003a0: 46a6 993d f79e 92bd b4f1 643d 731b 13bb
000003b0: d365 913d 3b2d 4cbd f828 8a3d f8fe 413d
000003c0: 1de3 443c 9f53 a83d 6d10 8ebd e1fd 3bbc
000003d0: f46b 123d 21e1 0c3d 62c2 9a3c f636 06bd
000003e0: 68ea a03d 1b94 b63d 7192 aa3c f40f 763d
000003f0: b8ee 76bd 952b debc 2949 d13c 9f53 42bd
0.01751701 0.071524955 -0.06141189 0.10235914 -0.012347826 -0.09053209 0.05989072 0.06767739
0.06774147 0.07379457 0.029542465 -0.03287589 -0.04854403 0.02150486 -0.03695886 -0.07250867
0.07793085 0.115057275 0.05251794 -0.07438772 0.039941758 -0.016510451 -0.10327003 -0.102585636
-0.028267695 -0.06786267 0.17210627 -0.018875098 -0.08860765 -0.0072406204 -0.06272693 -0.040573724
0.02264857 0.06530087 -0.036645673 -0.12727173 0.14686683 -0.0023612445 -0.15536045 -0.04742461
0.08150925 -0.028232412 0.03575596 0.086112864 -0.024490394 0.020661822 0.12529758 -0.13606283
-0.07937959 -0.077356964 -0.09254214 0.010467815 0.09438019 -0.016491601 0.0066926153 -0.028704014
-0.044136204 -0.13726453 -0.13100724 -0.01882679 0.12436219 -0.07409177 -0.035040572 0.020136015
-0.07183073 0.0032344265 0.03548188 0.08056825 0.16613296 -0.102890275 0.07368432 0.14542703
-0.027610848 0.036582824 -0.038523287 0.030104363 0.025796954 -0.072394416 -0.017864563 0.063767076
0.046701416 -0.12259044 -0.07639882 0.056193873 0.04288769 -0.06835153 -0.12780528 -0.05823467
-0.006918129 0.036304515 0.08639233 0.07883986 -0.00014890775 -0.01526046 0.008656455 0.04563956
0.15841953 0.06276829 -0.06904961 0.09439895 0.08380316 -0.054797307 -0.030434702 -0.093858615
-0.06504585 -0.03749308 -0.1016358 -0.017602406 0.0064843995 0.044857506 -0.06581323 0.051274806
0.025054038 -0.061751746 0.03747694 0.049182415 -0.11600755 0.038923107 0.1666691 0.032793388
-0.033938713 0.15786014 0.014189816 0.11748315 0.0146175735 -0.12643093 -0.029871248 0.030722728
0.008215252 0.08405935 0.045681506 -0.03094719 -0.014881769 0.0071153315 0.05705156 0.007169096
-0.07824943 -0.058627263 -0.02605025 0.07542846 0.03743878 0.06760485 0.068184175 0.06137775
-0.062697425 -0.020539489 0.05817467 0.08082005 -0.08788598 0.018812103 0.060245663 -0.014849839
0.06709746 -0.043194976 -0.04506994 -0.07891518 0.017682467 -0.04144606 -0.0710689 0.019601375
0.009082168 -0.05047538 0.008365627 -0.05362216 0.06283499 0.0534191 0.09150594 0.017964117
-0.018054191 0.0034205972 -0.0595701 -0.029407639 -0.01896858 0.061315265 0.038599208 0.07201524
0.039526943 -0.073917665 0.043892734 -0.044140946 -0.01520063 0.08762207 0.0077680056 -0.03536095
-0.017014552 -0.023711035 -0.054923307 -0.044494625 -0.08332769 -0.014291123 -0.054264404 -0.038319957
0.03460502 0.036647446 -0.014696947 -0.019881796 -0.009621626 0.060225565 -0.022521565 0.03876934
-0.061077327 -0.02301608 -0.010509447 0.07309433 -0.00810292 0.06625088 0.021199793 0.0592015
-0.08104878 -0.014164229 -0.05331595 -0.031192176 -0.022198481 0.07118048 0.074609645 0.02105513
-0.028436987 0.010419747 -0.05435609 -0.041659012 0.066248216 -0.04765312 0.030103395 -0.07639134
0.025398815 -0.08027498 0.06320324 -0.028361553 0.062323 -0.055788383 0.01635468 0.021346975
0.07502417 -0.071592264 0.05589457 -0.002244678 0.070994996 -0.049847823 0.067460954 0.047362298
0.012017039 0.082190745 -0.06936727 -0.011474104 0.035747483 0.034394387 0.018891517 -0.03276726
0.078572094 0.089149676 0.020821782 0.060073808 -0.060286254 -0.02712039 0.02554758 -0.04744303

module_list.1.0.bias f4 [64]
00000000: afc7 fb3c 4fd6 90bc bcae bf3d e0df 42bd
00000010: e409 2dbb 159a 433d b41b 793d d1e9 bcbd
00000020: 0304 a0bd 8372 87bd 5ffc c6bd 0dbd 36bd
00000030: 6874 8abc 0633 51bb 1b35 80bd e83f 9cbd
00000040: acbe 8ebd 3c9b 20bb 38ed 0ebd e6ea f5b9
00000050: 4c8b a53d bb9b 29be 6faf cdbb 7a99 40bd
00000060: fc1e 15bd d01f 50bd a7c6 8a3d fcfa c1bc
00000070: f87b 75bd 7940 84bc 40eb ffbc 5345 95bd
00000080: bb74 34bd e205 303d 4ee7 a1bd 69a5 dfbd
00000090: 89f8 d53d db79 683d 6fa5 b0bc c384 11be
000000a0: 2b3e ee3c 38fa 4fbc 58f0 663d 4452 9ebd
000000b0: 3281 b0bd eee2 0cbd 48e8 8e3d 68ca f83c
000000c0: cefe 0cbe 5174 2dbe eba7 863d 45b0 e7bb
000000d0: 4ae5 7e3c 870e 443c 2c79 06bd 14a7 e53d
000000e0: cc19 86bd 742a e43b 624d d3bc 6f06 11bd
000000f0: 094d 493d 09d0 f1bc dd0d abbd aebc 07be
0.030734865 -0.017680315 0.093595 -0.047576785 -0.00264036 0.047754366 0.060817435 -0.092242844
-0.07813265 -0.06613638 -0.09716105 -0.044613887 -0.01690121 -0.0031921281 -0.06260129 -0.07629377
-0.069699615 -0.002450659 -0.0348942 -0.00046905054 0.080832094 -0.16563313 -0.006277017 -0.047021367
-0.036406502 -0.05081159 0.06776171 -0.023679249 -0.05993268 -0.016144024 -0.031240106 -0.07288613
-0.044056635 0.04297436 -0.07905446 -0.10920221 0.10447795 0.056756835 -0.02156326 -0.14210801
0.029082378 -0.012693934 0.056381553 -0.07730535 -0.08618392 -0.034396105 0.06977898 0.030369952
-0.13769075 -0.16938902 0.065749966 -0.0070705735 0.015557596 0.011966354 -0.032830402 0.11213508
-0.06547889 0.0069630686 -0.025793735 -0.035406526 0.049145732 -0.029518144 -0.083522536 -0.1325557

module_list.2.weight f4 [1, 64]
00000000: 6fdd ae3d f117 cdbc 5a48 cc3d 8055 2f3c
00000010: 0cd0 30bd 20a5 07be 0c4d 0b3e 2d65 df3b
00000020: 08e1 89bd 39d5 8abb ed51 ddbd 9faf 0abf
00000030: 5515 3b3d 43f4 b13a b42f 54bd 308b d4bd
00000040: 2596 6abb 3932 b4be a0bb 933e 6de5 b1bc
00000050: 6a79 103e 7e0e 003f a068 a0bd b540 aabd
00000060: fbba 5fbd ebd3 063c 0776 2c3e 4616 d03d
00000070: a408 f4bd 3bdc 91be 2069 073b c0f5 b4bd
00000080: f768 eabe 01bf fe3d 3bd4 2fbc 003c 263e
00000090: 422d 373d c342 ce3d 614d 63bd b90d a13e
000000a0: 1c28 443e 8910 9e3e 3041 f23d 391b 693c
000000b0: 06ff 543e 3ec0 7abd 99cc 163e 125f d73d
000000c0: 6b22 103f 0d3b b63e 52eb 1cbd 17e5 8f3e
000000d0: 9f5c b1be e6a7 0dbf 31b2 0dbf 51d3 f23d
000000e0: 1a30 df3e 6cb8 08bf 3fa4 e1bd 5781 7bbd
000000f0: 5080 c1be b5b2 9f3e fdba b0bc f81d 27bf
0.08538329 -0.02503583 0.099747375 0.010701537 -0.04316716 -0.13246584 0.1360361 0.006817481
-0.067323744 -0.004236844 -0.10806642 -0.54174227 0.04567464 0.0013576824 -0.051803306 -0.103781104
-0.003579506 -0.35194567 0.28854084 -0.021715844 0.14108816 0.50022113 -0.07832456 -0.08313123
-0.054621678 0.008229236 0.16841899 0.10160498 -0.119157106 -0.28488335 0.0020662025 -0.088359356
-0.45783207 0.12438775 -0.010731752 0.16233826 0.044720896 0.100713275 -0.055493716 0.31455782
0.19155926 0.3087199 0.1182884 0.014227682 0.20800409 -0.061218493 0.14726485 0.1051618
0.5630252 0.35591927 -0.038310356 0.2810447 -0.34640977 -0.5533432 -0.55350024 0.11856712
0.43591386 -0.53406405 -0.110176556 -0.061402645 -0.37793207 0.3119103 -0.021573538 -0.65280104
