saved_models_MLP/exp-onehot-fcc/mlp_ms_fcc_ratio0.2_seed4_epoch300.pt (torch, 87063 bytes, 5 tensors)

module_list.0.weight f4 [128, 100]
0.06567288 0.06139656 0.011740848 -0.060106207 -0.034132823 -0.03410258 0.009931758 -0.0004337877
0.061443172 -0.08714088 0.0976397 0.07493121 -0.06950961 -0.014108136 0.064735346 -0.037392415
-0.086315565 -0.039795615 0.08304443 0.039842166 0.050567217 -0.059038725 -0.042721998 0.20902026
0.10073652 -0.07082168 -0.081156045 -0.065069035 -0.06406608 0.035629787 0.024789311 0.043977983
-0.09793421 0.023341857 0.019493952 0.011525549 -0.07208785 -0.007035598 -0.06024226 -0.05194626
-0.010094807 -0.0012650341 -0.08492452 0.07228447 -0.09128509 -0.068444684 -0.09861057 -0.0038359538
-0.012464508 -0.022520706 0.04104478 0.028732158 -0.029116057 0.0072208643 -0.030222379 -0.018997267
0.030670442 0.06761455 -0.08240236 -0.086122386 0.02428659 -0.035194673 -0.009267315 0.04976327
-0.022425354 0.07214872 0.054230504 -0.013941482 -0.0693811 0.03941194 -0.052513458 0.0342099
0.09831796 -0.012286209 0.021855392 -0.09236433 0.028600015 0.026023276 0.04472623 0.08843053
-0.06210327 0.075360484 -0.029478967 -0.04951645 -0.06447993 0.05960787 -0.004083395 0.013136402
0.02027817 0.043381356 -0.06441388 -0.09678507 -0.07607363 0.06670553 0.007630348 0.061684914
-0.03703022 0.020078763 0.07865306 -0.03182795 -0.09191253 0.03964799 -0.04156628 0.087023266
-0.013741694 0.08111706 0.005490601 -0.0037638396 -0.08789581 -0.035678506 0.047604524 -0.08189545
0.054835983 -0.08956627 0.045992397 0.09819772 -0.036699094 -0.061028313 0.09997422 0.058196433
0.09387799 -0.026670262 -0.095714845 -0.008199318 0.19459383 0.1528843 -0.028607786 -0.19737494
0.07265992 -0.003462091 0.012281977 0.028448634 -0.006391689 0.02130083 -0.012964942 -0.0795022
-0.08786708 0.04779411 -0.0883284 0.046027355 0.09291024 0.07850634 -0.07194915 0.052942924
0.076513104 -0.1410635 -0.021383427 0.096784525 0.042620875 -0.06382987 -0.07636158 -0.02012042
0.09648485 -0.04939381 0.0018753856 0.0994999 -0.00983616 -0.052216887 -0.08772695 -0.05876564
-0.06827624 0.032037087 -0.07941258 0.028143652 -0.020327449 0.07578703 -0.09250857 -0.0024787039
-0.023380294 0.031963445 -0.09478271 -0.030553304 0.054690726 0.0041991025 -0.03766028 0.077026986
-0.03772291 -0.07177168 -0.012624621 -0.08370443 0.026625 -0.06941153 -0.055982005 -0.0745635
-0.057779875 -0.035095885 0.0142645985 0.09180123 -0.047248792 -0.001642406 -0.06454755 0.020932212
-0.0795622 0.044657893 -0.087188795 0.008376516 0.058931835 -0.05460427 0.059622772 0.06450149
0.008023322 0.07732681 -0.027837738 -0.09580355 -0.097699896 -0.059637584 0.024406098 -0.021047652
0.0040559024 -0.0035450459 -0.049686935 0.079164006 0.078830786 -0.003894031 0.073741145 -0.020247474
-0.0040302053 -0.025803909 -0.05646516 -0.06503854 -0.017031506 -0.07138266 0.00840193 0.07823301
0.15455632 -0.19769402 -0.13221544 -0.14494585 -0.08475291 0.07521456 -0.042170655 -0.012297891
-0.06748191 0.011276625 -0.09099531 0.01434622 0.022016957 -0.02232635 -0.07404053 -0.09461321
0.09208857 0.052326895 -0.026159562 0.08822525 -0.08611333 0.014100479 0.028730638 -0.0655223
-0.022993192 -0.075063124 -0.075564995 0.09144246 0.06126214 0.030444257 0.052393027 -0.011301301
00000000: 817f 863d f67a 7b3d b05c 403c ed31 76bd
00000010: dcce 0bbd 26af 0bbd d0b8 223c 006e e3b9
00000020: d6ab 7b3d eb76 b2bd 53f7 c73d 8975 993d
00000030: 0e5b 8ebd d025 67bc f793 843d ca28 19bd
00000040: 37c6 b0bd ba00 23bd 3313 aa3d 8a31 233d
00000050: 921f 4f3d 97d2 71bd 43fd 2ebd 6809 563e
00000060: f34e ce3d f50a 91bd 2435 a6bd ea42 85bd
00000070: 1435 83bd 8af0 113d f412 cb3c 4222 343d
00000080: bb91 c8bd 6c37 bf3c c8b1 9f3c a8d5 3c3c
00000090: cba2 93bd e08a e6bb 97c0 76bd 9ac5 54bd
000000a0: b064 25bc 80cf a5ba e8ec adbd e109 943d
000000b0: adf3 babd ba2c 8cbd 57f4 c9bd a064 7bbb
000000c0: f037 4cbc 587d b8bc 921e 283d b45f eb3c
000000d0: cc84 eebc 009d ec3b ec94 f7bc 28a0 9bbc
000000e0: 9440 fb3c 7f79 8a3d 92c2 a8bd ef60 b0bd
000000f0: acf4 c63c 4a28 10bd f0d5 17bc 92d4 4b3d
00000100: 60b5 b7bc b5c2 933d ce20 5e3d d06a 64bc
00000110: ae17 8ebd 6a6e 213d 5a18 57bd ae1f 0c3d
00000120: ed5a c93d 184c 49bc 140a b33c 8329 bdbd
00000130: 944a ea3c c42e d53c da32 373d 111b b53d
00000140: 0060 7ebd 9956 9a3d e07d f1bc c3d1 4abd
00000150: 0e0e 84bd 6227 743d 00ce 85bb 103a 573c
00000160: 681e a63c a6b0 313d 6deb 83bd 4037 c6bd
00000170: 7ecc 9bbd e99c 883d 0008 fa3b 52a9 7c3d
00000180: 00ad 17bd 387c a43c db14 a13d 065e 02bd
00000190: a33c bcbd ee65 223d 6741 2abd 4139 b23d
000001a0: d824 61bc b320 a63d 80ea b33b c0aa 76bb
000001b0: b802 b4bd a023 12bd f6fc 423d cdb8 a7bd
000001c0: b29b 603d 856e b7bd 8662 3c3d e31b c93d
000001d0: ca51 16bd d3f8 79bd 49bf cc3d 625f 6e3d
000001e0: 1b43 c03d 987b dabc 2506 c4bd 6f56 06bc
000001f0: 9b43 473e b48d 1c3e e05a eabc a81c 4abe
00000200: b9ce 943d 40e4 62bb 583a 493c 1c0d e93c
00000210: 6071 d1bb 147f ae3c e86a 54bc 0dd2 a2bd
00000220: a8f3 b3bd c2c3 433d 85e5 b4bd 2e87 3c3d
00000230: b947 be3d efc7 a03d 135a 93bd aeda 583d
00000240: e7b2 9c3d f372 10be 4c2c afbc f736 c63d
00000250: 3a93 2e3d 3cb9 82bd 7663 9cbd 94d3 a4bc
00000260: d999 c53d 2a51 4abd 80cf f53a 9bc6 cb3d
00000270: d827 21bc 60e1 55bd 30aa b3bd 3db4 70bd
00000280: 6ad4 8bbd 5239 033d 10a3 a2bd 848d e63c
00000290: c085 a6bc 3b36 9b3d 2275 bdbd c071 22bb
000002a0: 0888 bfbc 1aec 023d 701d c2bd ec4a fabc
000002b0: 6203 603d a098 893b aa41 1abd 53c0 9d3d
000002c0: 5783 1abd 08fd 92bd 80d7 4ebc 3a6d abbd
000002d0: ac1c da3c a227 8ebd 634d 65bd c0b4 98bd
000002e0: 97aa 6cbd b4c0 0fbd 10b6 693c 4902 bc3d
000002f0: f387 41bd 0046 d7ba 8231 84bd 087a ab3c
00000300: 82f1 a2bd 32eb 363d 0a90 b2bd a83d 093c
00000310: 8262 713d baa8 5fbd 0237 743d 5b19 843d
00000320: 4074 033c 855d 9e3d f80b e4bc a734 c4bd
00000330: e216 c8bd 8a46 74bd 4cef c73c 206c acbc
00000340: 60e7 843b 0054 68bb 8784 4bbd bd20 a23d
00000350: 0972 a13d 0033 7fbb 9905 973d 08de a5bc
00000360: d00f 84bb b862 d3bc 0348 67bd ed32 85bd
00000370: a885 8bbc 1231 92bd 40a8 093c a138 a03d
00000380: 0344 1e3e 4d70 4abe 7c63 07be af6c 14be
00000390: ef92 adbd 170a 9a3d 23bb 2cbd 187d 49bc
000003a0: f533 8abd 98c1 383c c05b babd 680c 6b3c
000003b0: e85c b43c c0e5 b6bc 90a2 97bd 92c4 c1bd
000003c0: ef98 bc3d ba54 563d 944c d6bc 71af b43d
000003d0: 305c b0bd b205 673c 845c eb3c 8e30 86bd
000003e0: 385c bcbc b2ba 99bd d2c1 9abd 2f46 bb3d
000003f0: 02ee 7a3d 3c66 f93c 129a 563d 1829 39bc

module_list.0.bias f4 [128]
0.008548188 -0.07285915 0.02131017 -0.057466067 0.07618755 -0.0278696 -0.029690616 0.000494495
0.07431581 0.067307115 0.07761813 -0.04125192 0.12321464 0.0023575493 -0.022696236 -0.13612297
-0.07363865 -0.009666346 -0.02415866 -0.038046528 0.043575183 -0.019221906 -0.08051983 -0.014461882
-0.09062299 -0.06628753 0.07341941 0.023558464 -0.005564 0.06304151 -0.083476365 -0.008874694
-0.08729748 0.0896272 -0.019287508 -0.025508553 0.08677265 -0.01505343 -0.07091049 0.04169886
-0.05091378 -0.030776532 0.0918668 0.0921612 -0.061834924 0.027176373 0.04273112 -0.025034338
0.0675856 -0.08088831 -0.05403512 0.06679421 -0.039617456 -0.03805805 0.0906005 0.0485329
0.018745616 -0.05633949 -0.085976385 -0.020038946 0.056593537 -0.09466401 -0.07267874 0.08234415
-0.11181138 0.15651168 0.056704465 0.059705723 0.04971987 0.010698386 -0.05335585 -0.020395998
-0.010409309 -0.034833215 0.12371889 -0.03148035 -0.019079715 0.051391773 -0.010197419 0.031059809
-0.0638397 -0.09149543 0.009425191 0.02196686 0.08037749 -0.08933295 -0.030785745 -0.06967666
0.022624219 0.08747425 0.0878305 -0.043340575 -0.078184314 -0.074721925 0.011742464 0.051830865
0.028645426 0.16135898 -0.081527546 -0.018995212 0.088257186 0.03519173 0.0083168065 -0.053569663
-0.10086722 -0.04634115 0.06678354 -0.03686198 -0.08994105 0.0309346 -0.036422864 0.081306584
0.13036416 -0.07611215 0.097954266 -0.10903945 -0.07898075 -0.03165157 0.08409319 0.034728166
-0.074934825 0.055085313 0.09129166 0.06303663 -0.043593153 -0.039556574 -0.051980715 -0.083814695
00000000: b30d 0c3c 2e37 95bd aa92 ae3c 8a61 6bbd
00000010: 3808 9c3d ca4e e4bc bc39 f3bc ffa0 013a
00000020: e332 983d 50d8 893d 41f6 9e3d c6f7 28bd
00000030: f557 fc3d 1d81 1a3b 75ed b9bc d263 0bbe
00000040: dccf 96bd 985f 1ebc 62e8 c5bc add6 1bbd
00000050: e47b 323d 4277 9dbc 95e7 a4bd 88f1 6cbc
00000060: 8c98 b9bd c2c1 87bd ea5c 963d aefd c03c
00000070: 3752 b6bb e81b 813d a8f5 aabd 2a67 11bc
00000080: 05c9 b2bd 778e b73d d600 9ebc 50f7 d0bc
00000090: dcb5 b13d a9a2 76bc 8539 91bd 6ccc 2a3d
000000a0: f88a 50bd 111f fcbc a924 bc3d 03bf bc3d
000000b0: 9e46 7dbd fca0 de3c d406 2f3d d014 cdbc
000000c0: 526a 8a3d c5a8 a5bd ee53 5dbd 67cb 883d
000000d0: ea45 22bd c2e2 1bbd c18c b93d 6fca 463d
000000e0: 6890 993c 3dc4 66bd 6314 b0bd b728 a4bc
000000f0: a0ce 673d 34df c1bd 97d8 94bd 0da4 a83d
00000100: 5dfd e4bd 9944 203e f142 683d fd8d 743d
00000110: 10a7 4b3d 4848 2f3c aa8b 5abd 8215 a7bc
00000120: ce8b 2abc 46ad 0ebd 5460 fd3d 8af1 00bd
00000130: 104d 9cbc 2e80 523d 1313 27bc 2471 fe3c
00000140: 63be 82bd f561 bbbd 1e6c 1a3c d8f3 b33c
00000150: f49c a43d 32f4 b6bd 6332 fcbc a3b2 8ebd
00000160: 6d56 b93c b325 b33d 7ae0 b33d e385 31bd
00000170: 191f a0bd cf07 99bd 7763 403c 9a4c 543d
00000180: d0a9 ea3c 4a3b 253e eaf7 a6bd d99b 9bbc
00000190: 2fc0 b43d 3425 103d 3743 083c dd6b 5bbd
000001a0: 7993 cebd 38d0 3dbd cfc5 883d 96fc 16bd
000001b0: 0333 b8bd 8f6a fd3c 2430 15bd 1184 a63d
000001c0: 2f7e 053e b0e0 9bbd 3f9c c83d 1350 dfbd
000001d0: a9c0 a1bd 14a5 01bd 0d39 ac3d 1f3f 0e3d
000001e0: 6e77 99bd 23a1 613d 1ff7 ba3d 5919 813d
000001f0: bc8e 32bd 1306 22bd bbe9 54bd 0aa7 abbd

module_list.1.0.weight f4 [64, 128]
-0.037705112 0.047749158 -0.1194472 0.13492295 0.021864053 -0.10661965 0.014976563 -0.017871117
0.05760545 0.070697114 0.0128221065 -0.050446574 -0.03414776 0.06518721 -0.06465194 -0.092264205
0.068016596 0.08872057 0.030154591 -0.023083853 0.068673484 -0.061875913 -0.12056766 0.030861802
-0.056380536 -0.037291963 0.14568259 0.020807717 -0.09151547 -0.02365304 -0.07411238 -0.0745724
0.014171578 0.07158358 -0.07294497 -0.0924337 0.14640386 -0.016308043 -0.16134353 -0.014535443
0.037360176 -0.024696676 0.025871571 0.082923345 -0.018485585 0.05756955 0.15158153 -0.071312025
-0.037898418 -0.08904463 -0.08008235 0.05384464 0.013310132 0.016624298 0.03557442 -0.022832314
-0.08569574 -0.10520845 -0.13528323 -0.06462354 0.13497241 -0.09607137 -0.075514376 0.02383385
-0.06461519 0.009537724 0.025621198 0.0217699 0.12319544 -0.070457466 0.061943535 0.093413085
0.045607038 0.07320302 -0.014610102 -0.008399394 0.009392621 -0.04155147 -0.03982819 0.06413272
0.0024062134 -0.14671443 -0.054580253 0.07391396 0.077093296 -0.03691794 -0.13240996 -0.04649764
-0.032657783 0.07096604 0.10432874 0.069551975 -0.016065842 -0.031403948 0.06590396 0.08537539
0.12577629 0.078514256 -0.090404995 0.06321861 0.08599131 0.0009411762 -0.02410214 -0.099920236
-0.09049599 -0.025110917 -0.048624624 -0.043312326 -0.00904014 0.013606302 -0.0119135175 0.096573144
0.036792804 -0.07753067 -0.017232975 0.024328696 -0.10432781 -0.0113933915 0.13489464 0.07959403
-0.04464376 0.12147913 0.043642554 0.13655274 -0.019255083 -0.09743495 -0.073138356 0.012983166
0.0132634565 0.07895247 0.040605836 -0.03604571 -0.009772368 0.0020536035 0.052010886 0.008449554
-0.08294642 -0.0535591 -0.020978302 0.08051979 0.042547755 0.06251138 0.07320713 0.056273855
-0.067796394 -0.015629537 0.06314666 0.08582521 -0.08279245 0.013824753 0.055186443 -0.00979165
0.0620076 -0.048116937 -0.050154537 -0.073844954 0.012799963 -0.036395438 -0.0761393 0.024674706
0.003985986 -0.045439918 0.013368219 -0.048526205 0.057823084 0.048774086 0.08641591 0.02305562
-0.023156509 -0.0016650036 -0.06458943 -0.024305321 -0.014043406 0.06640241 0.043661274 0.077030264
0.044624962 -0.078933366 0.03882631 -0.03904195 -0.020304568 0.082548745 0.0128638 -0.030260593
-0.011928305 -0.018717833 -0.059987556 -0.049559634 -0.07829899 -0.019386679 -0.0593677 -0.03322455
0.0295657 0.041752614 -0.01969368 -0.014818504 -0.014710665 0.06531527 -0.027614161 0.033685446
-0.06613919 -0.028085321 -0.0054007918 0.06799691 -0.01314535 0.071332864 0.016101748 0.054123975
-0.08614453 -0.019255169 -0.058395363 -0.02612561 -0.017099641 0.07626044 0.06972114 0.016015388
-0.03353397 0.015505344 -0.049267463 -0.046756152 0.06131307 -0.05273378 0.035188437 -0.081384964
0.020314135 -0.07516874 0.059260063 -0.033364456 0.06730165 -0.050687276 0.011357881 0.01651448
0.069921084 -0.07669283 0.060982563 -0.0073440745 0.06588792 -0.054939732 0.062368385 0.052461572
0.017114863 0.07708878 -0.07444437 -0.016561955 0.04074032 0.039447166 0.013797991 -0.027679909
0.07348611 0.08416139 0.02592992 0.065168254 -0.06537007 -0.032005746 0.02046536 -0.05255041
00000000: ad70 1abd 9f94 433d bca0 f4bd 3e29 0a3e
00000010: 3e1c b33c 675b dabd 4260 753c 7366 92bc
00000020: b1f3 6b3d a6c9 903d d013 523c 11a1 4ebd
00000030: 86de 0bbd df80 853d 3c68 84bd 04f5 bcbd
00000040: 494c 8b3d 21b3 b53d c306 f73c 591a bdbc
00000050: afa4 8c3d 9971 7dbd 2dec f6bd e4d1 fc3c
00000060: 47ef 66bd 75bf 18bd d12d 153e f274 aa3c
00000070: 766c bbbd 05c4 c1bc 3bc8 97bd 6ab9 98bd
00000080: e82f 683c 699a 923d 2c64 95bd e14d bdbd
00000090: e5ea 153e 7298 85bc 3d37 25be 1126 6ebc
000000a0: fc06 193d af50 cabc 9ef0 d33c b7d3 a93d
000000b0: 156f 97bc 0cce 6b3d 3038 1b3e 0a0c 92bd
000000c0: 5f3b 1bbd 085d b6bd 3702 a4bd 328c 5c3d
000000d0: bd12 5a3c ae2f 883c 7cb6 113d d50a bbbc
000000e0: 4081 afbd 8777 d7bd b087 0abe 5959 84bd
000000f0: 3536 0a3e 11c1 c4bd 48a7 9abd 353f c33c
00000100: f854 84bd 1d44 1c3c 8ce3 d13c ca56 b23c
00000110: e44d fc3d 014c 90bd 81b8 7d3d 5c4f bf3d
00000120: 72ce 3a3d 77eb 953d 365f 6fbc 9d9d 09bc
00000130: 82e3 193c e031 2abd e222 23bd 0458 833d
00000140: 90b1 1d3b 4f3c 16be 8b8f 5fbd 3460 973d
00000150: 17e3 9d3d 4437 17bd 7a96 07be 4f74 3ebd
00000160: 2bc4 05bd a556 913d 4eaa d53d 4471 8e3d
00000170: 839c 83bc 6da1 00bd a8f8 863d 4bd9 ae3d
00000180: 80cb 003e 15cc a03d 4126 b9bd c278 813d
00000190: 361c b03d 44b9 763a da71 c5bc fba2 ccbd
000001a0: f655 b9bd 69b5 cdbc 9d2a 47bd 4468 31bd
000001b0: 181d 14bc f8ec 5e3c ea30 43bc 24c8 c53d
000001c0: 0db4 163d 66c8 9ebd 2b2c 8dbc f94c c73c
000001d0: d2a9 d5bd 59ab 3abc d221 0a3e 3202 a33d
000001e0: 60dc 36bd 0dca f83d 89c2 323d 7bd4 0b3e
000001f0: d6bc 9dbc fa8b c7bd 90c9 95bd 58b7 543c
00000200: f84e 593c d5b1 a13d 4e52 263d aba4 13bd
00000210: 481c 20bc c095 063b 5e09 553d 0070 0a3c
00000220: d0df a9bd c960 5bbd b0da abbc 8fe7 a43d
00000230: 8e46 2e3d f705 803d 9fed 953d 6a7f 663d
00000240: d6d8 8abd 8409 80bc 0953 813d 21c5 af3d
00000250: 178f a9bd 3881 623c 2e0b 623d 286d 20bc
00000260: aefb 7d3d 4416 45bd d86e 4dbd 063c 97bd
00000270: f0b6 513c 6213 15bd ecee 9bbd 9c22 ca3c
00000280: e09c 823b 351f 3abd 6006 5b3c 6ac3 46bd
00000290: e6d7 6c3d 56c7 473d d3fa b03d 24df bc3c
000002a0: b8b2 bdbc 403c daba 7747 84bd f41b c7bc
000002b0: 5016 66bc fdfd 873d 2ad6 323d 0bc2 9d3d
000002c0: aac8 363d d1a7 a1bd 5608 1f3d 74ea 1fbd
000002d0: c455 a6bc 510f a93d b0c2 523c 10e5 f7bc
000002e0: f06e 43bc 2456 99bc 83b5 75bd 0bff 4abd
000002f0: 395b a0bd d0d0 9ebc 8c2b 73bd 7716 08bd
00000300: c433 f23c ca04 2b3d a454 a1bc 50c9 72bc
00000310: 0005 71bc 03c4 853d 1837 e2bc c0f9 093d
00000320: fc73 87bd 3013 e6bc 20f9 b0bb f741 8b3d
00000330: 985f 57bc f716 923d d0e7 833c 1ab1 5d3d
00000340: 8b6c b0bd 04bd 9dbc fa2f 6fbd 6005 d6bc
00000350: 8c14 8cbc 6f2e 9c3d f5c9 8e3d b432 833c
00000360: eb5a 09bd 200a 7e3c aecc 49bd 6183 3fbd
00000370: 6a23 7b3d 60ff 57bd c021 103d 29ad a6bd
00000380: d469 a63c 11f2 99bd aeba 723d 2ba9 08bd
00000390: 73d5 893d 769d 4fbd 6816 3a3c 6049 873c
000003a0: c932 8f3d 2111 9dbd dac8 793d 90a6 f0bb
000003b0: 3ff0 863d 7c08 61bd fe75 7f3d f2e1 563d
000003c0: 7834 8c3c b9e0 9d3d 4a76 98bd f0ac 87bc
000003d0: 52df 263d 5a93 213d f810 623c fac0 e2bc
000003e0: e37f 963d cf5c ac3d fc6a d43c ef76 853d
000003f0: bee0 85bd 7518 03bd f8a6 a73c 193f 57bd

module_list.1.0.bias f4 [64]
0.04552091 -0.012567379 0.10237528 -0.047576785 -0.00264036 0.0439565 0.06748865 -0.08627219
-0.06704569 -0.05189586 -0.084321626 -0.046803538 -0.0020165383 0.0010287637 -0.06260129 -0.07629377
-0.05632237 0.014897626 -0.048509326 -0.00046905054 0.08744724 -0.1304712 -0.009104067 -0.047021367
-0.036406502 -0.03798731 -0.0010197896 -0.023679249 -0.05993268 0.014128149 -0.031240106 -0.059693098
-0.06715907 0.046112422 -0.07304965 -0.07624313 0.113703825 0.07044885 -0.013042971 -0.07130623
0.016342575 -0.009433731 0.06527559 -0.07730535 -0.100118175 -0.019281343 0.0785299 0.031420678
-0.04804671 -0.0868843 0.065749966 -0.04037067 0.009428217 0.060345367 -0.035424374 0.11902121
-0.06449866 0.05450744 -0.025793735 -0.030104354 0.032083504 -0.0069177584 -0.083522536 -0.08161441
00000000: 2274 3a3d 68e7 4dbc 21aa d13d e0df 42bd
00000010: e409 2dbb bb0b 343d 7d37 8a3d 79af b0bd
00000020: 404f 89bd c190 54bd d1b0 acbd 11b5 3fbd
00000030: e627 04bb 95d7 863a 1b35 80bd e83f 9cbd
00000040: 49b2 66bd 2c15 743c b7b1 46bd e6ea f5b9
00000050: 8a17 b33d 3e9a 05be 3a29 15bc 7a99 40bd
00000060: fc1e 15bd 9598 1bbd 76aa 85ba fcfa c1bc
00000070: f87b 75bd c079 673c 40eb ffbc c080 74bd
00000080: b28a 89bd 61e0 3c3d 0e9b 95bd 5c25 9cbd
00000090: 8ddd e83d 7d47 903d 2fb2 55bc 0009 92bd
000000a0: dde0 853c f08f 1abc 35af 853d 4452 9ebd
000000b0: c20a cdbd e8f3 9dbc 49d4 a03d f8b2 003d
000000c0: a1cc 44bd 65f0 b1bd eba7 863d b75b 25bd
000000d0: cf78 1a3c b42c 773d 2619 11bd 64c1 f33d
000000e0: e017 84bd 3243 5f3d 624d d3bc 689d f6bc
000000f0: fe69 033d 5dae e2bb dd0d abbd 7525 a7bd

module_list.2.weight f4 [1, 64]
0.0992775 -0.029767588 0.10750001 0.010701537 -0.04316716 -0.13206449 0.15303572 0.01206629
-0.06736559 -0.010617239 -0.11282632 -0.07936 0.06163011 0.0032003666 -0.051803306 -0.103781104
-0.009408131 -0.34483385 0.23592287 -0.021715844 0.15333104 0.27255136 -0.083401285 -0.08313123
-0.054621678 0.014191791 0.12229391 0.10160498 -0.119157106 -0.074783295 0.0020662025 -0.10608793
-0.051587954 0.14368923 -0.016736161 0.13945603 0.058516238 0.11841816 -0.05550789 0.21329926
0.13685438 0.0488656 0.13389203 0.014227682 0.15891309 -0.0655965 0.16077505 0.11911733
0.33929306 0.14898072 -0.038310356 0.059230793 -0.25678653 -0.32540146 -0.46856037 0.13523278
0.081942245 -0.26900893 -0.110176556 -0.066641435 -0.07750696 0.21890257 -0.021573538 -0.05225171
00000000: 0052 cb3d 28db f3bc f728 dc3d 8055 2f3c
00000010: 0cd0 30bd ea3b 07be 65b5 1c3e b0b1 453c
00000020: f8f6 89bd eef3 2dbc 7c11 e7bd 7f87 a2bd
00000030: db6f 7c3d 3ebd 513b b42f 54bd 308b d4bd
00000040: 9024 1abc 108e b0be c495 713e 6de5 b1bc
00000050: d002 1d3e da8b 8b3e 4bce aabd b540 aabd
00000060: fbba 5fbd b084 683c 3b75 fa3d 4616 d03d
00000070: a408 f4bd fc27 99bd 2069 073b a144 d9bd
00000080: e44d 53bd 4523 133e 461a 89bc 90cd 0e3e
00000090: b9ae 6f3d 3885 f23d 3e5c 63bd 1f6b 5a3e
000000a0: 8e23 0c3e 4c27 483d fe1a 093e 391b 693c
000000b0: 1dba 223e 7557 86bd 37a2 243e c9f3 f33d
000000c0: d2b7 ad3e 678e 183e 52eb 1cbd fd9b 723d
000000d0: 8679 83be 059b a6be 25e7 efbe 767a 0a3e
000000e0: 56d1 a73d 8abb 89be 3fa4 e1bd 4e7b 88bd
000000f0: f8bb 9ebd ff27 603e fdba b0bc e405 56bd
