saved_models_MLP/exp-onehot-fcc/mlp_ms_fcc_ratio0.4_seed1_epoch300.pt (torch, 87063 bytes, 5 tensors)

module_list.0.weight f4 [128, 100]
000000 81 7f 86 3d f6 7a 7b 3d b0 5c 40 3c ed 31 76 bd
       0.06567288 0.06139656 0.011740848 -0.060106207
000010 dc ce 0b bd 26 af 0b bd d0 b8 22 3c 00 6e e3 b9
       -0.034132823 -0.03410258 0.009931758 -0.0004337877
000020 d6 ab 7b 3d eb 76 b2 bd 53 f7 c7 3d 89 75 99 3d
       0.061443172 -0.08714088 0.0976397 0.07493121
000030 0e 5b 8e bd d0 25 67 bc f7 93 84 3d ca 28 19 bd
       -0.06950961 -0.014108136 0.064735346 -0.037392415
000040 37 c6 b0 bd ba 00 23 bd 33 13 aa 3d 8a 31 23 3d
       -0.086315565 -0.039795615 0.08304443 0.039842166
000050 92 1f 4f 3d 97 d2 71 bd 43 fd 2e bd f1 e0 9c 3e
       0.050567217 -0.059038725 -0.042721998 0.30640367
000060 a0 1d 12 3e e6 54 ac bd 14 a3 5f bd 54 8d b9 bd
       0.14269114 -0.084146306 -0.054598883 -0.09060159
000070 14 35 83 bd 8a f0 11 3d f4 12 cb 3c 42 22 34 3d
       -0.06406608 0.035629787 0.024789311 0.043977983
000080 bb 91 c8 bd 6c 37 bf 3c c8 b1 9f 3c a8 d5 3c 3c
       -0.09793421 0.023341857 0.019493952 0.011525549
000090 cb a2 93 bd e0 8a e6 bb 97 c0 76 bd 9a c5 54 bd
       -0.07208785 -0.007035598 -0.06024226 -0.05194626
0000a0 b0 64 25 bc 80 cf a5 ba e8 ec ad bd e1 09 94 3d
       -0.010094807 -0.0012650341 -0.08492452 0.07228447
0000b0 ad f3 ba bd f0 57 b9 bd 57 f4 c9 bd a0 64 7b bb
       -0.09128509 -0.09049976 -0.09861057 -0.0038359538
0000c0 f0 37 4c bc 58 7d b8 bc 92 1e 28 3d b4 5f eb 3c
       -0.012464508 -0.022520706 0.04104478 0.028732158
0000d0 cc 84 ee bc 00 9d ec 3b ec 94 f7 bc 28 a0 9b bc
       -0.029116057 0.0072208643 -0.030222379 -0.018997267
0000e0 94 40 fb 3c 7f 79 8a 3d 92 c2 a8 bd ef 60 b0 bd
       0.030670442 0.06761455 -0.08240236 -0.086122386
0000f0 ac f4 c6 3c 4a 28 10 bd f0 d5 17 bc 92 d4 4b 3d
       0.02428659 -0.035194673 -0.009267315 0.04976327
000100 60 b5 b7 bc b5 c2 93 3d ce 20 5e 3d d0 6a 64 bc
       -0.022425354 0.07214872 0.054230504 -0.013941482
000110 ae 17 8e bd 6a 6e 21 3d 5a 18 57 bd ae 1f 0c 3d
       -0.0693811 0.03941194 -0.052513458 0.0342099
000120 ed 5a c9 3d 18 4c 49 bc 14 0a b3 3c 83 29 bd bd
       0.09831796 -0.012286209 0.021855392 -0.09236433
000130 94 4a ea 3c c4 2e d5 3c da 32 37 3d 11 1b b5 3d
       0.028600015 0.026023276 0.04472623 0.08843053
000140 00 60 7e bd 99 56 9a 3d e0 7d f1 bc c3 d1 4a bd
       -0.06210327 0.075360484 -0.029478967 -0.04951645
000150 0e 0e 84 bd 62 27 74 3d 00 ce 85 bb 10 3a 57 3c
       -0.06447993 0.05960787 -0.004083395 0.013136402
000160 68 1e a6 3c a6 b0 31 3d 6d eb 83 bd 40 37 c6 bd
       0.02027817 0.043381356 -0.06441388 -0.09678507
000170 7e cc 9b bd e9 9c 88 3d 00 08 fa 3b 52 a9 7c 3d
       -0.07607363 0.06670553 0.007630348 0.061684914
000180 00 ad 17 bd 38 7c a4 3c db 14 a1 3d 06 5e 02 bd
       -0.03703022 0.020078763 0.07865306 -0.03182795
000190 a3 3c bc bd ee 65 22 3d 67 41 2a bd 41 39 b2 3d
       -0.09191253 0.03964799 -0.04156628 0.087023266
0001a0 d8 24 61 bc b3 20 a6 3d 80 ea b3 3b c0 aa 76 bb
       -0.013741694 0.08111706 0.005490601 -0.0037638396
0001b0 b8 02 b4 bd a0 23 12 bd f6 fc 42 3d cd b8 a7 bd
       -0.08789581 -0.035678506 0.047604524 -0.08189545
0001c0 b2 9b 60 3d 85 6e b7 bd 86 62 3c 3d e3 1b c9 3d
       0.054835983 -0.08956627 0.045992397 0.09819772
0001d0 ca 51 16 bd d3 f8 79 bd 49 bf cc 3d 62 5f 6e 3d
       -0.036699094 -0.061028313 0.09997422 0.058196433
0001e0 1b 43 c0 3d 98 7b da bc 25 06 c4 bd 34 3e 0f 3d
       0.09387799 -0.026670262 -0.095714845 0.03497143
0001f0 76 c7 86 3e 51 cf 27 3e cc 2d 78 bd 60 02 bd be
       0.26324052 0.16387679 -0.06059055 -0.36915874
000200 b9 ce 94 3d 40 e4 62 bb 58 3a 49 3c 1c 0d e9 3c
       0.07265992 -0.003462091 0.012281977 0.028448634
000210 60 71 d1 bb 14 7f ae 3c e8 6a 54 bc 0d d2 a2 bd
       -0.006391689 0.02130083 -0.012964942 -0.0795022
000220 a8 f3 b3 bd c2 c3 43 3d 85 e5 b4 bd 2e 87 3c 3d
       -0.08786708 0.04779411 -0.0883284 0.046027355
000230 b9 47 be 3d ef c7 a0 3d 13 5a 93 bd ae da 58 3d
       0.09291024 0.07850634 -0.07194915 0.052942924
000240 e7 b2 9c 3d ea d2 5b be 4c 2c af bc f7 36 c6 3d
       0.076513104 -0.21467176 -0.021383427 0.096784525
000250 3a 93 2e 3d 3c b9 82 bd 76 63 9c bd 94 d3 a4 bc
       0.042620875 -0.06382987 -0.07636158 -0.02012042
000260 d9 99 c5 3d 2a 51 4a bd 80 cf f5 3a 9b c6 cb 3d
       0.09648485 -0.04939381 0.0018753856 0.0994999
000270 d8 27 21 bc 60 e1 55 bd 30 aa b3 bd 3d b4 70 bd
       -0.00983616 -0.052216887 -0.08772695 -0.05876564
000280 6a d4 8b bd 52 39 03 3d 10 a3 a2 bd 84 8d e6 3c
       -0.06827624 0.032037087 -0.07941258 0.028143652
000290 c0 85 a6 bc 3b 36 9b 3d 22 75 bd bd c0 71 22 bb
       -0.020327449 0.07578703 -0.09250857 -0.0024787039
0002a0 08 88 bf bc 1a ec 02 3d 70 1d c2 bd ec 4a fa bc
       -0.023380294 0.031963445 -0.09478271 -0.030553304
0002b0 62 03 60 3d a0 98 89 3b aa 41 1a bd 53 c0 9d 3d
       0.054690726 0.0041991025 -0.03766028 0.077026986
0002c0 57 83 1a bd 08 fd 92 bd 80 d7 4e bc 3a 6d ab bd
       -0.03772291 -0.07177168 -0.012624621 -0.08370443
0002d0 ac 1c da 3c a2 27 8e bd 63 4d 65 bd c0 b4 98 bd
       0.026625 -0.06941153 -0.055982005 -0.0745635
0002e0 97 aa 6c bd b4 c0 0f bd 10 b6 69 3c 49 02 bc 3d
       -0.057779875 -0.035095885 0.0142645985 0.09180123
0002f0 f3 87 41 bd 00 46 d7 ba 82 31 84 bd 08 7a ab 3c
       -0.047248792 -0.001642406 -0.06454755 0.020932212
000300 82 f1 a2 bd 32 eb 36 3d 0a 90 b2 bd a8 3d 09 3c
       -0.0795622 0.044657893 -0.087188795 0.008376516
000310 82 62 71 3d ba a8 5f bd 02 37 74 3d 5b 19 84 3d
       0.058931835 -0.05460427 0.059622772 0.06450149
000320 40 74 03 3c 85 5d 9e 3d f8 0b e4 bc a7 34 c4 bd
       0.008023322 0.07732681 -0.027837738 -0.09580355
000330 e2 16 c8 bd 8a 46 74 bd 4c ef c7 3c 20 6c ac bc
       -0.097699896 -0.059637584 0.024406098 -0.021047652
000340 60 e7 84 3b 00 54 68 bb 87 84 4b bd bd 20 a2 3d
       0.0040559024 -0.0035450459 -0.049686935 0.079164006
000350 09 72 a1 3d 00 33 7f bb 99 05 97 3d 08 de a5 bc
       0.078830786 -0.003894031 0.073741145 -0.020247474
000360 d0 0f 84 bb b8 62 d3 bc 03 48 67 bd ed 32 85 bd
       -0.0040302053 -0.025803909 -0.05646516 -0.06503854
000370 a8 85 8b bc 12 31 92 bd 40 a8 09 3c 51 52 fb 3d
       -0.017031506 -0.07138266 0.00840193 0.1227156
000380 53 44 45 3e ec da 5a be 96 54 01 be f4 3c 2b be
       0.19264345 -0.21372575 -0.12629923 -0.1672247
000390 ef 92 ad bd 17 0a 9a 3d 23 bb 2c bd 18 7d 49 bc
       -0.08475291 0.07521456 -0.042170655 -0.012297891
0003a0 f5 33 8a bd 98 c1 38 3c c0 5b ba bd 68 0c 6b 3c
       -0.06748191 0.011276625 -0.09099531 0.01434622
0003b0 e8 5c b4 3c c0 e5 b6 bc 90 a2 97 bd 92 c4 c1 bd
       0.022016957 -0.02232635 -0.07404053 -0.09461321
0003c0 ef 98 bc 3d ba 54 56 3d 94 4c d6 bc 71 af b4 3d
       0.09208857 0.052326895 -0.026159562 0.08822525
0003d0 30 5c b0 bd 56 93 93 3c 84 5c eb 3c 8e 30 86 bd
       -0.08611333 0.018014591 0.028730638 -0.0655223
0003e0 38 5c bc bc b2 ba 99 bd d2 c1 9a bd 2f 46 bb 3d
       -0.022993192 -0.075063124 -0.075564995 0.09144246
0003f0 02 ee 7a 3d 3c 66 f9 3c 12 9a 56 3d 18 29 39 bc
       0.06126214 0.030444257 0.052393027 -0.011301301

module_list.0.bias f4 [128]
000000 5c 07 87 3c d0 00 9f bd e9 2d c6 3c a5 94 8d bd
       0.016483001 -0.07763827 0.024191814 -0.06913117
000010 7d 4a b5 3d ee 0a d9 bc 7e 7e 37 bd 84 a9 8a 3c
       0.08852098 -0.02649447 -0.044798367 0.016926534
000020 9f de a2 3d 81 b6 9a 3d 7d db d5 3d ee 50 15 bd
       0.07952618 0.07554341 0.10442255 -0.036454134
000030 b0 b3 ef 3d e9 3f 92 bb d6 ce ba bc 62 46 08 be
       0.117041945 -0.004463185 -0.022803705 -0.13308099
000040 df 0e b6 bd 87 86 93 3b 5f fe bb bc ce 07 2f bd
       -0.08889555 0.004502121 -0.022948442 -0.042732053
000050 69 9d 61 3d 5f 33 8a bc c4 4b b4 bd 40 06 35 bc
       0.05508176 -0.016870199 -0.08803514 -0.011048853
000060 07 a8 d0 bd da 1f be bd df 41 99 3d ab 4a 0e 3d
       -0.10188299 -0.09283419 0.07483267 0.034739178
000070 07 fb 51 bc ab e4 88 3d d0 e7 ae bd d4 97 03 bc
       -0.012816197 0.0668424 -0.085403085 -0.008031804
000080 aa 93 cf bd 41 4d b7 3d 0e b0 6e bc 0c 57 d2 bc
       -0.101355866 0.08950282 -0.014568342 -0.025676273
000090 e5 da a9 3d 66 3e 3b bc 0b 46 c7 bd f2 25 26 3d
       0.08293704 -0.011428451 -0.097301565 0.04056353
0000a0 ea 3a 42 bd 35 e5 26 bd e4 42 bf 3d 18 4b 15 3e
       -0.047419466 -0.040745933 0.0933893 0.14579427
0000b0 a0 ed 90 bd 91 73 01 3d ff 55 43 3d e7 fe 1b bd
       -0.07076573 0.031604353 0.047689434 -0.03808489
0000c0 26 c6 91 3d 0b 2a b4 bd 6a 13 7b bd 7f 95 93 3d
       0.07117872 -0.087970816 -0.06129781 0.072062485
0000d0 1e ee f6 bc 06 63 3d bd ad 65 ad 3d 11 e8 5f 3d
       -0.03014284 -0.046237014 0.08466659 0.054664675
0000e0 dc 14 d8 3c 3a 25 9d bd d5 c7 d2 bd f2 07 7c bc
       0.026377134 -0.07673116 -0.10292021 -0.015382754
0000f0 c2 1f 7f 3d f0 32 ba bd 2c 0e bf bd bd b1 b1 3d
       0.062286146 -0.09091747 -0.09328875 0.08676479
000100 65 f5 f4 bd 5b 1e 5d 3e 34 4d 86 3d ef 86 a2 3d
       -0.11960868 0.21593611 0.06557694 0.07935893
000110 a2 4d 62 3d ff d5 f1 3c b2 b3 8f bd ea 5a 8e bc
       0.055249818 0.029520987 -0.07016696 -0.017377336
000120 8c 01 a0 bc 40 db 3f bd 98 ca 28 3e a7 1e 42 bd
       -0.019531988 -0.046839952 0.16483533 -0.047392514
000130 46 07 c3 bc 1c b5 4f 3d e0 9a fe bc ad 6f e5 3c
       -0.02380718 0.05070983 -0.03107971 0.028007353
000140 69 5c 89 bd 26 d8 c3 bd 63 74 eb 3b 61 89 cf 3c
       -0.06707079 -0.095627114 0.0071855052 0.025334062
000150 98 da ac 3d 2b 6e ac bd 48 53 05 bd 94 c8 91 bd
       0.08440131 -0.0841945 -0.032550126 -0.07118335
000160 0f 11 97 3c fa c1 b7 3d 5d 3f bb 3d 59 fc 87 bd
       0.018440751 0.08972545 0.09142945 -0.06639928
000170 35 9a 9f bd 58 e3 a9 bd e1 5d 56 3c 72 33 4f 3d
       -0.077930845 -0.082953155 0.013083906 0.05058617
000180 af e7 97 3c 15 e7 33 3e bb 5e 9f bd 86 14 b3 bc
       0.018543093 0.1756862 -0.0778174 -0.021860372
000190 c3 2b af 3d de cf fd 3c 6c cb 22 3c af c8 60 bd
       0.08553269 0.030982908 0.009936195 -0.054878887
0001a0 69 80 e8 bd d9 9a 17 be 22 68 8c 3d 03 22 35 bd
       -0.11352617 -0.14805163 0.06855799 -0.04422189
0001b0 86 cc 10 be 63 9f 48 3d 74 5a 41 bd 96 11 a8 3d
       -0.1414052 0.048980128 -0.047205403 0.08206479
0001c0 ea 99 0d 3e 7a 7d 9a bd f7 af d1 3d e3 49 df bd
       0.13828245 -0.07543464 0.10238641 -0.10902765
0001d0 af e1 9c bd 45 b4 80 bc 55 00 d8 3d 88 2e 0a 3d
       -0.07660233 -0.01571096 0.10546938 0.033735782
0001e0 cc 83 9d bd 33 8f 79 3d f2 0a d5 3d 55 3f 8d 3d
       -0.07691154 0.06092758 0.10402478 0.06896845
0001f0 a0 ca 2d bd d8 60 67 bd 71 33 63 bd d3 c3 bb bd
       -0.042429566 -0.05648884 -0.05546898 -0.0916821

module_list.1.0.weight f4 [64, 128]
000000 3a 4d 0c bb fb 5e 28 3d 37 6b c9 bd a3 b7 ce 3d
       -0.0021408335 0.041106205 -0.09834903 0.1009362
000010 11 2b 9e 3c a5 4d e3 bd 5c d4 05 3d 14 39 6d 3c
       0.019307645 -0.11098794 0.032673225 0.0144789405
000020 95 e8 61 3d 0f 09 8f 3d e3 12 78 3c 7b c2 89 bc
       0.055153448 0.0698415 0.015141222 -0.016816368
000030 f1 7d 0d bd c2 33 1c 3c ae d4 1a bd f7 ac c2 bd
       -0.034543935 0.009533824 -0.037800483 -0.09505647
000040 34 a7 66 3d 21 da b8 3d 26 6a 43 3d 7d ff 25 bd
       0.0563118 0.0902598 0.047708653 -0.040526856
000050 d8 9a 74 3d ca fb 38 bd f8 67 e6 bd 9d 5a 1e bd
       0.059717983 -0.045162 -0.11250299 -0.038660634
000060 94 10 50 bd 9a c7 2d bd 98 a7 10 3e 0e 0b 24 bb
       -0.05079706 -0.042426683 0.14126432 -0.0025031003
000070 e7 4f a9 bd 87 6d 87 bc 49 41 9a bd c0 3e d9 bc
       -0.08267193 -0.016531719 -0.075319834 -0.02651918
000080 ef be 32 3c 28 76 90 3d 7d 1b 5d bd 48 b0 99 bd
       0.01090978 0.070537865 -0.053981293 -0.07504326
000090 ec 78 0f 3e fa 51 89 bc 8f ce 1c be d6 36 85 bc
       0.14010972 -0.016762722 -0.15313171 -0.0162615
0000a0 ee 6a 16 3d 30 a8 ed bc 5e 3e a2 3c 9c cc b9 3d
       0.03672307 -0.029010862 0.01980513 0.09072229
0000b0 2d 92 13 bc 9a cd 53 3d 4c 21 10 3e ba 32 bf bd
       -0.009007019 0.05170975 0.14075202 -0.09335847
0000c0 4e bc 43 bd d7 00 ad bd 2e 14 a8 bd b3 05 4e 3d
       -0.047787003 -0.08447426 -0.08206974 0.050298404
0000d0 97 24 18 3d 1d ee 13 bc 8b 41 1c 3d 8c 2b 1d bc
       0.03714427 -0.009028939 0.038148444 -0.009592902
0000e0 bb d4 2c bd a1 0a e1 bd 8b c3 04 be 80 cf 52 bd
       -0.042195063 -0.109883554 -0.12965219 -0.05146742
0000f0 40 ca 00 3e c5 f6 c3 bd 22 84 99 bd 06 57 c6 3c
       0.12577152 -0.09568552 -0.074959055 0.024211418
000100 72 bc 89 bd aa 24 26 3c d7 0f 5d 3c 59 94 5a 3d
       -0.06725396 0.010140577 0.013492546 0.05336413
000110 88 c7 f2 3d 3b 6e 9c bd ad 6f 6e 3d a9 43 c8 3d
       0.11854464 -0.07638212 0.05821197 0.0977853
000120 b3 55 e9 b9 88 8b 27 3d 4f 0b 88 bc 9e 6f 11 3c
       -0.00044505074 0.04090455 -0.016606955 0.008876709
000130 27 b2 9b 3c f6 ec 43 bd b4 aa 2e bd 29 21 4b 3d
       0.019005848 -0.047833405 -0.042643264 0.04959217
000140 39 31 bb 3b 92 5a 0f be 5c 60 7e bd 46 9a 8c 3d
       0.005712655 -0.13999394 -0.062103614 0.06865363
000150 bd 51 97 3d 11 a0 b2 bc 11 5a 02 be 1c d5 41 bd
       0.07388637 -0.021804841 -0.1272967 -0.047322378
000160 91 7d 69 bd 7a aa 77 3d 40 d0 dc 3d f2 cb 79 3d
       -0.057004515 0.060465313 0.10781908 0.060985513
000170 30 60 05 bc ba ff e8 bc 39 8f 57 3d 29 43 37 3d
       -0.008140609 -0.028442252 0.052626822 0.044741783
000180 2e 4b e3 3d b1 72 a0 3d cc 61 b1 bd 8b 22 9a 3d
       0.11098324 0.07834376 -0.086612314 0.0752612
000190 a5 23 af 3d 1b cd 18 3b 29 22 b0 bc 91 2c ab bd
       0.085517205 0.0023315612 -0.021500664 -0.0835811
0001a0 2a a0 b2 bd 5c a5 15 bd 31 1e 67 bd 97 3a 2d bd
       -0.08721955 -0.036534652 -0.056425277 -0.042292204
0001b0 03 22 50 bc 99 92 ab 3c 61 47 87 bd 6a 75 aa 3d
       -0.0127034215 0.020943927 -0.06605411 0.08323176
0001c0 bd a1 16 3d 36 ff ae bd b3 c4 8f bb b6 9c e0 3c
       0.03677534 -0.085447714 -0.004387462 0.027418476
0001d0 95 eb db bd ae bf d1 3c 50 cc ff 3d ba e3 a2 3d
       -0.10738293 0.025604095 0.124901414 0.07953592
0001e0 85 26 21 bd 66 47 02 3e 86 e6 31 3d b4 43 ff 3d
       -0.039343376 0.12722549 0.043432735 0.12464085
0001f0 f3 1a 6a bc 02 17 d3 bd 09 9c 6e bd d4 c4 b3 3b
       -0.014288652 -0.10307123 -0.058254275 0.00548611
000200 f8 4e 59 3c d5 b1 a1 3d 4e 52 26 3d ab a4 13 bd
       0.0132634565 0.07895247 0.040605836 -0.03604571
000210 48 1c 20 bc c0 95 06 3b 5e 09 55 3d 00 70 0a 3c
       -0.009772368 0.0020536035 0.052010886 0.008449554
000220 d0 df a9 bd c9 60 5b bd b0 da ab bc 8f e7 a4 3d
       -0.08294642 -0.0535591 -0.020978302 0.08051979
000230 8e 46 2e 3d f7 05 80 3d 9f ed 95 3d 6a 7f 66 3d
       0.042547755 0.06251138 0.07320713 0.056273855
000240 d6 d8 8a bd 84 09 80 bc 09 53 81 3d 21 c5 af 3d
       -0.067796394 -0.015629537 0.06314666 0.08582521
000250 17 8f a9 bd 38 81 62 3c 2e 0b 62 3d 28 6d 20 bc
       -0.08279245 0.013824753 0.055186443 -0.00979165
000260 ae fb 7d 3d 44 16 45 bd d8 6e 4d bd 06 3c 97 bd
       0.0620076 -0.048116937 -0.050154537 -0.073844954
000270 f0 b6 51 3c 62 13 15 bd ec ee 9b bd 9c 22 ca 3c
       0.012799963 -0.036395438 -0.0761393 0.024674706
000280 e0 9c 82 3b 35 1f 3a bd 60 06 5b 3c 6a c3 46 bd
       0.003985986 -0.045439918 0.013368219 -0.048526205
000290 e6 d7 6c 3d 56 c7 47 3d d3 fa b0 3d 24 df bc 3c
       0.057823084 0.048774086 0.08641591 0.02305562
0002a0 b8 b2 bd bc 40 3c da ba 77 47 84 bd f4 1b c7 bc
       -0.023156509 -0.0016650036 -0.06458943 -0.024305321
0002b0 50 16 66 bc fd fd 87 3d 2a d6 32 3d 0b c2 9d 3d
       -0.014043406 0.06640241 0.043661274 0.077030264
0002c0 aa c8 36 3d d1 a7 a1 bd 56 08 1f 3d 74 ea 1f bd
       0.044624962 -0.078933366 0.03882631 -0.03904195
0002d0 c4 55 a6 bc 51 0f a9 3d b0 c2 52 3c 10 e5 f7 bc
       -0.020304568 0.082548745 0.0128638 -0.030260593
0002e0 f0 6e 43 bc 24 56 99 bc 83 b5 75 bd 0b ff 4a bd
       -0.011928305 -0.018717833 -0.059987556 -0.049559634
0002f0 39 5b a0 bd d0 d0 9e bc 8c 2b 73 bd 77 16 08 bd
       -0.07829899 -0.019386679 -0.0593677 -0.03322455
000300 c4 33 f2 3c ca 04 2b 3d a4 54 a1 bc 50 c9 72 bc
       0.0295657 0.041752614 -0.01969368 -0.014818504
000310 00 05 71 bc 03 c4 85 3d 18 37 e2 bc c0 f9 09 3d
       -0.014710665 0.06531527 -0.027614161 0.033685446
000320 fc 73 87 bd 30 13 e6 bc 20 f9 b0 bb f7 41 8b 3d
       -0.06613919 -0.028085321 -0.0054007918 0.06799691
000330 98 5f 57 bc f7 16 92 3d d0 e7 83 3c 1a b1 5d 3d
       -0.01314535 0.071332864 0.016101748 0.054123975
000340 8b 6c b0 bd 04 bd 9d bc fa 2f 6f bd 60 05 d6 bc
       -0.08614453 -0.019255169 -0.058395363 -0.02612561
000350 8c 14 8c bc 6f 2e 9c 3d f5 c9 8e 3d b4 32 83 3c
       -0.017099641 0.07626044 0.06972114 0.016015388
000360 eb 5a 09 bd 20 0a 7e 3c ae cc 49 bd 61 83 3f bd
       -0.03353397 0.015505344 -0.049267463 -0.046756152
000370 6a 23 7b 3d 60 ff 57 bd c0 21 10 3d 29 ad a6 bd
       0.06131307 -0.05273378 0.035188437 -0.081384964
000380 d4 69 a6 3c 11 f2 99 bd ae ba 72 3d 2b a9 08 bd
       0.020314135 -0.07516874 0.059260063 -0.033364456
000390 73 d5 89 3d 76 9d 4f bd 68 16 3a 3c 60 49 87 3c
       0.06730165 -0.050687276 0.011357881 0.01651448
0003a0 c9 32 8f 3d 21 11 9d bd da c8 79 3d 90 a6 f0 bb
       0.069921084 -0.07669283 0.060982563 -0.0073440745
0003b0 3f f0 86 3d 7c 08 61 bd fe 75 7f 3d f2 e1 56 3d
       0.06588792 -0.054939732 0.062368385 0.052461572
0003c0 78 34 8c 3c b9 e0 9d 3d 4a 76 98 bd f0 ac 87 bc
       0.017114863 0.07708878 -0.07444437 -0.016561955
0003d0 52 df 26 3d 5a 93 21 3d f8 10 62 3c fa c0 e2 bc
       0.04074032 0.039447166 0.013797991 -0.027679909
0003e0 e3 7f 96 3d cf 5c ac 3d fc 6a d4 3c ef 76 85 3d
       0.07348611 0.08416139 0.02592992 0.065168254
0003f0 be e0 85 bd 75 18 03 bd f8 a6 a7 3c 19 3f 57 bd
       -0.06537007 -0.032005746 0.02046536 -0.05255041

module_list.1.0.bias f4 [64]
000000 52 02 49 3d 68 e7 4d bc 4c 09 da 3d e0 df 42 bd
       0.04907448 -0.012567379 0.106463045 -0.047576785
000010 e4 09 2d bb 9c b0 24 3d 1f 8d 91 3d d1 e9 bc bd
       -0.00264036 0.04020749 0.07106995 -0.092242844
000020 03 04 a0 bd 83 72 87 bd d1 b0 ac bd 84 a1 a0 bd
       -0.07813265 -0.06613638 -0.084321626 -0.07843307
000030 ef 81 ba 3a 06 33 51 bb 1b 35 80 bd e8 3f 9c bd
       0.0014229397 -0.0031921281 -0.06260129 -0.07629377
000040 49 b2 66 bd 18 f8 3c 3c 6c 01 f1 bc e6 ea f5 b9
       -0.05632237 0.01153376 -0.029419623 -0.00046905054
000050 f7 6c ba 3d 9c 78 0d be 47 b3 53 bc 7a 99 40 bd
       0.09102815 -0.1381554 -0.012921161 -0.047021367
000060 fc 1e 15 bd 95 98 1b bd 04 a1 25 bc fc fa c1 bc
       -0.036406502 -0.03798731 -0.01010919 -0.023679249
000070 f8 7b 75 bd c0 79 67 3c 40 eb ff bc c0 80 74 bd
       -0.05993268 0.014128149 -0.031240106 -0.059693098
000080 c9 84 4e bd 1a b0 4d 3d 0e 9b 95 bd 50 0b d1 bd
       -0.050419603 0.05021677 -0.07304965 -0.10207236
000090 b1 f9 ef 3d 9d a9 98 3d 6f a5 b0 bc 81 a1 fa bd
       0.11717547 0.07454226 -0.02156326 -0.12237836
0000a0 c3 e6 17 3d 7a 76 d0 bc 36 46 8d 3d 44 52 9e bd
       0.037085306 -0.025447119 0.06898157 -0.07730535
0000b0 ff 22 ae bd ee e2 0c bd 7b 37 a8 3d 30 1f 12 3d
       -0.08502769 -0.034396105 0.08213707 0.035674274
0000c0 5a de ec bd c6 79 1a be eb a7 86 3d b7 5b 25 bd
       -0.11565848 -0.15085515 0.065749966 -0.04037067
0000d0 99 c0 1b 3b d5 c0 3d 3d 1f 92 f2 bc b6 14 fb 3d
       0.002376592 0.046326477 -0.029610692 0.1225981
0000e0 e0 17 84 bd 68 df 20 3d 62 4d d3 bc 68 9d f6 bc
       -0.06449866 0.039275557 -0.025793735 -0.030104354
0000f0 2e d6 e0 3c 59 ff 41 3c dd 0d ab bd 42 8c f6 bd
       0.027445879 0.011840665 -0.083522536 -0.12038471

module_list.2.weight f4 [1, 64]
000000 9a 11 c1 3d 28 db f3 bc fb 2f cf 3d 80 55 2f 3c
       0.09427185 -0.029767588 0.101165734 0.010701537
000010 0c d0 30 bd 2b 36 00 be fc 93 18 3e 2d 65 df 3b
       -0.04316716 -0.12520663 0.14900202 0.006817481
000020 08 e1 89 bd 39 d5 8a bb 7c 11 e7 bd c0 0d ba be
       -0.067323744 -0.004236844 -0.11282632 -0.36338615
000030 15 49 64 3d 43 f4 b1 3a b4 2f 54 bd 30 8b d4 bd
       0.05573376 0.0013576824 -0.051803306 -0.103781104
000040 90 24 1a bc 58 69 bc be 09 bf 94 3e 6d e5 b1 bc
       -0.009408131 -0.3679912 0.29051998 -0.021715844
000050 74 5d 19 3e 44 ce f2 3e 7b 1e 95 bd b5 40 aa bd
       0.14977056 0.47422993 -0.07281204 -0.08313123
000060 fb ba 5f bd b0 84 68 3c 35 95 12 3e 46 16 d0 3d
       -0.054621678 0.014191791 0.1431473 0.10160498
000070 a4 08 f4 bd fc 27 99 bd 20 69 07 3b a1 44 d9 bd
       -0.119157106 -0.074783295 0.0020662025 -0.10608793
000080 b4 2e af be e9 b8 0c 3e 46 1a 89 bc e3 c8 2b 3e
       -0.3421532 0.13742413 -0.016736161 0.16775851
000090 80 3f 60 3d 02 22 e6 3d 61 4d 63 bd 79 9d 97 3e
       0.05474806 0.11236955 -0.055493716 0.2961233
0000a0 d4 6e 44 3e 3f bc a7 3d 85 d8 03 3e 39 1b 69 3c
       0.19182903 0.08190202 0.12875564 0.014227682
0000b0 78 17 5a 3e 3e c0 7a bd 44 f5 1f 3e b8 d2 e9 3d
       0.21298015 -0.061218493 0.15620905 0.114171445
0000c0 8f aa 07 3f af d0 87 3e 52 eb 1c bd fd 9b 72 3d
       0.52994627 0.265264 -0.038310356 0.059230793
0000d0 87 c2 86 be 31 5d 08 bf 5b 50 14 bf aa 0b 06 3e
       -0.26320288 -0.532672 -0.5793511 0.13090387
0000e0 56 d1 a7 3d 6c 04 d6 be 3f a4 e1 bd 4e 7b 88 bd
       0.081942245 -0.4180025 -0.110176556 -0.066641435
0000f0 8e ef 85 be 28 f1 7f 3e fd ba b0 bc bd f6 b3 be
       -0.26159328 0.24994338 -0.021573538 -0.35149184
