saved_models_MLP/exp-f-bcc-eform/mlp_eform_bcc_ratio1_seed2_epoch300.pt (torch, 38935 bytes, 5 tensors)

module_list.0.weight f4 [128, 6]
000000 03 22 5a 3e 8b 01 db 3a f6 6f 0c 3e d7 41 d4 be
       0.21302037 0.0016708834 0.13714585 -0.41456482
000010 56 41 e2 bd 8b 85 a8 be 90 51 b4 be 59 44 41 be
       -0.11047618 -0.32914385 -0.35218477 -0.18873729
000020 ff 0e ab 3e 63 b8 4c be be c8 6d be 90 b8 9f be
       0.3340988 -0.19992213 -0.23221108 -0.31195498
000030 40 f8 1f 3d 6e c6 8b be 95 4c 22 bc e1 64 e5 3d
       0.03905511 -0.27299827 -0.009905954 0.11200882
000040 eb fe dd bc a2 95 bb 3e ff af 12 3a 03 c2 fc bd
       -0.027099093 0.36637598 0.00055956835 -0.12341692
000050 b9 18 c6 be bc 3d c9 be d5 5b 27 3e 47 8d c0 be
       -0.38690737 -0.39304912 0.16343625 -0.37607786
000060 c9 cc 48 bc 70 17 be 3e 8e 29 55 3e e5 18 b2 3e
       -0.012255856 0.37127256 0.20816633 0.34784618
000070 a2 e6 b8 be 7c 15 99 bd 16 93 91 3e 09 dc 3b be
       -0.3611346 -0.07474801 0.2843253 -0.18345656
000080 17 f9 85 be b7 5f d0 3e dd 63 74 3e fb 2b 62 be
       -0.26166603 0.40698025 0.2386622 -0.2208709
000090 4c 95 e2 bc a4 f0 9b 3e 1d 37 bf 3e 93 3e 65 3e
       -0.02765908 0.30457032 0.37346736 0.22387151
0000a0 84 ab 31 3e 42 70 89 3e 41 7f a7 be e4 f6 ab be
       0.17350584 0.26843458 -0.32714275 -0.335868
0000b0 bc a5 a2 bc 70 b1 cb 3e 0c 3b 91 bd f8 f0 79 3e
       -0.019854419 0.39783812 -0.070913404 0.24408329
0000c0 29 7a b8 bb 98 02 26 be 3f 67 9a 3e 8f 8c 94 be
       -0.005629797 -0.16211927 0.30156896 -0.29013488
0000d0 2d fe 86 3e be 3d 3d be 44 74 1e be 8a 88 44 3e
       0.26365796 -0.18480584 -0.1547404 0.1919271
0000e0 b4 76 dc be a1 38 c7 be 59 39 2d be 5f 2c 37 be
       -0.43059313 -0.38910392 -0.16916408 -0.1788802
0000f0 59 f8 ad 3d a3 d8 90 3e c2 95 ce 3e c2 7e 29 3e
       0.08494634 0.2829028 0.4034863 0.1655226
000100 ba 45 23 be dc db 9d bd 4e aa 97 3d f9 5c 49 bd
       -0.15944567 -0.077079505 0.0740553 -0.04916093
000110 95 03 02 3e f5 ff db be 99 92 85 be 40 7c 92 bc
       0.12696679 -0.42968717 -0.26088408 -0.017881513
000120 bd 56 b1 3e aa 80 3b 3e a5 ec c0 3e 3e 1e f2 bd
       0.3463649 0.183108 0.37680545 -0.118221745
000130 79 fe 44 bb 4e 60 9e be 3b e0 3f bd fe 5d bb 3e
       -0.0030058904 -0.3093285 -0.046844702 0.36595148
000140 e2 2b 39 3e 5e 19 c9 be 4b 37 08 3f 89 51 ad be
       0.18083146 -0.39277166 0.5320937 -0.3385127
000150 c1 50 e6 bd 32 80 cd 3e 11 2c 09 be 05 e7 c6 3d
       -0.11245871 0.40136868 -0.13395716 0.09712032
000160 f9 c8 ca 3d 14 3b 77 be 67 ba df bd ca bd 87 3d
       0.09901614 -0.2414363 -0.10924225 0.06627996
000170 f3 51 01 3e 59 9a a5 3e 85 13 a8 3e 40 c7 85 3e
       0.12628917 0.3234432 0.32827392 0.26128578
000180 3b 92 5c be cc 88 3b be 36 6c a2 3e 6b 2d 6d 3b
       -0.21540157 -0.18313903 0.31723183 0.0036190401
000190 57 6c bd be b0 b4 d2 3d 5b 8a 38 be f6 e9 ed 3d
       -0.3699672 0.1028837 -0.18021528 0.1161689
0001a0 66 0a 5c bd 57 c5 83 3e 39 e2 c5 be db a5 ac be
       -0.053720854 0.25736496 -0.38649157 -0.33720288
0001b0 fe 59 83 bd a1 95 d0 be b2 48 b4 3e 3f 6f 8b 3c
       -0.06413649 -0.40739158 0.35211712 0.01702082
0001c0 4d 2e 4c be c3 31 4f be 0e dc 1e 3e 70 ec c9 3d
       -0.19939537 -0.20233826 0.15513632 0.0985955
0001d0 2e f9 00 be 12 3d fe 3e db 04 c5 3d 8c 1e 1f be
       -0.12595055 0.49655968 0.09620067 -0.15538996
0001e0 f5 ed d5 3c 40 6f 7f 3e 4d 11 ae 3e fb 8b f9 be
       0.026114443 0.24944782 0.33997574 -0.4873961
0001f0 9b 7a 1b bf 70 60 e9 bd 3d 88 af be 06 92 c1 3d
       -0.60733956 -0.11395347 -0.3428363 0.0945168
000200 32 f8 dc 3d f4 79 99 3e 32 ee 97 bc a8 3e 99 3e
       0.10789527 0.29975855 -0.018546198 0.29930615
000210 88 09 eb 3c 88 55 d1 be 1c 09 5f be 9f 5a 7a 3b
       0.028691068 -0.40885568 -0.21780819 0.0038200987
000220 34 5c 33 3d 18 af bb be 0c df ff bd 32 6a ac 3c
       0.043789104 -0.36657023 -0.12493715 0.021046732
000230 05 8b b0 bd bc 76 67 3c b5 7c fa 3e c0 56 ae 3c
       -0.08620266 0.01412743 0.4892327 0.0212816
000240 1c 85 16 be 00 8c c3 bd 99 e9 83 be 7a ca 39 be
       -0.14699215 -0.09548187 -0.25764158 -0.18143645
000250 9f 18 94 be 2a 1b 11 be b4 ae 7c 3e f4 e2 7b bc
       -0.28925034 -0.14170519 0.24676019 -0.015373934
000260 04 5f 83 be 25 25 d3 bd 18 b0 a8 3e 49 7a bc be
       -0.2565843 -0.10309819 0.3294685 -0.36812046
000270 8a 2f 65 3e 7e 6e 0f 3d 14 10 60 bd cf 74 f6 3d
       0.22381416 0.035017483 -0.054702833 0.12033998
000280 92 b1 f8 bd e2 df 89 3e 84 ce 73 3e 1e a3 4b be
       -0.12143244 0.26928622 0.23809248 -0.19886443
000290 d3 2a 77 be 6e b6 13 3e b2 a2 b1 3d 10 cc f1 bd
       -0.2413743 0.1442506 0.0867361 -0.118065
0002a0 1d ab 66 3e 06 a1 22 be c7 32 a4 be e9 ea 6f be
       0.22526212 -0.15881738 -0.3206999 -0.23429455
0002b0 57 e2 12 3e 08 c6 fc 3d 3b 87 a5 3e 46 2b 79 3e
       0.14344154 0.12342459 0.32329735 0.24332914
0002c0 92 59 dd 3e b0 56 87 3d a7 51 32 be 09 9f 2e be
       0.432324 0.06608331 -0.1741396 -0.17052855
0002d0 0d 05 87 bd 27 1e 81 bd 19 db 5c bd 83 5e 76 bd
       -0.0659276 -0.06304579 -0.053919885 -0.060148727
0002e0 8e cf b1 3e 28 2b 5a 3e cd 1d f5 3d 55 bf a6 3b
       0.34728664 0.21305525 0.11968575 0.0050887265
0002f0 21 fa 88 be 0f 9a 05 be 31 06 4b be 68 fe bb 3e
       -0.26753333 -0.1304705 -0.1982658 0.36717534
000300 96 a7 55 3d e0 e4 96 3b 2b f1 df 3e d2 63 8a 3e
       0.052161776 0.0046049207 0.43738684 0.27029282
000310 3b 5e 1b 3e 98 4c 1d 3e 52 94 94 3e 34 49 80 3e
       0.15172665 0.1536125 0.2901941 0.2505585
000320 f3 da d6 3e 72 90 87 3e 00 ed 8a 3e a4 a3 b3 3d
       0.4196392 0.2647739 0.27133942 0.08771446
000330 53 05 a6 bd 98 05 be be 25 94 91 3d 78 a2 e0 3e
       -0.08106484 -0.37113643 0.071083345 0.43873954
000340 0e 02 8c 3e fa bf 97 be e5 96 a3 3e a8 e7 5f bd
       0.27345318 -0.29638654 0.3195106 -0.054664284
000350 dd f5 78 3e 5f 52 5a 3e db 13 39 be 80 7a 0e bd
       0.2431254 0.21320485 -0.1807398 -0.034784794
000360 91 d3 ab be 82 12 d5 bd 5a 74 53 be a1 6f 35 bd
       -0.3355985 -0.10403921 -0.20649853 -0.04429591
000370 77 21 94 3e 20 b4 85 bc 1d b4 93 3d 43 1c d8 bd
       0.28931782 -0.016321242 0.07212088 -0.105522655
000380 42 0a 8e bd 41 a7 00 bd 10 31 44 3e 1c 56 a6 be
       -0.0693555 -0.031409506 0.19159341 -0.3248757
000390 f8 43 52 be 97 12 a2 bd dd 6c 02 be f9 5b 96 be
       -0.2053374 -0.07913702 -0.1273684 -0.29367045
0003a0 5e bb 8b 3e a0 4f de 3d 72 61 ab 3e 7e 98 d1 bc
       0.27291387 0.10855031 0.33472782 -0.02558541
0003b0 d8 2b 08 3d 7f 4f 1d 3e d9 c9 ef 3e 74 3a 8e be
       0.033244938 0.15362357 0.46833685 -0.2777897
0003c0 de fc 2b 3e b3 a9 bb be f3 d5 83 3e 51 b5 3d bd
       0.1679568 -0.36652908 0.25749168 -0.046315495
0003d0 93 95 76 be 1e d4 a1 be ac b0 63 be 8a cd 97 3a
       -0.24080496 -0.31607145 -0.22235364 0.0011581641
0003e0 5d 72 13 3e f6 b3 cf 3e f3 44 db 3e 40 bc 89 3e
       0.14399095 0.40566987 0.42826042 0.26901436
0003f0 be ba a4 be d3 4f 7f be f1 74 73 be b3 a5 a3 be
       -0.32173723 -0.24932794 -0.23775078 -0.31962356

module_list.0.bias f4 [128]
000000 95 40 bd b8 d3 35 ac be f0 15 22 3b 39 7e c1 bc
       -9.0242516e-05 -0.33634815 0.0024732314 -0.023619758
000010 e7 2c 8d bc e2 5f da 3c 78 1a be 3e 9f 86 0f 3e
       -0.017233325 0.026657049 0.3712957 0.14016198
000020 5e ed 53 3e 5e bf 3f 3e 1e 4e 69 3e e3 90 28 be
       0.20696017 0.18725345 0.22783706 -0.1646152
000030 83 f8 86 be 53 59 6b 3d 18 88 af be 10 29 c6 be
       -0.26361474 0.057458233 -0.3428352 -0.38703203
000040 fc de 82 be 0d d8 84 be 30 77 a4 bc 13 3e 96 be
       -0.2556075 -0.25946084 -0.020076364 -0.29344234
000050 f3 62 b0 3d d4 b5 40 bc a6 a5 a6 3e d0 97 8d 3e
       0.08612623 -0.011762101 0.32548255 0.27654886
000060 d0 2f 6d be ba ab a4 be 27 00 1b be 98 e2 7b 3e
       -0.2316277 -0.32162267 -0.15136777 0.24598157
000070 1c 79 bd 3e cc e4 91 3d 93 7f 3d 3c 3e e6 9d 3e
       0.37006462 0.07123718 0.011566061 0.30839723
000080 e5 fd 8b 3d 7e 05 d0 bb 28 e1 81 be a8 3b 86 be
       0.06835536 -0.006348311 -0.25367093 -0.2621739
000090 a4 ab 01 be a7 09 b7 be 96 e2 10 3e 86 42 96 bc
       -0.12663132 -0.35749552 0.14148936 -0.018342268
0000a0 e4 05 c9 be ce 15 9a bd 00 90 18 be e7 8d a4 3e
       -0.39262307 -0.0752369 -0.14898682 0.32139513
0000b0 23 b1 86 3d 9f f1 c2 bc 9d 92 e6 bc f3 d4 37 be
       0.06576755 -0.023796855 -0.028146083 -0.17952327
0000c0 21 fc c8 3e ed 37 f5 bc 65 0d d1 bd c3 29 43 3d
       0.3925486 -0.029933894 -0.10207633 0.04764725
0000d0 02 62 2d be 18 7b 50 3d 7f 92 69 be 21 2a e0 be
       -0.16931918 0.05089864 -0.2280979 -0.43782142
0000e0 32 d1 a6 be da ff a0 be 21 b4 cd bd 68 d0 48 be
       -0.32581478 -0.314452 -0.100441225 -0.1961075
0000f0 a4 15 c2 be 9f 14 90 be 43 0c 7c bd 4e 1e f5 3d
       -0.37907135 -0.28140733 -0.06153513 0.11968671
000100 1f 20 52 be 71 1c ad 3e 58 96 2a 3e ba f6 81 be
       -0.20520066 0.33810762 0.16658914 -0.2538355
000110 60 4a ab be dc 1b 7a be 0a c4 c4 3e ae 08 d0 3e
       -0.3345518 -0.2442469 0.38430816 0.40631622
000120 63 ff ca be 0f 79 90 be 66 f4 1e 3e 61 05 2e be
       -0.3964797 -0.2821736 0.15522918 -0.1699424
000130 d1 59 64 3e 45 90 59 3d af b1 a0 be 30 a7 4f 3e
       0.22299887 0.0531161 -0.31385562 0.2027862
000140 68 25 3f 3e 6f 1b 3c 3c e5 14 99 3e 5e b1 95 be
       0.18666613 0.01148115 0.29898754 -0.29236883
000150 23 ea 08 3e a3 ad 9b be 5e 34 97 3e 5d 2a ac 3c
       0.13370566 -0.30405912 0.2953214 0.021016294
000160 6b 4e af 3e dc bd 4e 3e e3 5c bc 3e 79 8b 45 be
       0.34239516 0.20189613 0.36789617 -0.19291486
000170 c5 53 a7 be 75 e8 59 be 6b fb 5b be a1 b5 6a 3e
       -0.326811 -0.21280082 -0.21482627 0.22920848
000180 53 65 e7 3e a4 31 b8 3e 46 5f ac 3d 8a 06 d4 bd
       0.45194492 0.35975373 0.084166095 -0.1035281
000190 cb cf 85 3e 40 37 09 3e c6 cc 80 3c f9 d0 69 be
       0.26135096 0.13399982 0.015722644 -0.22833623
0001a0 07 f8 49 3e 4a 94 8c 3d ed 21 5b 3e d2 d0 a6 3e
       0.19723521 0.068642214 0.2139966 0.32581192
0001b0 92 61 be 3c 08 75 74 be bb 5c 91 3e 24 79 83 3e
       0.023239885 -0.23872769 0.2839106 0.2567836
0001c0 87 8b 74 bd 31 95 5d be 2e 7a bf 3d aa 78 24 bd
       -0.059703376 -0.21638943 0.09349476 -0.040154137
0001d0 86 c1 45 3e da 03 61 3e d8 37 3a 3e 8a d8 a5 be
       0.19312105 0.21974126 0.18185365 -0.3239177
0001e0 40 12 cb bd b4 5b 8d 3e 5f 4e 36 3e b9 df 8e 3e
       -0.0991559 0.27609026 0.17803334 0.27905062
0001f0 cc b5 17 3d c0 d9 5b bd a2 cf 89 3e 9c b6 02 be
       0.03703861 -0.05367446 0.26916224 -0.12764972

module_list.1.0.weight f4 [64, 128]
000000 39 7a 7a 3d 49 b1 66 3d 94 0a 9d 3d d7 d3 6a bc
       0.061151717 0.056321416 0.07668033 -0.014332733
000010 52 87 73 3d bb 8c 44 bb ed 7b 4f 3d e1 e6 8a 3d
       0.059455223 -0.0029991108 0.050655294 0.06782318
000020 58 ba a4 bd 38 96 6d 3d ab 14 25 bc f8 65 19 3d
       -0.08043355 0.058004588 -0.010075728 0.03745076
000030 e4 04 b9 3c b2 34 a7 3c f4 ac 92 3d d6 58 ca 3c
       0.02258534 0.02041087 0.071618944 0.024700563
000040 03 0d 54 3d 2e f5 ab 3d 80 a1 12 bd c5 0c 61 3d
       0.05177022 0.08396374 -0.03579855 0.05494382
000050 e9 10 e0 bb 9f 71 c4 3b ee a2 0b 3d d0 87 ef bc
       -0.0068379533 0.00599499 0.03409093 -0.029239565
000060 a4 3d 72 3d f0 c1 77 3d 8d 77 a9 3a c0 5c cf 3c
       0.059140816 0.060487688 0.0012929306 0.025312781
000070 b5 f0 6c bd 93 53 68 3d 82 59 2c bc ff 25 3d 3c
       -0.057846744 0.056720328 -0.010519387 0.0115447035
000080 61 d6 0c bd cf b6 80 bd 10 02 ae 3d 8c 22 c2 3d
       -0.034384135 -0.06284868 0.08496487 0.094792455
000090 80 f5 6b bd fd 44 ca 3d 92 41 34 3d 1a e6 6f 3d
       -0.057607174 0.0987644 0.044007845 0.05856905
0000a0 63 a6 30 3d 15 0f 75 3d 02 86 4c 3d 63 9d 36 bc
       0.04312743 0.059828836 0.049932487 -0.011145922
0000b0 0f 48 f9 bc 7f e9 ab 3d 0b 3c 94 3d 91 36 b0 3d
       -0.030429868 0.08394145 0.07238015 0.08604158
0000c0 63 04 57 3d c1 17 94 bd 65 a0 4f bb 28 2c 79 bd
       0.052494418 -0.07231093 -0.0031681296 -0.060833126
0000d0 2b fc 8e bd cd 12 ce 3c 8a 37 74 3d 40 ba 82 bc
       -0.06981691 0.02515545 0.05962328 -0.015957952
0000e0 c1 2a e2 bc eb 35 e4 bc f0 71 0b 3c 5e 01 be 3b
       -0.027608277 -0.027857741 0.008511052 0.005798503
0000f0 dc a0 83 bd 5d 59 ae bd cd 0d 62 3c 0f d2 84 3c
       -0.06427166 -0.085131384 0.013797236 0.016213445
000100 2f 67 12 3d f4 07 23 bc 58 d1 41 3d 79 e4 a4 bc
       0.035742935 -0.009950627 0.047318786 -0.020128476
000110 40 8e ce bc 95 d9 a5 3c 96 db 8a bd b3 29 34 3d
       -0.025214314 0.020245353 -0.06780164 0.04398508
000120 da 8a f2 bb bf 4e cb 3d 60 e9 e4 bd ee 25 8a bc
       -0.0074018063 0.09927129 -0.11177325 -0.01686379
000130 01 7d ca 3c 2b 77 7f bd aa 1f 65 3d 3b a9 1e 3d
       0.02471781 -0.062369507 0.0559384 0.03873561
000140 cc 0a 8a 3d 42 df 6e 3d 43 9b 71 3c cb 73 0c bc
       0.067403406 0.058318384 0.01474649 -0.008572529
000150 77 82 ac bd e7 86 26 3d e4 3a c1 bc 5a 85 56 3d
       -0.08423322 0.040655997 -0.023587652 0.052373268
000160 31 a4 f8 bb 8d d1 1e 3b c3 b2 50 bd 69 26 59 bd
       -0.0075879325 0.0024233789 -0.05095173 -0.053015146
000170 dd 69 ea 3c 71 15 5d bd 19 a4 fc bc 24 59 f2 3c
       0.028614933 -0.053975526 -0.030839967 0.029583521
000180 00 af 8d 3d 8f bf 60 bd 17 61 0c bc 5c 3f 87 3d
       0.06918144 -0.054870185 -0.00856807 0.06603882
000190 3a cb 5e 3d 57 7c 09 bd 9c 68 11 bd ae db 80 bd
       0.05439303 -0.033565845 -0.035500154 -0.062919006
0001a0 ed 80 fe 3c 88 40 50 3d 1b f4 7f bd ff 1a 43 bd
       0.031067336 0.05084279 -0.062488656 -0.047633167
0001b0 8d dc 06 3d 6a de a6 bd 58 89 da bb c6 1a 35 3d
       0.032925177 -0.08147891 -0.0066692047 0.044214986
0001c0 e1 eb 5c bd f8 4e 47 3c 32 71 9f bd d3 66 93 bb
       -0.05393589 0.012164824 -0.07785262 -0.0044983416
0001d0 76 90 91 3d 65 67 9d bd e2 cc 16 3d 07 c2 aa 3d
       0.07107632 -0.076857366 0.036816485 0.08337789
0001e0 bd 27 06 bd 26 3f e3 3c d3 df da bc aa 17 8b 3d
       -0.03275274 0.027740072 -0.026718056 0.06791623
0001f0 e0 30 15 bd 2f 97 08 3d da aa a4 bd c8 b6 4f bd
       -0.036423564 0.033347305 -0.080404 -0.050711423
000200 d0 c8 22 bd a6 3f 96 bd 49 0b ca bd 03 b3 82 3d
       -0.03974229 -0.07336359 -0.09865434 0.063818
000210 9f 9b 34 bd 36 81 bc bd a6 0b 93 bd 27 b2 9e bc
       -0.044093724 -0.092043325 -0.07179956 -0.019372059
000220 60 c4 63 bd 03 a5 b0 bc d9 2a 8c 3d 14 6c 32 3d
       -0.0556072 -0.021563059 0.0684411 0.043560103
000230 a3 25 52 bc 88 68 69 3d 60 db 41 bd 71 e9 8d 3c
       -0.012826356 0.056984454 -0.047328353 0.017323228
000240 a8 20 f1 3c 86 e1 11 3d cc 0b a2 bc 53 be 83 3d
       0.029434517 0.035615467 -0.019781016 0.06432786
000250 d4 5b 60 bd 75 e5 b1 bd 7d 23 38 bd 8f 8d e4 3d
       -0.054775074 -0.086863436 -0.04495572 0.11159813
000260 71 e1 76 bd c2 11 47 3c c9 49 6a 3c 57 0e e7 bb
       -0.06027359 0.01215023 0.014299818 -0.00705127
000270 78 90 b6 bc 5f 49 0a bc 44 52 24 37 07 86 02 3d
       -0.022285685 -0.008440345 9.794316e-06 0.0318661
000280 39 fe 88 bd 73 73 33 3d cf 26 16 bd 72 c1 9e bd
       -0.06689114 0.043811273 -0.036658105 -0.077517405
000290 e3 92 89 3d 99 76 e6 3c 80 1b c7 3b 80 21 86 bd
       0.067174695 0.028132724 0.0060762763 -0.06549358
0002a0 bf 72 c1 bd 44 3c 69 3d af 19 89 3d 07 aa 92 bd
       -0.09445714 0.05694224 0.06694352 -0.071613364
0002b0 74 f7 4f bc c1 5a 0d bc 17 f0 e3 bd 6c 90 ba bc
       -0.012693275 -0.008627594 -0.11129778 -0.022773944
0002c0 33 a3 15 bb 93 8b 97 bd 3e 3a 80 3c ee e3 c0 bc
       -0.002283287 -0.073996685 0.015652772 -0.023546185
0002d0 c3 25 65 3d 3c 20 fa bd 80 62 95 3d 8b 4a a5 bd
       0.055944216 -0.122131795 0.07294178 -0.080708586
0002e0 63 79 91 3d fc 85 6f 3d b2 c6 02 3d 67 00 5d 3d
       0.07103231 0.058477387 0.031927772 0.05395546
0002f0 0a 99 bd 3c ae 5a d4 3d 02 be c0 3d 24 7a 60 bd
       0.023144264 0.10368858 0.09411241 -0.054803982
000300 b4 a4 9d bd 8d ee 49 bd a2 ff 0a 3d 5a 18 64 3d
       -0.0769743 -0.049299765 0.033935197 0.055687286
000310 a3 39 e7 3b 99 b5 5a bd ee 47 3e bd 0c 3e fc ba
       0.0070564314 -0.05339584 -0.046455316 -0.0019244566
000320 28 dd 32 3d 9d 1c 0d bc 0f 70 19 3d a4 89 8d bd
       0.043667942 -0.008612779 0.037460383 -0.069110185
000330 a9 10 3a bd 9c b5 1f 3c 28 f6 f5 bc 7b 8b b3 bc
       -0.045426045 0.009747889 -0.030024603 -0.021917095
000340 0b 41 90 bd 95 01 7e 3d a2 a5 86 3d 56 15 57 bc
       -0.07043656 0.062013227 0.06574561 -0.0131276455
000350 b2 71 28 3d 54 b4 d2 bd 66 c5 f5 3c 62 05 fb bc
       0.041124053 -0.10288301 0.030001353 -0.030642215
000360 5b 48 b7 3c 7e 0e b2 3d 67 e2 02 3d cb 8a 3c bd
       0.022373369 0.086941704 0.031954195 -0.0460308
000370 7b f0 cd bc 81 35 95 bd f8 1f 16 3d 4e f4 b5 3d
       -0.025139084 -0.07285596 0.03665158 0.08884488
000380 61 ef a2 3d 24 ab c9 3c c1 70 56 bd 8f 38 ae 3d
       0.07955814 0.024617739 -0.052353624 0.085068814
000390 00 be 46 3d ce dd 03 bd 84 43 c7 3c 47 bb 53 bd
       0.048521042 -0.03219395 0.024324186 -0.051692273
0003a0 54 8d e1 3a 60 c3 20 bd 39 da 6d 3d 4a 01 e0 3c
       0.0017208257 -0.039248824 0.05806944 0.027344365
0003b0 39 ba 8d bd 68 49 7c bd 5e 85 27 bd a3 2b bc 3c
       -0.06920285 -0.061593443 -0.040898673 0.022970026
0003c0 49 ec ef 3c 9e eb 9d 3d bc 53 9e bd 30 67 08 bd
       0.029287474 0.07710956 -0.07730815 -0.033301532
0003d0 32 48 4c 3d 72 6f 5b 3c 44 15 90 bc 97 c1 a0 3d
       0.04987354 0.01339327 -0.017588265 0.07849424
0003e0 88 cb a9 bc 28 f8 28 3d c3 dc 94 3b b2 53 c4 bc
       -0.020726934 0.041252285 0.0045429184 -0.02396569
0003f0 7b 5a 1d bd 25 7c 2f bd b9 73 91 bd 86 0d 63 bd
       -0.038416367 -0.042843003 -0.071021505 -0.05543282

module_list.1.0.bias f4 [64]
000000 43 76 db bd d3 3e c2 3d 06 72 de 3d 62 c9 3e 3d
       -0.10715916 0.09484639 0.10861592 0.046578772
000010 3d 5a 85 3c b6 ce ac bc a1 03 ba bd 13 9f b9 3d
       0.01627838 -0.021094661 -0.090827234 0.09063544
000020 c3 ce 80 3c 1d 05 89 bd 2b dd 01 be ed 3f f8 bd
       0.015723592 -0.066904284 -0.12682025 -0.12121568
000030 a5 6c 6b bd 43 53 ac 3c fa ef 26 bd 3a 3a 2c 3d
       -0.05747666 0.021035796 -0.040756203 0.042047717
000040 88 1b 62 3d 5d e6 6c bd d5 97 b9 bd 23 a2 00 be
       0.055202037 -0.05783688 -0.09062163 -0.1256185
000050 9e 01 59 bc 24 12 37 bd b3 16 08 bd 38 5e c0 bd
       -0.0132450145 -0.044695035 -0.033224773 -0.09392971
000060 4f f4 73 bd 15 cd 3e bd fa b4 c7 bd e3 06 83 bd
       -0.059559163 -0.0465823 -0.097513154 -0.06397798
000070 d4 e0 9d 3c a0 75 37 bd 09 40 63 3c 16 cd 13 bb
       0.019272245 -0.04478991 0.013870248 -0.002255266
000080 95 73 9f 3d eb 9a 1e bd 6e d2 a1 3c 58 b8 41 3c
       0.077857174 -0.03872196 0.019753661 0.011823736
000090 91 61 0e be 8c 1a 34 3d 2e 47 ae bd d5 13 06 bc
       -0.13904406 0.04397063 -0.0850967 -0.008183439
0000a0 1f d2 1c bd 54 c8 04 bc d2 ba 89 bd 51 19 d4 bd
       -0.038286325 -0.008104403 -0.06725086 -0.10356391
0000b0 24 1a 36 bd 2f ec 48 3d b0 35 43 3d 91 db 51 3d
       -0.044458523 0.049053367 0.047658622 0.051234785
0000c0 a4 1b a3 bd 71 0f 48 3c 7d 0e e9 bc f4 81 8f 3c
       -0.079642564 0.012210713 -0.028449291 0.017518021
0000d0 a5 0d 48 3c 1a 2f 17 bd 59 ce 10 bd 06 4d 7a 3c
       0.012210284 -0.036910154 -0.03535304 0.015277153
0000e0 02 68 23 be 6f b5 64 bd 6b e1 80 3d dc 00 2b 3b
       -0.15957645 -0.05583709 0.06292995 0.0026093042
0000f0 1c 56 42 bd 81 74 79 bd 99 74 32 bd 97 9b ea bd
       -0.0474454 -0.060902122 -0.043568227 -0.11455458

module_list.2.weight f4 [1, 64]
000000 01 78 3c 3b b7 25 1a 3d a5 31 d2 3d 46 c9 36 3d
       0.0028758051 0.037633624 0.10263375 0.044625543
000010 c1 d0 90 3d a0 ce 8c bc 19 5a 70 bd 00 93 c0 3d
       0.07071067 -0.01718837 -0.058679674 0.09403038
000020 1e 3b cd 3c d8 3e f7 ba 21 45 0d bd 4a cb 1f 3d
       0.025052603 -0.0018863333 -0.034489755 0.03901223
000030 1f 7f 2b 3c 4b 8f f0 ba 41 1f f5 3c 0d fb e3 ba
       0.01046732 -0.0018353252 0.02992213 -0.0017393545
000040 23 e7 53 bd 84 57 67 3b a0 6b c4 3c a1 47 3d bd
       -0.0517341 0.0035299966 0.0239771 -0.04621089
000050 a4 a6 56 3a 3d 4d f2 3c 72 9b ba bd e8 61 93 bc
       0.00081882835 0.029577846 -0.0911168 -0.017991021
000060 87 d4 60 bc 87 b6 ab 3d e8 82 53 bd ed b6 d4 bd
       -0.0137225455 0.08384424 -0.051638514 -0.10386453
000070 b3 3d 45 3a 49 82 5f 3c 1d ac 84 b9 38 7b f6 3c
       0.00075241475 0.013641902 -0.00025305236 0.030088052
000080 4f 94 a5 3d 65 9c 69 bd 64 dc 3e bd e7 4b b9 3c
       0.08084928 -0.057033915 -0.0465969 0.0226192
000090 be 91 2b 3d f1 2c fe bc b8 72 d6 bd 4f 9e 3c bb
       0.041887037 -0.03102729 -0.104710996 -0.0028780883
0000a0 18 82 53 bc 6f 62 b8 3c 23 64 3d bd 35 c1 a4 ba
       -0.012909435 0.022507874 -0.046238076 -0.0012569787
0000b0 cf 8f 88 bd d3 28 79 3d db f1 4d 3c a7 ec f8 3c
       -0.06668054 0.06082995 0.01256987 0.030386282
0000c0 ec 2b cb bd db a2 92 3d c0 a9 2c bb c2 a5 25 3d
       -0.09920487 0.071599685 -0.0026346296 0.040441282
0000d0 19 5b 43 3b eb 5f aa bc dd e1 cf bb 72 4a 6f 3d
       0.0029808937 -0.02079769 -0.0063440637 0.058420606
0000e0 11 a2 75 bd 97 b2 81 bd b1 cf 0f 3d d2 fb 6a bb
       -0.05996901 -0.063328914 0.03511018 -0.0035855663
0000f0 6a b8 f3 3b 45 12 c8 bc 33 8d 81 bc 35 a4 40 3c
       0.0074377554 -0.024422774 -0.0158144 0.0117579
