saved_models_MLP/exp-ib3-bcc-eform/mlp_eform_bcc_ratio1_seed4_epoch300.pt (torch, 38935 bytes, 5 tensors)

module_list.0.weight f4 [128, 6]
-0.01501825 0.08487063 -0.4029878 0.18861383 -0.023714386 -0.15441501 -0.202882 -0.2807326
0.392741 0.04767373 0.39312437 0.33056492 -0.17256136 0.15629064 -0.07968816 0.11234578
0.2750401 0.1862759 -0.037426468 -0.38421884 0.27335897 0.14109766 0.13572676 -0.015340507
0.3676614 0.011449843 -0.23026621 -0.42936072 -0.42499548 -0.034038752 -0.19015794 0.37712044
0.30617765 0.056605376 0.0997114 -0.130907 -0.29467776 0.35933542 0.07341117 -0.20386969
-0.21143812 -0.3491693 0.30070555 0.31028837 0.27146807 -0.039948188 -0.27769747 -0.06150818
0.24406235 0.16143835 0.0012996842 -0.105263926 -0.30370954 -0.37947103 0.35684383 0.32826182
0.19912817 -0.40975246 -0.20676212 -0.19898765 -0.06639507 0.098944075 -0.30191928 -0.20312087
0.04140441 -0.0043409467 0.004617408 0.2158325 -0.37500495 0.18865913 0.31993875 0.31189436
-0.023574317 0.31225055 -0.18685022 0.07024725 0.21013863 0.062028944 0.3344548 0.01435027
0.30624294 0.32600293 -0.3171789 -0.066477746 0.14225586 0.14052807 0.29736686 0.022110956
0.41794595 -0.20524874 0.020467099 0.05878614 0.370735 0.28503773 0.13025351 -0.23045985
-0.0254233 -0.06348738 0.30063158 -0.0744326 0.32367092 0.105798185 -0.1678398 -0.3479726
0.05580344 -4.6671987e-05 -0.12100137 0.2951771 0.16473809 0.24507517 -0.16626228 0.2649362
0.124002 -0.18203571 -0.29684234 -0.115914114 -0.43779293 -0.3475348 0.26996624 -0.28928208
-0.29283848 -0.05077096 0.36264935 -0.18896914 0.2891359 0.28331453 0.16350964 -0.0338111
0.25783786 -0.22402863 0.3094047 0.3472467 0.06628923 0.02869983 0.043898858 -0.39252922
0.08537916 -0.18860064 0.10701757 0.36082596 0.031833105 0.43661693 -0.37034598 -0.36722398
0.026411645 -0.044342898 -0.10895118 -0.26362863 -0.100855045 -0.07263124 -0.10161956 0.099726655
0.10872864 0.0651991 0.47160223 0.36847693 -0.40102854 -0.13669144 0.29018354 -0.26932785
-0.2570484 0.057510078 -0.106550306 -0.10599113 0.40485555 0.5143963 -0.39124557 0.26785624
-0.10822394 -0.031243473 0.13353111 -0.24308413 -0.44630975 -0.09983489 -0.23237619 0.028063955
-0.3336995 0.33199534 0.17346336 0.23414421 0.2323068 -0.35247883 0.3869138 0.3351294
0.030631684 0.1735509 0.060518354 -0.3647501 0.3366739 0.16187173 0.3418452 0.03431973
0.18669212 -0.0033905795 -0.020393236 -0.025015116 -0.3336474 -0.36063662 -0.027381085 -0.12792791
0.29351056 -0.31487483 0.37143457 -0.38749194 -0.16504917 -0.18109919 -0.15892115 0.06309598
0.39783353 -0.28988087 -0.022658288 0.2846403 -0.3397086 0.15732686 -0.27816635 0.054658055
0.36092907 -0.29421 0.0499156 -0.26079974 -0.22598478 -0.11569169 -0.30466256 0.0030761391
0.013062124 0.11307537 0.40606266 -0.32426503 0.28772184 0.3122657 -0.29191124 0.24287438
-0.22759597 -0.22298032 0.08618559 -0.023410263 0.34406686 -0.15500832 0.041406848 -0.099918395
0.19129597 0.25881067 -0.22768866 -0.035162795 -0.3448198 -0.052285194 -0.21171993 -0.14281654
0.13143517 0.22885782 0.1988861 0.18907493 0.3781383 -0.11149044 -0.25904536 -0.30051
00000000: 1b0f 76bc a7d0 ad3d 6b54 cebe fc23 413e
00000010: ac44 c2bc f81e 1ebe 4dc0 4fbe 2fbc 8fbe
00000020: 5915 c93e 8745 433d 9947 c93e ce3f a93e
00000030: edb3 30be a70a 203e 8c33 a3bd 8b15 e63d
00000040: 0ed2 8c3e 1cbf 3e3e 7f4c 19bd 55b8 c4be
00000050: b5f5 8b3e e87b 103e f5fb 0a3e c056 7bbc
00000060: 1d3e bc3e 1f98 3b3c e8ca 6bbe 2bd5 dbbe
00000070: 0299 d9be 386c 0bbd c3b8 42be ee15 c13e
00000080: 51c3 9c3e 0adb 673d 7e35 cc3d 7c0c 06be
00000090: 01e0 96be d0fa b73e 9858 963d 37c3 50be
000000a0: 3c83 58be 52c6 b2be 14f6 993e 1ede 9e3e
000000b0: ddfd 8a3e b6a0 23bd 5d2e 8ebe 00f0 7bbd
000000c0: 7beb 793e 1850 253e 2a5a aa3a 9d94 d7bd
000000d0: d17f 9bbe 074a c2be 3cb4 b63e ef11 a83e
000000e0: 41e8 4b3e 13cb d1be 73b9 53be 6bc3 4bbe
000000f0: 23fa 87bd 31a3 ca3d 2a95 9abe ebfe 4fbe
00000100: ac97 293d 803e 8ebb a04d 973b 3203 5d3e
00000110: a600 c0be dc2f 413e 03cf a33e 9eb0 9f3e
00000120: ed1e c1bc 4edf 9f3e aa55 3fbe cadd 8f3d
00000130: 952e 573e 1012 7e3d a93d ab3e 651d 6b3c
00000140: e0cb 9c3e dbe9 a63e 4665 a2be 7c25 88bd
00000150: 85ab 113e 97e6 0f3e 7840 983e 0922 b53c
00000160: 03fd d53e ba2c 52be 9eaa a73c bcc9 703d
00000170: fad0 bd3e 77f0 913e 2d61 053e abfd 6bbe
00000180: 8644 d0bc ac05 82bd 62ec 993e 1e70 98bd
00000190: 32b8 a53e b8ac d83d 32de 2bbe 7729 b2be
000001a0: 2692 643d aac1 43b8 91cf f7bd 7421 973e
000001b0: 1ab1 283e fcf4 7a3e a940 2abe b8a5 873e
000001c0: c3f4 fd3d 9267 3abe b8fb 97be 6164 edbd
000001d0: 6526 e0be 15f0 b1be 0439 8a3e c81c 94be
000001e0: edee 95be 36f5 4fbd 2dad b93e 2081 41be
000001f0: 9f09 943e 9a0e 913e 126f 273e 827d 0abd
00000200: 5303 843e c367 65be 4b6a 9e3e 52ca b13e
00000210: a6c2 873d e81b eb3c 4acf 333d 97f9 c8be
00000220: 45db ae3d 8720 41be 072c db3d 2ebe b83e
00000230: 6e63 023d 418c df3e fd9d bdbe c804 bcbe
00000240: 3c5d d83c e6a0 35bd cc21 dfbd 55fa 86be
00000250: 178d cebd b0bf 94bd ea1d d0bd 7d3d cc3d
00000260: 1fad de3d 1b87 853d d975 f13e 02a9 bc3e
00000270: 9d53 cdbe d7f8 0bbe f092 943e 57e5 89be
00000280: d99b 83be b08f 6b3d 0c37 dabd e111 d9bd
00000290: 3a49 cf3e 7aaf 033f 5751 c8be 7424 893e
000002a0: 83a4 ddbd 50f2 ffbc 61bc 083e 0ceb 78be
000002b0: b682 e4be 3c76 ccbd 06f4 6dbe 61e6 e53c
000002c0: a9da aabe 4bfb a93e 61a0 313e 80c3 6f3e
000002d0: d5e1 6d3e 1b78 b4be 9119 c63e 1596 ab3e
000002e0: 4cef fa3c 54b7 313e 18e2 773d 86c0 babe
000002f0: 8560 ac3e b4c1 253e 5606 af3e d892 0c3d
00000300: 382c 3f3e 7c34 5ebb b70f a7bc 80ec ccbc
00000310: d5d3 aabe 5da5 b8be 4c4e e0bc 89ff 02be
00000320: 0447 963e 4637 a1be ac2c be3e 5865 c6be
00000330: a602 29be 1172 39be 3abc 22be 7738 813d
00000340: d6b0 cb3e 446b 94be e09d b9bc 60bc 913e
00000350: 49ee adbe 4b1a 213e d26b 8ebe 20e1 5f3d
00000360: b2cb b83e b1a2 96be 4d74 4c3d 8b87 85be
00000370: 8e68 67be c4ef ecbd bbfc 9bbe 0d99 493b
00000380: 8502 563c 0f94 e73d 72e7 cf3e 1106 a6be
00000390: 4750 933e 4ae1 9f3e 6475 95be 10b4 783e
000003a0: eb0e 69be f454 64be 1282 b03d e1c6 bfbc
000003b0: 8829 b03e 80ba 1ebe 3a9a 293d 04a2 ccbd
000003c0: 17e3 433e d582 843e 3727 69be dd06 10bd
000003d0: 398c b0be 0029 56bd 1ccd 58be 803e 12be
000003e0: f196 063e b459 6a3e cca8 4b3e dc9c 413e
000003f0: 589b c13e 1a55 e4bd 98a1 84be 72dc 99be

module_list.0.bias f4 [128]
-0.06704695 0.14531852 0.16562338 0.33707893 -0.30070925 -0.30725718 -0.10259663 0.35946986
0.1446911 -0.08107855 0.09063792 0.06504216 -0.14762464 -0.1834101 -0.310923 0.35926643
0.33034024 -0.23516434 0.2477608 -0.17444605 -0.40648007 0.03051046 -0.05253639 -0.100866176
-0.2968491 0.1352335 -0.3598284 0.38196233 0.046026558 0.020860732 -0.2849165 0.3489808
-0.3332325 0.1924305 0.14184755 -0.11754805 0.28496143 -0.00021183962 -0.026854951 0.31605878
0.057885468 -0.2574916 0.29927367 -0.26223743 0.06252831 0.10100462 0.2346823 0.04043306
-0.039632436 -0.08688691 -0.20197819 0.35739866 -0.21014264 -0.27138045 -0.37708694 -0.061392628
-0.32552934 -0.26122946 -0.30864295 0.29718444 0.060203563 0.027413879 -0.043510363 -0.083111666
0.11163148 -0.34535465 0.16490579 -0.32914385 0.12841304 0.018733261 -0.3365754 0.31152084
0.29478014 0.20817178 0.33513448 0.11418937 -0.03276998 0.12018873 -0.023993164 0.25803295
0.34269068 0.09162994 0.18393134 0.3179036 -0.20633359 -0.28100383 0.16874921 -0.3243242
-0.33538365 0.31194907 0.18816395 -0.055567842 -0.22377662 0.16263378 -0.22241257 -0.18966757
-0.03293687 -0.22129619 -0.29012233 -0.26823485 0.03801271 -0.049932286 0.16866258 0.1503353
0.34217212 -0.12588413 -0.24773972 0.08114048 0.11608845 -0.22970814 0.023188438 -0.19262274
-0.01861043 -0.060532838 0.13674147 -0.030598005 -0.05472476 0.31310537 0.23230435 -0.12736554
0.2926207 -0.3568701 0.32601917 0.004526579 0.05725363 -0.11030173 -0.03784122 -0.1057011
00000000: e94f 89bd 61ce 143e 2d99 293e 9c95 ac3e
00000010: 90f6 99be d050 9dbe 2f1e d2bd 6f0c b83e
00000020: e729 143e 830c a6bd 60a0 b93d d334 853d
00000030: ea2a 17be dbcf 3bbe 4d31 9fbe c5f1 b73e
00000040: 5b22 a93e ecce 70be 02b5 7d3e fca1 32be
00000050: 281e d0be 12f1 f93c 6630 57bd ed92 cebd
00000060: 9bfc 97be a77a 0a3e 6e3b b8be 9190 c33e
00000070: 5886 3c3d 20e4 aa3c 93e0 91be 9dad b23e
00000080: 739d aabe 800c 453e 7c40 113e 08bd f0bd
00000090: 77e6 913e 4421 5eb9 eafe dbbc 75d2 a13e
000000a0: 5019 6d3d f0d5 83be 663a 993e fc43 86be
000000b0: d80e 803d 83db ce3d 8f50 703e 239d 253d
000000c0: 9f55 22bd c4f1 b1bd 5fd3 4ebe f5fc b63e
000000d0: a22f 57be 61f2 8abe 8a11 c1be d676 7bbd
000000e0: c8ab a6be debf 85be 7306 9ebe 8f28 983e
000000f0: 0398 763d 1293 e03c ec37 32bd 7336 aabd
00000100: 0c9f e43d 53d2 b0be 10dd 283e 8b85 a8be
00000110: b57e 033e 7f76 993c 9c53 acbe a97f 9f3e
00000120: 6ced 963e fc2a 553e bf96 ab3e 1edc e93d
00000130: d139 06bd 8225 f63d 508d c4bc e51c 843e
00000140: 2775 af3e 7aa8 bb3d 7f58 3c3e 43c4 a23e
00000150: 1d49 53be bcdf 8fbe 98cc 2c3e d20d a6be
00000160: 68b7 abbe cab7 9f3e 0dae 403e 1b9b 63bd
00000170: b325 65be 7889 263e 1fc0 63be 3738 42be
00000180: d0e8 06bd 789b 62be ea8a 94be 1456 89be
00000190: 37b3 1b3d cc85 4cbd e2b5 2c3e 7ff1 193e
000001a0: 2f31 af3e c5e7 00be 7baf 7dbe fb2c a63d
000001b0: c8bf ed3d 9c38 6bbe aef5 bd3c e53e 45be
000001c0: e774 98bc 48f1 77bd f505 0c3e aba8 fabc
000001d0: 1227 60bd 594f a03e 31e1 6d3e 1d6c 02be
000001e0: 61d2 953e aeb7 b6be fceb a63e b253 943b
000001f0: c882 6a3d e0e5 e1bd 65ff 1abd d179 d8bd

module_list.1.0.weight f4 [64, 128]
0.08264756 0.004368274 0.05275328 0.072177336 -0.031546105 0.054022115 0.052483033 -0.03990202
0.02154984 -0.040447783 0.063128114 0.09155216 0.09060833 0.038640667 -0.0721339 -0.07232403
0.0689633 -0.013796326 -0.065306365 -0.011826594 0.037208617 -0.03954601 -0.03290142 0.09154299
-0.037822273 0.037548415 0.10035049 -0.03189245 -0.0474406 0.0952619 -0.008929617 0.0045542037
-0.08502139 0.06890828 -0.063064665 0.008255685 -0.03399032 0.098827705 -0.051701922 -0.022577286
-0.075971216 0.12977658 -0.0719976 -0.0030356494 -0.05756255 0.009683197 -0.029495044 0.019095344
-0.06944803 -0.035743456 0.006356917 -0.029287515 0.12372224 -0.022903299 0.056544986 -0.05228744
-0.050115872 -0.06786066 0.06711334 -0.07416423 -0.023489777 0.106413975 0.024897177 0.06323295
-0.11556835 0.017690327 -0.04906785 0.038901914 -0.06735689 -0.05667269 0.11288895 0.056945533
0.03827033 -0.024112847 0.07230168 0.09164466 0.003878704 -0.014943754 0.11034886 -0.06433827
0.07615487 -0.048315633 -0.044451404 -0.05827069 0.033461817 0.08425126 -0.06261878 0.06461981
-0.05343982 0.0215812 0.019120177 0.0359213 -0.041084033 -0.06311128 -0.05641742 -0.053145267
-0.06647879 0.057803907 0.047782417 0.0237633 -0.0010089325 -0.024750225 -0.12019052 -0.019656846
0.022346279 0.052367073 -0.07596025 -0.027709773 -0.073554166 0.034864187 -0.10075139 -0.0062958053
-0.032858927 -0.033103153 -0.028571196 0.05541864 0.04889181 0.06185769 -0.055778984 0.028830606
0.086516745 0.06262864 -0.016844986 -0.016059276 -0.059043754 -0.079511 -0.057212178 -0.03628326
-0.10250611 -0.0053261803 0.044186275 0.04389961 -0.09774158 0.04508106 0.08674682 -0.04558238
-0.08031302 -0.034713898 -0.058197245 0.03175079 -0.018795952 -0.0025931266 0.059552312 0.0032889277
-0.06290765 0.08409381 -0.030576777 -0.09056817 -0.007927416 -0.009642149 0.05189721 0.053282637
-0.035705134 0.10053109 0.029367689 -0.06401312 0.056732927 -0.018717987 -0.002621673 0.078916125
0.048744846 -0.020259587 -0.022322642 0.044134427 -0.0017003367 0.025346657 -0.07107497 -0.0061710724
-0.021439847 0.025478687 -0.09714787 0.06782306 -0.06476342 0.037826765 0.039496183 0.007890535
0.022809442 -0.021287132 0.038933095 0.02135569 0.010969871 0.0040468257 -0.014111331 -0.10009491
0.051525008 -0.0841502 0.06231106 -0.06351879 -0.09547991 0.09771796 0.020142863 -0.025861206
0.042945158 -0.08368282 -0.12653124 -0.042015817 0.022364957 0.049330343 0.028922305 0.052088913
-0.07480049 -0.0069357613 -0.09342745 0.10466588 0.09608964 -0.08079628 -0.035817552 0.057364695
-0.0007496104 0.058040697 -0.12790026 -0.061415575 0.057338882 -0.056283407 -0.069195725 0.09644797
-0.04060254 -0.009481736 0.0721064 -0.015424035 -0.04169501 -0.007266378 0.0700283 0.10563558
-0.078219205 -0.097652 0.03765218 -0.08893215 0.07619065 0.018775519 -0.09960661 0.056494255
-0.014282815 0.053235058 0.018200615 0.046947397 -0.040850084 0.08198718 0.01643175 0.023920506
0.0903104 0.10735333 0.05063945 0.06096384 -0.08260126 0.02453891 0.028079813 0.029808285
-0.016260132 0.089879654 -0.05050717 0.094696686 -0.014800756 -0.08493442 0.003612567 0.03694974
00000000: 2043 a93d bd23 8f3b d313 583d b6d1 933d
00000010: 7d36 01bd 4b46 5d3d 73f8 563d 4d70 23bd
00000020: 4a89 b03c 93ac 25bd 5049 813d b37f bb3d
00000030: dc90 b93d ad45 1e3d f0ba 93bd 9f1e 94bd
00000040: a13c 8d3d fc09 62bc 58bf 85bd 55c4 41bc
00000050: 1068 183d fffa 21bd a4c3 06bd e47a bb3d
00000060: 87eb 1abd 5ecc 193d 8f84 cd3d a8a1 02bd
00000070: 1351 42bd ac18 c33d 874d 12bc 6e3b 953b
00000080: b21f aebd c91f 8d3d 0c28 81bd da42 073c
00000090: 6f39 0bbd 2e66 ca3d 65c5 53bd 00f4 b8bc
000000a0: cc96 9bbd 27e4 043e 7a73 93bd bff1 46bb
000000b0: b5c6 6bbd 46a6 1e3c 979f f1bc d76d 9c3c
000000c0: c53a 8ebd bb67 12bd af4d d03b 5fec efbc
000000d0: 1662 fd3d b39f bbbc b79b 673d 5b2b 56bd
000000e0: 4d46 4dbd 88fa 8abd b872 893d 6ae3 97bd
000000f0: a26d c0bc 92ef d93d 2af5 cb3c 4780 813d
00000100: 19af ecbd 4eeb 903c 5ffb 48bd 9d57 1f3d
00000110: 69f2 89bd 9f21 68bd 5232 e73d b83f 693d
00000120: 59c1 1c3d 4e88 c5bc e712 943d 32b0 bb3d
00000130: db31 7e3b a6d6 74bc 95fe e13d c8c3 83bd
00000140: 16f7 9b3d 9de6 45bd ad12 36bd 3fad 6ebd
00000150: 420f 093d ed8b ac3d 463e 80bd 6457 843d
00000160: b6e3 5abd 0fcb b03c eba1 9c3c 3722 133d
00000170: bb47 28bd 7d40 81bd f415 67bd daae 59bd
00000180: 0826 88bd cac3 6c3d 7fb7 433d 41ab c23c
00000190: 283e 84ba fcc0 cabc 7326 f6bd 6507 a1bc
000001a0: 8b0f b73c db7e 563d 0c91 9bbd 9bff e2bc
000001b0: 91a3 96bd c0cd 0e3d bf56 cebd 0b4d cebb
000001c0: 1597 06bd 2c97 07bd 240e eabc a8fe 623d
000001d0: c742 483d 7d5e 7d3d 8178 64bd 2a2e ec3c
000001e0: b12f b13d 7243 803d 7ffe 89bc be8e 83bc
000001f0: ddd7 71bd aad6 a2bd 5157 6abd c19d 14bd
00000200: b9ee d1bd 3d87 aebb abfc 343d 14d0 333d
00000210: bd2c c8bd eba6 383d 51a8 b13d 97b4 3abd
00000220: 277b a4bd 2930 0ebd 3c60 6ebd 1e0d 023d
00000230: f8f9 99bc 72f1 29bb 20ed 733d 0d8b 573b
00000240: bad5 80bd 6039 ac3d 267c fabc ce7b b9bd
00000250: fee1 01bc 1bfa 1dbc 2b92 543d e53e 5a3d
00000260: 8c3f 12bd 3ee3 cd3d 8294 f03c 5019 83bd
00000270: c960 683d 7756 99bc 60d0 2bbb c79e a13d
00000280: ada8 473d 6ff7 a5bc f9dd b6bc 4dc6 343d
00000290: d5dd deba cba3 cf3c c18f 91bd b536 cabb
000002a0: 9ea2 afbc aeb8 d03c 76f5 c6bd d1e6 8a3d
000002b0: afa2 84bd 3df0 1a3d c0c6 213d 4d47 013c
000002c0: deda ba3c 5a62 aebc 4f78 1f3d 21f2 ae3c
000002d0: f9ba 333c 3c9b 843b 3633 67bc 8ffe ccbd
000002e0: e30b 533d f156 acbd e239 7f3d 2416 82bd
000002f0: f98a c3bd 5b20 c83d a502 a53c e1da d3bc
00000300: 43e7 2f3d e661 abbd 6891 01be c718 2cbd
00000310: b736 b73c 9d0e 4a3d 78ee ec3c 2f5b 553d
00000320: 0031 99bd 6245 e3bb e456 bfbd 115b d63d
00000330: a5ca c43d 8578 a5bd 6db5 12bd 3ef7 6a3d
00000340: 8181 44ba 15bc 6d3d 49f8 02be e68e 7bbd
00000350: 2ddc 6a3d 6e89 66bd 7db6 8dbd 8386 c53d
00000360: d94e 26bd 4959 1bbc 85ac 933d 17b5 7cbc
00000370: 63c8 2abd cc1a eebb ff6a 8f3d 7857 d83d
00000380: 6431 a0bd c6fd c7bd 2c39 1a3d 0f22 b6bd
00000390: d809 9c3d 1ecf 993c 8dfe cbbd 8566 673d
000003a0: 7802 6abc 010d 5a3d 7519 953c ea4b 403d
000003b0: 6b52 27bd e5e8 a73d e19b 863c f0f4 c33c
000003c0: a9f4 b83d 10dc db3d 506b 4f3d 38b5 793d
000003d0: d92a a9bd d305 c93c a307 e63c 8130 f43c
000003e0: f833 85bc d312 b83d 9be0 4ebd 56f0 c13d
000003f0: df7e 72bc 19f2 adbd d1c0 6c3b 9c58 173d

module_list.1.0.bias f4 [64]
-0.069000036 -0.029692125 -0.043486297 -0.054946158 0.025541537 0.0013011732 0.020995323 -0.011900758
-0.0810723 -0.13945179 -0.05331132 -0.09604758 0.061141554 0.0033311695 -0.08730913 0.050138395
0.055428337 -0.074297495 -0.031687286 -0.043678787 -0.03763565 -0.018617358 -0.0065285424 -0.034205567
0.045338158 -0.002614508 -0.08353933 0.011471384 -0.01839473 0.04604853 -0.096162476 0.005554511
-0.0044279136 0.019695325 0.026004173 0.011219253 -0.014939147 -0.0007170384 -0.0054147174 -0.06702439
-0.05082348 -0.01803104 0.035894353 0.062431484 0.05672844 -0.0049820733 -0.010060707 0.076501265
0.046514295 0.02544045 -0.03629315 -0.03663244 -0.022630023 0.053777732 0.05081447 -0.06964072
0.08110243 0.0116592 0.020778297 0.0077151326 -0.052557293 -0.09801692 0.05016491 0.054374505
00000000: e44f 8dbd e63c f3bc b01e 32bd 390f 61bd
00000010: 7c3c d13c 218c aa3a 62fe ab3c 66fb 42bc
00000020: 3c09 a6bd 73cc 0ebe f85c 5abd 98b4 c4bd
00000030: 916f 7a3d c04f 5a3b 21cf b2bd eb5d 4d3d
00000040: d308 633d 4929 98bd 87ca 01bd 87e8 32bd
00000050: d727 1abd 6e83 98bc 62ed d5bb 231b 0cbd
00000060: 81b4 393d 2a58 2bbb ab16 abbd 79f2 3b3c
00000070: 8bb0 96bc 629d 3c3d d5f0 c4bd 9e02 b63b
00000080: 0818 91bb 1758 a13c b406 d53c f5d0 373c
00000090: 53c3 74bc a2f7 3bba f16d b1bb 1544 89bd
000000a0: 482c 50bd d5b5 93bc f505 133d 28b8 7f3d
000000b0: 155c 683d a940 a3bb aad5 24bc b2ac 9c3d
000000c0: c685 3e3d 7e68 d03c 20a8 14bd e60b 16bd
000000d0: 9962 b9bc 0a46 5c3d d522 503d cb9f 8ebd
000000e0: 0819 a63d 3b06 3f3c 3f37 aa3c 39cf fc3b
000000f0: 5146 57bd 18bd c8bd b879 4d3d cdb7 5e3d

module_list.2.weight f4 [1, 64]
-0.09855405 0.12334622 0.044377327 -0.023482442 0.04903367 -0.022503162 -0.08619287 0.049339134
0.09680238 -0.114245735 -0.055027813 0.04688183 0.1435113 -0.05178979 -0.06253616 -0.059527792
0.06837776 0.004232527 0.03809286 0.08503073 0.0011101665 -0.023568155 -0.089294285 0.08812468
-0.059144754 0.061388697 0.08105685 0.02367314 0.04141141 0.034326077 -0.041227985 0.0028821256
0.078818776 0.093409725 -0.05904688 0.056493033 0.09675103 -0.065691784 -0.059747946 0.014683796
-0.035195824 -0.009434549 -0.059538104 -0.055311732 -0.07304885 -0.02449521 -0.0655158 -0.06776315
0.03762035 0.0878495 0.008761811 -0.039290935 0.073291145 -0.05250408 0.082414374 -0.07299507
0.03847289 0.11699133 4.0456875e-05 0.03864371 -0.07438986 -0.02069717 -0.10443167 0.077602975
00000000: b5d6 c9bd f19c fc3d 00c5 353d 405e c0bc
00000010: 88d7 483d 8d58 b8bc e385 b0bd d517 4a3d
00000020: 5440 c63d abf9 e9bd d864 61bd 2907 403d
00000030: a0f4 123e 8821 54bd f512 80bd 6ad3 73bd
00000040: a409 8c3d 03b1 8a3b 4207 1c3d 9724 ae3d
00000050: 0283 913a 0112 c1bc ecdf b6bd b67a b43d
00000060: c541 72bd b772 7b3d 2201 a63d 2cee c13c
00000070: 039f 293d 8099 0c3d adde 28bd 0be2 3c3b
00000080: bd6b a13d 994d bf3d 24db 71bd 3d65 673d
00000090: 6725 c63d 6a89 86bd 43ba 74bd 4e94 703c
000000a0: 7f29 10bd 5e93 1abc 3ade 73bd 8e8e 62bd
000000b0: a39a 95bd 2eaa c8bc 262d 86bd 68c7 8abd
000000c0: cc17 1a3d 70ea b33d b38d 0f3c 88ef 20bd
000000d0: ab19 963d 850e 57bd dec8 a83d 707e 95bd
000000e0: c095 1d3d 2799 ef3d 3db0 2938 de48 1e3d
000000f0: b659 98bd 1d8d a9bc 45e0 d5bd 4fee 9e3d
