saved_models_MLP/exp-ib3-bcc-eform/mlp_eform_bcc_ratio0.2_seed4_epoch300.pt (torch, 38935 bytes, 5 tensors)

module_list.0.weight f4 [128, 6]
0	0xbbb93eb3	-0.0056532263
1	0x3de6531d	0.11246321
2	0xbebacd0f	-0.36484572
3	0x3d844374	0.06458178
4	0xbd53f73b	-0.05174945
5	0xbe1e1ef8	-0.15441501
6	0xbe6820f5	-0.22668822
7	0xbe9e8ed8	-0.30968356
8	0x3eaf96b3	0.34294662
9	0x3dc8b362	0.097998396
10	0x3e9eeabf	0.31038472
11	0x3ea93fce	0.33056492
12	0xbe309dce	-0.17247698
13	0x3e4b9559	0.1988119
14	0xbd3855dd	-0.04500376
15	0x3e188fa2	0.14898542
16	0x3e510e1c	0.20415539
17	0x3e3ebf1c	0.1862759
18	0xbd1732fc	-0.036913857
19	0xbeca9fc2	-0.3957501
20	0x3e80a0c4	0.25122654
21	0x3dc817b2	0.097701445
22	0x3e22153c	0.15828413
23	0xbc7b56c0	-0.015340507
24	0x3eb8e931	0.3611541
25	0x3d0d6c15	0.034526903
26	0xbe3aeeec	-0.18255204
27	0xbed7f239	-0.4217699
28	0xbeac94ef	-0.33707377
29	0xbd0b6c38	-0.034038752
30	0xbe5626dd	-0.20913263
31	0x3eb09acd	0.34493104
32	0x3e82d0bd	0.2554988
33	0x3d67b496	0.056568705
34	0x3d6a5250	0.057207406
35	0xbe060c7c	-0.130907
36	0xbe9a0e1d	-0.30088893
37	0x3eba031c	0.36330497
38	0x3dc279b6	0.09495871
39	0xbe935d0c	-0.28781927
40	0xbe85f937	-0.26166698
41	0xbeb2c652	-0.3491693
42	0x3ea06416	0.3132636
43	0x3e9b8873	0.3037754
44	0x3e84aced	0.25913182
45	0xbda9a7b9	-0.08283944
46	0xbeb08f6d	-0.34484425
47	0xbd7bf000	-0.06150818
48	0x3e869eea	0.26293117
49	0x3e2d071a	0.1689724
50	0x39c94bb8	0.00038394122
51	0xbd85f71d	-0.06541274
52	0xbea03c62	-0.31296068
53	0xbec24a07	-0.37947103
54	0x3ec4b648	0.3842032
55	0x3ec234f3	0.37931022
56	0x3e30a994	0.17252189
57	0xbeb877c9	-0.3602889
58	0xbe89ff98	-0.26952815
59	0xbe4bc36b	-0.19898765
60	0xbd83c68d	-0.06434355
61	0x3de0d860	0.1097877
62	0xbe736a91	-0.2377112
63	0xbe364be8	-0.17802393
64	0xbd28c48d	-0.04120307
65	0xbb8e3e80	-0.0043409467
66	0x3d761650	0.060079873
67	0x3e71579a	0.23568574
68	0xbead39a7	-0.33833048
69	0x3e368dbb	0.17827503
70	0x3e66ce75	0.22539695
71	0x3e9fb09e	0.31189436
72	0xbcc61f44	-0.02418483
73	0x3eb401ce	0.35157627
74	0xbe6f1b82	-0.23350337
75	0x3d1de536	0.03854867
76	0x3cc343d5	0.023836056
77	0x3d7e1210	0.062028944
78	0x3eb31a1c	0.34980857
79	0x3beb2335	0.007175828
80	0x3e9cd65c	0.30632293
81	0x3e93fa8d	0.28902093
82	0xbe895df1	-0.26829484
83	0xbd88257c	-0.066477746
84	0x3e0199c3	0.12656312
85	0x3e189bd8	0.149032
86	0x3e8d4538	0.27591872
87	0x3cadc7c0	0.021213412
88	0x3ec1a514	0.37821257
89	0xbe522cba	-0.20524874
90	0x3c4f3a8f	0.012648239
91	0x3d28711b	0.04112349
92	0x3e8ef3e9	0.27920464
93	0x3eca8499	0.3955429
94	0x3d94c23d	0.072636105
95	0xbe6bfdab	-0.23045985
96	0xbbb537b4	-0.005530322
97	0xbd86a13f	-0.06573724
98	0x3e8d9c70	0.27658415
99	0x3c541f52	0.0129469205
100	0x3e93e5e1	0.2888632
101	0x3dd8acb8	0.105798185
102	0xbe30e533	-0.17274933
103	0xbeba16b5	-0.3634545
104	0x3ce82682	0.028338674
105	0x3d25915b	0.040421825
106	0xbdc33b27	-0.09532767
107	0x3e972174	0.2951771
108	0x3e1745ae	0.14772674
109	0x3e827895	0.25482622
110	0xbe1e8ed3	-0.1548417
111	0x3e63c7f3	0.22244243
112	0x3dcdd419	0.1005022
113	0xbe3a6792	-0.18203571
114	0xbeb4ac50	-0.35287714
115	0xbdde82a8	-0.108647645
116	0xbeba581b	-0.36395344
117	0xbea7641d	-0.32693568
118	0x3e178a47	0.14798842
119	0xbe941cc8	-0.28928208
120	0xbe9389ae	-0.2881598
121	0xbd572258	-0.052522987
122	0x3e9ee477	0.3103368
123	0xbe292257	-0.16517006
124	0x3e536a2f	0.20645975
125	0x3e910e9a	0.28331453
126	0x3e3ef192	0.1864684
127	0xbcd4841e	-0.025941905
128	0x3e82c3c0	0.2553997
129	0xbe6439f3	-0.22287731
130	0x3e969e34	0.29417574
131	0x3eb1ca52	0.3472467
132	0x3da998ac	0.08281073
133	0x3cb473b5	0.02202783
134	0x3d207a4e	0.03917914
135	0xbea0f35e	-0.31435674
136	0x3dd16462	0.102242246
137	0xbe412087	-0.18860064
138	0x3dda1e9b	0.10650369
139	0x3ebf6aad	0.37386075
140	0x3b2f6fae	0.0026769447
141	0x3ebd007f	0.3691444
142	0xbeaf8159	-0.34278372
143	0xbebc04c8	-0.36722398
144	0x3c7779ca	0.01510472
145	0x3c20bbab	0.0098103685
146	0xbd59f793	-0.05321462
147	0xbe8fdea6	-0.28099555
148	0x3b8d1c31	0.004306339
149	0xbd94bfb0	-0.07263124
150	0xbe157bba	-0.14597979
151	0x3da92bfa	0.08260341
152	0xbd1b0e00	-0.03785515
153	0x3d81f1d6	0.06344955
154	0x3eb76822	0.35821635
155	0x3ebca902	0.36847693
156	0xbed3439a	-0.41262513
157	0xbe0d404a	-0.13794056
158	0x3e971ffd	0.29516593
159	0xbe9d4a0b	-0.30720553
160	0xbe969a1a	-0.29414445
161	0x3d6b8fb0	0.057510078
162	0xbdd67953	-0.104723595
163	0xbdf4fc1e	-0.1196215
164	0x3ec720de	0.38892263
165	0x3ee2495e	0.441966
166	0xbea2946e	-0.31753868
167	0x3e892474	0.26785624
168	0xbe167d02	-0.14696124
169	0xbd5eaa68	-0.05436173
170	0x3dcabab4	0.09898892
171	0xbe137fd5	-0.14404233
172	0xbea9d226	-0.33168143
173	0xbdcc763c	-0.09983489
174	0xbe87bc53	-0.26510867
175	0x3d491b22	0.04909814
176	0xbeb22976	-0.34797257
177	0x3e929fb9	0.28637484
178	0x3e0f2857	0.13980232
179	0x3e6fc380	0.23414421
180	0x3e7f9bec	0.24961823
181	0xbeb547f4	-0.35406458
182	0x3eb7c871	0.35895112
183	0x3ea2e917	0.31818458
184	0x3dc97bd2	0.0983807
185	0x3e31b754	0.1735509
186	0x3d8622f1	0.06549633
187	0xbec4e823	-0.38458356
188	0x3e982dbf	0.29722401
189	0x3e01bfd1	0.12670828
190	0x3eab8ba5	0.33504978
191	0x3d0c92d8	0.03431973
192	0x3e62f494	0.22163612
193	0xbd1711b7	-0.03688213
194	0xbd7a8564	-0.061162367
195	0x3c6cc989	0.014452347
196	0xbe9abf48	-0.3022406
197	0xbeb8a55d	-0.36063662
198	0xbd09d44d	-0.03364973
199	0xbe14cc2b	-0.14531009
200	0x3e9b66a0	0.30351734
201	0xbebdf74f	-0.37102744
202	0x3e98768b	0.2977794
203	0xbec66558	-0.38749194
204	0xbe47b411	-0.19502284
205	0xbe5c65d8	-0.21523225
206	0xbde5a6f9	-0.11213488
207	0x3e0e9579	0.13924207
208	0x3ebf7cdf	0.37399957
209	0xbe946b44	-0.28988087
210	0xbd3280e7	-0.043579962
211	0x3e9feef0	0.31236982
212	0xbebf3261	-0.37343124
213	0x3e217d95	0.15770562
214	0xbe743aee	-0.23850605
215	0x3d5fe120	0.054658055
216	0x3ec67766	0.3876297
217	0xbe9e2504	-0.30887616
218	0x3d82cda1	0.06386877
219	0xbe7440fe	-0.23852918
220	0xbea4d034	-0.32190096
221	0xbdecefc4	-0.11569169
222	0xbe9bd288	-0.3043406
223	0xbcc0fc32	-0.023557756
224	0x3b69c7d4	0.0035672085
225	0x3d669d0a	0.056302108
226	0x3ea335ba	0.31876928
227	0xbea60611	-0.32426503
228	0x3e946421	0.28982642
229	0x3ea971af	0.33094546
230	0xbe838ed3	-0.25694904
231	0x3e20db4c	0.15708655
232	0xbe6fdb87	-0.23423587
233	0xbe6454f4	-0.22298032
234	0x3da56464	0.080757886
235	0xbd30c39d	-0.0431553
236	0x3ead1581	0.3380547
237	0xbe0fe76a	-0.14053121
238	0x3c718656	0.014741501
239	0xbdcca204	-0.099918395
240	0x3e40373f	0.18771075
241	0x3e8ebdbc	0.2787913
242	0xbe49097f	-0.19632529
243	0xbbe0f571	-0.0068651964
244	0xbe54a292	-0.2076514
245	0xbd562900	-0.052285194
246	0xbe65843a	-0.22413722
247	0xbe1370eb	-0.14398544
248	0x3dcef17b	0.101046525
249	0x3e373eab	0.17895
250	0x3e3e1068	0.18560946
251	0x3e419cdc	0.18907493
252	0x3ecf4b68	0.40487218
253	0xbdc86288	-0.09784418
254	0xbe4bd5c1	-0.1990576
255	0xbe70045d	-0.23439164

module_list.0.bias f4 [128]
0	0xbd978c4f	-0.073998086
1	0x3e4829e0	0.19547224
2	0x3e489e3a	0.19591609
3	0x3eb33894	0.35004103
4	0xbe994f73	-0.29943427
5	0xbebc91c2	-0.36829954
6	0xbe00e1a9	-0.12586083
7	0x3ebb086e	0.3652987
8	0x3e1686d8	0.14699876
9	0xbd9caf81	-0.07650662
10	0x3deea4e2	0.11652543
11	0x3d99c43a	0.0750813
12	0xbe3ed37f	-0.18635367
13	0xbe35789e	-0.17721793
14	0xbea480df	-0.3212957
15	0x3ec0a753	0.37627658
16	0x3eb7f806	0.35931414
17	0xbe6b5286	-0.22980699
18	0x3e882bc4	0.2659589
19	0xbe4efa0e	-0.20212576
20	0xbed1241d	-0.40847865
21	0x3d122146	0.035676263
22	0xbd6fcd49	-0.058545385
23	0xbdd1f010	-0.102508664
24	0xbe9ca096	-0.30591267
25	0x3e21b8b3	0.15793113
26	0xbec11431	-0.37710717
27	0x3ed1cf8c	0.40978658
28	0x3d7b72a9	0.061388645
29	0x3c165444	0.009175364
30	0xbe8d5c29	-0.27609375
31	0x3eb3cc29	0.351167
32	0xbeb726a1	-0.3577166
33	0x3e7ab402	0.2448273
34	0x3e35a2ec	0.17737931
35	0xbe033a56	-0.12815222
36	0x3e9055f2	0.2819057
37	0xbc210e9f	-0.009830146
38	0xbcaf3417	-0.021387143
39	0x3ea787d6	0.32720822
40	0x3d20567b	0.039144974
41	0xbe8a45dd	-0.27006426
42	0x3ea2b93e	0.31781954
43	0xbe7254dd	-0.23665185
44	0x3d851f1d	0.06500075
45	0x3db544f5	0.08851043
46	0x3e76ee17	0.24114262
47	0x3d502405	0.0508156
48	0xbd4b5434	-0.04964085
49	0xbd8f6025	-0.0700076
50	0xbe4b461b	-0.19850962
51	0x3ec7a4b8	0.38992858
52	0xbe57bb11	-0.21067454
53	0xbe9ca371	-0.30593446
54	0xbeb2b5ef	-0.3490443
55	0xbdeb1e59	-0.11480398
56	0xbea9d4fd	-0.3317031
57	0xbea1eaa9	-0.31624344
58	0xbea3a38c	-0.31960714
59	0x3eab45d1	0.33451703
60	0x3deda0f6	0.116029665
61	0x3d803b9a	0.06261368
62	0xbd8b3180	-0.06796551
63	0xbde99661	-0.114056356
64	0x3e00912b	0.12555377
65	0xbeb4b6f7	-0.3529584
66	0x3e3a71a5	0.18207414
67	0xbebabb4a	-0.36471015
68	0x3e015ac8	0.12632287
69	0x3d0c81d7	0.034303512
70	0xbebc4df5	-0.36778226
71	0x3ea030dc	0.31287277
72	0x3ea48d2a	0.3213895
73	0x3e812d41	0.25229838
74	0x3eae6c32	0.3406692
75	0x3deff2ac	0.11716208
76	0xbd18427d	-0.037172783
77	0x3dfa7a02	0.122303024
78	0xbd8fd27a	-0.07022567
79	0x3e849cb0	0.25900793
80	0x3eb92e00	0.36167908
81	0x3df486ef	0.11939799
82	0x3e2b9448	0.16755784
83	0x3eadf775	0.33977857
84	0xbe5b7edb	-0.2143511
85	0xbe939eb1	-0.2883201
86	0x3e3e178a	0.18563667
87	0xbeb2db42	-0.34932905
88	0xbeb54a3f	-0.35408208
89	0x3ea52ce2	0.32260805
90	0x3e5bfd0b	0.21483247
91	0xbd61139b	-0.054950338
92	0xbe6c29a7	-0.23062764
93	0x3e2cbf8f	0.16869949
94	0xbe712a4e	-0.23551294
95	0xbe54f6ce	-0.20797274
96	0xbcbbc459	-0.022920774
97	0xbe6d0ec2	-0.23150161
98	0xbea1015c	-0.3144635
99	0xbe8cabf6	-0.27474946
100	0x3c8893e7	0.016672088
101	0xbd85e170	-0.065371394
102	0x3e380e5a	0.17974225
103	0x3e4d6d2a	0.20061174
104	0x3eb3cf07	0.35118887
105	0xbe074e74	-0.13213521
106	0xbe90b002	-0.28259283
107	0x3dc0594f	0.09392034
108	0x3e011426	0.12605342
109	0xbe702101	-0.2345009
110	0x3d42f839	0.047600005
111	0xbe804a6e	-0.25056785
112	0xbcc5cad1	-0.024144562
113	0xbd776f04	-0.060408607
114	0x3e0af922	0.13571599
115	0xbcdfe9f3	-0.027333235
116	0xbd336a0a	-0.0438023
117	0x3eac50da	0.33655435
118	0x3e7ca410	0.2467196
119	0xbe04b125	-0.129582
120	0x3ea07aaf	0.313436
121	0xbec4b4a4	-0.38419068
122	0x3eb97917	0.36225197
123	0x3b7f90b2	0.0038996157
124	0x3d6eccdd	0.05830084
125	0xbde322c4	-0.110906154
126	0xbd05d39a	-0.032672502
127	0xbdd8b029	-0.10580475

module_list.1.0.weight f4 [64, 128]
0	0x3d998fae	0.07498108
1	0xbbe2cd65	-0.0069214576
2	0x3d1b8086	0.037964366
3	0x3d90b9b1	0.07066668
4	0xbc5b63f9	-0.013390535
5	0x3d12d278	0.03584525
6	0x3d36a6ee	0.04459279
7	0xbc9af341	-0.01891482
8	0x3d49a499	0.04922924
9	0xbcdf8f20	-0.027289927
10	0x3d90b459	0.070656486
11	0x3d8a5a33	0.067554854
12	0x3d9c13ba	0.0762095
13	0x3d2f4fb0	0.042800605
14	0xbd99a956	-0.075030014
15	0xbdac95b9	-0.08426995
16	0x3d881937	0.06645434
17	0xbcaecddc	-0.021338396
18	0xbda8df10	-0.08245671
19	0xbc2df718	-0.010617994
20	0x3cb58836	0.022159677
21	0xbcc68418	-0.02423291
22	0xbbbda265	-0.005787181
23	0x3d9c59aa	0.076342896
24	0xbcace12d	-0.021103466
25	0x3cc127f1	0.023578616
26	0x3dce8d3b	0.10085531
27	0xbd3f9392	-0.046771593
28	0xbd28470f	-0.04108339
29	0x3d9abb01	0.075551994
30	0xbbee631d	-0.007274999
31	0x3ade28d6	0.0016949426
32	0xbda0baa9	-0.078481026
33	0x3d9fb3c0	0.077979565
34	0xbd94ada3	-0.07259681
35	0xbc27cef9	-0.010242217
36	0x3a329e85	0.00068137824
37	0x3d9f9917	0.077928714
38	0xbd5032c7	-0.050829675
39	0xbc8a741c	-0.016901068
40	0xbd8237bc	-0.06358287
41	0x3dbae60c	0.09125909
42	0xbc8c2378	-0.017106757
43	0x3bfadbb9	0.0076555875
44	0xbda1a371	-0.07892502
45	0x3bcba2fe	0.0062144985
46	0xbb9ddbe7	-0.004817474
47	0x3cf5df65	0.03001375
48	0xbd7ae9c5	-0.061258096
49	0xbce0ed41	-0.027456881
50	0xbd470734	-0.048590854
51	0xbd18ac52	-0.037273712
52	0x3dea0310	0.114263654
53	0xba2ae0e5	-0.0006518497
54	0x3d74aa98	0.059733003
55	0xbd54dda1	-0.051969174
56	0xbd25ebc6	-0.040508054
57	0xbd5e4cde	-0.054272525
58	0x3d6615d2	0.056173153
59	0xbcee8031	-0.02911386
60	0x3c425671	0.01186143
61	0x3d4f676b	0.050635736
62	0x3c98280a	0.01857378
63	0x3d6614ff	0.056172367
64	0xbdbb0c03	-0.091331504
65	0x3ce64a91	0.028111728
66	0xbd0f3306	-0.03496077
67	0x3d18d542	0.037312753
68	0xbd865d36	-0.06560747
69	0xbd94759a	-0.07248993
70	0x3d6e809d	0.058228124
71	0x3d807725	0.06272725
72	0x3d6b87de	0.05750262
73	0xbcc8aacc	-0.024495505
74	0x3da4cf4f	0.080473535
75	0x3da73e54	0.08166185
76	0xbc1ffab6	-0.009764364
77	0xbc8c9f33	-0.017165756
78	0x3dd617b3	0.10453739
79	0xbd696f3e	-0.056990854
80	0x3d80a0da	0.0628068
81	0xbd866593	-0.065623425
82	0xbd0ad804	-0.033897415
83	0xbd784bd1	-0.06061918
84	0x3cb5e6f1	0.022204848
85	0x3da58056	0.08081119
86	0xbd50ac6d	-0.050945688
87	0x3cbfffd6	0.023437422
88	0xbd79156c	-0.060811445
89	0x3d083ae3	0.033259284
90	0x3beccac1	0.0072263186
91	0x3d468974	0.04847093
92	0xbcd9d2d4	-0.026589788
93	0xbcd99e29	-0.026564674
94	0xbd69bf21	-0.05706704
95	0xbd70ec32	-0.058819003
96	0xbd378a39	-0.044809554
97	0x3d973af2	0.0738429
98	0x3d46da43	0.048547994
99	0x3c949f3a	0.018142331
100	0xbce837e5	-0.028346965
101	0xbd59f762	-0.05321444
102	0xbda7a217	-0.08185213
103	0x3c935eec	0.017989598
104	0x3c9283f0	0.017885178
105	0x3d38e134	0.045136645
106	0xbd9ccc71	-0.076561816
107	0xbd05b1f9	-0.03264043
108	0xbd7ef9ca	-0.062249936
109	0x3cb098a8	0.021557167
110	0xbdcdff25	-0.100584306
111	0xbc919af4	-0.017774083
112	0xbd1c271f	-0.038123246
113	0xbd2ea177	-0.042634454
114	0xbcbec2df	-0.023286281
115	0x3d4f08eb	0.050545614
116	0x3d35e868	0.044411093
117	0x3d635543	0.055501234
118	0xbd8bc816	-0.06825273
119	0x3cf48a5f	0.029851137
120	0x3da9c271	0.0828904
121	0x3d83f24c	0.06442699
122	0xbb86a0a5	-0.004108506
123	0xbcdd28e6	-0.026997041
124	0xbda3d7e3	-0.080001615
125	0xbd4db772	-0.050223775
126	0xbd5cbb11	-0.053889338
127	0xbd5fd37b	-0.054645043
128	0xbda7b0d1	-0.08188022
129	0xbca322b1	-0.019914003
130	0x3d077197	0.033067312
131	0x3d02edb8	0.031964988
132	0xbdb5d6e7	-0.0887888
133	0x3cd7124c	0.026253842
134	0x3da2c88c	0.079484075
135	0xbd4a3076	-0.049362622
136	0xbd5a6f80	-0.05332899
137	0xbce436cb	-0.027858159
138	0xbcfe00ba	-0.031006206
139	0x3d35f4ac	0.04442279
140	0xbc545131	-0.012958811
141	0xb996fb34	-0.0002879739
142	0x3d2281d6	0.039674602
143	0xbc6fda4c	-0.014639448
144	0xbd9d7b64	-0.076895505
145	0x3da71110	0.08157551
146	0xbd1f3045	-0.038864393
147	0xbd908039	-0.070557065
148	0xbd4c33a2	-0.04985393
149	0xbc948306	-0.018128883
150	0x3d5e3abf	0.054255243
151	0x3d51b357	0.051196422
152	0xbd082705	-0.033240337
153	0x3dbcb986	0.09215073
154	0xbcd03374	-0.02541516
155	0xbd93e8dc	-0.07222149
156	0x3d86d4f1	0.06583584
157	0xbcf08e1d	-0.02936464
158	0xbc6db9fa	-0.014509672
159	0x3d88bb48	0.06676346
160	0x3d4ff43b	0.050770026
161	0xbd1185a0	-0.035527825
162	0xbccac66d	-0.02475282
163	0x3d899a3d	0.06718872
164	0x3d07298a	0.0329986
165	0x3b8e954d	0.004351294
166	0xbd661445	-0.056171674
167	0xbc784064	-0.015152071
168	0xbb53aa37	-0.00322975
169	0xbcea7b15	-0.028623143
170	0xbd0a8915	-0.033822138
171	0x3d8ea6ad	0.06965385
172	0xbd540e8f	-0.051771697
173	0x3ce3ccd5	0.027807632
174	0x3d1f3bc8	0.03887537
175	0x3bda4ae1	0.0066617583
176	0x3cf19c0d	0.029493356
177	0xbc8c7849	-0.0171472
178	0x3c6a65fc	0.0143065415
179	0x3c84f213	0.016228711
180	0xbd0c4810	-0.03424841
181	0xbb84bb62	-0.004050658
182	0xbc656b56	-0.014002642
183	0xbdd6e589	-0.10492999
184	0x3d494e81	0.049147133
185	0xbd83fe87	-0.064450316
186	0x3da61959	0.081103034
187	0xbd91392f	-0.07090985
188	0xbd8b364a	-0.06797464
189	0x3da1d232	0.0790142
190	0x3c8a728a	0.01690032
191	0xbc8eed13	-0.01744703
192	0x3d7435ec	0.059621736
193	0xbd9a9f12	-0.075498715
194	0xbd8743e5	-0.06604747
195	0xbd126a94	-0.035746172
196	0x3c94bb68	0.018155769
197	0x3cc6d85b	0.024273088
198	0xbb6105cb	-0.0034335728
199	0x3d4481aa	0.04797522
200	0xbd65ef25	-0.05613627
201	0x3c3c1fa5	0.011482154
202	0xbdc33f95	-0.09533612
203	0x3da70892	0.081559315
204	0x3d9666c4	0.0734382
205	0xbdc17e50	-0.0944792
206	0xbd8d2d99	-0.06893463
207	0x3d8f5c9f	0.07000088
208	0xbc535a9b	-0.01290002
209	0x3dafa677	0.085766725
210	0xbdc8a2a3	-0.097966455
211	0xbd9d12ef	-0.07669627
212	0x3d2492e4	0.04017915
213	0xbd883735	-0.06651155
214	0xbd1c6dd4	-0.038190678
215	0x3d99d4b6	0.075112745
216	0xbd2ec9ac	-0.042672798
217	0xbbe3c045	-0.0069504105
218	0x3d87848a	0.06617077
219	0x3b979701	0.0046261554
220	0xbc4dfd73	-0.012572634
221	0x3d1d4a73	0.03840108
222	0x3d5d336b	0.054004114
223	0x3db56392	0.08856882
224	0xbd7ce6db	-0.0617436
225	0xbdbc1b5a	-0.091849044
226	0x3ceef7e4	0.029170938
227	0xbd8acb81	-0.067770965
228	0x3d6cdd44	0.057828203
229	0x3cb2a79c	0.021808438
230	0xbd851bdb	-0.06499454
231	0x3d3a1dd5	0.045438606
232	0xbccc1377	-0.024911625
233	0x3d6ae9ee	0.057352
234	0x3d04c096	0.032410227
235	0x3d1712b8	0.036883086
236	0xbce4457f	-0.02786517
237	0x3d63c548	0.055608064
238	0x3c7766b9	0.015100175
239	0x3d59fc15	0.05321892
240	0x3dad9b1c	0.084768504
241	0x3ddbab79	0.10726065
242	0x3d87abb8	0.066245496
243	0x3d8cd927	0.06877356
244	0xbdc5bb33	-0.09654846
245	0x3cbcb557	0.023035688
246	0x3d053dc6	0.032529615
247	0xbca1f8a3	-0.01977188
248	0xbc60c785	-0.013719444
249	0x3d843985	0.064562835
250	0xbd648f21	-0.05580056
251	0x3d86d782	0.065840736
252	0xbce36a38	-0.02776061
253	0xbd8f9d37	-0.07012408
254	0x3be5334b	0.00699464
255	0x3d06af4a	0.032882012

module_list.1.0.bias f4 [64]
0	0xbd94b7ae	-0.072615966
1	0xbcd54b0f	-0.026036767
2	0xbcc8b168	-0.024498656
3	0xbd40e77b	-0.047095757
4	0x3cd0f9c2	0.025509719
5	0xbb7f5d3e	-0.0038965489
6	0x3cc2e052	0.023788605
7	0xbbf455d7	-0.007456522
8	0xbda0a861	-0.07844616
9	0xbdb9a373	-0.090643786
10	0xbd7ad879	-0.0612416
11	0xbdba60eb	-0.09100517
12	0x3d9b6f3a	0.07589574
13	0x3b5a4fc0	0.0033311695
14	0xbda4153c	-0.08011863
15	0x3d8034f1	0.06260098
16	0x3d6f2fdb	0.058395248
17	0xbd982949	-0.074297495
18	0xbb16382d	-0.0022921667
19	0xbd3f681d	-0.04673015
20	0xbc7e1b55	-0.015509446
21	0xbc453cd1	-0.012038426
22	0x3aa798d6	0.0012786638
23	0xbd02d08a	-0.03193716
24	0x3d77c0df	0.06048667
25	0x3c1683ed	0.009186727
26	0xbd1c02db	-0.03808866
27	0x3c55de2b	0.013053457
28	0xbc07116b	-0.008243899
29	0x3d8112d2	0.06302418
30	0xbd924a93	-0.0714313
31	0x3c090569	0.008363106
32	0xbb911808	-0.0044279136
33	0x3c8a6d9a	0.016897965
34	0x3cd506b4	0.026004173
35	0x3c04fd17	0.008116982
36	0x3c2ba7fb	0.010477061
37	0x3c33f79d	0.010984329
38	0x3c064523	0.008195194
39	0xbd81b8a0	-0.063340425
40	0xbd3ae1e9	-0.0456256
41	0xbc22f212	-0.009945409
42	0x3d547d1c	0.051877126
43	0x3d86eb18	0.06587809
44	0x3d5e1615	0.054220278
45	0x3caf44e8	0.021395162
46	0xbc2fb5e6	-0.01072452
47	0x3da009b0	0.07814348
48	0x3d49557c	0.04915379
49	0x3d39e525	0.045384545
50	0xbd1a0b2e	-0.037608318
51	0xbc8b8f53	-0.017036116
52	0xbc76708d	-0.015041483
53	0x3d6072fe	0.054797165
54	0x3d5022d5	0.05081447
55	0xbd947c3d	-0.07250259
56	0x3da05f36	0.0783066
57	0x3bec27c4	0.007206889
58	0x3caa373f	0.020778297
59	0x3c75ab23	0.014994415
60	0xbd284550	-0.041081727
61	0xbdb67315	-0.08908669
62	0x3d4988fb	0.0492029
63	0x3d647aa7	0.055781033

module_list.2.weight f4 [1, 64]
0	0xbdd07155	-0.10177866
1	0x3e039219	0.128487
2	0x3d4ec437	0.050480094
3	0xbcf1ec98	-0.029531762
4	0x3d76045b	0.060062747
5	0xbcb03702	-0.021510605
6	0xbd8a6e3f	-0.06759309
7	0x3d58a20b	0.05288891
8	0x3dd19727	0.10233908
9	0x3b279da3	0.0025576137
10	0xbcffd5c4	-0.031229861
11	0x3d83e4bc	0.06440112
12	0x3e01614b	0.1263477
13	0xbd542188	-0.05178979
14	0xbdbbacb6	-0.09163801
15	0xbda73f30	-0.08166349
16	0x3dab1793	0.08354106
17	0x3b8ab103	0.004232527
18	0x3ca43b32	0.020047758
19	0x3dc8af29	0.09799034
20	0xbb29158b	-0.0025800194
21	0xbc701dc6	-0.014655536
22	0xbdeffcfc	-0.11718175
23	0x3dc8c7d0	0.09803736
24	0xbd7cb590	-0.06169659
25	0x3d9cf3ae	0.07663666
26	0xbcd39d18	-0.025831744
27	0x3d240c27	0.040050652
28	0x3d99de18	0.07513064
29	0x3d4d983e	0.050194018
30	0xbcfb1863	-0.030651277
31	0x3c5d5dc4	0.013511125
32	0x3da16bbd	0.078818776
33	0x3de72241	0.1128583
34	0xbd71db24	-0.05904688
35	0x3d808b5f	0.06276583
36	0x3d7d50ed	0.061844755
37	0xbdd4a785	-0.10383514
38	0xbd956417	-0.07294481
39	0x3cb40483	0.021974808
40	0xbcf0f2fc	-0.029412739
41	0xbcf18e78	-0.02948688
42	0xbddc8e79	-0.10769362
43	0xbd90f52d	-0.070780136
44	0xbdab2b53	-0.08357873
45	0xbd3c68d5	-0.045998413
46	0xbd60325b	-0.054735523
47	0xbd885675	-0.06657115
48	0x3d5ad046	0.05342128
49	0x3da6f8a2	0.08152892
50	0x3c97af56	0.018516224
51	0x3b50b6a8	0.0031847153
52	0x3da7b7c9	0.08189351
53	0xbd6f4c4e	-0.05842238
54	0x3da8c8de	0.082414374
55	0xbd9f6e80	-0.07784748
56	0x3d51993a	0.05117152
57	0x3de8b887	0.11363321
58	0x3829b03d	4.0456875e-05
59	0x3cd0f6fd	0.025508398
60	0xbd6bae7e	-0.057539456
61	0xbcc16959	-0.023609804
62	0xbdebf657	-0.11521595
63	0x3dbcd5d6	0.092204735
