saved_models_MLP/exp-ib3-bcc-eform/mlp_eform_bcc_ratio0.8_seed3_epoch300.pt (torch, 38935 bytes, 5 tensors)

module_list.0.weight f4 [128, 6]
-0.018422948 0.09155097 -0.4012774 0.16289397 -0.012391094 -0.15441501 -0.21211793 -0.29623133
0.3902808 0.032526676 0.33577824 0.33056492 -0.16880198 0.1720182 -0.08139405 0.12050265
0.25989074 0.1862759 -0.037630703 -0.39041892 0.26427218 0.11308363 0.14994428 -0.015340507
0.3681936 0.0065819244 -0.2307173 -0.41556486 -0.3735449 -0.034038752 -0.2013016 0.3815437
0.30939636 0.025845278 0.094645426 -0.130907 -0.30096075 0.36753058 0.07979404 -0.22721483
-0.2041828 -0.3491693 0.30138603 0.30900663 0.26651794 -0.05271789 -0.296223 -0.06150818
0.24502945 0.16404574 0.002889575 -0.08671168 -0.3197439 -0.37947103 0.37033707 0.35072032
0.22454846 -0.39167675 -0.21786104 -0.19898765 -0.06607755 0.110584125 -0.2953743 -0.1921315
0.04537725 -0.0043409467 0.012387238 0.2208682 -0.37374583 0.15612727 0.31118742 0.31189436
-0.028429955 0.3452351 -0.18283767 0.03497249 0.1741097 0.062028944 0.34148505 0.010229255
0.31255385 0.29423746 -0.28370786 -0.066477746 0.13951232 0.13819079 0.29762718 0.042087983
0.40606683 -0.20524874 0.02596978 0.064724386 0.35919482 0.29933223 0.09311887 -0.23045985
-0.020354958 -0.061253663 0.29926527 -0.047009144 0.28782454 0.105798185 -0.17080857 -0.35356614
0.05764214 0.005014966 -0.09663943 0.2951771 0.16293184 0.24884725 -0.16063681 0.25429425
0.12592123 -0.18203571 -0.31433213 -0.11351863 -0.4342669 -0.33387208 0.23618464 -0.28928208
-0.29501837 -0.04835747 0.34385934 -0.17609219 0.25711963 0.28331453 0.16925849 -0.035780475
0.26117262 -0.21859764 0.31334433 0.3472467 0.0778289 0.032037955 0.05489142 -0.3297366
0.101837814 -0.18860064 0.105133645 0.3725432 0.04206681 0.3977301 -0.35701314 -0.36722398
0.022642456 -0.04922552 -0.09505659 -0.24629185 -0.05590945 -0.07263124 -0.10635786 0.098205246
0.10885262 0.06059734 0.4143698 0.36847693 -0.40346602 -0.14448984 0.28013307 -0.2650462
-0.2745099 0.057510078 -0.11161806 -0.101700835 0.4017657 0.51186156 -0.40337712 0.26785624
-0.11439073 -0.030652145 0.13905369 -0.23195577 -0.38772878 -0.09983489 -0.2425294 0.03004607
-0.33519655 0.33873743 0.15835278 0.23414421 0.23826708 -0.3563513 0.38215026 0.34372887
0.05539811 0.1735509 0.060877044 -0.3680378 0.33102512 0.1527549 0.33631635 0.03431973
0.1946059 -0.014670149 -0.016325224 0.0019825185 -0.32258174 -0.36063662 -0.026440948 -0.12997442
0.29546 -0.31526378 0.37714234 -0.38749194 -0.18218681 -0.1820111 -0.16682681 0.047708172
0.38693714 -0.28988087 -0.025069633 0.31250814 -0.33666813 0.15180047 -0.29771155 0.054658055
0.36727053 -0.29920733 0.049225353 -0.252677 -0.26492706 -0.11569169 -0.30547917 0.006059507
-0.003087753 0.08935358 0.37719 -0.32426503 0.290285 0.32634825 -0.27435347 0.2021146
-0.21609747 -0.22298032 0.08434454 -0.024378184 0.34654087 -0.14818393 0.023856094 -0.099918395
0.1904661 0.27641684 -0.22199647 -0.05948609 -0.32670268 -0.052285194 -0.21340808 -0.14755754
0.12789294 0.20780367 0.19800833 0.18907493 0.38848138 -0.103484415 -0.25561646 -0.26754895
00000000: b9eb 96bc 137f bb3d 3b74 cdbe adcd 263e
00000010: 0404 4bbc f81e 1ebe 7135 59be a2ab 97be
00000020: e3d2 c73e b13a 053d 20eb ab3e ce3f a93e
00000030: 6dda 2cbe 8a25 303e ecb1 a6bd 18ca f63d
00000040: 6610 853e 1cbf 3e3e a722 1abd fde4 c7be
00000050: af4e 873e 6498 e73d fe8a 193e c056 7bbc
00000060: df83 bc3e 2fad d73b 2841 6cbe ebc4 d4be
00000070: 4741 bfbe 386c 0bbd 0222 4ebe b259 c33e
00000080: 3369 9e3e 7ab9 d33c 76d5 c13d 7c0c 06be
00000090: 8717 9abe f82c bc3e 0f6b a33d 01ab 68be
000000a0: 4c15 51be 52c6 b2be 454f 9a3e 1e36 9e3e
000000b0: 0a75 883e b7ee 57bd 8baa 97be 00f0 7bbd
000000c0: 00e9 7a3e 9bfb 273e 065f 3d3b e595 b1bd
000000d0: 79b5 a3be 074a c2be d29c bd3e 9d91 b33e
000000e0: 08f0 653e db89 c8be f716 5fbe 6bc3 4bbe
000000f0: ab53 87bd ee79 e23d 4d3b 97be 1fbe 44be
00000100: 7fdd 393d 803e 8ebb d8f3 4a3c 462b 623e
00000110: 9d5b bfbe d4df 1f3e f553 9f3e 9eb0 9f3e
00000120: f0e5 e8bc a8c2 b03e cc39 3bbe 503f 0f3d
00000130: d049 323e 1012 7e3d 21d7 ae3e 9b98 273c
00000140: 0f07 a03e 4ba6 963e 2842 91be 7c25 88bd
00000150: 51dc 0e3e e381 0d3e 9762 983e 7364 2c3d
00000160: fee7 cf3e ba2c 52be 93be d43c 388e 843d
00000170: 62e8 b73e 1342 993e 1bb5 be3d abfd 6bbe
00000180: 71bf a6bc 1fe5 7abd 4c39 993e a98c 40bd
00000190: bd5d 933e b8ac d83d 71e8 2ebe 9f06 b5be
000001a0: 2a1a 6c3d 9554 a43b e5ea c5bd 7421 973e
000001b0: 9bd7 263e d0d1 7e3e fa7d 24be db32 823e
000001c0: 7ff1 003e 9267 3abe 24f0 a0be 757c e8bd
000001d0: 3b58 debe 48f1 aabe 63da 713e c81c 94be
000001e0: a60c 97be 7c12 46bd 550e b03e 8351 34be
000001f0: 2fa5 833e 9a0e 913e 1952 2d3e 8c8e 12bd
00000200: 6bb8 853e 0fd8 5fbe ab6e a03e 52ca b13e
00000210: c264 9f3d 3b3a 033d d3d5 603d 3cd3 a8be
00000220: 5890 d03d 8720 41be 4f50 d73d fbbd be3e
00000230: 3f4e 2c3d 48a3 cb3e 6dca b6be c804 bcbe
00000240: ac7c b93c b3a0 49bd 08ad c2bd ee33 7cbe
00000250: 4f01 65bd b0bf 94bd 26d2 d9bd d51f c93d
00000260: 1fee de3d eb34 783d 4728 d43e 02a9 bc3e
00000270: 1993 cebe 25f5 13be 9a6d 8f3e 23b4 87be
00000280: 908c 8cbe b08f 6b3d 0298 e4bd 8748 d0bd
00000290: 3cb4 cd3e 5c09 033f 7287 cebe 7424 893e
000002a0: b045 eabd 351a fbbc 1764 0e3e d085 6dbe
000002b0: 6384 c6be 3c76 ccbd a159 78be 2d23 f63c
000002c0: e29e abbe fe6e ad3e 3b27 223e 80c3 6f3e
000002d0: 49fc 733e ad73 b6be 33a9 c33e 3bfd af3e
000002e0: 21e9 623d 54b7 313e 355a 793d 736f bcbe
000002f0: 207c a93e c86b 1c3e a831 ac3e d892 0c3d
00000300: c546 473e 115b 70bc 7abc 85bc 24ed 013b
00000310: 6f29 a5be 5da5 b8be b09a d8bc 0418 05be
00000320: 8846 973e 416a a1be cd18 c13e 5865 c6be
00000330: 2e8f 3abe 1e61 3abe a6d4 2abe a569 433d
00000340: a01c c63e 446b 94be d55e cdbc 1101 a03e
00000350: c45f acbe 9571 1b3e a66d 98be 20e1 5f3d
00000360: e20a bc3e b431 99be 86a0 493d e15e 81be
00000370: 85a4 87be c4ef ecbd c467 9cbe d48e c63b
00000380: e65b 4abb 02ff b63d 0c1f c13e 1106 a6be
00000390: 3ca0 943e 1e17 a73e 0f78 8cbe 21f7 4e3e
000003a0: a848 5dbe f454 64be d5bc ac3d c2b4 c7bc
000003b0: ce6d b13e 87bd 17be db6d c33c 04a2 ccbd
000003c0: 8c09 433e 8286 8d3e 0b53 63be b0a7 73bd
000003d0: 9345 a7be 0029 56bd a687 5abe 5319 17be
000003e0: 5ef6 023e 7cca 543e b2c2 4a3e dc9c 413e
000003f0: 08e7 c63e a3ef d3bd 29e0 82be 2dfc 88be

module_list.0.bias f4 [128]
-0.07242839 0.15541172 0.1760738 0.34041664 -0.30212376 -0.330914 -0.10907787 0.3612369
0.14755192 -0.070938066 0.09351575 0.0680482 -0.16089527 -0.181877 -0.31611508 0.36931738
0.3432799 -0.23446485 0.2503933 -0.18059061 -0.40916243 0.031247513 -0.057714287 -0.1029881
-0.30629164 0.14777786 -0.36322242 0.39274177 0.05190196 0.021072464 -0.28655988 0.35014373
-0.34008813 0.20937882 0.14667834 -0.120238595 0.2855916 -0.0056566065 -0.024104582 0.3210793
0.058285795 -0.26309592 0.3077312 -0.26010904 0.06271827 0.09453263 0.23977862 0.045081284
-0.04036554 -0.07168349 -0.20404993 0.36644495 -0.21099578 -0.2804617 -0.37303597 -0.07342566
-0.33184466 -0.2760778 -0.31119633 0.30628642 0.06978437 0.031081496 -0.052933674 -0.09107977
0.1152236 -0.34683022 0.1733789 -0.34950846 0.12275329 0.023556057 -0.34800118 0.31469417
0.3054585 0.2322615 0.3443286 0.11228577 -0.030005286 0.12431583 -0.036273338 0.260881
0.34739417 0.09669147 0.18612732 0.32392567 -0.20660034 -0.28274468 0.17209378 -0.34258258
-0.3409512 0.31730145 0.19709404 -0.055099294 -0.22488116 0.17451277 -0.23000589 -0.19650954
-0.030116852 -0.21845461 -0.30124643 -0.26744655 0.035160862 -0.046171278 0.1786521 0.16293743
0.34247237 -0.12533973 -0.25608045 0.084937274 0.118901476 -0.23320031 0.017922772 -0.2028179
-0.020924233 -0.06283944 0.13723925 -0.031256143 -0.05707095 0.31852892 0.23530662 -0.12906952
0.29933342 -0.3609405 0.3315806 0.0033670973 0.05706745 -0.113026336 -0.035188653 -0.10679783
00000000: 5655 94bd 4024 1f3e b14c 343e 174b ae3e
00000010: f7af 9abe 8f6d a9be 3864 dfbd 0bf4 b83e
00000020: da17 173e fa47 91bd 2f85 bf3d db5c 8b3d
00000030: bbc1 24be f73d 3abe d6d9 a1be 2b17 bd3e
00000040: 62c2 af3e 8e17 70be 8d33 803e bfec 38be
00000050: bd7d d1be c9fa ff3c d165 6cbd 6deb d2bd
00000060: 42d2 9cbe 1453 173e 4af8 b9be 7315 c93e
00000070: 2697 543d 29a0 ac3c fab7 92be 0a46 b33e
00000080: 0820 aebe 6767 563e d932 163e a73f f6bd
00000090: 1039 923e 0e5b b9bb f976 c5bc 8264 a43e
000000a0: 16bd 6e3d 82b4 86be f28e 9d3e 032d 85be
000000b0: 7072 803d 539a c13d 8788 753e 27a7 383d
000000c0: 5656 25bd cbce 92bd 77f2 50be ac9e bb3e
000000d0: 470f 58be ad98 8fbe 92fe bebe 3160 96bd
000000e0: 8be7 a9be 125a 8dbe 2055 9fbe 93d1 9c3e
000000f0: 1ceb 8e3d 9f9e fe3c fbd0 58bd 0888 babd
00000100: 5afa eb3d bb93 b1be 3d8a 313e c6f2 b2be
00000110: 1466 fb3d a2f8 c03c 362d b2be 981f a13e
00000120: 0e65 9c3e f5d5 6d3e d74b b03e 15f6 e53d
00000130: a5cd f5bc 4c99 fe3d 5a93 14bd 3292 853e
00000140: a6dd b13e 2d06 c63d 2998 3e3e 96d9 a53e
00000150: 0a8f 53be e9c3 90be 5a39 303e fc66 afbe
00000160: 2891 aebe 5675 a23e 05d3 493e ccaf 61bd
00000170: 3f47 66be 7ab3 323e aa86 6bbe cc39 49be
00000180: 9eb7 f6bc 91b2 5fbe f93c 9abe c1ee 88be
00000190: d604 103d 181e 3dbd 93f0 363e 12d9 263e
000001a0: 8a58 af3e 0f59 00be fa1c 83be 98f3 ad3d
000001b0: 9e82 f33d 10cc 6ebe c7d2 923c 7faf 4fbe
000001c0: 4c69 abbc f7b1 80bd 7288 0c3e 7106 00bd
000001d0: 3ac3 69bd 3916 a33e 38f4 703e cd2a 04be
000001e0: 3b42 993e 31cd b8be efc4 a93e 85aa 5c3b
000001f0: 8fbf 693d 5a7a e7bd fa21 10bd d2b8 dabd

module_list.1.0.weight f4 [64, 128]
0.077012666 0.0005676169 0.049625818 0.072352506 -0.025961138 0.047657486 0.051763136 -0.037319366
0.026296753 -0.037471827 0.0682439 0.08163787 0.083985895 0.035409033 -0.07528113 -0.074957095
0.069430985 -0.01319948 -0.06988919 -0.0023913323 0.04048518 -0.03522006 -0.02072067 0.081969485
-0.032799736 0.033693247 0.11032629 -0.036908448 -0.041718125 0.089618325 -0.008822382 0.0049477015
-0.084277794 0.073402874 -0.064031005 0.0022454548 -0.028711952 0.0927363 -0.053703696 -0.022194354
-0.07351705 0.11987367 -0.05991288 -0.00049017457 -0.06369049 0.0101479925 -0.019627122 0.01941349
-0.07012455 -0.036166184 -0.0059212386 -0.031516217 0.12221442 -0.01155189 0.05630463 -0.04897256
-0.048842072 -0.061708115 0.06617555 -0.06737087 -0.015642464 0.08405072 0.017929742 0.06446282
-0.111699976 0.020273654 -0.040448736 0.040716678 -0.06282029 -0.070662335 0.0975563 0.055097304
0.045057047 -0.020717347 0.074744634 0.08996345 -0.0016093195 -0.014193189 0.108000524 -0.062402822
0.07284965 -0.05946226 -0.040439285 -0.058393084 0.03246445 0.08621824 -0.054115456 0.048575755
-0.058609933 0.02582079 0.014482404 0.038883816 -0.03740181 -0.056350466 -0.055491373 -0.05745679
-0.061501626 0.061409175 0.046090107 0.024423515 -0.006160951 -0.03884903 -0.10618974 -0.009435876
0.012959194 0.05453615 -0.07835456 -0.025184523 -0.07475904 0.03451873 -0.10304789 -0.0061540236
-0.040532593 -0.042415433 -0.028247569 0.055342816 0.050337404 0.060331192 -0.063124634 0.028203959
0.087638706 0.063975714 -0.014139655 -0.017426074 -0.06422474 -0.07207257 -0.06174042 -0.04060697
-0.10573311 -0.0068666837 0.040758844 0.04303166 -0.09613705 0.039985757 0.0837046 -0.045004558
-0.081917524 -0.031485338 -0.062351998 0.030143663 -0.021262886 -0.0007035038 0.062461045 0.0012986602
-0.062742986 0.08571331 -0.03457762 -0.090458274 -0.008573522 -0.0050103175 0.05857668 0.047873266
-0.03343247 0.09976186 0.02108762 -0.06672271 0.058255054 -0.02500084 0.00031436016 0.078409664
0.04968599 -0.020552952 -0.023383584 0.042238925 0.008766142 0.025140064 -0.07233308 -0.0066327294
-0.024810592 0.01845797 -0.089416295 0.06968241 -0.06641233 0.03682057 0.04225267 0.014218438
0.021310933 -0.019242892 0.03518706 0.018908083 0.008149652 0.009370913 -0.01270049 -0.107566945
0.051532704 -0.08274362 0.06343199 -0.061369125 -0.08949269 0.09266565 0.017609498 -0.032618456
0.049136054 -0.08194437 -0.12820739 -0.040779464 0.021750739 0.04870412 0.0250283 0.050116222
-0.06942614 -0.008720315 -0.0949219 0.10190028 0.0997343 -0.081086084 -0.039946012 0.061668396
-0.0024641468 0.054756593 -0.12983502 -0.062020212 0.05654112 -0.05471786 -0.06377671 0.09744875
-0.039416067 -0.010060273 0.0709251 -0.011969995 -0.03993393 0.000325933 0.07529085 0.09940208
-0.0725901 -0.095573306 0.03852179 -0.09052651 0.07021635 0.01458523 -0.102679804 0.057388626
-0.013616928 0.0500856 0.018638205 0.047902793 -0.036878824 0.080694966 0.019925224 0.02607667
0.09745151 0.10953375 0.049354557 0.06410112 -0.08643253 0.021258427 0.019052304 0.027289378
-0.0180058 0.09746467 -0.050351225 0.09100457 -0.016597876 -0.07993752 0.0027498717 0.034407657
00000000: d1b8 9d3d 20cc 143a 7144 4b3d 8d2d 943d
00000010: 74ac d4bc 7f34 433d 9505 543d 31dc 18bd
00000020: 4a6c d73c 0f7c 19bd 75c3 8b3d c131 a73d
00000030: cc00 ac3d 1009 113d fe2c 9abd 1b83 99bd
00000040: d531 8e3d a242 58bc 1022 8fbd e6b7 1cbb
00000050: cad3 253d e942 10bd 65be a9bc 9edf a73d
00000060: 0459 06bd ee01 0a3d c0f2 e13d 502d 17bd
00000070: a0e0 2abd d089 b73d c18b 10bc 5420 a23b
00000080: d699 acbd 3f54 963d b022 83bd 7b28 133b
00000090: 5435 ebbc 87ec bd3d 68f8 5bbd efd0 b5bc
000000a0: 1b90 96bd 5480 f53d 3567 75bd 0f7f 00ba
000000b0: 2970 82bd c443 263c 0fc9 a0bc 0a09 9f3c
000000c0: 769d 8fbd fe22 14bd f306 c2bb 2617 01bd
000000d0: 8e4b fa3d 2344 3dbc af9f 663d 7397 48bd
000000e0: a00e 48bd a6c1 7cbd 0c87 873d bdf9 89bd
000000f0: a024 80bc c922 ac3d 65e1 923c 1505 843d
00000100: f5c2 e4bd ef14 a63c 93ad 25bd 88c6 263d
00000110: eda7 80bd 6ab7 90bd 99cb c73d b6ad 613d
00000120: bd8d 383d 6db7 a9bc b713 993d c23e b83d
00000130: cdef d2ba 8d8a 68bc 612f dd3d 1a9a 7fbd
00000140: 3332 953d b38e 73bd aaa3 25bd 962d 6fbd
00000150: 71f9 043d 3093 b03d 2ba8 5dbd 5ff7 463d
00000160: f810 70bd 1f86 d33c 9b47 6d3c a344 1f3d
00000170: a432 19bd bfcf 66bd ec4a 63bd d057 6bbd
00000180: 21e9 7bbd 3088 7b3d fbc8 3c3d d313 c83c
00000190: cee1 c9bb 2920 1fbd 027a d9bd ef98 1abc
000001a0: cd52 543c 4c61 5f3d 5b78 a0bd c64f cebc
000001b0: 441b 99bd 8363 0d3d c60a d3bd b1a7 c9bb
000001c0: 8105 26bd cebb 2dbd 7267 e7bc 26af 623d
000001d0: 982e 4e3d d71d 773d 7d47 81bd fd0b e73c
000001e0: ec7b b33d b305 833d 03aa 67bc 20c1 8ebc
000001f0: 4388 83bd c99a 93bd 86e3 7cbd 7f53 26bd
00000200: 9a8a d8bd eb01 e1bb bff2 263d f741 303d
00000210: 80e3 c4bd 1bc8 233d 516d ab3d b356 38bd
00000220: 60c4 a7bd c5f6 00bd cf64 7fbd d8ef f63c
00000230: 812f aebc 576b 38ba 27d7 7f3d ce37 aa3a
00000240: 657f 80bd 768a af3d 43a1 0dbd 3042 b9bd
00000250: f577 0cbc 972d a4bb 1aee 6f3d c216 443d
00000260: 7cf0 08bd f24f cc3d f2bf ac3c eba5 88bd
00000270: da9c 6e3d 90ce ccbc b5d0 a439 3f95 a03d
00000280: 8983 4b3d aa5e a8bc ee8e bfbc b902 2d3d
00000290: dd9f 0f3c 89f2 cd3c 5e23 94bd 5e57 d9bb
000002a0: 953f cbbc 2b35 973c e41f b7bd a7b5 8e3d
000002b0: 3003 88bd 2ad1 163d 2311 2d3d 74f4 683c
000002c0: 4494 ae3c 45a3 9dbc 4e20 103d 20e5 9a3c
000002d0: 1e86 053c 7588 193c b715 50bc 0f4c dcbd
000002e0: f513 533d 7d75 a9bd a2e8 813d 315e 7bbd
000002f0: f247 b7bd 7dc7 bd3d cb41 903c ee9a 05bd
00000300: e342 493d 73d2 a7bd cc48 03be 5e08 27bd
00000310: 9b2e b23c f97d 473d 2608 cd3c ab46 4d3d
00000320: 4b2f 8ebd a7df 0ebc 6a66 c2bd 18b1 d03d
00000330: 7f41 cc3d 7610 a6bd 6e9e 23bd 0098 7c3d
00000340: 867d 21bb 7348 603d 79f3 04be e808 7ebd
00000350: a997 673d d61f 60bd 5d9d 82bd 3693 c73d
00000360: be72 21bd d8d3 24bc 2e41 913d cc1d 44bc
00000370: c391 23bd fde1 aa39 1732 9a3d 5193 cb3d
00000380: 1eaa 94bd f0bb c3bd 06c9 1d3d f665 b9bd
00000390: 97cd 8f3d e3f6 6e3c ca49 d2bd 5610 6b3d
000003a0: 8919 5fbc 8f26 4d3d 26af 983c b835 443d
000003b0: 400e 17bd 6743 a53d 393a a33c be9e d53c
000003c0: a894 c73d 3b53 e03d 0128 4a3d 7347 833d
000003d0: 8a03 b1bd 2726 ae3c 9413 9c3c f98d df3c
000003e0: e680 93bc 8f9b c73d 163d 4ebd 9b60 ba3d
000003f0: 45f8 87bc 48b6 a3bd 3137 343b 0bef 0c3d

module_list.1.0.bias f4 [64]
-0.06999298 -0.030987144 -0.0359108 -0.054946158 0.025729885 0.0002968332 0.023519043 -0.011900758
-0.07844616 -0.13501483 -0.052863926 -0.09526929 0.064462416 0.0033311695 -0.0897723 0.05012382
0.05763408 -0.074297495 -0.031687286 -0.04528012 -0.03763565 -0.019133337 -0.007848971 -0.03377403
0.045338158 -0.002614508 -0.07729331 0.012196191 -0.015897634 0.04604853 -0.09146044 0.012203189
-0.0044279136 0.017077822 0.026004173 0.0087622795 -0.01108413 0.0026929707 -0.0054147174 -0.061913513
-0.048977926 -0.013917224 0.040202525 0.063605584 0.055157274 -0.004602602 -0.005684114 0.076545365
0.047570556 0.02544045 -0.033766687 -0.033890877 -0.018537132 0.053702623 0.05081447 -0.070810914
0.08407305 0.00921606 0.020778297 0.010943846 -0.05118236 -0.100316055 0.050927363 0.056188352
00000000: 7b58 8fbd c0d8 fdbc 3417 13bd 390f 61bd
00000010: 7bc7 d23c 47a0 9b39 02ab c03c 66fb 42bc
00000020: 61a8 a0bd 5441 0abe d887 58bd 8c1c c3bd
00000030: df04 843d c04f 5a3b 8ada b7bd a24e 4d3d
00000040: b711 6c3d 4929 98bd 87ca 01bd a677 39bd
00000050: d727 1abd 84bd 9cbc f898 00bc a356 0abd
00000060: 81b4 393d 2a58 2bbb f44b 9ebd 88d2 473c
00000070: c13b 82bc 629d 3c3d 9c4f bbbd e2ef 473c
00000080: 0818 91bb cae6 8b3c b406 d53c aa8f 0f3c
00000090: 369a 35bc 8d7c 303b f16d b1bb 0699 7dbd
000000a0: 149d 48bd 1105 64bc 67ab 243d a543 823d
000000b0: 98ec 613d 6dd1 96bb ce41 babb d1c3 9c3d
000000c0: 58d9 423d 7e68 d03c f04e 0abd 29d1 0abd
000000d0: 2fdb 97bc 48f7 5b3d d522 503d 5005 91bd
000000e0: 7e2e ac3d f5fe 163c 3f37 aa3c d14d 333c
000000f0: 98a4 51bd 8172 cdbd 3699 503d c225 663d

module_list.2.weight f4 [1, 64]
-0.09617918 0.13501911 0.041786928 -0.023482442 0.051259637 -0.026342748 -0.087613605 0.049339134
0.10233908 -0.095605806 -0.056841966 0.053750854 0.14997727 -0.05178979 -0.068337165 -0.078940414
0.07824774 0.004232527 0.03809286 0.086614326 0.0011101665 -0.024221513 -0.093872905 0.09256626
-0.059144754 0.061388697 0.052940726 0.025898097 0.04973766 0.034326077 -0.05265216 0.010900981
0.078818776 0.097567454 -0.05904688 0.059320286 0.08890473 -0.07693694 -0.059747946 0.017218253
-0.02888374 -0.015171105 -0.0785986 -0.060593802 -0.07833261 -0.024976822 -0.0681745 -0.06983025
0.041734822 0.0878495 0.012198252 -0.037324272 0.07790819 -0.058721732 0.082414374 -0.076380305
0.045033555 0.11907396 4.0456875e-05 0.038883653 -0.07362317 -0.025559828 -0.10900656 0.084754325
00000000: 97f9 c4bd 7342 0a3e c528 2b3d 405e c0bc
00000010: a0f5 513d bfcc d7bc c36e b3bd d517 4a3d
00000020: 2797 d13d facc c3bd 1fd3 68bd db29 5c3d
00000030: a493 193e 8821 54bd 5bf4 8bbd 83ab a1bd
00000040: 5a40 a03d 03b1 8a3b 4207 1c3d da62 b13d
00000050: 0283 913a 326c c6bc 7040 c0bd 6193 bd3d
00000060: c541 72bd b772 7b3d 60d8 583d 3f28 d43c
00000070: b7b9 4b3d 8099 0c3d cba9 57bd 079a 323c
00000080: bd6b a13d 72d1 c73d 24db 71bd d4f9 723d
00000090: af13 b63d 1d91 9dbd 43ba 74bd 4b0d 8d3c
000000a0: 989d ecbc 3a90 78bc 4ef8 a0bd 3531 78bd
000000b0: d96c a0bd 319c ccbc 129f 8bbd 2a03 8fbd
000000c0: 22f2 2a3d 70ea b33d 2ddb 473c 56e1 18bd
000000d0: 548e 9f3d 3386 70bd dec8 a83d 476d 9cbd
000000e0: 1b75 383d 0cdd f33d 3db0 2938 7744 1f3d
000000f0: bfc7 96bd d862 d1bc d53e dfbd ad93 ad3d
