saved_models_MLP/exp-ib3-bcc-ms/mlp_ms_bcc_ratio1_seed2_epoch300.pt (torch, 38935 bytes, 5 tensors)

module_list.0.weight f4 [128, 6]
000000 90 71 a2 3d b8 fc 49 bd c9 30 7a be 5c 08 9f be
       0.079318166 -0.049313277 -0.24432673 -0.31061065
000010 4f 64 17 3f 58 26 9e bd fe 94 08 be c0 52 aa be
       0.59137434 -0.07722157 -0.13338086 -0.33266258
000020 e0 68 61 be c9 ea 9e be 2e 1a 84 bd dc 26 85 3e
       -0.22012663 -0.31038502 -0.06450306 0.2600621
000030 17 41 aa 3d cc cd b9 3d 48 f7 51 3d c1 49 28 be
       0.08313196 0.09072456 0.051261216 -0.16434385
000040 27 ea d3 3d c4 11 3f 3e a3 27 bd 3e bc ee aa 3c
       0.103473954 0.18659121 0.36944303 0.02086579
000050 c0 d5 b5 3e d9 b7 a5 be 72 13 cb be 46 a6 c3 be
       0.3551464 -0.32366827 -0.39663273 -0.38212794
000060 15 f8 bf be 66 69 ff 3d 98 05 f8 bc da 35 c9 3e
       -0.3749396 0.12471275 -0.030276105 0.39298898
000070 9e fa aa be ee 62 8e 3e 8c 47 24 3e 4d c4 4d 3e
       -0.3339433 0.27809852 0.16042918 0.20094414
000080 af c7 e3 be c8 b6 93 3e 1c f1 fb 3d 1c ea 09 3e
       -0.44488284 0.2885039 0.12301847 0.13468212
000090 a2 83 20 3e ad 19 8d 3e 71 16 14 3e 14 03 df 3e
       0.15675214 0.27558652 0.14461686 0.43557036
0000a0 86 e8 ae 3a 9a e8 c9 3e 44 80 f3 3d 82 49 0c 3e
       0.0013344444 0.39435273 0.11889699 0.13699916
0000b0 bd 51 72 3d e6 a4 dc 3d fd f8 8a 3e a8 e0 70 3e
       0.059159983 0.107736394 0.27143088 0.235232
0000c0 d0 09 ae be b2 9c 90 3e d8 32 33 3e 35 65 ae 3d
       -0.3399186 0.2824455 0.17499864 0.085153975
0000d0 2e 82 02 3c 76 f7 81 3e 96 6f 4a 3e b8 7a b0 3a
       0.007965608 0.2538411 0.19769129 0.0013464307
0000e0 9b 4a 94 bc 61 45 c2 3d 27 54 b4 bd 48 07 1a 3d
       -0.01810198 0.09485889 -0.08805113 0.0376046
0000f0 9a f7 a6 be 89 1f e8 3c 77 6d 8b 3e 5d ae 03 bd
       -0.3261078 0.02833535 0.27231953 -0.032148708
000100 3f 6d 34 bf bc d5 1c 3e df 3e 1e be 17 7e fc bc
       -0.70479196 0.15315908 -0.15453671 -0.030821843
000110 a7 0c d3 be 82 6e e4 3b 81 e7 52 be e7 70 ca be
       -0.4122059 0.0069711814 -0.20596124 -0.39539263
000120 ee ba 38 3e cb 48 de be 53 b2 a1 3d 91 4a 7a be
       0.18040058 -0.43414912 0.07895341 -0.24442507
000130 0b 60 41 3f 96 eb be 3e ae 4f bf 3e a1 be 4c bd
       0.75537175 0.37289113 0.37365478 -0.049986485
000140 9e e3 4c be cb d6 63 be a5 99 c7 3e 1e 6e 87 be
       -0.20008704 -0.22249906 0.3898441 -0.264512
000150 45 27 fc bb 5d 52 e0 bd 00 7e 0f 3e ef cb 92 be
       -0.007695111 -0.109532095 0.14012909 -0.28671214
000160 b2 7e b3 be 28 16 7c bd d4 c7 07 be c8 90 ce be
       -0.35057598 -0.061544567 -0.13259822 -0.40344834
000170 25 15 40 be 81 d2 9a be 84 e0 ad 3e b4 1d 90 3d
       -0.18758066 -0.30238727 0.33960354 0.070369154
000180 0e 0e c2 bd 8f da c4 3e c9 3b 66 3e bd 3a 81 3e
       -0.09475337 0.38447997 0.22483744 0.25240126
000190 be 20 ad be 36 78 c2 3e 98 20 21 3e 7c d5 79 be
       -0.33814043 0.3798234 0.1573509 -0.24397844
0001a0 f1 90 f3 be fe 29 b3 3d 8b b4 35 3e c2 63 63 be
       -0.4757152 0.08748244 0.17744653 -0.22206023
0001b0 54 6b c7 be 35 04 c1 be 10 dc 16 3e 13 52 47 3d
       -0.38949072 -0.37698522 0.14732385 0.048662256
0001c0 21 69 7a bd f4 7b 5a 3e 82 9e 4b 3d 05 14 5c 3e
       -0.061135415 0.21336347 0.04971171 0.21492012
0001d0 48 01 2d 3d 44 7a 3f bc 2c 46 17 3e bc 7e e4 bd
       0.04223755 -0.011686865 0.14772862 -0.11156985
0001e0 9e fd 91 bd c7 8d b4 be 91 f9 08 3f 3a 95 7f 3e
       -0.07128452 -0.35264418 0.5350581 0.24959269
0001f0 07 5c 17 be aa a0 92 be 3b dd dc 3d fe dd 70 3e
       -0.147812 -0.28638202 0.10784384 0.23522183
000200 90 a4 c5 3d b7 6e e0 3d 0c 54 19 3e f4 40 49 3e
       0.096505284 0.10958617 0.14973468 0.19653684
000210 b8 ea 22 3e d3 78 ee be 89 d2 1f 3e e1 87 17 be
       0.1590985 -0.46576557 0.15607657 -0.14797927
000220 68 c1 10 3f 10 6e 96 bc b6 46 d0 3e ef c9 35 be
       0.56545115 -0.018363029 0.40678948 -0.17752813
000230 9f 5d 29 3d 58 93 76 3e fc f6 e7 3d 3c 0b 1d be
       0.04134905 0.24079645 0.113264054 -0.15336317
000240 08 ad a4 bb ab eb 95 be 85 c7 a1 3c 79 bf 9b 3e
       -0.0050255097 -0.29281363 0.019748459 0.3041952
000250 9c 97 2c be 20 2d 99 3e 79 f5 bc 3e 29 bb aa 3d
       -0.1685471 0.2991724 0.3690603 0.08336479
000260 f0 09 03 bf 98 c3 2c be 8b 1f 0d be 7d cb c6 be
       -0.5118704 -0.16871488 -0.13781564 -0.38827124
000270 75 07 8c be dd 43 82 3d 4e 08 b4 3b b4 bf d9 be
       -0.2734944 0.063606 0.005494154 -0.4252907
000280 e6 cf 54 3d d4 1c 20 be d6 15 1d be 2b d4 8f be
       0.05195608 -0.15635997 -0.15340361 -0.2809156
000290 51 c8 8a bd 3f 37 4d bd 6a 46 ea 3e 50 53 9f 3e
       -0.067764886 -0.050101515 0.45756847 0.3111825
0002a0 93 f7 04 bd 73 b2 28 be 45 cc bc be 9b 5e 15 be
       -0.032462668 -0.16474323 -0.36874595 -0.1458687
0002b0 23 54 aa bd d8 12 c3 3d d2 48 b4 3e 1d d2 da be
       -0.08316829 0.095250785 0.35211807 -0.4273843
0002c0 e1 17 37 be e7 ff 16 3e 4e 6a b7 3d 62 1c 65 be
       -0.17880203 0.14746056 0.08955823 -0.22374108
0002d0 35 7d 94 3d d1 e2 cc 3e 54 81 85 bc 1c 64 79 3e
       0.07250444 0.40016797 -0.01629702 0.24354595
0002e0 55 a8 fb 3d 10 a8 58 3e 01 b9 c2 bd 52 6a 80 bc
       0.12287966 0.21157861 -0.09507943 -0.015675697
0002f0 c6 85 28 be 46 42 51 3d 4b 36 22 3f 90 84 c4 3d
       -0.1645728 0.051088594 0.63364094 0.09595597
000300 54 5d e0 3e 90 a1 bf be dc 14 55 be 5e 4c 04 be
       0.43821204 -0.3742795 -0.20808738 -0.12919757
000310 5f 0b 0e be b0 ab 8d be d2 e0 d1 be 2a b1 be be
       -0.13871525 -0.2767005 -0.40991837 -0.3724454
000320 b7 f7 e1 bd 64 e8 3b be 4b de d6 3e b2 01 65 be
       -0.11033576 -0.18350369 0.4196647 -0.22363928
000330 82 1b 88 3e 75 60 8a be ca 0e b7 be 0f c0 62 3e
       0.26583487 -0.27026716 -0.3575347 0.22143577
000340 93 53 51 3e a4 a3 a9 3e b8 b9 af bd df 8c 61 39
       0.20442037 0.3313266 -0.08580345 0.0002151015
000350 0e 3f b6 be 61 2e ff be 11 7f e3 3d 8e 78 50 be
       -0.35594982 -0.49840072 0.1110822 -0.20358488
000360 65 f2 d4 3e 40 ed db bc 2b 6a d3 3e 41 47 95 be
       0.41591182 -0.026846528 0.41291937 -0.29155925
000370 53 2e cb bc 2e 88 89 3e 4c bb 9c be 66 b8 fe bd
       -0.024802363 0.2686171 -0.30611646 -0.12437515
000380 ea d1 0b 3e 8e 0f 82 3d be 43 42 3e ef 2a b1 be
       0.13654295 0.06350623 0.18971154 -0.34603068
000390 a9 5e 9d be d4 bb 89 be e1 d2 e7 be 60 f1 65 3e
       -0.30736282 -0.26901114 -0.45278075 0.22455359
0003a0 78 2f 7e 3e 67 27 47 be 96 83 38 be b9 bb af be
       0.24822795 -0.19448625 -0.18018946 -0.3432291
0003b0 89 77 f7 be 99 f7 10 3e 6c 4b e9 3e 51 e7 35 be
       -0.48333386 0.14156951 0.45565355 -0.17764021
0003c0 05 27 04 be 9e 61 c9 3e 87 4e e5 3e 2d f5 b8 be
       -0.1290551 0.39332289 0.44786474 -0.36124554
0003d0 e2 b3 c7 be a6 db 04 be 10 00 76 bd aa ed c6 bd
       -0.39004427 -0.12974414 -0.060058653 -0.097132996
0003e0 19 8e 75 bd cb 1a 80 3e 2c 9a 49 be c8 3d a3 bd
       -0.059949968 0.2502044 -0.19687718 -0.07970768
0003f0 44 55 10 3e 3c a9 5c 3e d4 23 35 bd 2a c4 7b be
       0.14095026 0.21548933 -0.04422362 -0.2458655

module_list.0.bias f4 [128]
000000 d1 de 46 3e c1 7d 9e bd a3 0b 9d 3e 2f 16 ac 3e
       0.19420935 -0.077388294 0.3067294 0.33610675
000010 e8 85 90 3e 5c 5a 3e 3e 0c 4b 3d 3e 9d e5 c9 be
       0.28227162 0.18589157 0.1848566 -0.39432994
000020 e5 0f bf 3e 14 12 cd be 48 ee a7 be c8 96 a3 3e
       0.37316814 -0.40052855 -0.32798982 0.31950974
000030 bc c2 97 bd af c2 60 3c 79 f0 39 be 8b d8 fa 3c
       -0.074101895 0.013718291 -0.1815814 0.030620834
000040 16 cf 91 3e 00 4c be 3d 6e a7 9e 3c 55 5c 89 be
       0.28478307 0.092918396 0.019366946 -0.26828256
000050 01 0d a6 be 7f d3 8b be da c9 80 be 61 b1 a5 3e
       -0.32431796 -0.27309796 -0.25154 0.32361892
000060 84 51 87 3e f6 74 93 3e 77 b3 96 be b4 cb 93 be
       0.2642938 0.28800172 -0.29433796 -0.2886635
000070 39 10 b7 3e 0d 87 98 3e 49 2f f2 3c 83 1a 81 bd
       0.35754564 0.29790536 0.029563563 -0.06303885
000080 33 5f 56 be 41 2a 55 be 4b 4b 97 be c0 d4 8d be
       -0.20934753 -0.208169 -0.2954963 -0.27701378
000090 16 db e6 3d 37 04 16 be af 8d b2 3e f0 8d b1 bd
       0.11272256 -0.14650045 0.3487372 -0.086696506
0000a0 09 8b 99 be ee e9 bb 3e 54 d5 b5 3b f4 0c 33 3e
       -0.29988888 0.36701912 0.0055491123 0.1748541
0000b0 9f c7 d4 3e a0 dc 7b be cf fa 0c bd b2 4e ac 3e
       0.4155855 -0.2459588 -0.034418877 0.3365379
0000c0 b8 f4 cf be d1 49 1f be 69 70 24 3e 8f 0a 54 3e
       -0.40616393 -0.15555502 0.16058506 0.20707153
0000d0 12 2c c1 be 13 15 36 be a1 3b 4b be e7 87 cc 3e
       -0.37728935 -0.17781477 -0.19846965 0.39947435
0000e0 5c 91 aa bd 74 bd d9 3c 4a 3f 34 3e d2 39 6f 3e
       -0.08328506 0.026579596 0.17602268 0.233619
0000f0 70 7d a2 be f7 d7 82 3e eb b8 a8 bd 1f 51 11 3e
       -0.31736326 0.25555393 -0.08238395 0.14191101
000100 37 b0 7d be 45 55 3c 3e 50 ec a6 be 82 c5 c7 3d
       -0.24774252 0.18391903 -0.32602167 0.097544685
000110 5d 4f 87 3e d5 0f c9 bd e7 02 82 be 7e 3c 86 be
       0.26427737 -0.09817473 -0.2539284 -0.26218027
000120 fe a3 9c bd 3a c0 6e be a6 83 57 3d 18 06 2f 3d
       -0.076484665 -0.23315516 0.052615784 0.04273042
000130 ca 57 88 be 28 c6 6e 3e c1 30 ba 3d 2a a5 54 3e
       -0.26629478 0.23317778 0.0909133 0.2076613
000140 fd 5c 3e be d8 ce 11 bd 0e 4c f5 3d 9a a0 91 bd
       -0.1859016 -0.035597652 0.11977397 -0.071107104
000150 f3 e7 b9 be 25 79 b6 3e 0d af 7d bd a5 c7 25 3e
       -0.36309776 0.356393 -0.06193452 0.1618944
000160 54 8c 33 be b0 e0 5a 3e e4 ce f9 3d 6b c4 07 be
       -0.17534 0.21374774 0.121976644 -0.13258521
000170 40 6c 76 be dc c0 4d bd 00 e9 9d be 5e d3 34 3e
       -0.24064732 -0.050232753 -0.30841827 0.17658755
000180 e7 ad aa 3d 88 06 6f 3e 3a 51 06 be 9e d0 72 bd
       0.083339505 0.23342335 -0.13116923 -0.059280984
000190 36 3c 1e be 8f ec d9 bd e6 f6 b3 3e 57 35 ef bd
       -0.15452656 -0.10640823 0.35149306 -0.11680096
0001a0 2f cb c6 3e 44 31 c3 be 94 85 9a 3e 7d de b6 be
       0.38826892 -0.38123524 0.30180037 -0.3571662
0001b0 b5 ef 97 3e 7f e6 5d 3e 7b 24 bf bd 56 d4 86 be
       0.2967507 0.21669959 -0.0933313 -0.26333874
0001c0 aa 8b a7 3e 38 4f c3 bd c0 38 dc 3d 6e 70 ab 3e
       0.32723743 -0.09536594 0.10753012 0.33484215
0001d0 99 39 d2 bd 2a 7b 0b 3d c1 1e 9a 3e 05 cc b7 be
       -0.10264892 0.034053005 0.30101588 -0.35897842
0001e0 fc bd 8d 3e 51 21 b7 3e b7 4f 08 bd 24 5c 01 be
       0.2768401 0.35767606 -0.033279147 -0.12632805
0001f0 08 0b 8d 3e 16 9c 4d be ef d1 c4 3e 46 98 74 bd
       0.2754748 -0.20079073 0.38441417 -0.05971553

module_list.1.0.weight f4 [64, 128]
000000 f2 42 d2 3d 65 e0 ad bc 06 20 d6 3d fb df 7a bc
       0.10266675 -0.021225164 0.10455327 -0.01531219
000010 83 6a b3 3d 18 c7 ae bb 58 75 80 3d c8 d4 b1 3b
       0.0876055 -0.0053337924 0.062723815 0.005426977
000020 87 a3 95 3d bd 95 f0 bb 44 aa a0 bd f2 33 41 3d
       0.07306581 -0.007342069 -0.078449756 0.04716868
000030 93 16 f1 bc 37 4e d6 3d 22 d6 3b 3b 5d 15 06 3d
       -0.02942971 0.10464137 0.0028661569 0.032735217
000040 f1 fa 34 bd 7e b2 bc 3c 11 7f e6 bc 31 9b 43 3d
       -0.04418463 0.02303433 -0.028136762 0.047755424
000050 5d 60 41 bd 26 ee 96 3d db b3 0e 3d d9 3c 1d bd
       -0.04721104 0.07369642 0.034839492 -0.038388107
000060 01 ac 81 3d 24 ef 80 3c 39 8b 9f bd 23 b0 8d bd
       0.06331635 0.015739031 -0.077902265 -0.06918361
000070 d6 70 21 3d 7b 6b 3d bd 6d f2 f3 3c dc 6e 5a 3d
       0.03941425 -0.04624508 0.029778684 0.05332838
000080 b9 59 88 3d 41 33 bd 3d bd 99 8f 3c bd 21 50 bd
       0.06657738 0.092382915 0.017529363 -0.050813425
000090 d6 50 88 3d cf 24 4c bc ce 26 7b 3c 68 91 a0 3d
       0.06656043 -0.012459948 0.015329076 0.07840234
0000a0 7c bb 25 3c 7d 0d c4 3d e7 66 48 bc fb b6 f4 3d
       0.010115501 0.09572885 -0.012231565 0.11948963
0000b0 82 7a a7 bc b5 03 86 3d 6d 07 59 bd 97 e3 17 3d
       -0.020444158 0.06543676 -0.052985597 0.03708228
0000c0 64 97 28 3b 81 84 5a bc 90 e7 26 bb 54 b9 cf 3c
       0.0025725001 -0.013337255 -0.0025467612 0.025356926
0000d0 91 14 60 bd f5 e9 3f bd a0 05 2e 3b 2a 88 0e bd
       -0.054707114 -0.04685398 0.0026553646 -0.034797825
0000e0 bb 9e 2f 3d c9 a4 88 3d e3 2b 4a 3d ce bc 4d 3d
       0.042875987 0.06672055 0.04935826 0.050228886
0000f0 01 81 f8 3c 6c cd 8c bc ab af b1 bd c0 11 ba 3d
       0.030334951 -0.017187797 -0.08676084 0.09085417
000100 04 f3 cd bd 4d 83 56 3c b2 e9 46 3c 78 9b 07 bd
       -0.10056117 0.013092828 0.012140678 -0.03310725
000110 39 af 1c 3d fc bf 6c 3d 1c d4 b5 bd 8a 8e b6 bd
       0.038253043 0.057800278 -0.08878347 -0.08913906
000120 bf a2 93 bd 78 a3 39 3d b5 31 b9 bd 9d e4 29 bd
       -0.07208776 0.04532191 -0.09042684 -0.04147779
000130 58 a1 e5 3c c3 b9 88 3d e7 3d 82 3c db af 7e 3c
       0.028031036 0.06676056 0.015898658 0.015544857
000140 8a 1d 9a bd d7 0e c6 3c 8f 56 d0 3d b8 36 16 3d
       -0.075251654 0.024176998 0.1017276 0.036673278
000150 f0 15 94 bc 84 cb 06 bd 97 63 aa bd 59 e7 0a bd
       -0.018076867 -0.03290893 -0.083197765 -0.033912037
000160 2a 45 ea bc 5a bd 9a 3d 8d a8 df 3d b3 2d ab 3c
       -0.028597433 0.07555647 0.109208204 0.020895815
000170 ee eb 91 3c b6 67 bc 3d c9 c9 8a bd 51 72 72 bd
       0.017812695 0.09199469 -0.06776769 -0.059191052
000180 77 e6 b6 3c 8b 21 77 bd 86 94 33 bd 65 e8 82 bd
       0.022326691 -0.060334723 -0.043842815 -0.06391982
000190 e8 88 67 bd 3f 8a 07 bd e9 b2 a9 3d 9c 3b 8c bb
       -0.05652705 -0.033090826 0.082860775 -0.004279567
0001a0 32 a9 f3 3c b9 d6 ae bd 52 28 96 bd 05 73 9f bc
       0.029743765 -0.08537049 -0.07331909 -0.019464025
0001b0 23 73 3e 3d d1 ae 5c 3d b3 75 7d bd 8b 44 91 3d
       0.04649652 0.053877655 -0.061879825 0.07093152
0001c0 cb de 0d 3c a9 6e 0c bd 0e bc 87 3d ab 41 aa 3c
       0.008659075 -0.03428522 0.066276655 0.020783266
0001d0 c8 a0 1b 3d b4 64 3a 3c 9f 78 6e bd 70 f9 96 bd
       0.03799513 0.011376549 -0.058220502 -0.07371795
0001e0 cd a9 dd bc dd f2 88 bd f9 5b b6 bc 7e e1 a7 bd
       -0.027058506 -0.066869475 -0.022260653 -0.08197306
0001f0 d6 93 32 3d 79 b6 69 3d b9 73 49 bd 4d a2 90 3c
       0.04359802 0.057058785 -0.049182627 0.017655516
000200 3e 8a cb bd 0f f8 cf 3a 86 a5 8d 3d 71 9a 43 bd
       -0.09938477 0.0015866774 0.06916337 -0.04775471
000210 0f 9e 09 bd 26 91 11 be fd 9a 93 bd d6 80 bb bd
       -0.033598002 -0.14215526 -0.07207296 -0.09155433
000220 9f f7 be 3d 52 be 99 bc 89 2b 0f 3e a7 86 d0 3c
       0.09324574 -0.01876751 0.13981451 0.025454832
000230 dd 1d 9d bd f9 e0 6c 3b 56 c2 23 bd eb e1 95 bb
       -0.076717116 0.0036144836 -0.039980255 -0.0045740507
000240 78 0c 87 bb a1 59 84 be 7c 6e de 3c 72 8b d0 3d
       -0.0041213594 -0.2584963 0.027152292 0.10182847
000250 b4 c3 55 bd c4 5e 67 bd 86 29 c2 3c dc 19 29 bd
       -0.05218859 -0.05648686 0.02370144 -0.041284427
000260 8b 1d 65 bb 61 57 60 be 3f 98 57 3e bf 16 cb 3c
       -0.0034960236 -0.21908332 0.21054171 0.02479112
000270 31 a4 08 3d 21 04 0d be 16 11 c0 3d b9 ca 17 3c
       0.03335971 -0.13771106 0.09378259 0.009264641
000280 87 db c2 bd fa 9f 2b 3d 78 5a d0 bd 27 74 7f bd
       -0.09514528 0.041900612 -0.101735055 -0.06236663
000290 99 38 1f bd 6e 39 4b 3c 40 68 eb bd 59 66 f5 bd
       -0.038872335 0.012403829 -0.114944935 -0.11982412
0002a0 1e 12 83 3e a0 11 b0 bd 61 85 8f 3c da 2a 22 be
       0.2559976 -0.08597112 0.017519655 -0.15836659
0002b0 46 42 9d bd bb c8 16 bb af ac 4f bd 1d 89 2a be
       -0.07678656 -0.0023007828 -0.050701793 -0.16653867
0002c0 91 2c 24 bd cc 4d b2 bd 24 b9 04 be 9b 72 dd bc
       -0.040081564 -0.08706245 -0.1296125 -0.027032187
0002d0 bb ce 06 3d a4 19 06 bc 88 84 b8 3c 99 6d c6 3d
       0.032911997 -0.008184824 0.022524133 0.09688873
0002e0 93 9e b6 bc 1c 3e ce bd 1b 9d 03 be e0 0c 06 3d
       -0.022292411 -0.1007044 -0.128529 0.032727122
0002f0 26 24 13 3e d6 7b 34 bd a2 a7 d4 bd bf 8f d5 3d
       0.14369258 -0.04406341 -0.10383536 0.10427808
000300 02 63 65 bd 90 e8 25 bd df 8a 3c bb 5d 92 b8 bd
       -0.056002624 -0.040504992 -0.0028769297 -0.090122916
000310 c4 13 50 bd bd 35 34 be 7c 96 af 3a 50 23 2b be
       -0.0508001 -0.17598625 0.0013396288 -0.1671269
000320 03 7a a0 3d bd b2 01 be 78 64 2d bd e0 52 b6 3d
       0.07835772 -0.1266584 -0.042332143 0.08902526
000330 f7 df 8d 3d da 91 f6 bd 84 c0 91 bd 81 79 1c bd
       0.069274835 -0.12039538 -0.071167976 -0.038201813
000340 49 19 07 bc 15 02 08 be a4 3c 66 be ec 70 6e 3d
       -0.008245775 -0.13282044 -0.2248407 0.05821316
000350 d7 a0 d5 3d 7d d9 5d bb f8 75 60 3c b2 99 84 bd
       0.104310684 -0.0033851557 0.013700001 -0.064746276
000360 94 63 8b bc 96 4f 04 bd 9d f5 95 bd 11 a1 34 3c
       -0.017015256 -0.03230246 -0.07322238 0.011024729
000370 3f 29 60 3c 71 29 d3 3d 03 a0 c7 bc c1 67 78 bd
       0.013681709 0.10310639 -0.024368292 -0.060645822
000380 95 6f e7 bc c4 01 40 3d f9 3c 13 3b c2 70 8e 3d
       -0.028251449 0.046876684 0.0022466762 0.069551006
000390 66 a9 d9 3d 7d d4 e9 bd b3 b9 9e be 0c 97 87 bd
       0.10628013 -0.11417482 -0.31001052 -0.06620607
0003a0 de 5c ec bd 77 38 be 3b 75 88 06 bd 66 e6 9f 3d
       -0.115411505 0.005805071 -0.03284498 0.07807617
0003b0 f9 77 a1 3d 99 fd 3e bd e8 6c 12 bc ef c9 1e 3d
       0.07884211 -0.04662857 -0.008937098 0.038766798
0003c0 38 6a ad 3d c8 55 03 3e ca 33 c0 bb 89 66 aa 3d
       0.08467525 0.12825692 -0.0058655487 0.08320338
0003d0 78 e4 27 bc 06 1d c2 bc 82 98 71 bd 2f a5 1b 3e
       -0.010247342 -0.02369548 -0.058983333 0.15199731
0003e0 e0 e6 47 bd 6e bc 6e 3c 49 e9 05 be a3 20 d7 bd
       -0.048804164 0.014571292 -0.13077272 -0.10504272
0003f0 b6 e8 62 3c b9 8a f8 3d 50 02 40 3d cb 77 80 bc
       0.013849428 0.12135834 0.046877205 -0.015682122

module_list.1.0.bias f4 [64]
000000 10 17 1a bd 45 e5 56 3b d0 f3 87 bd f5 2f 82 bd
       -0.03761965 0.0032790464 -0.066383004 -0.06356803
000010 84 87 a9 bd 96 a1 ea bc 46 be e5 bc 9f 78 cf bd
       -0.08277801 -0.028641503 -0.028044831 -0.101304285
000020 ac 18 7c 3c 2e 84 82 bd 08 e5 5e 3d 17 13 0f 3d
       0.015386742 -0.063728675 0.05441764 0.034930315
000030 07 86 f0 bd 30 a7 05 bd b7 2f 46 3d eb d4 da bc
       -0.11744314 -0.032630146 0.04838535 -0.026712855
000040 14 82 bb bd 69 80 db 3d 29 a8 90 bd 34 0e 55 bd
       -0.0915567 0.10717852 -0.07063324 -0.0520155
000050 86 d3 b1 bd e4 de 9c 3d 2b 0b b4 bc 99 d0 a2 bd
       -0.08682923 0.076597005 -0.021977982 -0.07949943
000060 1f 66 e8 bd 73 7d 82 3d a6 b3 36 3d 68 04 d8 3c
       -0.11347603 0.06371584 0.04460492 0.026369289
000070 18 3d f0 bc f3 c7 c4 3c de be 6b 3c 33 c1 7f 3c
       -0.029326007 0.024021124 0.014388768 0.015610027
000080 c0 9c 36 3d 20 8b d6 3d f1 d6 d7 3d be 20 6d bc
       0.044583082 0.10475755 0.10539044 -0.014473138
000090 9c 7e 29 3d 67 26 6b bd 34 f9 39 3d 9d ed fb 3c
       0.04138051 -0.05740967 0.045403674 0.030752951
0000a0 f3 7f 44 b9 d0 9c 1e 3d 1a fe 41 bd 4d 73 81 3d
       -0.00018739681 0.038723767 -0.04736147 0.0632082
0000b0 9c 0c 50 bd 14 d0 74 bd 1a ac 04 bd cc ea e0 bd
       -0.050793275 -0.05976875 -0.03239069 -0.10982284
0000c0 3d 55 41 3d 24 47 82 3d 50 3e 85 3d 68 32 8b 3c
       0.04720043 0.06361225 0.06506026 0.016991809
0000d0 a3 d4 54 bd 67 95 6b bd 70 69 ab 3d 37 67 c9 3d
       -0.0519606 -0.057515528 0.0836972 0.0983414
0000e0 4b 2d 98 3d df 2a 42 3d 62 7d 38 3d aa 26 a7 3d
       0.07430514 0.047404166 0.04504145 0.081616715
0000f0 3d a9 88 bc 9d e1 68 bc f5 29 22 bd 1b 36 d0 3d
       -0.016682262 -0.014213947 -0.039590795 0.1016657

module_list.2.weight f4 [1, 64]
000000 52 47 d6 3d ef c5 e3 3d 63 06 94 be 4b 98 c8 3d
       0.10462822 0.11121737 -0.28911123 0.097946726
000010 d3 d7 42 be 77 fe 7f bd 8a b9 ad 3d bb 9b be 3b
       -0.19027643 -0.062498536 0.084826544 0.0058169044
000020 50 39 d3 bd 27 ed 2e bd 2d 74 28 bd 24 44 b3 3c
       -0.10313666 -0.042706635 -0.04112642 0.021883078
000030 66 76 93 be 6e 9f 49 bd 1c aa 38 3d 0a 54 c8 bd
       -0.28801268 -0.04922431 0.045084104 -0.09781654
000040 0f 40 4d bd 50 75 1d 3d 29 5e 9c bd c3 38 bc 3d
       -0.05010992 0.038441956 -0.07635147 0.09190514
000050 c3 a6 c8 bd 24 11 c5 3d 62 5e 89 3d 47 e6 08 be
       -0.09797432 0.0962241 0.06707455 -0.13369094
000060 9e ee 33 be 54 da cc 3d 40 ee ef bb 3a 21 32 bd
       -0.17571494 0.1000258 -0.007322103 -0.04348872
000070 98 1c 1a 3d 83 64 7b bc d7 58 43 bc 4d 92 1b 3e
       0.037624925 -0.015343788 -0.011923037 0.15192528
000080 df 3d 9c bd 32 8b d0 3d c2 38 bd 3d 9a 27 52 bd
       -0.076289885 0.101827994 0.09239341 -0.0513073
000090 7a 63 1d 3e 4f 38 f7 3c 6f a6 de bd 45 fb 34 bd
       0.15369979 0.030178217 -0.108715884 -0.04418494
0000a0 13 00 14 3e d7 73 c8 3b 85 80 d0 bd 7f 7c d2 3d
       0.14453153 0.006117325 -0.10180763 0.10277652
0000b0 e8 6e 42 bd 52 b2 51 bd d8 7a d2 bd d3 95 60 be
       -0.04746905 -0.05119545 -0.10277337 -0.21932153
0000c0 81 8f c2 3d d4 5d bf bd f4 b3 22 bd 49 f9 c0 bc
       0.095000274 -0.09344068 -0.039722398 -0.023556368
0000d0 bc 85 1b bd 86 ac d2 3c 19 0a 65 3d e5 3c 12 3e
       -0.037969336 0.025717031 0.055917833 0.14281042
0000e0 68 ea 21 3e e1 65 c6 bd ff be c0 3d e8 e7 7d 3d
       0.15812075 -0.096874006 0.094114296 0.06198874
0000f0 ef 14 9f 3d 9b 54 b8 bd 84 56 a4 3d 8b b3 18 3e
       0.07767665 -0.09000512 0.08024314 0.1491224
