saved_models_mtl_HEA/mtl_6_HEA_500_b1_best.pt (torch, 694287 bytes, 79 tensors)

atomic_mass f8 [119]
00000000: 0000 0000 0000 f03f 54e3 a59b c420 f03f
00000010: e59d 4319 aa02 1040 c3f5 285c 8fc2 1b40
00000020: b720 00dd 3c06 2240 1f85 eb51 b89e 2540
00000030: 1283 c0ca a105 2840 dd24 0681 9503 2c40
00000040: 7368 91ed 7cff 2f40 d64e 8559 97ff 3240
00000050: 5917 b7d1 002e 3440 7b2f 0085 61fd 3640
00000060: ae47 e17a 144e 3840 d043 6d1b 46fb 3a40
00000070: f628 5c8f c215 3c40 647f 5f77 48f9 3e40
00000080: 48e1 7a14 ae07 4040 9a99 9999 99b9 4140
00000090: d34d 6210 58f9 4340 3199 2a18 958c 4340
000000a0: 448b 6ce7 fb09 4440 0dfe 7e31 5b7a 4640
000000b0: e5d0 22db f9ee 4740 8d97 6e12 8378 4940
000000c0: d6c5 6d34 80ff 4940 c11a 67d3 1178 4b40
000000d0: 5c8f c2f5 28ec 4b40 6669 a7e6 7277 4d40
000000e0: f085 c954 c158 4d40 d9ce f753 e3c5 4f40
000000f0: b81e 85eb 5158 5040 83c0 caa1 456e 5140
00000100: b81e 85eb 5128 5240 0e4a 9869 fbba 5240
00000110: a01a 2fdd 24be 5340 60e5 d022 dbf9 5340
00000120: 508d 976e 12f3 5440 6744 696f f05d 5540
00000130: 48e1 7a14 aee7 5540 27da 5548 f939 5640
00000140: 7593 1804 56ce 5640 d504 51f7 013a 5740
00000150: cdcc cccc ccfc 5740 ab26 88ba 0f7a 5840
00000160: 14ae 47e1 7a44 5940 cba1 45b6 f3b9 5940
00000170: 7b14 ae47 e19a 5a40 c898 bb96 90f7 5a40
00000180: d122 dbf9 7e1a 5c40 3108 ac1c 5ab4 5c40
00000190: 3d0a d7a3 70ad 5d40 713d 0ad7 a370 5e40
000001a0: 6666 6666 66e6 5f40 a48d 23d6 e2b9 5f40
000001b0: 4c37 8941 6069 6040 9289 6376 f99c 6040
000001c0: 5839 b4c8 762a 6140 4bb0 389c f95c 6140
000001d0: c1ca a145 b683 6140 65fc fb8c 0b9d 6140
000001e0: 39b4 c876 be07 6240 1aa3 7554 351d 6240
000001f0: ec51 b81e 85cb 6240 022b 8716 d9fe 6240
00000200: 0000 0000 00a8 6340 516b 9a77 9cdd 6340
00000210: 0000 0000 0050 6440 9b8f 6b43 c59d 6440
00000220: 3f35 5eba 49e8 6440 9d68 5721 e51d 6540
00000230: 7d3f 355e baa1 6540 bbb8 8d06 f0de 6540
00000240: 48e1 7a14 ae4f 6640 0a11 7008 559e 6640
00000250: 7b14 ae47 e1fa 6640 b4c8 76be 9f46 6740
00000260: 8fc2 f528 5cc7 6740 6de7 fba9 f106 6840
00000270: a69b c420 b062 6840 7a8a 1c22 ee9e 6840
00000280: 6de7 fba9 f112 6940 5c8f c2f5 288c 6940
00000290: 6666 6666 66e6 6940 f31f d26f 5f1f 6a40
000002a0: 7f13 0a11 701f 6a40 e3c7 98bb 963f 6a40
000002b0: 0aa2 ee03 90c0 6b40 8acd c7b5 a1e0 6b40
000002c0: b9df a128 d040 6c40 d9ce f753 e360 6c40
000002d0: e561 a1d6 3401 6d40 9352 d0ed 25e1 6c40
000002e0: e010 aad4 ecc0 6d40 bfd4 cf9b 8aa1 6d40
000002f0: 7042 2102 0e82 6e40 1d94 30d3 f661 6e40
00000300: c1a8 a44e 40e2 6e40 9ed2 c1fa 3fe2 6e40
00000310: d6e2 5300 8c62 6f40 2db2 9def a782 6f40
00000320: 5c38 1092 8511 7040 20ef 552b 9321 7040
00000330: 560e 2db2 9d31 7040 f628 5c8f c261 7040
00000340: cba1 45b6 f3b1 7040 bc74 9318 04c2 7040
00000350: a01a 2fdd 24f2 7040 e3a5 9bc4 20e2 7040
00000360: 4703 780b 24d2 7040 d122 dbf9 7e62 7140
00000370: 713d 0ad7 a392 7140 2db2 9def a792 7140
00000380: 46b6 f3fd d4d2 7140 f4fd d478 e9e2 7140
00000390: d7a3 703d 0a13 7240 c976 be9f 1a13 7240
000003a0: 2506 8195 4353 7240 17d9 cef7 5353 7240
000003b0: 8195 438b 6c63 7240
1.0 1.008 4.002602 6.94 9.0121831 10.81 12.011 14.007
15.999 18.998403163 20.1797 22.98976928 24.305 26.9815385 28.085 30.973761998
32.06 35.45 39.948 39.0983 40.078 44.955908 47.867 50.9415
51.9961 54.938044 55.845 58.933194 58.6934 63.546 65.38 69.723
72.63 74.921595 78.971 79.904 83.798 85.4678 87.62 88.90584
91.224 92.90637 95.95 97.90721 101.07 102.9055 106.42 107.8682
112.414 114.818 118.71 121.76 127.6 126.90447 131.293 132.90545196
137.327 138.90547 140.116 140.90766 144.242 144.91276 150.36 151.964
157.25 158.92535 162.5 164.93033 167.259 168.93422 173.054 174.9668
178.49 180.94788 183.84 186.207 190.23 192.217 195.084 196.966569
200.592 204.38 207.2 208.9804 208.98243 209.98715 222.01758 223.01974
226.02541 227.02775 232.0377 231.03588 238.02891 237.04817 244.06421 243.06138
247.07035 247.07031 251.07959 252.083 257.09511 258.09843 259.101 262.11
267.122 268.126 271.134 270.133 269.1338 278.156 281.165 281.166
285.177 286.182 289.19 289.194 293.204 293.208 294.214

tower_layers.0.0.weight f4 [128, 128]
00000000: 1980 5d3b 6643 4fbc 6468 433d 532f 3d3d
00000010: 5926 f6bc 9bbc ee3c d261 24bb 362b abbb
00000020: 2bad 353d 0d70 9b3d 6bc7 4ebd f015 283c
00000030: 23ad afbc 817f e9bc 34c0 bebd da43 80bd
00000040: 6cfb 7f3d 2087 a83b d988 31bd 3581 163d
00000050: bd5b f53b 9894 513c 5f83 403c 4d7d 3cbd
00000060: 8b56 dfbc 1485 bebd 06c7 4c3d 548c f43c
00000070: 53e2 133d 1760 95bd d756 943c 92b8 dbbc
00000080: 0664 d0bc 2c0f 10bb 7485 79bd 76c2 cbbc
00000090: e15b 43bd b70b 483c a211 31bd 684e cfbd
000000a0: 199d e73c 8042 6d3b a3fa f239 8aac e3bc
000000b0: 90c6 7d3d 1f81 95ba b928 a13d dd6e 973d
000000c0: 2978 b53d 8dff 4cbd affd c5bd 1e21 1cbd
000000d0: 2738 5ebd 1c9d b6bd 0efb 0fbe 3a13 11bd
000000e0: 2536 833d 1d5e 323a a19b 7abd 70c2 9c3c
000000f0: 0977 ea3c 3695 393d dfe9 15bd 6f2f 643d
00000100: 0313 263d a610 dcbd fcef 6dbd e615 77bd
00000110: 5f60 9e3d d4e9 45bd bbd9 ecbc f750 443d
00000120: cbd5 153c ae73 b73d 656c 0fbe 0ef5 9fbd
00000130: 1646 a8bd 4070 55bc c78a b3bd 73c1 9c3c
00000140: 076f 873c e8b3 df3d 5191 9cbd 8eb2 43bd
00000150: 200e 8bbd 9d03 4c3d b471 abbd ec1b 57bd
00000160: 471f 913d 8122 b7bd 87f9 c73d 5eea d13c
00000170: 2bfe 9a3d 4780 34bd 96cb a43d 1beb 05bb
00000180: 96bf 53bd ec5e e73c 3107 3ebc bc45 a2bd
00000190: 296a 08bd 3a88 0abd 7261 09bd 6754 4dbd
000001a0: aa27 653d b4e2 a83d 83ac 803d b273 f33d
000001b0: f36e 8c3c 303c 3a3d 1514 bc3d c77a 7bbb
000001c0: 0c6c 8d3d 7dcb 583d 34cd 843d bfdd 853c
000001d0: 58b8 2b3d f479 d9bd 0fb0 8c3d 27d6 703c
000001e0: 462f 6bbb 5fc2 883b c707 303d 085f a43d
000001f0: 683f b43c 2364 1f3c 7376 9ebc 96f1 aabd
00000200: faf1 34bd 355e bc3d 2c84 443d 2041 143c
00000210: 5fc8 d43d f521 06be 5dcb d5bd 3ad2 653c
00000220: 7422 07bd c8d2 213d 6349 0dbd 06b7 95bc
00000230: b72c 77bd 2e43 57bc 8feb 143c 7810 11bc
00000240: fa79 f0bc c94c e93c aa9d 5c3c fd67 353c
00000250: e142 703d 9a5a d3bc ec8b abbd 02df a53d
00000260: b9f9 f7bc 9622 a3bd e7a2 0c3e 9b4b eebb
00000270: f190 27bc 5344 29bc 89d9 a53b e56c 103d
00000280: 3ac3 c23d ec0e 053d bc6d bf3d b2e0 6d3d
00000290: 3465 edbc e539 193c 3aac 2dbd 60d1 00be
000002a0: d4c8 b33d 6201 b9bd 7203 b0bd 413e 2c3b
000002b0: 730b c23d 0290 b63c 36c8 9c3c 0b1b 0a3d
000002c0: 198b b63c 6e19 0bbd d9aa a23c 178f 023c
000002d0: 5791 853b d7b3 ebbc 861c 9abd ce9d 52bd
000002e0: 48d1 9dbd 8d52 823c de7e d3bd 7592 abbc
000002f0: 7929 99bd 641b 0cb9 8969 b43b 0ed1 9fbd
00000300: 6df7 eb3b 4af0 5ebd 7496 b63d 3f86 113e
00000310: e680 453d ec31 e5bd 43fc 56bd dedb eabc
00000320: e856 b43d a74e ed3a 642a e1bb 0fa7 13bc
00000330: b6e3 abbc dffb 813d 7d0d d93d 01d8 9c3d
00000340: f478 84bd 8bab d03d c6f9 e93d 37d4 153c
00000350: 32ac ad3c 8f2a 543d 98c1 1c3d 1cc2 763d
00000360: 2599 ddbc 4652 0a3d ec7d f73a d8e3 b3bd
00000370: 7301 213d 1284 b8bd af4a a83c 0276 013d
00000380: b945 0abd 33a9 d4bd a4b3 ce3c 9005 71bd
00000390: 47bc 9abc e0fc 9dbd 5306 cebd d218 adbd
000003a0: e344 3bbc 8e01 6bbd 5722 04be 360e 083b
000003b0: 57e0 4abc e73d cd3d cae2 0e3d e446 0bbc
000003c0: 1ae6 713c 9b54 88bd 5f73 aa3c 8a69 213e
000003d0: 632b d83d ca1a 15be cf02 e83d 2cab 2a3d
000003e0: 2d33 c0bd 5028 883d 746a 94bd 7117 57bb
000003f0: dd26 bdbc 9af3 bfbd 82b8 50bc fbf0 febd
0.0033798276 -0.012650346 0.047706977 0.04618771 -0.030047582 0.029142668 -0.002508272 -0.005223657
0.0443546 0.07589731 -0.05048315 0.010259137 -0.021444863 -0.028503181 -0.093140036 -0.06262942
0.062495634 0.0051430613 -0.0433434 0.036744315 0.0074877427 0.012791775 0.011750071 -0.046017934
-0.027262947 -0.093027264 0.04999449 0.02985207 0.03610451 -0.07293718 0.018107815 -0.026821408
-0.02543832 -0.00219817 -0.060918286 -0.024873 -0.047695044 0.012209824 -0.043229707 -0.10122377
0.028273152 0.0036202967 0.00046344576 -0.027792234 0.061956942 -0.0011406279 0.07869095 0.07394192
0.08860809 -0.0500484 -0.09667527 -0.03811752 -0.05425277 -0.08916685 -0.14060614 -0.035418727
0.064068116 0.0006804185 -0.061183576 0.019135684 0.028621214 0.045308314 -0.03659999 0.0557093
0.040545475 -0.10745363 -0.058090195 -0.06032362 0.07733225 -0.0483187 -0.028912416 0.047928777
0.0091452105 0.08957611 -0.14006193 -0.07810412 -0.08216493 -0.013027251 -0.08766704 0.019135213
0.016532434 0.10922986 -0.076449044 -0.047777705 -0.067898035 0.049808133 -0.083712965 -0.052516863
0.07086044 -0.08942128 0.097643904 0.02562445 0.0756801 -0.044067647 0.080466434 -0.0020434323
-0.051696382 0.028243504 -0.011598394 -0.07923457 -0.033304367 -0.033821322 -0.033540197 -0.05012932
0.05594603 0.08246365 0.06282904 0.118873015 0.017142748 0.045467556 0.09183518 -0.0038372742
0.06905374 0.052928437 0.06484452 0.016341088 0.04192385 -0.10618964 0.06869518 0.014699495
-0.0035886331 0.0041735615 0.042976167 0.08025938 0.02200289 0.009728464 -0.01934359 -0.0834686
-0.04417608 0.09197656 0.04797761 0.00904873 0.1038978 -0.13098891 -0.10439179 0.014027173
-0.03299184 0.039507657 -0.034493815 -0.018275749 -0.060345378 -0.0131385755 0.009089365 -0.008854024
-0.029355038 0.028478997 0.013465324 0.011072156 0.05865753 -0.025800038 -0.08376297 0.08099176
-0.030270444 -0.07965581 0.13734017 -0.0072721965 -0.010227428 -0.010331231 0.0050613326 0.0352601
0.09509893 0.032484934 0.09347102 0.058075614 -0.028978921 0.009352182 -0.042400576 -0.1257987
0.08778539 -0.09033467 -0.08594407 0.0026282223 0.0947484 0.022285465 0.019138437 0.033717196
0.022283124 -0.0339598 0.019856857 0.007968686 0.0040761638 -0.028772278 -0.07524972 -0.051420026
-0.07705933 0.015908504 -0.10326932 -0.02094386 -0.074786134 -0.00013361644 0.005505745 -0.07803546
0.0072011263 -0.054428376 0.089154154 0.14211367 0.04821863 -0.111911625 -0.05248667 -0.028669294
0.088056386 0.0018105105 -0.0068715084 -0.009011998 -0.020982604 0.06346869 0.10598276 0.07658387
-0.064683825 0.10188969 0.114245936 0.009144834 0.021200273 0.0517984 0.038270563 0.06024371
-0.027050564 0.03376987 0.0018882132 -0.08783692 0.039308023 -0.090095654 0.020543424 0.03160668
-0.0337579 -0.10383835 0.025232144 -0.058843195 -0.018888606 -0.07714248 -0.100598 -0.08452
-0.011429998 -0.05737453 -0.12903725 0.0020760424 -0.012382588 0.100215726 0.03488425 -0.008500788
0.014764333 -0.06656762 0.020806966 0.15762916 0.1055515 -0.14561 0.11328661 0.04166715
-0.09384761 0.06648314 -0.07246867 -0.0032820369 -0.02308982 -0.09372635 -0.012739303 -0.12448307

tower_layers.0.0.bias f4 [128]
00000000: 7307 adbc 58c6 03be a3f9 96bd 429c 773d
00000010: 20fb aabd b508 d8bd 1f78 a0bc ee55 323d
00000020: f6cb f63c f171 873d 13ab 06be ed04 01bc
00000030: 7f6e 713d 7cc8 403d 02c1 a5bb fdaa fcbd
00000040: 1fbd 05be e97e cbbd e39a 7b3c e5e4 96bd
00000050: 595d 5cbc 618b 8abc 88d2 ae3c 4311 f23b
00000060: 5fd1 813d 8213 f93c 2a8e 1a3d 6f35 dc3d
00000070: 8cd7 dd3d 36fc 00be 98d0 763d 234c a03d
00000080: 8fbc c1bd 027a 3dbd b714 5fbd 712f 443d
00000090: fea9 1fbd 2519 863c 2b7a 06be 3b01 00be
000000a0: 87f5 fd3b eaf9 b23d 041a 343d b0d9 d03d
000000b0: 5dac fa3d d8a3 ad3d 3ae3 85bd 50d7 9f3c
000000c0: b929 50bd 3e4c 3ebd 8a9d f7bc 0fd8 c03d
000000d0: 01ac f03c 4a70 7e3c 386d 9f3c 050d 76bd
000000e0: 3015 113d db7b 8cbd 8375 cabc 2c36 513c
000000f0: b790 b43d 2a21 a93d a60e 453d a48b d4bc
00000100: d9c4 b4bd 709e e83d e1d4 b83d e923 873d
00000110: d96c 75bd dc23 f6bc 77ac 213d 1f94 8fbd
00000120: b618 c0bc f53e 13bd 71df a4bd 410f a73d
00000130: d775 833a d17f 163d eeda 2f3d cb32 043e
00000140: 0321 87bc 6aa0 82bd 8b3e 483d 76fe 01be
00000150: 8a40 ce3c 09e0 9e3d 3168 ccbd 85d7 aebd
00000160: 7eb2 dbbc bd01 873d 32c6 9cbc 7763 c1bd
00000170: f887 96bd 3561 753d f849 04be f5da 64bd
00000180: 79a8 963c b839 53bc 7a5e e23c 6005 0a3d
00000190: a38f 813b 8413 33bd a8c0 acbd 5d90 aabc
000001a0: 6f8f f73c 19d3 babd 2c83 fe3d 7031 5a3d
000001b0: 8d4c aabd c47a d2bc bcf5 93bd d404 0cbd
000001c0: 6184 8dbc 3181 193c 294a 9d3d 5059 773d
000001d0: 1380 c53b 2c58 d2bb 412b 9f3b b6b5 88bd
000001e0: 677e 9fbc b928 febd a540 e03d 0b47 91bc
000001f0: 336e bc3d 987f 92bd 1698 b73d e793 a8bc
-0.021121716 -0.12868631 -0.07371833 0.060451753 -0.083486795 -0.10548536 -0.019588528 0.04353898
0.030126553 0.066135295 -0.13151197 -0.00787471 0.058943268 0.047066197 -0.0050584087 -0.12337301
-0.13060425 -0.099363156 0.015356752 -0.07367877 -0.01344999 -0.016912164 0.021340623 0.0073873117
0.063387625 0.03040481 0.037733234 0.10752379 0.10832128 -0.12596211 0.060257524 0.07827022
-0.09459793 -0.046258934 -0.054463115 0.047896806 -0.038980477 0.016369412 -0.13132541 -0.1250047
0.0077502164 0.087390736 0.043970123 0.101977706 0.12239907 0.08478516 -0.06537481 0.019511849
-0.05082104 -0.04645943 -0.030226488 0.0941621 0.029378893 0.0155297015 0.01946126 -0.06007101
0.035420597 -0.06859561 -0.024714237 0.012769263 0.08816665 0.08258279 0.048109673 -0.025945492
-0.08826608 0.113583446 0.090249784 0.06598646 -0.05991826 -0.030046396 0.039471116 -0.07010674
-0.023449283 -0.035948712 -0.080504306 0.08157206 0.0010029626 0.03674299 0.042933397 0.12910001
-0.016495233 -0.06378253 0.04888777 -0.12694725 0.025177259 0.07757575 -0.099808104 -0.08537201
-0.02681851 0.065921284 -0.019137476 -0.094427995 -0.07350153 0.059907157 -0.12918842 -0.055872876
0.01839088 -0.012892179 0.02763294 0.033696532 0.0039538904 -0.043719783 -0.08435184 -0.02082079
0.030219762 -0.09122295 0.12427363 0.053269804 -0.08315382 -0.025693305 -0.072246045 -0.034184292
-0.017275037 0.009369181 0.076801606 0.06038791 0.0060272305 -0.0064192023 0.004857451 -0.066752836
-0.019469453 -0.12410111 0.1094983 -0.017734071 0.09200706 -0.07153243 0.08964555 -0.020578338

tower_layers.0.2.weight f4 [64, 128]
00000000: cab5 aabc fde8 693d da81 7cbc 8467 653d
00000010: ada4 cbbc 0068 52bd 9c47 ddbd 229f e53b
00000020: f7f0 0abb b2f2 46bd a521 eabc fcde 9abc
00000030: 2f53 f4bc 16c2 eabd ca22 a3bd 7467 0cbd
00000040: 5797 1dbd a4c6 2dbc a7c5 593d 2f47 16bc
00000050: 51aa 733d f3a6 8a3c edd8 fabb a7ad ce3d
00000060: 068c fabb 1fe1 8a3d a6da 0fbd a6f6 7c3d
00000070: 317b 8abc f507 113d f124 aa3d 4602 b43d
00000080: 291f f1bb ff0e 673d e330 c33c e8bd abbd
00000090: 9b76 9cbc 0eea e53c c119 373d 91fc 99bd
000000a0: e9c6 f0bd d2eb 9ebc 278b 38bd c575 563d
000000b0: 3379 983d f19c 08be 2b91 cbbc 0fff f03c
000000c0: 4c07 cbbd 9a14 d3bd 0ccc 54bd 5dec 4abc
000000d0: 8674 d9bd 0707 6e3c 6afa 5bbd da0a 11bd
000000e0: 4353 bbba 087f 72bd bc58 aebd 7e74 2d3c
000000f0: 8069 ab3d ca76 893d ff3d c23d 9012 b23b
00000100: 2917 7d3c 8063 973d 5dc3 1f3c 4d8d d8bd
00000110: cbbb 4fbd e659 4a3d 2420 dcbd 37d1 f1bc
00000120: b4be 563d ad65 003d d726 093d 5859 583d
00000130: c135 853d cab2 9abc 9e3f e2bd e627 a8bc
00000140: 4584 abbc 731f 583d 3aec c7bc c2cd 6b3c
00000150: 71af ba3d 161a af3c 7273 0cbd 9fcb e2bb
00000160: 09f3 c9bd cbd0 c43d d601 9abd 805e de3c
00000170: d5f5 b73d 4945 863d a884 c2bd f81e 5f3d
00000180: 87fe 873d 8647 b0bd f364 8f3d e535 e2bc
00000190: 27d7 d13d 9978 07bd 8474 e3bd 5358 2ebd
000001a0: 26c2 4abd ae91 8bbb 3995 ab3d b9ee aabc
000001b0: bf07 e4bc d2d7 1e3d f376 353c d624 0b3d
000001c0: f08f a63d afbd cebd 2dcf 1abd 394b c83d
000001d0: 4aa0 ab3d 1969 153d 4732 4d3d 93fc d4bd
000001e0: 3e8c 1ebd 4046 f9bc fa72 cf3d 3594 ab3d
000001f0: 34b6 c13d 986c babd e29c 72ba cf33 6e3b
00000200: fef0 82bd 5043 f2bb 544f 9abd e751 2dbc
00000210: ef32 24bd 8b3b 433d 73b7 7c3d ac03 883d
00000220: 5e85 32bd 9e5b 323d d065 c6bd 6b66 303d
00000230: 9aac e9bd cdc3 8b3d 8e00 dcbc 34e8 6ebd
00000240: 63f3 973c 5eb9 0fbd e9ba 8fbc e5c8 c1bc
00000250: 6f5e 0d3e ad36 cdbc 2287 aebd 180f 683d
00000260: d1e0 88bd 5f9a 80bd 593a 3e3d 49e0 a23d
00000270: fe5b 1ebd d04e 403c 22a0 233d d994 083c
00000280: a54d a6bd 272a 8bbd 357a 803d ac33 143d
00000290: 12c5 b6bc 44a6 f6bb 6566 2f3d d2d1 afbd
000002a0: fd4e 0bbc f712 c2bc 1453 75bd eb44 17bc
000002b0: d069 98bd 19da 55bc 988c d4bd b3b7 383d
000002c0: 4179 81ba 4cc9 69bd 3e6c d5bc 0d69 54bd
000002d0: ef60 6fbc 0552 a83b c1ea a9bd 6d21 83bd
000002e0: 756e b33d 9abb 97bc 6fbd 7abd e9ef 873d
000002f0: ed6e d33c 41b5 45bd 429c 263d e5f7 9abd
00000300: 8a08 c5bd 0d34 45bd ba53 a8bd 5e34 823c
00000310: 813c 933c 3fab 4cbd 79ee 89bd 3d68 c0bd
00000320: 3469 5b3c 1c52 90bd 93de 13bd 8cba d7bc
00000330: 7d4c 623d 11a2 2d3c b721 cf3d cc17 c73d
00000340: 384c a33d 5fed 7ebd 3bce 4ebd b608 a8bd
00000350: 232e 983d 1ca9 423d 6c22 483c f308 a53d
00000360: d802 b23c aa53 943d 5a90 7b3d 23d7 0cbd
00000370: 63a0 933d e873 40bc 4472 a63b 598b 763d
00000380: da10 ceb9 eaae 5b3c f4cd 01bd 2154 fa3c
00000390: 0593 5abd 116f b6bd 472b 90b9 d931 89bd
000003a0: 47f2 8a3d cdfe adbd 1b5c 33ba af20 563d
000003b0: 7af8 a3bd 93e7 b33c 1f67 2f3c ff52 83bd
000003c0: ad78 6fbd 186b 91bd 72c1 f03c b7b2 bcba
000003d0: e651 3e3d 4f4e 803d bcdb ed3b c642 843d
000003e0: 39d9 7d3d 1929 1a3c bc61 733d 6259 caba
000003f0: 28ec 0c3c a096 46bd acdb 90bd 47d8 453d
-0.020838637 0.05710696 -0.015411818 0.056006923 -0.024858797 -0.051368713 -0.10804674 0.0070074955
-0.0021200755 -0.048571296 -0.028580496 -0.018905155 -0.029824821 -0.114628 -0.0796562 -0.034278348
-0.038474407 -0.010606442 0.05316701 -0.009172245 0.0594886 0.01692531 -0.007655254 0.10091715
-0.0076460866 0.0678122 -0.03512063 0.06175866 -0.016904445 0.03540798 0.08307827 0.08789496
-0.007358451 0.056410786 0.023827022 -0.08385831 -0.019099524 0.028065708 0.044702295 -0.07518876
-0.11756689 -0.019399557 -0.04505458 0.052358408 0.07444992 -0.13341118 -0.024849495 0.029418496
-0.09913501 -0.10306664 -0.051952407 -0.012385455 -0.10617928 0.014528043 -0.05370561 -0.03541074
-0.0014291782 -0.059203178 -0.085130185 0.010586856 0.08369732 0.0671211 0.09484481 0.0054343417
0.015447416 0.07392025 0.009751168 -0.10573826 -0.050716203 0.04940214 -0.10748318 -0.029518707
0.052427962 0.031346966 0.033484306 0.05281958 0.06504393 -0.018884081 -0.1104729 -0.020526838
-0.020937094 0.052764367 -0.024404634 0.014392318 0.09115494 0.021374743 -0.034289785 -0.006921246
-0.098608084 0.096101366 -0.075198814 0.02714467 0.089824356 0.06556184 -0.094979584 0.054472893
0.06640344 -0.08607392 0.070016764 -0.02761359 0.10246115 -0.033073995 -0.11106208 -0.0425647
-0.04950156 -0.0042593097 0.08378071 -0.020865785 -0.027835725 0.03878004 0.011075723 0.033970676
0.08132923 -0.10094773 -0.037795234 0.097799726 0.08380182 0.036477182 0.050096776 -0.10399737
-0.038707964 -0.030429006 0.10129352 0.083778776 0.094585806 -0.09102744 -0.0009254945 0.0036346798
-0.06393622 -0.007393278 -0.07534662 -0.010578609 -0.040087637 0.047664206 0.06169839 0.06641325
-0.04358422 0.043544404 -0.09687388 0.043066423 -0.11409874 0.068244554 -0.026855733 -0.058326915
0.018548673 -0.03508889 -0.01754518 -0.023655364 0.13805555 -0.025050486 -0.08521868 0.05665502
-0.06683505 -0.06279444 0.046442363 0.07952935 -0.03866195 0.01173754 0.039947636 0.008336269
-0.08120278 -0.06795149 0.06273309 0.03618209 -0.022310767 -0.0075271446 0.04282226 -0.08584942
-0.008502719 -0.023690684 -0.059893683 -0.00923274 -0.07442057 -0.013052487 -0.10378379 0.045097064
-0.0009878055 -0.057076737 -0.02605259 -0.051857997 -0.014610513 0.0051367306 -0.08296729 -0.0640286
0.087613024 -0.018522073 -0.061215814 0.06637556 0.02580973 -0.04826856 0.040676363 -0.075668134
-0.09620769 -0.048145343 -0.082190946 0.015894111 0.017973186 -0.049968 -0.06734938 -0.09394882
0.013391782 -0.07046911 -0.036100935 -0.02633407 0.055248726 0.010597722 0.101138525 0.09721336
0.07973522 -0.062238093 -0.050489645 -0.082047865 0.07430675 0.047524557 0.012215238 0.080583476
0.021729872 0.0724252 0.06141696 -0.034384858 0.07208326 -0.011746384 0.0050795395 0.060191486
-0.00039303937 0.013408402 -0.031690553 0.030557694 -0.053362865 -0.08907903 -0.00027498064 -0.06698961
0.06784492 -0.08495865 -0.0006842033 0.052277263 -0.080063775 0.02196101 0.010705738 -0.064123146
-0.058464695 -0.07100505 0.029389117 -0.0014396523 0.046464823 0.06264936 0.0072588604 0.064580485
0.061974738 0.0094092125 0.05941938 -0.0015438015 0.008601226 -0.04848349 -0.07073149 0.04830196

tower_layers.0.2.bias f4 [64]
00000000: e616 013c 389a 193d 3f76 1b3c f498 653d
00000010: 1521 663d 7623 343d 782c 78bd 3e5b af3d
00000020: 7308 b5bb 55cc 8abd c642 393d b7c3 c03d
00000030: 1eff fcbc b8a0 91bb fcad 213d df49 4d3d
00000040: b7cd 70bd c5a5 c5b9 c265 79bc 9a93 c0bd
00000050: 2d32 cfbd 71c6 45bd a5e4 ef3d 65ec 91bc
00000060: 8e1d 5cbd 6523 71bd 3592 423d 759c cfbc
00000070: fedc 4dbd 4752 abbd df83 09bd 4b91 66bc
00000080: f6b0 e63a e262 e13d 2ae8 1ebd b5ed 573d
00000090: 83d1 0dbb 27bf afbd 8bd8 68bd 57cb b03d
000000a0: cbe4 1a3d 1844 ddbd 0843 923d 9b13 14bc
000000b0: 38f4 f4bc 1f37 fcbc a1df d2bd 2fdb d13c
000000c0: f265 51bc a277 3cbd 6489 43bc d4ce 103d
000000d0: 12a8 05bc c1dd ea3b e461 18bd f44a 28bd
000000e0: 957b 153d f53b b53d 7e4b cbbc fc56 263d
000000f0: 4931 c1bd e16f b73c a6ca 823d 2dad 0f3c
0.007878995 0.03750059 0.009488641 0.05605407 0.056183893 0.04397913 -0.060589284 0.08562325
-0.005524689 -0.067772545 0.045229696 0.0941233 -0.030883368 -0.004444208 0.039472565 0.050119277
-0.058789935 -0.00037698276 -0.015222015 -0.09403153 -0.10116992 -0.04828495 0.11713532 -0.017812917
-0.053739123 -0.058871645 0.047502715 -0.02534316 -0.050259583 -0.083653025 -0.033573028 -0.0140727265
0.0017600346 0.110051885 -0.038795628 0.05271693 -0.0021639771 -0.08581381 -0.056847136 0.08632534
0.03781585 -0.108040035 0.071416914 -0.009037877 -0.029901609 -0.030788003 -0.1029656 0.02561721
-0.012780653 -0.04601253 -0.011934612 0.035353497 -0.008157747 0.0071675484 -0.03720273 -0.041087106
0.03649481 0.088493265 -0.02481627 0.0406103 -0.094332285 0.022392215 0.06386308 0.008769316

tower_layers.0.4.weight f4 [1, 64]
00000000: 1d33 343c 889a fcbd 5869 073e e735 323d
00000010: 388c 4e3d 2c04 f3bd 13c6 233e df4b c9bd
00000020: e7a8 c93d c6cb 273e 0cf0 903b 428e 1d3d
00000030: d2de 133e 3f76 70bd e5ca 0e3d 9b5b 56bd
00000040: 00e6 a8bd fe2e f93d 5bdb 263d 4e1f 0a3e
00000050: 2848 a53c 7582 153e fdd2 0dbe 08ef 083e
00000060: 9089 0a3e 8618 8e3d 8e59 64bc dbf1 1c3e
00000070: 0863 993c 5f01 ce3d fbca 1dbb ec58 8f3c
00000080: ab56 e13d 9b19 f4bd f78b 98bc 636c 7d3d
00000090: 5d19 72bb a47e ab3d f002 dabd 1271 1c3c
000000a0: 0556 aebd a5ba f93d 115b e4bc 8c81 82bc
000000b0: ac30 09be 9ae4 cbbd 1a30 3b3c 6617 5bbd
000000c0: fae9 013e 1fc2 27be fbff 94bc da4b d33d
000000d0: 5c4b 393d 0b6b f7bd 353a c13d e482 1dbd
000000e0: 0da4 11bd 6c2d a5bd 65dc d73d eef1 88bc
000000f0: 4121 033e 3f6d 273e cb44 02be 0e36 ce3c
0.0109985145 -0.12334162 0.13223779 0.043508437 0.05042669 -0.1186603 0.15993528 -0.098289244
0.09846669 0.16386327 0.004423147 0.038465746 0.14440468 -0.05870652 0.034861464 -0.052333456
-0.08246994 0.12167166 0.040736537 0.13488504 0.020176008 0.14600547 -0.13850017 0.13372433
0.13529038 0.06938271 -0.013937367 0.15326636 0.01872398 0.10058855 -0.0024077285 0.017498456
0.11002859 -0.11918946 -0.018621428 0.061870944 -0.0036941387 0.08373764 -0.106450915 0.009548442
-0.08512501 0.12193803 -0.027875455 -0.015930913 -0.13397473 -0.09955712 0.0114250425 -0.05348911
0.12686911 -0.16382645 -0.018188467 0.10317202 0.045237884 -0.12080964 0.0943493 -0.038454905
-0.03555684 -0.08065304 0.10540084 -0.016716924 0.12805654 0.16350268 -0.12721555 0.02517226

tower_layers.1.0.weight f4 [128, 128]
00000000: 1980 5d3b 6643 4fbc 6468 433d 532f 3d3d
00000010: 5926 f6bc 9bbc ee3c d261 24bb 362b abbb
00000020: 2bad 353d 0d70 9b3d 6bc7 4ebd f015 283c
00000030: 23ad afbc 817f e9bc 34c0 bebd da43 80bd
00000040: 6cfb 7f3d 2087 a83b d988 31bd 3581 163d
00000050: bd5b f53b 9894 513c 5f83 403c 4d7d 3cbd
00000060: 8b56 dfbc 1485 bebd 06c7 4c3d 548c f43c
00000070: 53e2 133d 1760 95bd d756 943c 92b8 dbbc
00000080: 0664 d0bc 2c0f 10bb 7485 79bd 76c2 cbbc
00000090: e15b 43bd b70b 483c a211 31bd 684e cfbd
000000a0: 199d e73c 8042 6d3b a3fa f239 8aac e3bc
000000b0: 90c6 7d3d 1f81 95ba b928 a13d dd6e 973d
000000c0: 2978 b53d 8dff 4cbd affd c5bd 1e21 1cbd
000000d0: 2738 5ebd 1c9d b6bd 0efb 0fbe 3a13 11bd
000000e0: 2536 833d 1d5e 323a a19b 7abd 70c2 9c3c
000000f0: 0977 ea3c 3695 393d dfe9 15bd 6f2f 643d
00000100: 0313 263d a610 dcbd fcef 6dbd e615 77bd
00000110: 5f60 9e3d d4e9 45bd bbd9 ecbc f750 443d
00000120: cbd5 153c ae73 b73d 656c 0fbe 0ef5 9fbd
00000130: 1646 a8bd 4070 55bc c78a b3bd 73c1 9c3c
00000140: 076f 873c e8b3 df3d 5191 9cbd 8eb2 43bd
00000150: 200e 8bbd 9d03 4c3d b471 abbd ec1b 57bd
00000160: 471f 913d 8122 b7bd 87f9 c73d 5eea d13c
00000170: 2bfe 9a3d 4780 34bd 96cb a43d 1beb 05bb
00000180: 96bf 53bd ec5e e73c 3107 3ebc bc45 a2bd
00000190: 296a 08bd 3a88 0abd 7261 09bd 6754 4dbd
000001a0: aa27 653d b4e2 a83d 83ac 803d b273 f33d
000001b0: f36e 8c3c 303c 3a3d 1514 bc3d c77a 7bbb
000001c0: 0c6c 8d3d 7dcb 583d 34cd 843d bfdd 853c
000001d0: 58b8 2b3d f479 d9bd 0fb0 8c3d 27d6 703c
000001e0: 462f 6bbb 5fc2 883b c707 303d 085f a43d
000001f0: 683f b43c 2364 1f3c 7376 9ebc 96f1 aabd
00000200: faf1 34bd 355e bc3d 2c84 443d 2041 143c
00000210: 5fc8 d43d f521 06be 5dcb d5bd 3ad2 653c
00000220: 7422 07bd c8d2 213d 6349 0dbd 06b7 95bc
00000230: b72c 77bd 2e43 57bc 8feb 143c 7810 11bc
00000240: fa79 f0bc c94c e93c aa9d 5c3c fd67 353c
00000250: e142 703d 9a5a d3bc ec8b abbd 02df a53d
00000260: b9f9 f7bc 9622 a3bd e7a2 0c3e 9b4b eebb
00000270: f190 27bc 5344 29bc 89d9 a53b e56c 103d
00000280: 3ac3 c23d ec0e 053d bc6d bf3d b2e0 6d3d
00000290: 3465 edbc e539 193c 3aac 2dbd 60d1 00be
000002a0: d4c8 b33d 6201 b9bd 7203 b0bd 413e 2c3b
000002b0: 730b c23d 0290 b63c 36c8 9c3c 0b1b 0a3d
000002c0: 198b b63c 6e19 0bbd d9aa a23c 178f 023c
000002d0: 5791 853b d7b3 ebbc 861c 9abd ce9d 52bd
000002e0: 48d1 9dbd 8d52 823c de7e d3bd 7592 abbc
000002f0: 7929 99bd 641b 0cb9 8969 b43b 0ed1 9fbd
00000300: 6df7 eb3b 4af0 5ebd 7496 b63d 3f86 113e
00000310: e680 453d ec31 e5bd 43fc 56bd dedb eabc
00000320: e856 b43d a74e ed3a 642a e1bb 0fa7 13bc
00000330: b6e3 abbc dffb 813d 7d0d d93d 01d8 9c3d
00000340: f478 84bd 8bab d03d c6f9 e93d 37d4 153c
00000350: 32ac ad3c 8f2a 543d 98c1 1c3d 1cc2 763d
00000360: 2599 ddbc 4652 0a3d ec7d f73a d8e3 b3bd
00000370: 7301 213d 1284 b8bd af4a a83c 0276 013d
00000380: b945 0abd 33a9 d4bd a4b3 ce3c 9005 71bd
00000390: 47bc 9abc e0fc 9dbd 5306 cebd d218 adbd
000003a0: e344 3bbc 8e01 6bbd 5722 04be 360e 083b
000003b0: 57e0 4abc e73d cd3d cae2 0e3d e446 0bbc
000003c0: 1ae6 713c 9b54 88bd 5f73 aa3c 8a69 213e
000003d0: 632b d83d ca1a 15be cf02 e83d 2cab 2a3d
000003e0: 2d33 c0bd 5028 883d 746a 94bd 7117 57bb
000003f0: dd26 bdbc 9af3 bfbd 82b8 50bc fbf0 febd
0.0033798276 -0.012650346 0.047706977 0.04618771 -0.030047582 0.029142668 -0.002508272 -0.005223657
0.0443546 0.07589731 -0.05048315 0.010259137 -0.021444863 -0.028503181 -0.093140036 -0.06262942
0.062495634 0.0051430613 -0.0433434 0.036744315 0.0074877427 0.012791775 0.011750071 -0.046017934
-0.027262947 -0.093027264 0.04999449 0.02985207 0.03610451 -0.07293718 0.018107815 -0.026821408
-0.02543832 -0.00219817 -0.060918286 -0.024873 -0.047695044 0.012209824 -0.043229707 -0.10122377
0.028273152 0.0036202967 0.00046344576 -0.027792234 0.061956942 -0.0011406279 0.07869095 0.07394192
0.08860809 -0.0500484 -0.09667527 -0.03811752 -0.05425277 -0.08916685 -0.14060614 -0.035418727
0.064068116 0.0006804185 -0.061183576 0.019135684 0.028621214 0.045308314 -0.03659999 0.0557093
0.040545475 -0.10745363 -0.058090195 -0.06032362 0.07733225 -0.0483187 -0.028912416 0.047928777
0.0091452105 0.08957611 -0.14006193 -0.07810412 -0.08216493 -0.013027251 -0.08766704 0.019135213
0.016532434 0.10922986 -0.076449044 -0.047777705 -0.067898035 0.049808133 -0.083712965 -0.052516863
0.07086044 -0.08942128 0.097643904 0.02562445 0.0756801 -0.044067647 0.080466434 -0.0020434323
-0.051696382 0.028243504 -0.011598394 -0.07923457 -0.033304367 -0.033821322 -0.033540197 -0.05012932
0.05594603 0.08246365 0.06282904 0.118873015 0.017142748 0.045467556 0.09183518 -0.0038372742
0.06905374 0.052928437 0.06484452 0.016341088 0.04192385 -0.10618964 0.06869518 0.014699495
-0.0035886331 0.0041735615 0.042976167 0.08025938 0.02200289 0.009728464 -0.01934359 -0.0834686
-0.04417608 0.09197656 0.04797761 0.00904873 0.1038978 -0.13098891 -0.10439179 0.014027173
-0.03299184 0.039507657 -0.034493815 -0.018275749 -0.060345378 -0.0131385755 0.009089365 -0.008854024
-0.029355038 0.028478997 0.013465324 0.011072156 0.05865753 -0.025800038 -0.08376297 0.08099176
-0.030270444 -0.07965581 0.13734017 -0.0072721965 -0.010227428 -0.010331231 0.0050613326 0.0352601
0.09509893 0.032484934 0.09347102 0.058075614 -0.028978921 0.009352182 -0.042400576 -0.1257987
0.08778539 -0.09033467 -0.08594407 0.0026282223 0.0947484 0.022285465 0.019138437 0.033717196
0.022283124 -0.0339598 0.019856857 0.007968686 0.0040761638 -0.028772278 -0.07524972 -0.051420026
-0.07705933 0.015908504 -0.10326932 -0.02094386 -0.074786134 -0.00013361644 0.005505745 -0.07803546
0.0072011263 -0.054428376 0.089154154 0.14211367 0.04821863 -0.111911625 -0.05248667 -0.028669294
0.088056386 0.0018105105 -0.0068715084 -0.009011998 -0.020982604 0.06346869 0.10598276 0.07658387
-0.064683825 0.10188969 0.114245936 0.009144834 0.021200273 0.0517984 0.038270563 0.06024371
-0.027050564 0.03376987 0.0018882132 -0.08783692 0.039308023 -0.090095654 0.020543424 0.03160668
-0.0337579 -0.10383835 0.025232144 -0.058843195 -0.018888606 -0.07714248 -0.100598 -0.08452
-0.011429998 -0.05737453 -0.12903725 0.0020760424 -0.012382588 0.100215726 0.03488425 -0.008500788
0.014764333 -0.06656762 0.020806966 0.15762916 0.1055515 -0.14561 0.11328661 0.04166715
-0.09384761 0.06648314 -0.07246867 -0.0032820369 -0.02308982 -0.09372635 -0.012739303 -0.12448307

tower_layers.1.0.bias f4 [128]
00000000: 7307 adbc 58c6 03be a3f9 96bd 429c 773d
00000010: 20fb aabd b508 d8bd 1f78 a0bc ee55 323d
00000020: f6cb f63c f171 873d 13ab 06be ed04 01bc
00000030: 7f6e 713d 7cc8 403d 02c1 a5bb fdaa fcbd
00000040: 1fbd 05be e97e cbbd e39a 7b3c e5e4 96bd
00000050: 595d 5cbc 618b 8abc 88d2 ae3c 4311 f23b
00000060: 5fd1 813d 8213 f93c 2a8e 1a3d 6f35 dc3d
00000070: 8cd7 dd3d 36fc 00be 98d0 763d 234c a03d
00000080: 8fbc c1bd 027a 3dbd b714 5fbd 712f 443d
00000090: fea9 1fbd 2519 863c 2b7a 06be 3b01 00be
000000a0: 87f5 fd3b eaf9 b23d 041a 343d b0d9 d03d
000000b0: 5dac fa3d d8a3 ad3d 3ae3 85bd 50d7 9f3c
000000c0: b929 50bd 3e4c 3ebd 8a9d f7bc 0fd8 c03d
000000d0: 01ac f03c 4a70 7e3c 386d 9f3c 050d 76bd
000000e0: 3015 113d db7b 8cbd 8375 cabc 2c36 513c
000000f0: b790 b43d 2a21 a93d a60e 453d a48b d4bc
00000100: d9c4 b4bd 709e e83d e1d4 b83d e923 873d
00000110: d96c 75bd dc23 f6bc 77ac 213d 1f94 8fbd
00000120: b618 c0bc f53e 13bd 71df a4bd 410f a73d
00000130: d775 833a d17f 163d eeda 2f3d cb32 043e
00000140: 0321 87bc 6aa0 82bd 8b3e 483d 76fe 01be
00000150: 8a40 ce3c 09e0 9e3d 3168 ccbd 85d7 aebd
00000160: 7eb2 dbbc bd01 873d 32c6 9cbc 7763 c1bd
00000170: f887 96bd 3561 753d f849 04be f5da 64bd
00000180: 79a8 963c b839 53bc 7a5e e23c 6005 0a3d
00000190: a38f 813b 8413 33bd a8c0 acbd 5d90 aabc
000001a0: 6f8f f73c 19d3 babd 2c83 fe3d 7031 5a3d
000001b0: 8d4c aabd c47a d2bc bcf5 93bd d404 0cbd
000001c0: 6184 8dbc 3181 193c 294a 9d3d 5059 773d
000001d0: 1380 c53b 2c58 d2bb 412b 9f3b b6b5 88bd
000001e0: 677e 9fbc b928 febd a540 e03d 0b47 91bc
000001f0: 336e bc3d 987f 92bd 1698 b73d e793 a8bc
-0.021121716 -0.12868631 -0.07371833 0.060451753 -0.083486795 -0.10548536 -0.019588528 0.04353898
0.030126553 0.066135295 -0.13151197 -0.00787471 0.058943268 0.047066197 -0.0050584087 -0.12337301
-0.13060425 -0.099363156 0.015356752 -0.07367877 -0.01344999 -0.016912164 0.021340623 0.0073873117
0.063387625 0.03040481 0.037733234 0.10752379 0.10832128 -0.12596211 0.060257524 0.07827022
-0.09459793 -0.046258934 -0.054463115 0.047896806 -0.038980477 0.016369412 -0.13132541 -0.1250047
0.0077502164 0.087390736 0.043970123 0.101977706 0.12239907 0.08478516 -0.06537481 0.019511849
-0.05082104 -0.04645943 -0.030226488 0.0941621 0.029378893 0.0155297015 0.01946126 -0.06007101
0.035420597 -0.06859561 -0.024714237 0.012769263 0.08816665 0.08258279 0.048109673 -0.025945492
-0.08826608 0.113583446 0.090249784 0.06598646 -0.05991826 -0.030046396 0.039471116 -0.07010674
-0.023449283 -0.035948712 -0.080504306 0.08157206 0.0010029626 0.03674299 0.042933397 0.12910001
-0.016495233 -0.06378253 0.04888777 -0.12694725 0.025177259 0.07757575 -0.099808104 -0.08537201
-0.02681851 0.065921284 -0.019137476 -0.094427995 -0.07350153 0.059907157 -0.12918842 -0.055872876
0.01839088 -0.012892179 0.02763294 0.033696532 0.0039538904 -0.043719783 -0.08435184 -0.02082079
0.030219762 -0.09122295 0.12427363 0.053269804 -0.08315382 -0.025693305 -0.072246045 -0.034184292
-0.017275037 0.009369181 0.076801606 0.06038791 0.0060272305 -0.0064192023 0.004857451 -0.066752836
-0.019469453 -0.12410111 0.1094983 -0.017734071 0.09200706 -0.07153243 0.08964555 -0.020578338

tower_layers.1.2.weight f4 [64, 128]
00000000: cab5 aabc fde8 693d da81 7cbc 8467 653d
00000010: ada4 cbbc 0068 52bd 9c47 ddbd 229f e53b
00000020: f7f0 0abb b2f2 46bd a521 eabc fcde 9abc
00000030: 2f53 f4bc 16c2 eabd ca22 a3bd 7467 0cbd
00000040: 5797 1dbd a4c6 2dbc a7c5 593d 2f47 16bc
00000050: 51aa 733d f3a6 8a3c edd8 fabb a7ad ce3d
00000060: 068c fabb 1fe1 8a3d a6da 0fbd a6f6 7c3d
00000070: 317b 8abc f507 113d f124 aa3d 4602 b43d
00000080: 291f f1bb ff0e 673d e330 c33c e8bd abbd
00000090: 9b76 9cbc 0eea e53c c119 373d 91fc 99bd
000000a0: e9c6 f0bd d2eb 9ebc 278b 38bd c575 563d
000000b0: 3379 983d f19c 08be 2b91 cbbc 0fff f03c
000000c0: 4c07 cbbd 9a14 d3bd 0ccc 54bd 5dec 4abc
000000d0: 8674 d9bd 0707 6e3c 6afa 5bbd da0a 11bd
000000e0: 4353 bbba 087f 72bd bc58 aebd 7e74 2d3c
000000f0: 8069 ab3d ca76 893d ff3d c23d 9012 b23b
00000100: 2917 7d3c 8063 973d 5dc3 1f3c 4d8d d8bd
00000110: cbbb 4fbd e659 4a3d 2420 dcbd 37d1 f1bc
00000120: b4be 563d ad65 003d d726 093d 5859 583d
00000130: c135 853d cab2 9abc 9e3f e2bd e627 a8bc
00000140: 4584 abbc 731f 583d 3aec c7bc c2cd 6b3c
00000150: 71af ba3d 161a af3c 7273 0cbd 9fcb e2bb
00000160: 09f3 c9bd cbd0 c43d d601 9abd 805e de3c
00000170: d5f5 b73d 4945 863d a884 c2bd f81e 5f3d
00000180: 87fe 873d 8647 b0bd f364 8f3d e535 e2bc
00000190: 27d7 d13d 9978 07bd 8474 e3bd 5358 2ebd
000001a0: 26c2 4abd ae91 8bbb 3995 ab3d b9ee aabc
000001b0: bf07 e4bc d2d7 1e3d f376 353c d624 0b3d
000001c0: f08f a63d afbd cebd 2dcf 1abd 394b c83d
000001d0: 4aa0 ab3d 1969 153d 4732 4d3d 93fc d4bd
000001e0: 3e8c 1ebd 4046 f9bc fa72 cf3d 3594 ab3d
000001f0: 34b6 c13d 986c babd e29c 72ba cf33 6e3b
00000200: fef0 82bd 5043 f2bb 544f 9abd e751 2dbc
00000210: ef32 24bd 8b3b 433d 73b7 7c3d ac03 883d
00000220: 5e85 32bd 9e5b 323d d065 c6bd 6b66 303d
00000230: 9aac e9bd cdc3 8b3d 8e00 dcbc 34e8 6ebd
00000240: 63f3 973c 5eb9 0fbd e9ba 8fbc e5c8 c1bc
00000250: 6f5e 0d3e ad36 cdbc 2287 aebd 180f 683d
00000260: d1e0 88bd 5f9a 80bd 593a 3e3d 49e0 a23d
00000270: fe5b 1ebd d04e 403c 22a0 233d d994 083c
00000280: a54d a6bd 272a 8bbd 357a 803d ac33 143d
00000290: 12c5 b6bc 44a6 f6bb 6566 2f3d d2d1 afbd
000002a0: fd4e 0bbc f712 c2bc 1453 75bd eb44 17bc
000002b0: d069 98bd 19da 55bc 988c d4bd b3b7 383d
000002c0: 4179 81ba 4cc9 69bd 3e6c d5bc 0d69 54bd
000002d0: ef60 6fbc 0552 a83b c1ea a9bd 6d21 83bd
000002e0: 756e b33d 9abb 97bc 6fbd 7abd e9ef 873d
000002f0: ed6e d33c 41b5 45bd 429c 263d e5f7 9abd
00000300: 8a08 c5bd 0d34 45bd ba53 a8bd 5e34 823c
00000310: 813c 933c 3fab 4cbd 79ee 89bd 3d68 c0bd
00000320: 3469 5b3c 1c52 90bd 93de 13bd 8cba d7bc
00000330: 7d4c 623d 11a2 2d3c b721 cf3d cc17 c73d
00000340: 384c a33d 5fed 7ebd 3bce 4ebd b608 a8bd
00000350: 232e 983d 1ca9 423d 6c22 483c f308 a53d
00000360: d802 b23c aa53 943d 5a90 7b3d 23d7 0cbd
00000370: 63a0 933d e873 40bc 4472 a63b 598b 763d
00000380: da10 ceb9 eaae 5b3c f4cd 01bd 2154 fa3c
00000390: 0593 5abd 116f b6bd 472b 90b9 d931 89bd
000003a0: 47f2 8a3d cdfe adbd 1b5c 33ba af20 563d
000003b0: 7af8 a3bd 93e7 b33c 1f67 2f3c ff52 83bd
000003c0: ad78 6fbd 186b 91bd 72c1 f03c b7b2 bcba
000003d0: e651 3e3d 4f4e 803d bcdb ed3b c642 843d
000003e0: 39d9 7d3d 1929 1a3c bc61 733d 6259 caba
000003f0: 28ec 0c3c a096 46bd acdb 90bd 47d8 453d
-0.020838637 0.05710696 -0.015411818 0.056006923 -0.024858797 -0.051368713 -0.10804674 0.0070074955
-0.0021200755 -0.048571296 -0.028580496 -0.018905155 -0.029824821 -0.114628 -0.0796562 -0.034278348
-0.038474407 -0.010606442 0.05316701 -0.009172245 0.0594886 0.01692531 -0.007655254 0.10091715
-0.0076460866 0.0678122 -0.03512063 0.06175866 -0.016904445 0.03540798 0.08307827 0.08789496
-0.007358451 0.056410786 0.023827022 -0.08385831 -0.019099524 0.028065708 0.044702295 -0.07518876
-0.11756689 -0.019399557 -0.04505458 0.052358408 0.07444992 -0.13341118 -0.024849495 0.029418496
-0.09913501 -0.10306664 -0.051952407 -0.012385455 -0.10617928 0.014528043 -0.05370561 -0.03541074
-0.0014291782 -0.059203178 -0.085130185 0.010586856 0.08369732 0.0671211 0.09484481 0.0054343417
0.015447416 0.07392025 0.009751168 -0.10573826 -0.050716203 0.04940214 -0.10748318 -0.029518707
0.052427962 0.031346966 0.033484306 0.05281958 0.06504393 -0.018884081 -0.1104729 -0.020526838
-0.020937094 0.052764367 -0.024404634 0.014392318 0.09115494 0.021374743 -0.034289785 -0.006921246
-0.098608084 0.096101366 -0.075198814 0.02714467 0.089824356 0.06556184 -0.094979584 0.054472893
0.06640344 -0.08607392 0.070016764 -0.02761359 0.10246115 -0.033073995 -0.11106208 -0.0425647
-0.04950156 -0.0042593097 0.08378071 -0.020865785 -0.027835725 0.03878004 0.011075723 0.033970676
0.08132923 -0.10094773 -0.037795234 0.097799726 0.08380182 0.036477182 0.050096776 -0.10399737
-0.038707964 -0.030429006 0.10129352 0.083778776 0.094585806 -0.09102744 -0.0009254945 0.0036346798
-0.06393622 -0.007393278 -0.07534662 -0.010578609 -0.040087637 0.047664206 0.06169839 0.06641325
-0.04358422 0.043544404 -0.09687388 0.043066423 -0.11409874 0.068244554 -0.026855733 -0.058326915
0.018548673 -0.03508889 -0.01754518 -0.023655364 0.13805555 -0.025050486 -0.08521868 0.05665502
-0.06683505 -0.06279444 0.046442363 0.07952935 -0.03866195 0.01173754 0.039947636 0.008336269
-0.08120278 -0.06795149 0.06273309 0.03618209 -0.022310767 -0.0075271446 0.04282226 -0.08584942
-0.008502719 -0.023690684 -0.059893683 -0.00923274 -0.07442057 -0.013052487 -0.10378379 0.045097064
-0.0009878055 -0.057076737 -0.02605259 -0.051857997 -0.014610513 0.0051367306 -0.08296729 -0.0640286
0.087613024 -0.018522073 -0.061215814 0.06637556 0.02580973 -0.04826856 0.040676363 -0.075668134
-0.09620769 -0.048145343 -0.082190946 0.015894111 0.017973186 -0.049968 -0.06734938 -0.09394882
0.013391782 -0.07046911 -0.036100935 -0.02633407 0.055248726 0.010597722 0.101138525 0.09721336
0.07973522 -0.062238093 -0.050489645 -0.082047865 0.07430675 0.047524557 0.012215238 0.080583476
0.021729872 0.0724252 0.06141696 -0.034384858 0.07208326 -0.011746384 0.0050795395 0.060191486
-0.00039303937 0.013408402 -0.031690553 0.030557694 -0.053362865 -0.08907903 -0.00027498064 -0.06698961
0.06784492 -0.08495865 -0.0006842033 0.052277263 -0.080063775 0.02196101 0.010705738 -0.064123146
-0.058464695 -0.07100505 0.029389117 -0.0014396523 0.046464823 0.06264936 0.0072588604 0.064580485
0.061974738 0.0094092125 0.05941938 -0.0015438015 0.008601226 -0.04848349 -0.07073149 0.04830196

tower_layers.1.2.bias f4 [64]
00000000: e616 013c 389a 193d 3f76 1b3c f498 653d
00000010: 1521 663d 7623 343d 782c 78bd 3e5b af3d
00000020: 7308 b5bb 55cc 8abd c642 393d b7c3 c03d
00000030: 1eff fcbc b8a0 91bb fcad 213d df49 4d3d
00000040: b7cd 70bd c5a5 c5b9 c265 79bc 9a93 c0bd
00000050: 2d32 cfbd 71c6 45bd a5e4 ef3d 65ec 91bc
00000060: 8e1d 5cbd 6523 71bd 3592 423d 759c cfbc
00000070: fedc 4dbd 4752 abbd df83 09bd 4b91 66bc
00000080: f6b0 e63a e262 e13d 2ae8 1ebd b5ed 573d
00000090: 83d1 0dbb 27bf afbd 8bd8 68bd 57cb b03d
000000a0: cbe4 1a3d 1844 ddbd 0843 923d 9b13 14bc
000000b0: 38f4 f4bc 1f37 fcbc a1df d2bd 2fdb d13c
000000c0: f265 51bc a277 3cbd 6489 43bc d4ce 103d
000000d0: 12a8 05bc c1dd ea3b e461 18bd f44a 28bd
000000e0: 957b 153d f53b b53d 7e4b cbbc fc56 263d
000000f0: 4931 c1bd e16f b73c a6ca 823d 2dad 0f3c
0.007878995 0.03750059 0.009488641 0.05605407 0.056183893 0.04397913 -0.060589284 0.08562325
-0.005524689 -0.067772545 0.045229696 0.0941233 -0.030883368 -0.004444208 0.039472565 0.050119277
-0.058789935 -0.00037698276 -0.015222015 -0.09403153 -0.10116992 -0.04828495 0.11713532 -0.017812917
-0.053739123 -0.058871645 0.047502715 -0.02534316 -0.050259583 -0.083653025 -0.033573028 -0.0140727265
0.0017600346 0.110051885 -0.038795628 0.05271693 -0.0021639771 -0.08581381 -0.056847136 0.08632534
0.03781585 -0.108040035 0.071416914 -0.009037877 -0.029901609 -0.030788003 -0.1029656 0.02561721
-0.012780653 -0.04601253 -0.011934612 0.035353497 -0.008157747 0.0071675484 -0.03720273 -0.041087106
0.03649481 0.088493265 -0.02481627 0.0406103 -0.094332285 0.022392215 0.06386308 0.008769316

tower_layers.1.4.weight f4 [1, 64]
00000000: 3eba c23d 3019 e9bb c73b bbbd 2dc0 d8bd
00000010: fb19 cb3c 3b3c 553c c3f1 e93a 5d0b e7bc
00000020: e8f6 5d3d b262 4f3d c756 9fbd 222a 82bd
00000030: 895b b9bd 4090 d4bd e979 b43d 0db5 dc3c
00000040: 1984 b2bd a16b 7dbd c088 b93d 51ad 633d
00000050: cdd2 be3d b40c 693d 9335 3cbc e1b4 c23d
00000060: 8781 e93d a2fa 643d 33fc edbd 2959 da3c
00000070: 1a87 98bd 8ac0 a4bc 291c edbd 3fd0 74bc
00000080: 4ed5 5f3d bb63 c23d a3c7 78bd 4f78 36bd
00000090: bd07 c03d 5a91 a63d c5e9 2bbc 2187 a23d
000000a0: 60b3 403d 512d 0c3d 4db3 2d3d 0506 873b
000000b0: 3166 2d3d 36be b53c e017 23bc 221d 53bc
000000c0: 2c0e 0dbd 78d4 48bd e7e3 ec3b b57c 553c
000000d0: 38eb 9dbd 9ea8 a83c 2fa1 b33b ca00 80bd
000000e0: 3707 593d c577 a5bd 5015 413c 52b1 fdbc
000000f0: 5679 9e3d a686 01be 4a5c df3d 156c c7bd
0.09508179 -0.0071135983 -0.09142261 -0.105835296 0.024792662 0.013014848 0.001784854 -0.02820366
0.054190546 0.050631233 -0.07780223 -0.063556924 -0.09050662 -0.10379076 0.08812315 0.0269418
-0.08716602 -0.06187022 0.09059286 0.05558521 0.09317551 0.05689688 -0.011487382 0.09507156
0.114016585 0.055903085 -0.11620369 0.026653843 -0.074476436 -0.020111341 -0.11577637 -0.014942228
0.054646783 0.09491678 -0.060737263 -0.04454833 0.09376476 0.08133192 -0.010492747 0.0793593
0.047046065 0.034222905 0.042407323 0.0041205906 0.042333785 0.022185426 -0.009954423 -0.012885364
-0.034437343 -0.04903075 0.0072293165 0.013030221 -0.0771088 0.020588215 0.005481861 -0.062501505
0.052985396 -0.08079485 0.011784866 -0.030968342 0.07737987 -0.1264902 0.109062746 -0.09737412

tower_layers.2.0.weight f4 [128, 128]
00000000: 1980 5d3b 6643 4fbc 6468 433d 532f 3d3d
00000010: 5926 f6bc 9bbc ee3c d261 24bb 362b abbb
00000020: 2bad 353d 0d70 9b3d 6bc7 4ebd f015 283c
00000030: 23ad afbc 817f e9bc 34c0 bebd da43 80bd
00000040: 6cfb 7f3d 2087 a83b d988 31bd 3581 163d
00000050: bd5b f53b 9894 513c 5f83 403c 4d7d 3cbd
00000060: 8b56 dfbc 1485 bebd 06c7 4c3d 548c f43c
00000070: 53e2 133d 1760 95bd d756 943c 92b8 dbbc
00000080: 0664 d0bc 2c0f 10bb 7485 79bd 76c2 cbbc
00000090: e15b 43bd b70b 483c a211 31bd 684e cfbd
000000a0: 199d e73c 8042 6d3b a3fa f239 8aac e3bc
000000b0: 90c6 7d3d 1f81 95ba b928 a13d dd6e 973d
000000c0: 2978 b53d 8dff 4cbd affd c5bd 1e21 1cbd
000000d0: 2738 5ebd 1c9d b6bd 0efb 0fbe 3a13 11bd
000000e0: 2536 833d 1d5e 323a a19b 7abd 70c2 9c3c
000000f0: 0977 ea3c 3695 393d dfe9 15bd 6f2f 643d
00000100: 0313 263d a610 dcbd fcef 6dbd e615 77bd
00000110: 5f60 9e3d d4e9 45bd bbd9 ecbc f750 443d
00000120: cbd5 153c ae73 b73d 656c 0fbe 0ef5 9fbd
00000130: 1646 a8bd 4070 55bc c78a b3bd 73c1 9c3c
00000140: 076f 873c e8b3 df3d 5191 9cbd 8eb2 43bd
00000150: 200e 8bbd 9d03 4c3d b471 abbd ec1b 57bd
00000160: 471f 913d 8122 b7bd 87f9 c73d 5eea d13c
00000170: 2bfe 9a3d 4780 34bd 96cb a43d 1beb 05bb
00000180: 96bf 53bd ec5e e73c 3107 3ebc bc45 a2bd
00000190: 296a 08bd 3a88 0abd 7261 09bd 6754 4dbd
000001a0: aa27 653d b4e2 a83d 83ac 803d b273 f33d
000001b0: f36e 8c3c 303c 3a3d 1514 bc3d c77a 7bbb
000001c0: 0c6c 8d3d 7dcb 583d 34cd 843d bfdd 853c
000001d0: 58b8 2b3d f479 d9bd 0fb0 8c3d 27d6 703c
000001e0: 462f 6bbb 5fc2 883b c707 303d 085f a43d
000001f0: 683f b43c 2364 1f3c 7376 9ebc 96f1 aabd
00000200: faf1 34bd 355e bc3d 2c84 443d 2041 143c
00000210: 5fc8 d43d f521 06be 5dcb d5bd 3ad2 653c
00000220: 7422 07bd c8d2 213d 6349 0dbd 06b7 95bc
00000230: b72c 77bd 2e43 57bc 8feb 143c 7810 11bc
00000240: fa79 f0bc c94c e93c aa9d 5c3c fd67 353c
00000250: e142 703d 9a5a d3bc ec8b abbd 02df a53d
00000260: b9f9 f7bc 9622 a3bd e7a2 0c3e 9b4b eebb
00000270: f190 27bc 5344 29bc 89d9 a53b e56c 103d
00000280: 3ac3 c23d ec0e 053d bc6d bf3d b2e0 6d3d
00000290: 3465 edbc e539 193c 3aac 2dbd 60d1 00be
000002a0: d4c8 b33d 6201 b9bd 7203 b0bd 413e 2c3b
000002b0: 730b c23d 0290 b63c 36c8 9c3c 0b1b 0a3d
000002c0: 198b b63c 6e19 0bbd d9aa a23c 178f 023c
000002d0: 5791 853b d7b3 ebbc 861c 9abd ce9d 52bd
000002e0: 48d1 9dbd 8d52 823c de7e d3bd 7592 abbc
000002f0: 7929 99bd 641b 0cb9 8969 b43b 0ed1 9fbd
00000300: 6df7 eb3b 4af0 5ebd 7496 b63d 3f86 113e
00000310: e680 453d ec31 e5bd 43fc 56bd dedb eabc
00000320: e856 b43d a74e ed3a 642a e1bb 0fa7 13bc
00000330: b6e3 abbc dffb 813d 7d0d d93d 01d8 9c3d
00000340: f478 84bd 8bab d03d c6f9 e93d 37d4 153c
00000350: 32ac ad3c 8f2a 543d 98c1 1c3d 1cc2 763d
00000360: 2599 ddbc 4652 0a3d ec7d f73a d8e3 b3bd
00000370: 7301 213d 1284 b8bd af4a a83c 0276 013d
00000380: b945 0abd 33a9 d4bd a4b3 ce3c 9005 71bd
00000390: 47bc 9abc e0fc 9dbd 5306 cebd d218 adbd
000003a0: e344 3bbc 8e01 6bbd 5722 04be 360e 083b
000003b0: 57e0 4abc e73d cd3d cae2 0e3d e446 0bbc
000003c0: 1ae6 713c 9b54 88bd 5f73 aa3c 8a69 213e
000003d0: 632b d83d ca1a 15be cf02 e83d 2cab 2a3d
000003e0: 2d33 c0bd 5028 883d 746a 94bd 7117 57bb
000003f0: dd26 bdbc 9af3 bfbd 82b8 50bc fbf0 febd
0.0033798276 -0.012650346 0.047706977 0.04618771 -0.030047582 0.029142668 -0.002508272 -0.005223657
0.0443546 0.07589731 -0.05048315 0.010259137 -0.021444863 -0.028503181 -0.093140036 -0.06262942
0.062495634 0.0051430613 -0.0433434 0.036744315 0.0074877427 0.012791775 0.011750071 -0.046017934
-0.027262947 -0.093027264 0.04999449 0.02985207 0.03610451 -0.07293718 0.018107815 -0.026821408
-0.02543832 -0.00219817 -0.060918286 -0.024873 -0.047695044 0.012209824 -0.043229707 -0.10122377
0.028273152 0.0036202967 0.00046344576 -0.027792234 0.061956942 -0.0011406279 0.07869095 0.07394192
0.08860809 -0.0500484 -0.09667527 -0.03811752 -0.05425277 -0.08916685 -0.14060614 -0.035418727
0.064068116 0.0006804185 -0.061183576 0.019135684 0.028621214 0.045308314 -0.03659999 0.0557093
0.040545475 -0.10745363 -0.058090195 -0.06032362 0.07733225 -0.0483187 -0.028912416 0.047928777
0.0091452105 0.08957611 -0.14006193 -0.07810412 -0.08216493 -0.013027251 -0.08766704 0.019135213
0.016532434 0.10922986 -0.076449044 -0.047777705 -0.067898035 0.049808133 -0.083712965 -0.052516863
0.07086044 -0.08942128 0.097643904 0.02562445 0.0756801 -0.044067647 0.080466434 -0.0020434323
-0.051696382 0.028243504 -0.011598394 -0.07923457 -0.033304367 -0.033821322 -0.033540197 -0.05012932
0.05594603 0.08246365 0.06282904 0.118873015 0.017142748 0.045467556 0.09183518 -0.0038372742
0.06905374 0.052928437 0.06484452 0.016341088 0.04192385 -0.10618964 0.06869518 0.014699495
-0.0035886331 0.0041735615 0.042976167 0.08025938 0.02200289 0.009728464 -0.01934359 -0.0834686
-0.04417608 0.09197656 0.04797761 0.00904873 0.1038978 -0.13098891 -0.10439179 0.014027173
-0.03299184 0.039507657 -0.034493815 -0.018275749 -0.060345378 -0.0131385755 0.009089365 -0.008854024
-0.029355038 0.028478997 0.013465324 0.011072156 0.05865753 -0.025800038 -0.08376297 0.08099176
-0.030270444 -0.07965581 0.13734017 -0.0072721965 -0.010227428 -0.010331231 0.0050613326 0.0352601
0.09509893 0.032484934 0.09347102 0.058075614 -0.028978921 0.009352182 -0.042400576 -0.1257987
0.08778539 -0.09033467 -0.08594407 0.0026282223 0.0947484 0.022285465 0.019138437 0.033717196
0.022283124 -0.0339598 0.019856857 0.007968686 0.0040761638 -0.028772278 -0.07524972 -0.051420026
-0.07705933 0.015908504 -0.10326932 -0.02094386 -0.074786134 -0.00013361644 0.005505745 -0.07803546
0.0072011263 -0.054428376 0.089154154 0.14211367 0.04821863 -0.111911625 -0.05248667 -0.028669294
0.088056386 0.0018105105 -0.0068715084 -0.009011998 -0.020982604 0.06346869 0.10598276 0.07658387
-0.064683825 0.10188969 0.114245936 0.009144834 0.021200273 0.0517984 0.038270563 0.06024371
-0.027050564 0.03376987 0.0018882132 -0.08783692 0.039308023 -0.090095654 0.020543424 0.03160668
-0.0337579 -0.10383835 0.025232144 -0.058843195 -0.018888606 -0.07714248 -0.100598 -0.08452
-0.011429998 -0.05737453 -0.12903725 0.0020760424 -0.012382588 0.100215726 0.03488425 -0.008500788
0.014764333 -0.06656762 0.020806966 0.15762916 0.1055515 -0.14561 0.11328661 0.04166715
-0.09384761 0.06648314 -0.07246867 -0.0032820369 -0.02308982 -0.09372635 -0.012739303 -0.12448307
