saved_models_MLP/exp-ib1-bcc-eform/mlp_eform_bcc_ratio0.2_seed3_epoch300.pt (torch, 38935 bytes, 5 tensors)

module_list.0.weight f4 [128, 6]
0	0xbe1b789a	-0.15182725
1	0x3ca80e2b	0.020514568
2	0xbdf09002	-0.11746217
3	0xbe4699b1	-0.19394566
4	0x3e694a43	0.22782235
5	0xbd9b202c	-0.07574496
6	0x3df02b87	0.11727052
7	0x3db4c3d2	0.08826412
8	0x3e652d38	0.22380531
9	0x3ea05521	0.31314948
10	0xbe30dfcd	-0.17272873
11	0x3eafdc12	0.34347588
12	0xbe90d16e	-0.28284782
13	0xbe04b2ff	-0.12958907
14	0xbea56ebb	-0.32311043
15	0x3e241d3f	0.16026781
16	0xbd762659	-0.060095165
17	0x3e3d80c8	0.18506157
18	0xbd5d511e	-0.054032438
19	0x3d9fe29a	0.07806893
20	0x3eb1a7da	0.34698373
21	0xbe92e1b6	-0.2868783
22	0xbd322262	-0.04348982
23	0xbeabe182	-0.33570486
24	0xbe84ffb1	-0.25976327
25	0xbde86b9b	-0.11348649
26	0x3c31fcd5	0.0108635025
27	0xbec1f849	-0.3788474
28	0xbe027898	-0.12741315
29	0x3c022a40	0.0079446435
30	0xbcb1ce59	-0.02170484
31	0xbe7aa3e0	-0.24476576
32	0x3ebeaf5b	0.3724316
33	0x3defb02c	0.11703524
34	0xbec4fa41	-0.3847218
35	0xbcb43dc0	-0.022002101
36	0xbea3c177	-0.3198354
37	0xbd3a2596	-0.045446
38	0x3e67ee45	0.22649486
39	0x3e916758	0.28399158
40	0xbec729d7	-0.3889911
41	0xbe57f4d8	-0.21089494
42	0x3eb83774	0.35979807
43	0x3ea61c8a	0.3244365
44	0x3e5572b9	0.20844544
45	0xbea71118	-0.3263023
46	0x3e34e626	0.1766592
47	0xbdfdb184	-0.12387374
48	0x3dacb7f7	0.08433526
49	0x3e4141b0	0.18872714
50	0x3c6f42ac	0.014603298
51	0x3bf27977	0.0073997336
52	0x3eb6f167	0.3573105
53	0x3e997506	0.29972094
54	0x3dd8550f	0.10563099
55	0x3e3cd317	0.184399
56	0x3ebef025	0.3729259
57	0x3d234ca9	0.03986803
58	0x3e84a924	0.25910294
59	0x3ebf91ae	0.37415832
60	0xbd9704b3	-0.07373943
61	0xbeba3356	-0.3636729
62	0xbe0d4828	-0.13797057
63	0x3ec03bc2	0.37545592
64	0xbe2ab0a7	-0.1666895
65	0x3ec3cb90	0.38241243
66	0x3e86de84	0.2634164
67	0xbdef5656	-0.11686389
68	0x3e71675a	0.23574582
69	0xbe3d1e04	-0.18468481
70	0xbe1b28ff	-0.15152358
71	0xbecdca12	-0.4019323
72	0x3eb7ca0c	0.35896337
73	0x3e3da0b4	0.18518335
74	0xbe81fbf3	-0.25387534
75	0x3e90599c	0.28193367
76	0x3e97464a	0.29545814
77	0x3b8457c0	0.004038781
78	0xbe92628c	-0.2859081
79	0xbeb3bd89	-0.3510554
80	0xbe19a5a2	-0.1500459
81	0xbe7d0cc3	-0.247119
82	0xbea53649	-0.3226798
83	0x3e63bf84	0.22241026
84	0x3e828eeb	0.25499663
85	0x3ec18c3f	0.37802312
86	0xbead762c	-0.3387922
87	0x3d45917d	0.04823445
88	0x3eae0311	0.33986714
89	0xbe6219b0	-0.22080112
90	0xbe3330e3	-0.17499118
91	0x3ea2c05d	0.31787387
92	0xbeabb7c6	-0.33538646
93	0xbde1a7e8	-0.11018354
94	0xbe6ee6b1	-0.2333019
95	0xbdd20428	-0.10254699
96	0x3ead6c7b	0.33871827
97	0x3ca69f0b	0.02033951
98	0x3eb2071c	0.3477105
99	0xbea85345	-0.3287603
100	0x3ea4402f	0.32080218
101	0x3ddee5b8	0.10883659
102	0x3e859f67	0.26098177
103	0x3eb84c87	0.35995886
104	0xbe9ae0e7	-0.30249712
105	0xbebc911d	-0.36829463
106	0xbed7ee82	-0.42174155
107	0x3e37ef14	0.17962295
108	0xbd16609a	-0.03671322
109	0xbe5d6f82	-0.21624568
110	0x3eb2695c	0.34846008
111	0x3e236914	0.15958053
112	0x3ea87f41	0.32909587
113	0x3e1a99d8	0.15097749
114	0x3eb2bca4	0.34909546
115	0x3d0d9049	0.03456143
116	0x3ea3ca81	0.31990436
117	0xbea0ea14	-0.31428587
118	0xbeb57f60	-0.35448742
119	0xbea5d4c7	-0.323889
120	0x3c84b913	0.016201532
121	0xbeaf2c6e	-0.34213585
122	0xbca9ebbe	-0.020742293
123	0xbd363233	-0.044481467
124	0xbe7752b3	-0.24152641
125	0x3d6797c0	0.056541204
126	0xbea242bd	-0.31691542
127	0x3dc1b496	0.09458272
128	0x3d8a65d7	0.06757706
129	0x3d3ff7d6	0.046867214
130	0xbdbe353f	-0.092875
131	0xbe9c14a4	-0.30484498
132	0x3dc93e7d	0.09826372
133	0xbe440f91	-0.19146563
134	0x3e19aed7	0.15008102
135	0x3e5ab81b	0.21359293
136	0x3e8e7a8a	0.27827865
137	0x3eab2c44	0.3343221
138	0x3e0e3e74	0.13891011
139	0x3e8ce56d	0.27518788
140	0x3cdb4f8f	0.026771335
141	0xbdaa8816	-0.083267376
142	0xbe689e8a	-0.22716728
143	0x3e2507f4	0.16116315
144	0xbdd5d201	-0.10440446
145	0x3dfcdf65	0.123472966
146	0x3e8d9dbf	0.27659413
147	0xbe4adfc6	-0.19811925
148	0xbe29ab8a	-0.16569343
149	0x3ec8f768	0.39251256
150	0xbd49a574	-0.049230054
151	0x3e14cb68	0.14530718
152	0xbe15cb45	-0.14628322
153	0xbcd911b5	-0.026497701
154	0x3e968cca	0.2940429
155	0x3e4db448	0.20088303
156	0x3ddde47e	0.10834597
157	0x3d0f09ed	0.034921575
158	0xbeb67221	-0.35633948
159	0xbe6a1c21	-0.22862293
160	0x3cf03aab	0.02932485
161	0x3ebf42c0	0.37355614
162	0x3d1a849e	0.03772413
163	0x3cf5df1f	0.030013619
164	0x3e7699f3	0.24082164
165	0xbe40beec	-0.18822831
166	0x3e294078	0.16528499
167	0xbdb9c520	-0.09070802
168	0x3dfbed56	0.123011276
169	0x3dc957c0	0.0983119
170	0x3e22e308	0.15906918
171	0x3e864932	0.2622772
172	0x3e01759d	0.12642522
173	0xbec82afc	-0.39095294
174	0x3e2c9dc3	0.16857056
175	0x3e6ea217	0.2330402
176	0xbec41da0	-0.38303852
177	0x3dc7c465	0.09754256
178	0xbe9515a9	-0.29118088
179	0xbdc5a2a4	-0.09650162
180	0x3d7f89a0	0.06238711
181	0x3dc848f2	0.09779538
182	0x3ecaebc1	0.3963299
183	0x3ebdd327	0.3707516
184	0x3e69e14e	0.22839853
185	0x3e304f38	0.1721772
186	0xbc5d6577	-0.013512961
187	0xbe7425cd	-0.23842545
188	0xbda68584	-0.08130935
189	0xbe5212eb	-0.20515029
190	0xbe7d7ec7	-0.24755393
191	0x3e93f10a	0.28894836
192	0x3ce5b627	0.028040959
193	0xbdee5e28	-0.11639053
194	0x3dd9a145	0.10626463
195	0x3c852f4e	0.016257908
196	0x3e61c07f	0.22046088
197	0x3e40eaa8	0.18839514
198	0xbe240196	-0.1601623
199	0xbe7b0f2d	-0.24517508
200	0xbd7df0a5	-0.061997075
201	0xbe9a42a6	-0.30128974
202	0xbea40255	-0.3203303
203	0xbed0e013	-0.40795955
204	0xbe5ebc2d	-0.21751471
205	0xbe377fb2	-0.17919806
206	0x3e1b9453	0.151933
207	0x3e8d0c10	0.27548265
208	0x3eb89248	0.36049104
209	0x3e84dc76	0.25949448
210	0x3e54c310	0.20777535
211	0xbe135e26	-0.14391384
212	0x3e6282f2	0.22120264
213	0xbdad03d1	-0.084479935
214	0xbd7facc7	-0.062420633
215	0xbea651e8	-0.32484365
216	0x3e79ed12	0.24406841
217	0xbe8f7fec	-0.28027284
218	0x3ec3771d	0.38176814
219	0xbe4d82d6	-0.20069441
220	0xbad9d2d7	-0.0016618621
221	0x3e3a8f58	0.18218744
222	0x3e5e0125	0.21680124
223	0xbd86e651	-0.06586898
224	0x3e896b7c	0.26839817
225	0xbec36817	-0.38165352
226	0xbd683d6e	-0.05669921
227	0x3e06b90c	0.13156527
228	0xbd324f2a	-0.043532528
229	0x3ec08646	0.37602443
230	0x3e86847d	0.26272956
231	0x3e106e37	0.14104544
232	0xbe40a2d0	-0.18812108
233	0x3ea6400e	0.32470745
234	0x3eb1140f	0.34585616
235	0xbceeb7b1	-0.029140325
236	0x3d65c41d	0.05609523
237	0xbce20189	-0.027588623
238	0xbe428cdd	-0.18999048
239	0xbeb48fd3	-0.3526598
240	0xbdb6908b	-0.08914288
241	0xbe3ad9c8	-0.1824714
242	0xbd708e5e	-0.058729522
243	0xbeb0355c	-0.3441571
244	0xbe4fa8cc	-0.20279235
245	0x3e8a6bde	0.2703542
246	0xbe4e73d5	-0.20161374
247	0xbece7359	-0.40322378
248	0x3ec9727e	0.39345163
249	0x3e8ebef0	0.2788005
250	0xbdec11a9	-0.11526806
251	0x3e832fc8	0.25622392
252	0xbd8615c8	-0.06547123
253	0xbe6f0161	-0.2334037
254	0xbeae4dea	-0.3404382
255	0x3e2b0a6d	0.16703196

module_list.0.bias f4 [128]
0	0x3c9a5165	0.01883764
1	0x3e551775	0.2080973
2	0x3d2a507f	0.041580673
3	0x3d1922c6	0.03738668
4	0x3e993c40	0.2992878
5	0x3e3b0b73	0.18266086
6	0x3ebe30c6	0.37146586
7	0xbdf8f799	-0.121566005
8	0x3e295dc4	0.16539675
9	0x3e8ecfa8	0.27892804
10	0x3c01e50d	0.007928145
11	0x3e9f8906	0.31159228
12	0xbd9f2f2e	-0.07772671
13	0x3e6f17f7	0.23348986
14	0xbe31540f	-0.17317222
15	0x3d9dab17	0.076986484
16	0xbe229db2	-0.15880468
17	0x3e08b74d	0.13351174
18	0x3d03f2e4	0.03221406
19	0x3eb08182	0.34473807
20	0x3e740637	0.23830496
21	0x3e3f9c49	0.18711962
22	0xbe86a363	-0.2629653
23	0xbec6017b	-0.38673005
24	0xbeaf4102	-0.34229285
25	0x3e64f24a	0.22358051
26	0xbe1ac6f1	-0.15114953
27	0x3d9ec2fa	0.077520326
28	0xbebab20d	-0.36463967
29	0xbde9ee7c	-0.114224404
30	0x3e83ddf8	0.25755286
31	0xbe01cfcb	-0.12676923
32	0x3ec8aaf5	0.3919293
33	0xbdb5ac2b	-0.08870729
34	0x3e3f134c	0.18659705
35	0xbe13d57d	-0.14436908
36	0x3d9b24c7	0.07575374
37	0xbd7ce600	-0.061742783
38	0x3ac46bec	0.0014985777
39	0xbecc664d	-0.399218
40	0x3e5f7eb5	0.21825679
41	0x3e9172b4	0.28407824
42	0x3ea731ae	0.3265509
43	0xbe9b6279	-0.30348566
44	0xbed0cb50	-0.40780115
45	0xbe19fd7c	-0.15038103
46	0x3ea3c35c	0.31984985
47	0x3d0605c9	0.03272036
48	0xbea497e6	-0.3214714
49	0xbeb86bc8	-0.3601973
50	0x3eb993ef	0.36245677
51	0xbe41b110	-0.189152
52	0xbe82c96b	-0.25544295
53	0xbd5f79cc	-0.054559514
54	0x3e85ebd5	0.26156488
55	0xbe176015	-0.14782746
56	0x3d757e30	0.059934795
57	0x3dea8b27	0.114523225
58	0x3b92740f	0.0044694017
59	0xbdb3fccc	-0.087884516
60	0x3e937930	0.28803396
61	0xbeaba60c	-0.3352512
62	0x3dacb026	0.08432035
63	0x3eb5ae54	0.35484564
64	0x3e4652d5	0.19367535
65	0x3e4f6436	0.20253071
66	0xbe5232c9	-0.20527185
67	0x3de0ed3e	0.1098275
68	0x3e65cc60	0.22441244
69	0x3e2116f9	0.1573142
70	0x3d2014be	0.03908228
71	0xbec7111e	-0.38880247
72	0x3e0ed2e8	0.13947642
73	0xbeac7c9a	-0.33688813
74	0xbebf55f7	-0.37370273
75	0x3e3d5f80	0.18493462
76	0x3e0837eb	0.13302581
77	0x3cc6662c	0.024218641
78	0x3eb3ca3e	0.35115236
79	0x3e4477b4	0.19186288
80	0xbe67380e	-0.22579977
81	0x3e463e26	0.19359645
82	0x3de00618	0.10938662
83	0xbec1f61f	-0.37883088
84	0x3de9b2d0	0.11411059
85	0x3ec88cb4	0.39169848
86	0x3a6ba765	0.00089894823
87	0x3daab2f3	0.08334913
88	0xbea234df	-0.31680962
89	0x3e39400a	0.18090835
90	0xbea9d93a	-0.33173543
91	0xbb11cb74	-0.0022246512
92	0xbd049e8c	-0.032377765
93	0x3ec2f73e	0.38079256
94	0xbc6b7a64	-0.014372442
95	0x3e7cff5b	0.24706785
96	0x3eb55f0a	0.35424072
97	0x3e19a69c	0.15004963
98	0x3d519213	0.051164698
99	0xbcf90dc8	-0.03040208
100	0xbe752c99	-0.23942794
101	0xbcd192ef	-0.025582759
102	0x3e2107fc	0.15725702
103	0x3ebdf7e5	0.3710319
104	0x3e86f3a1	0.2635775
105	0x3e13e227	0.14441739
106	0x3de08a98	0.10963935
107	0xbeb0dcea	-0.34543544
108	0x3ea86d99	0.32896116
109	0xbea526dc	-0.3225621
110	0x3d8fc5b1	0.070201285
111	0x3e37f735	0.17965396
112	0x3ea64670	0.32475615
113	0x3deeecd0	0.11666262
114	0x3dffd830	0.12492406
115	0x3ec17540	0.37784767
116	0xbd99dd35	-0.07512895
117	0xbe809ff3	-0.25122032
118	0x3ebd08b5	0.36920705
119	0xbe7ec99b	-0.24881594
120	0xbeb36a80	-0.3504219
121	0xbebd9796	-0.37029713
122	0xbe1357a8	-0.14388907
123	0xbea2d0a8	-0.31799817
124	0x3e195869	0.14975132
125	0x3d6dce08	0.058057815
126	0x3da0c5a8	0.078502
127	0x3ec2a777	0.3801839

module_list.1.0.weight f4 [64, 128]
0	0xbd2300b0	-0.039795578
1	0xbca0de6f	-0.019637315
2	0x3d0f4786	0.03498032
3	0xbd1ed1f2	-0.03877444
4	0x3d8b8828	0.06813079
5	0x3d6ff306	0.058581375
6	0x3d6cc5ad	0.057805706
7	0xbd7fbc4c	-0.062435433
8	0xbda02fa9	-0.078215905
9	0xbd93762e	-0.07200275
10	0x3d89fa06	0.06737141
11	0x3dacef4e	0.08444081
12	0xbb35cb14	-0.0027739452
13	0x3daa381e	0.08311485
14	0x3d49601c	0.049163923
15	0x3d9732d7	0.07382744
16	0xbd97ec2a	-0.074180916
17	0x3d203057	0.0391086
18	0x3d1e0cbb	0.03858636
19	0xbd843e8b	-0.064572416
20	0xbcac8067	-0.02105732
21	0xbd68829d	-0.056765188
22	0xbd8b6c96	-0.068078205
23	0xbcd57354	-0.02605597
24	0xbd4839ad	-0.04888313
25	0x3d18be66	0.037290953
26	0x3d7f5b21	0.062342767
27	0xbcce1c86	-0.025160085
28	0x3d52ebb1	0.051494304
29	0xbc216237	-0.009850076
30	0x3da7ab00	0.081869125
31	0xbae52bde	-0.0017484387
32	0xbd656a48	-0.05600956
33	0xbc9d1b90	-0.019178182
34	0xbc2838ad	-0.010267419
35	0xbd925027	-0.07144194
36	0x3d4b5c60	0.049648643
37	0xbc04dd91	-0.008109466
38	0x3c8cf2a1	0.017205538
39	0xbdafcf10	-0.08584416
40	0xbd8fd92f	-0.07023846
41	0xbd9ca061	-0.07647777
42	0x3cf43a5f	0.02981299
43	0xbc87927a	-0.016549338
44	0x3d95406b	0.072876774
45	0xbd23cf1f	-0.039992448
46	0xbd951e7e	-0.072812065
47	0xbc010aac	-0.0078760795
48	0x3d6cda1a	0.057825185
49	0xbd78360b	-0.060598414
50	0x3d5b670e	0.053565077
51	0xbccb839d	-0.024843032
52	0x3d63e4b2	0.055638023
53	0x3c21b040	0.009868681
54	0xbd66c953	-0.05634434
55	0xbcc1137d	-0.023568863
56	0x3cead576	0.02866624
57	0xbd64bdb8	-0.055844992
58	0xbd1877f7	-0.037223782
59	0x3c3fffdc	0.0117187165
60	0x3c8cae5e	0.017172989
61	0x3cb655f7	0.022257788
62	0x3c4a36ad	0.012342137
63	0x3d81c451	0.063362725
64	0x3d11c815	0.035591204
65	0x3c04a3de	0.00809571
66	0xba151c7b	-0.0005688143
67	0xbb84c0fa	-0.004051325
68	0xbd87dd69	-0.066340275
69	0x3dc06f6e	0.093962535
70	0xbd4ea844	-0.05045344
71	0xbd414876	-0.047188245
72	0xbd2bb7c8	-0.041923314
73	0xbd94c141	-0.07263423
74	0xbbb6a1aa	-0.005573471
75	0x3c87ed96	0.016592782
76	0x3d41da71	0.047327463
77	0xbcba4a45	-0.022740493
78	0xbda17b95	-0.078848995
79	0x3d603350	0.054736435
80	0x3dc533a9	0.09628994
81	0x3cba517b	0.022743931
82	0xbd838397	-0.06421583
83	0xbc9a41f6	-0.01883028
84	0xbc2f1e63	-0.010688397
85	0xbdb49d4b	-0.08819064
86	0x3c7ee07b	0.01555645
87	0x3bfb4c8e	0.007669038
88	0x3d77ac79	0.060467217
89	0x3d32dc47	0.043667104
90	0x3d59bbb6	0.05315753
91	0x3d25cc67	0.040478136
92	0xbd9ae15c	-0.07562515
93	0xbd3e7f2c	-0.046508
94	0xbd802847	-0.06257682
95	0xbda57555	-0.0807902
96	0xbd9c720f	-0.076389425
97	0xbcad1e2b	-0.02113255
98	0xbd039e76	-0.032133542
99	0xbda1716e	-0.07882963
100	0xbd5d7e22	-0.054075368
101	0x3bf3c7a6	0.0074395714
102	0x3d1fa07e	0.038971417
103	0xbd013383	-0.031543266
104	0x3d5e7f61	0.054320697
105	0x3d81d38b	0.06339177
106	0xbcb1c5a8	-0.021700695
107	0xbd435a2f	-0.047693428
108	0x3d9a8f8f	0.07546913
109	0xbbb83e85	-0.0056226873
110	0xbd3c2390	-0.045932353
111	0x3d5c2b9b	0.053752523
112	0xbd19184e	-0.037376694
113	0x3d26e8a7	0.04074922
114	0xbca1de50	-0.019759327
115	0xbd357863	-0.044304263
116	0x3b71199c	0.0036788946
117	0x3c03383c	0.008009013
118	0xbcefcdd5	-0.029272953
119	0xbd9c898c	-0.076434225
120	0xbd93c3a6	-0.07215051
121	0xbd7624c7	-0.060093667
122	0x3d5322c2	0.05154682
123	0xbcb7cfd0	-0.02243796
124	0x3db1d88f	0.086838834
125	0x3db5394d	0.0884882
126	0x3c41f8bd	0.011839089
127	0x3beca171	0.0072213938
128	0xbd7c79d9	-0.06163964
129	0xbdd86084	-0.10565284
130	0x3d3724c4	0.044712797
131	0xbdc93a07	-0.09825521
132	0xbd2698f5	-0.040673215
133	0x3d5df849	0.05419186
134	0xbd1e59aa	-0.03865973
135	0xbd6a4b7b	-0.05720089
136	0xbd143fd3	-0.03619368
137	0xbce21b17	-0.027600808
138	0x3d305289	0.04304746
139	0xbdacef48	-0.08444077
140	0x3c9f810b	0.019470712
141	0x3d8ecaf7	0.06972306
142	0xbd8c506c	-0.06851277
143	0x3d955dcd	0.07293282
144	0x3cc978d5	0.02459375
145	0x3d9e303f	0.07724046
146	0x3d21713d	0.039414633
147	0xbdc46aca	-0.09590681
148	0x3d414422	0.047184117
149	0xbd72267d	-0.059118737
150	0xbd81a1d7	-0.063296966
151	0x3d02d94b	0.031945508
152	0xbc8dab31	-0.017293544
153	0x3cf6fd63	0.030150121
154	0x3d329d7a	0.043607213
155	0x3c1419ab	0.009039323
156	0x3d40dd3c	0.047085986
157	0x3d8b7644	0.06809667
158	0xbc9d4ad1	-0.019200714
159	0xbcaf2df4	-0.021384217
160	0xbd0f2f38	-0.03495714
161	0xbced5120	-0.028969347
162	0x3d1cacd8	0.038250774
163	0x3d8a3943	0.06749203
164	0xbd1cf734	-0.03832169
165	0x3cb94190	0.02261427
166	0x3d71e70e	0.05905824
167	0xbc99571d	-0.018718297
168	0xbd11cb84	-0.03559448
169	0xbd181905	-0.037133235
170	0x3cee2b28	0.029073313
171	0x3d3740cc	0.04473953
172	0xbd3fd56a	-0.046834387
173	0x3cde2edc	0.027121954
174	0xbd7fcd73	-0.06245179
175	0x3c2325a5	0.009957706
176	0x3dd30c13	0.10305037
177	0x3d8399eb	0.06425842
178	0xbc86d097	-0.016456885
179	0xbd9e36f1	-0.07725323
180	0x3d9103fe	0.070808396
181	0x3cd1f4ef	0.025629489
182	0x3ca3a073	0.01997397
183	0x3dc2aa22	0.095051065
184	0xbdc95a6b	-0.09831699
185	0x3d379959	0.044823978
186	0x3d824b36	0.063620016
187	0x3d2305d6	0.039800487
188	0x3d6e4afe	0.058176987
189	0x3cbf541b	0.023355534
190	0xbbf64e2c	-0.007516643
191	0xbc2d099e	-0.010561375
192	0x3ccc7deb	0.024962386
193	0xbbb53a9e	-0.0055306694
194	0xbd95cfaf	-0.07315003
195	0xbc28b337	-0.010296634
196	0xbd67dc36	-0.056606494
197	0x3cbc5d28	0.02299364
198	0xbc586825	-0.013208424
199	0xbd0ad98b	-0.03389887
200	0x3cf27b48	0.0295998
201	0xbc9a0faf	-0.018806307
202	0x3d837655	0.064190544
203	0x3da6da72	0.08147134
204	0xbd5f1674	-0.054464772
205	0xbc624d53	-0.013812381
206	0xbc298510	-0.010346666
207	0xbce19929	-0.027538853
208	0x3d00e201	0.031465534
209	0xbd34c6d0	-0.044134915
210	0x3da6f662	0.081524625
211	0xbd98aa52	-0.07454361
212	0x3d94fce8	0.072748005
213	0x3d56fda9	0.052488003
214	0x3c7c144f	0.015385701
215	0x3cf092be	0.029366847
216	0x3d190fca	0.037368573
217	0x3d0ecd29	0.034863625
218	0xbcb134ae	-0.021631565
219	0x3cc74c95	0.02432851
220	0x3d4a630a	0.049410857
221	0xbd04c76c	-0.032416746
222	0x3ca41db6	0.020033699
223	0xbda3982f	-0.07988011
224	0x3cdb7d0b	0.026793024
225	0x3c8120a2	0.01576263
226	0x3da28081	0.079346664
227	0xbd9d97e5	-0.07694987
228	0x3ca1412a	0.019684393
229	0x3de385df	0.11109518
230	0xbdbfc328	-0.09363395
231	0x3c4d5bc4	0.012534086
232	0xbd28263e	-0.041052096
233	0x3c259d6d	0.010108334
234	0xbd6e5a43	-0.05819155
235	0x3d2821cd	0.04104786
236	0x3d0daac9	0.0345867
237	0xbcd9c525	-0.026583264
238	0xbd94663f	-0.072460644
239	0x3d9bb007	0.07601934
240	0xbd207c3e	-0.039180987
241	0x3ca6c6df	0.020358501
242	0x3cf8b3df	0.030359207
243	0xbd1f636d	-0.03891318
244	0x3d45a7b6	0.048255645
245	0xbd8a0cb5	-0.06740705
246	0xbd1b55c5	-0.037923593
247	0xbc73e345	-0.014885728
248	0xbd8c256c	-0.06843075
249	0xbc333812	-0.010938661
250	0x3c255406	0.0100908335
251	0x3db9b579	0.09067816
252	0x3dbb779a	0.091536716
253	0xbd70a82d	-0.058754135
254	0xbc9d803a	-0.019226182
255	0x3d2afd59	0.041745517

module_list.1.0.bias f4 [64]
0	0xbd5ae752	-0.05344326
1	0xbc0fe7c4	-0.008783285
2	0xbd9bf2b5	-0.07614652
3	0x3d1e5fe3	0.038665663
4	0xbd080c5b	-0.033214908
5	0xbd092302	-0.03348065
6	0x3da744d7	0.08167427
7	0xbca12ea8	-0.019675568
8	0xbdb62835	-0.08894388
9	0xbcaa2956	-0.020771664
10	0xbd6c042c	-0.057621166
11	0xbce39185	-0.02777935
12	0xbdab447d	-0.083626725
13	0xbd56f51c	-0.05247985
14	0x3ba95270	0.005167298
15	0x3c54d92f	0.012991234
16	0xbbf3b39c	-0.0074371826
17	0xbdc9dc25	-0.09856442
18	0x3d6e3f16	0.058165632
19	0xbcbc7428	-0.023004606
20	0xbd943df3	-0.072383784
21	0x3d8c663e	0.06855439
22	0xbd195ecd	-0.037443925
23	0xbd56a1a6	-0.052400254
24	0x3d759487	0.0599561
25	0x3ca9c27d	0.020722622
26	0xbc9f8b92	-0.019475732
27	0x3a59e6ad	0.00083122664
28	0xbd469c23	-0.048488747
29	0x3d28c4ce	0.041203313
30	0x3c658b3f	0.01401025
31	0xbd5739c8	-0.05254534
32	0xbd65167d	-0.05592965
33	0x3baa4cfe	0.0051971665
34	0x3da2ffdf	0.0795896
35	0x3af78686	0.0018884696
36	0xbbdd9156	-0.00676171
37	0x3d80f1aa	0.06296094
38	0xbd61edd8	-0.055158466
39	0xbd67cedf	-0.056593772
40	0x3d3a0fe6	0.04542532
41	0x3dac9955	0.08427683
42	0xbd833ed4	-0.06408468
43	0xbd43616e	-0.047700338
44	0xbcd9523e	-0.026528474
45	0xba3f2ac3	-0.0007292444
46	0x3d0a4499	0.033756826
47	0x3b919c2d	0.0044436664
48	0x3d5480cc	0.051880643
49	0x3da7237b	0.08161064
50	0x3d89e1e3	0.067325376
51	0x3d6ad0bf	0.057327982
52	0xbda607ff	-0.08106994
53	0x3d7ddb98	0.061977
54	0x3dafe74a	0.08589037
55	0x3ccf6329	0.025315838
56	0x3d9afdae	0.07567917
57	0x3d837f8f	0.06420814
58	0xbd7827b5	-0.060584743
59	0x3d8066bc	0.06269595
60	0x3b86c3e6	0.0041127084
61	0xbdcb6d02	-0.09932901
62	0x3cdcf6ab	0.02697309
63	0xbdb6387e	-0.08897494

module_list.2.weight f4 [1, 64]
0	0xbc172f30	-0.009227559
1	0xbd079a72	-0.033106275
2	0xbe01d880	-0.12680244
3	0xbda3a18f	-0.07989799
4	0x3d6d43e8	0.05792609
5	0x3d865a9b	0.0656025
6	0xbd9ed7f2	-0.07756032
7	0xbd062f2c	-0.03275983
8	0xbdbe74e7	-0.09299641
9	0x3d8f4d45	0.0699716
10	0x3c90c494	0.01767186
11	0x3dd04924	0.101702005
12	0x3d1622ee	0.036654405
13	0x3c043832	0.008070039
14	0x3d527541	0.051381353
15	0xbd3357a6	-0.04378476
16	0xbcc0ee96	-0.023551267
17	0xbdef947c	-0.11698243
18	0xbcd81b9c	-0.026380353
19	0x3c45cf96	0.012073418
20	0x3d18fbbd	0.03734945
21	0x3da7f33d	0.08200691
22	0x3dbfcd23	0.093652986
23	0xbd0ec230	-0.03485316
24	0x3c7d846d	0.015473467
25	0x3d544a3f	0.05182862
26	0x3d51a5a8	0.051183373
27	0xbd17cf0e	-0.037062697
28	0xbd8539ea	-0.06505187
29	0x3de3b2a0	0.111180544
30	0x3dae7686	0.085187
31	0xbdf2a3b6	-0.11847632
32	0x3dcda631	0.10041464
33	0x3d88915f	0.06668352
34	0x3d14516f	0.036210474
35	0x3d0ae3ed	0.033908773
36	0xbac909c6	-0.0015337996
37	0xbcd4b907	-0.025967134
38	0xbdc78788	-0.097426474
39	0xbd8ff851	-0.070297845
40	0xbd44db10	-0.048060477
41	0x3d50fd2b	0.05102269
42	0xbd84a763	-0.06477239
43	0x3db71365	0.08939246
44	0xbc3673e4	-0.011136029
45	0xbc7becfb	-0.015376325
46	0x3d66cad7	0.056345787
47	0xbd4b7ad4	-0.049677685
48	0xbc40135f	-0.011723368
49	0x3da05193	0.07828059
50	0x3d90eca7	0.07076388
51	0x3c764736	0.015031626
52	0xbd9a1a7f	-0.07524585
53	0x3dbaca97	0.09120672
54	0x3d9ec974	0.07753268
55	0xbdcfc002	-0.101440445
56	0xbc8c40dd	-0.017120773
57	0x3d905450	0.07047331
58	0x3d3579bc	0.044305548
59	0xbde90a4b	-0.11378916
60	0xbc8acb31	-0.016942592
61	0x392916af	0.00016125546
62	0x3d7bbf6f	0.061461862
63	0x3d3f7542	0.046742685
